experiments/pedestrians/models/eth_attention_radius_3/model_registrar-100.pt (torch_old, 545361 bytes, 43 tensors)

weight_ih_l0 f4 [128, 6]
00000000: 6631 ecbc cdda 36bd 35ef bbbd 1e57 92bd
00000010: 432f c3bd fe27 923d 7f06 6ebe 08bc c5be
00000020: d518 03be 9916 163f e2e1 933d 3d2a d43c
00000030: 3d28 c23d a066 ee3d 8a46 28be 4d67 21be
00000040: b7a7 2fbe 39d9 193d b2bf 9e3d 66aa 0b3e
00000050: 7313 a43c 3048 bc3b b0d2 83be f1af 843d
00000060: c594 463c 411a 44be e6d6 adbd ebae fd3e
00000070: c745 ddbd fe07 b5bb dc64 903e 992a b9bd
00000080: b7bc e2bd e10c 573e 9e2b 0a3e 6e65 25be
00000090: 0660 b0be 4e39 33be db92 ef3c ad1e be3d
000000a0: 2799 bbbe 8a8e 92be cb00 6a3b b84a 473e
000000b0: d9d1 b53d c7b2 17bd 6459 51be 0c6b 883e
000000c0: 0cb6 ce3e 2a6e ecbd e52d a13d cf5c 253e
000000d0: 13fe a8be 89ad 68be 61f3 83be 60fa 80be
000000e0: 2174 293e 5d70 723e 533d 9cbd 2a8a e0bd
000000f0: ac7e c13e efad 80be 9ec9 03bf bcb0 883e
00000100: f721 403c a5fc 123e dd41 02be 716a debd
00000110: 255c 0f3d 7715 513e 5b4d e53d 0422 1c3e
00000120: 0e6a 88be fa3d 31be 1c9c 033e a9dd f6bc
00000130: b27e 3bbd 23da 50be f5b8 b63c cd10 5b3e
00000140: b32f c83b 87c5 75bd 636f ebbc 7f5b 7c3e
00000150: a74f 96be b90a 3a3c b183 78be 3ee3 7f3d
00000160: 155a 053f 9a0f e9bc d8f9 4abe c72f a73e
00000170: 4b58 863e 12dd 13be e285 cfbd 39ae 193e
00000180: 96b4 f5bd 37ee c63e 9c34 853e 5479 c6bd
00000190: ad0d 61bd 8a38 40bf 61f6 183d 09a6 50be
000001a0: dd8e 1dbc b489 42bd f878 ff3d ee57 eb3c
000001b0: 581e 4d3d 3b18 bdbc 21f1 273e b3b3 15be
000001c0: 2aa1 503e f790 8b3e 4630 3fbe 536c f6bd
000001d0: 68f3 5c3d ce53 8d3e 33aa 9f3d 808c 113e
000001e0: e113 b5be ab4b 883e b5c3 e83d 6230 99be
000001f0: 9372 4cbe a185 1c3e c97d df3e d2c6 003f
00000200: 35ac 2abf 7311 a4be f361 383e ffac 9f3e
00000210: 47ac aabd 04f8 18be ea90 233e 46c5 3e3e
00000220: 8f04 26be 8dc3 073c f484 1cbc 0f31 9bbd
00000230: 565f a33d 6c5c e4bd 0e68 ee3d 90f9 25be
00000240: 698f 96bd 7203 86be 7f33 c7bd 20ca 193e
00000250: 44a9 f4be 0b58 7ebe 42ac bb3c 8427 723d
00000260: c8ab 1bbe 0d6c 993d 551d 833d a714 e43d
00000270: f96c 7fbd 2a1c 94be 9ea2 84be 14eb 563e
00000280: 4d88 2f3e 0549 c03d 184c ddbc 091c 0f3e
00000290: 8ee8 b73e 71f3 9b3e 904a e53b a7ab 5a3e
000002a0: ba31 2fbe de6d 823e 5a62 8c3c 821f ecbb
000002b0: d7de 70bd ffce 903c d123 0ebe ea40 33be
000002c0: 5f57 3ebe fc70 d93c 6b5d 8e3b 5851 2f3e
000002d0: 8f85 14be 5db3 4dbe 2594 813e 9845 3e3e
000002e0: 82c0 24be 36d2 0fbe 8909 3cbd ef58 353e
000002f0: 9d26 b83e f0ac 97be bad1 04bf d736 82bd
00000300: 9df2 9f3e 74d5 c73d 3216 0abe 6b97 b2bd
00000310: 115f b9bd f884 59be c5f9 7b3e 8d01 06be
00000320: c0c2 c53d 4b4a 85bd c757 b3bc 1b7f cc3c
00000330: 5005 983c aeec c93d 546f 54bd e166 7abb
00000340: ae50 f0bc 2fea 02be eb45 b1bd 9213 663c
00000350: 88ae 9a3d 8eda cabd e612 bebc 577e e7be
00000360: 12ca d73d 66c4 3dbe a635 5c3d 2529 af3e
00000370: 7545 90be b2b4 81be f05b 6c3e 1413 dbbd
00000380: bfdd 6a3b 2a7a 9fbd dfc2 93be a33f e43d
00000390: 3d5f 2cbe c3b8 8abb 9806 473d 8901 a43c
000003a0: 7d16 1c3e 8103 bcbd 88a8 debc cd9f c3bd
000003b0: b38a 393e da3b b93d 2734 36bd 5f20 cd3d
000003c0: acef 353e b26a 7fbe 3b43 443d d9be 873d
000003d0: 59dd 92be 9c5a 993e 7775 03be 7bda 2fbd
000003e0: e900 6f3e 73af 8b3e 0914 d53d 0b49 c23d
000003f0: 0e30 073e 2a71 20be 4365 46be 297d 413e
-0.028832149 -0.04464226 -0.091764845 -0.071455225 -0.09530499 0.07136534 -0.23244666 -0.3862002
-0.12802441 0.5862823 0.07220818 0.025899047 0.09480331 0.11640668 -0.16433159 -0.15762062
-0.17153822 0.037560675 0.07751407 0.1363922 0.020028805 0.00574591 -0.2574668 0.06478871
0.01212043 -0.1915064 -0.08488254 0.49547514 -0.108043246 -0.0055246344 0.2820195 -0.09041328
-0.11071151 0.21001007 0.13493201 -0.16151974 -0.3444826 -0.17502329 0.02924483 0.09283195
-0.36640283 -0.28624374 0.003570604 0.19462097 0.08877916 -0.03703573 -0.20444256 0.2664417
0.40373266 -0.115444496 0.07870082 0.16148685 -0.33006343 -0.22722448 -0.2577162 -0.2519102
0.16548206 0.23675676 -0.07628884 -0.10963853 0.37791955 -0.251327 -0.5147952 0.26697338
0.011726848 0.14354189 -0.12720437 -0.10860146 0.034999985 0.20418344 0.11196395 0.15247351
-0.26643413 -0.17308798 0.1285252 -0.030134993 -0.045775123 -0.20395713 0.022304991 0.21393128
0.006109202 -0.06000283 -0.028739637 0.24644278 -0.29357645 0.011355096 -0.24268986 0.062472574
0.5209058 -0.028449822 -0.1982187 0.3265364 0.26239237 -0.144398 -0.10132958 0.15007867
-0.11997335 0.38853619 0.260167 -0.0969111 -0.054944683 -0.7508627 0.03734434 -0.20375837
-0.009616581 -0.047494605 0.12474245 0.028728452 0.050077766 -0.023082843 0.16400577 -0.14619331
0.20373979 0.27259037 -0.18670759 -0.1203238 0.053943068 0.27603 0.07796135 0.14213753
-0.3536673 0.2662023 0.11365453 -0.29919726 -0.19965582 0.1528535 0.43650654 0.50303376
-0.6666902 -0.32044563 0.18006115 0.31186673 -0.083336405 -0.1493836 0.15973249 0.18629941
-0.16212676 0.008286369 -0.009553183 -0.075777166 0.07977168 -0.111504406 0.116409406 -0.16208482
-0.07351572 -0.26174504 -0.09726619 0.15018511 -0.4778539 -0.24838273 0.022909287 0.059119716
-0.15202248 0.07491312 0.06402079 0.111367516 -0.062359784 -0.28927737 -0.25905317 0.20988113
0.17141838 0.09388927 -0.027013823 0.13975538 0.35919613 0.3045917 0.006997414 0.21354543
-0.17108813 0.25474447 0.017136741 -0.0072059045 -0.058806267 0.017676828 -0.1388085 -0.17505231
-0.18588017 0.026543133 0.0043446324 0.17120874 -0.14504074 -0.20087953 0.25308338 0.18581235
-0.16089061 -0.14045033 -0.04590753 0.17709707 0.3596696 -0.29624128 -0.5188252 -0.06358116
0.31239787 0.0975751 -0.1348503 -0.08720287 -0.090513356 -0.2124213 0.24606998 -0.13086529
0.09656286 -0.06508311 -0.021892441 0.024962952 0.01855722 0.09859596 -0.051863983 -0.0038208293
-0.029335346 -0.12784646 -0.08655914 0.014042752 0.075528204 -0.09904967 -0.02320237 -0.45213577
0.10536589 -0.18531951 0.0537621 0.34211078 -0.28177992 -0.25333172 0.23081946 -0.10696998
0.0035837737 -0.07786973 -0.28859612 0.1114495 -0.16833206 -0.004233451 0.048590273 0.020020263
0.15242954 -0.09180356 -0.027179971 -0.09551964 0.18119316 0.09044619 -0.04448333 0.1001594
0.17767209 -0.24943045 0.04791568 0.06628198 -0.286845 0.29951942 -0.12837778 -0.04293297
0.23340191 0.27282295 0.10404212 0.09486588 0.13201925 -0.15668169 -0.19374566 0.18895401

weight_hh_l0 f4 [128, 32]
00000000: 3249 20be 213d b6be 2371 053e 8fe1 d83d
00000010: bc85 333e 311b 3d3e 50cf 35be aa8f aabd
00000020: 2ee4 453e 7ba5 d43e 94b3 6ebe 0d52 ec3e
00000030: 1f72 65be b2a1 723d 8eed 3dbe 0fae 2c3e
00000040: 9116 40be 2ca0 1f3c f5b1 7a3e d5ae eabe
00000050: c47a 52be 2e87 0e3e aeee 06be 945c a5be
00000060: c9fd 2c3e 7d8a 5cbe d7c2 7d3e d5de 703c
00000070: e7ed b9be f934 353e 1c3a 823d fc09 f9bd
00000080: 1e54 b73d 5580 2abe 623c 8f3e 6fa6 033e
00000090: f052 d93d c25f 903e 45d7 09bd 7ea8 83be
000000a0: fc1d 9b3e b4cd bd3d d3b5 60be 0621 77bc
000000b0: 1528 93be 866f 183e 311b 133e 4da2 2cbd
000000c0: b7ac 373d 47ed 613e 5cf9 15be 4f82 85bd
000000d0: b7c8 f6bd 6810 7a3e 049a 91be 092f f2bd
000000e0: 25d9 423d acc4 0ebe 8e63 9dbd 2477 73be
000000f0: f01e c1bd 1bc4 013e 4ac5 563e 1d7e 83bd
00000100: ecdd cf3d aa65 0fbe fad1 a2bd 5cdc b03d
00000110: 2a8a 323e b71b e23d 1b1f 64be d656 54be
00000120: e652 b2bd 9d52 393e 2230 6cbe 3fd5 183e
00000130: 5d0a ad3d cfbc 01be ebf0 1c3e e163 87be
00000140: e5b6 debc d87a 29bd c48c 253e 0e69 50bc
00000150: dfed 8e3d 6a5f 523c b566 ae3c 1eaf c13d
00000160: cfc7 cb3e 888a 083e 52df ca3d 8f58 dd3d
00000170: edb5 913d 4599 393e bc44 00be dec2 e03d
00000180: cb05 a2bc ef26 15be 8da2 883e 8429 a03e
00000190: cbc0 59be 5a9f 983d f424 a8be 0778 8d3d
000001a0: 57e2 31bd 9534 443e 9f19 bdbe 9216 ad3d
000001b0: 13cc 45be b4cc 70be fb0f e2be c483 4abc
000001c0: 70d3 c8be 29df 503e 6863 683e 5ee3 d1be
000001d0: face efbc daf5 df3e 86a7 ca3d de90 82be
000001e0: 8247 363e b878 37be c630 3d3d 9832 03be
000001f0: 88f2 f2be 1c30 b83e dfa9 063e daf1 923d
00000200: 0b38 56be f34e 0cbf d359 d53e 28c7 95be
00000210: 143e 913e f598 2d3e 37e8 99bc f55e 82bd
00000220: 6e46 413f 0fe7 10bd c4c5 aabe 95f5 d43d
00000230: 43c3 e7bc c259 90bd c270 6cbf 9b92 0c3e
00000240: 04ff 03bf af82 173c 7580 893f 9c69 7abf
00000250: 16bd 47bd 99fb 483f d097 62bd 0783 9fbe
00000260: 8ab5 68be 1fba 0abf da2b bf3e dfc4 89bf
00000270: 3b4d 8ebf 243e 7bbd e7cf a33e c77a 9a3e
00000280: 1af5 ccbd 8e59 73bd 9417 063d 5dea 94be
00000290: 79d1 943d 0a7f 273e 2d10 0ebd c9ec d2bd
000002a0: eafe 2d3d 73d0 c03e bd97 72bd 7f46 423d
000002b0: 4730 5abe 9cf5 a03d 035b c4bd 1fa4 19be
000002c0: 04a1 423d 294e 0d3e ad55 86be 7e2b 5d3c
000002d0: 1faa 6b3d 69ba 793c 3cbe 39be 00e5 18bc
000002e0: 60ce 03be f8fe 57be 3024 983e 449d c63d
000002f0: 6028 373c fbb8 4b3e 03bb 813e c64f b9bd
00000300: 101c 403c 3da2 5d3a 4e4d 8abd 0672 283e
00000310: c1fa fc3c f71d 323d 5ba5 a5bd 2be0 44be
00000320: 6005 02be b2ba ec3d 4a7f 39be e08b e43d
00000330: 50f5 2d3c 0e30 c63d dc27 333d 923e 383e
00000340: 4202 88bd 7788 6abd 4c0a c43c e250 44be
00000350: ec17 8ebd 7a64 c43e b21e 0c3e f565 cfbd
00000360: edb4 d1bd dada 0f3d f391 243e a39c 8c3d
00000370: 7c52 94be 5e9e 853e 59aa 45be 9587 ed3d
00000380: d0ee 0e3e 0d03 a2be 26ee cb3c 445a 9a3b
00000390: 02fd 6b3c eeb6 453e 5bbf e43d a3f6 cfbd
000003a0: 1c85 3c3e 2ebb 03be b31b 2fbe 49ac d3bd
000003b0: 4c1b 663e d6ba 153e 1213 993c 9e98 393c
000003c0: 87f5 5d3d 26be 20be 17b0 353e 2c20 56be
000003d0: 5819 afbe ea79 763e 698b c03d d21d 7bbe
000003e0: ce6a 1abd 3da9 613d 62db 1c3e cbfc 84bd
000003f0: 3daa 09be 3cbd 3dbd dd39 d4ba 4dda 253e
-0.15652922 -0.35593513 0.1303144 0.10589897 0.17531484 0.18467404 -0.17754865 -0.08328183
0.19325325 0.41532502 -0.23310691 0.4615635 -0.22406815 0.059236236 -0.18547651 0.16863273
-0.18758608 0.009742778 0.24481948 -0.4583651 -0.20554644 0.13918754 -0.13176987 -0.32297194
0.16893686 -0.21537204 0.24781357 0.014701565 -0.36314318 0.17695989 0.0635874 -0.121601075
0.08951591 -0.16650517 0.27975756 0.12856458 0.10611522 0.28198057 -0.033652563 -0.25714487
0.30296314 0.092677504 -0.2194436 -0.015083557 -0.28741518 0.14886293 0.14365841 -0.04214697
0.044842448 0.2206317 -0.14645904 -0.06518995 -0.12050002 0.24420321 -0.28437817 -0.118253775
0.047570366 -0.13942212 -0.07685004 -0.23775917 -0.09429729 0.12672465 0.20973697 -0.064205386
0.1014975 -0.14003626 -0.07950206 0.0863578 0.17435518 0.110404424 -0.22277491 -0.2073625
-0.08707218 0.1809792 -0.23065236 0.14925097 0.08449242 -0.12669681 0.15326278 -0.2644339
-0.02718682 -0.04137692 0.16166979 -0.0127203595 0.06978964 0.012840131 0.021289209 0.09457229
0.3980088 0.13334095 0.09905876 0.10807907 0.07114778 0.18124874 -0.1252622 0.10974668
-0.019778153 -0.14565633 0.26686516 0.31281674 -0.21264951 0.07452269 -0.32840693 0.06907659
-0.043428745 0.19160683 -0.3693361 0.084515706 -0.1931613 -0.23515588 -0.44152817 -0.012360517
-0.39223814 0.20397629 0.2269417 -0.4099378 -0.029273499 0.43742257 0.09895234 -0.2550115
0.17800716 -0.17917144 0.046189092 -0.12812269 -0.47450662 0.35974205 0.13150738 0.07175036
-0.20919816 -0.54807967 0.41670093 -0.29253507 0.28367674 0.1695288 -0.018787486 -0.06365768
0.7549809 -0.035376605 -0.33354008 0.103984036 -0.02829135 -0.0704837 -0.92359555 0.137278
-0.51561 0.009247466 1.0742327 -0.978174 -0.04876431 0.7850891 -0.05532056 -0.31154653
-0.22725502 -0.5419025 0.37338144 -1.0763205 -1.1117319 -0.06133856 0.31994554 0.30171797
-0.10007687 -0.059411578 0.03273733 -0.29085055 0.07266516 0.16357055 -0.034683395 -0.102990694
0.042479433 0.37659034 -0.05922674 0.04743051 -0.21307479 0.07859346 -0.095876716 -0.15004013
0.047516838 0.13799347 -0.2623724 0.013499139 0.057535287 0.015242198 -0.18138975 -0.009331942
-0.12871695 -0.21093357 0.2971511 0.09697965 0.01117906 0.19894783 0.2533799 -0.09048419
0.011725441 0.00084546563 -0.06753026 0.16449746 0.030881288 0.043485608 -0.0808818 -0.19226138
-0.12697363 0.11559047 -0.18114963 0.111594915 0.010617569 0.096771345 0.043739185 0.17992619
-0.06641056 -0.05725905 0.023930691 -0.1917148 -0.069381565 0.38357908 0.13683584 -0.10126869
-0.10239587 0.035120822 0.160713 0.068658136 -0.2896918 0.26097387 -0.19303264 0.11598126
0.13958287 -0.31642953 0.024893831 0.0047104675 0.0144035835 0.19308063 0.11169311 -0.10154464
0.18410152 -0.12864372 -0.1710041 -0.10335595 0.2247135 0.14622054 0.018685851 0.011327891
0.05418923 -0.15697536 0.17742954 -0.2091071 -0.34199023 0.24069944 0.094015904 -0.24523094
-0.037699513 0.05509304 0.15318063 -0.06493529 -0.13443847 -0.046323046 -0.0016191561 0.16196556

bias_ih_l0 f4 [128]
00000000: 2074 193d 415e a23e 3061 033e 8163 493e
00000010: 56d7 cf3e 64ce 883e 9fe1 8e3e b6f9 4e3e
00000020: aac7 d83d 24f6 5d3e 3a2c d43e 043c 973e
00000030: d601 083f d115 e33e 53df 423e f4d9 a73e
00000040: 67d5 883d 7ff8 a43e 2b41 503d eaf9 423e
00000050: 9977 223f 5d41 403e b77c 0a3f 020a 0b3d
00000060: 4204 ed3e 7513 093e 406f 173d 2dca e43d
00000070: 5364 ab3c 306e da3e 3e13 d13e 8bc9 3c3e
00000080: 6368 4a3d 9f5e dabe 973b a8be 0cad 90bd
00000090: 7d2b 31bf c6cf 0bbe 2e6c f7be 370c cebe
000000a0: 1188 1abe dca0 7dbd 5bbd 37be b76f d4bc
000000b0: fcc8 0abf aff6 e7be d3b0 0dbd 9cba 29bf
000000c0: 711a 29bc 49ae 48be 589e b3bc 6b16 d43d
000000d0: 321f 27bf 9847 5abe 4e14 abbe fdf5 b5bd
000000e0: 13f3 90be 56f0 b83d 1c42 033d 0d90 0c3e
000000f0: bbb7 f0bc 58ae 2fbf dc47 0abf 69e9 a6be
00000100: e8cb 023e 9433 b83d c67b 73bd 4e64 9c3c
00000110: cd4c d7bd a1e4 fc3b fca9 d23d fced 4dbd
00000120: 86ae 3bbc 2ba3 a13d 9a57 99bd c7c7 ba3c
00000130: 7f5d e2bd 6688 35bd ea0c d4bd 5bac c4bd
00000140: 67df cebd 7611 bbbd 0796 573e b970 2bbd
00000150: 0108 753d 5cf8 bb3d d959 c23d 051f 0cbe
00000160: c901 013e d2d0 e3bd 172b 483d d6d7 6fbe
00000170: 136e 4ebe 2e1e fb3d 7f80 023d 64b6 88bd
00000180: 48a3 793e e901 9c3e bc73 1f3e 0e16 8a3e
00000190: 37ce e83e c408 5d3e de90 a13e 7aa9 6b3e
000001a0: 657e 0bbc c26c 7f3e 3e28 433e 300f 7f3e
000001b0: 91a2 f43e b41f e23e d496 573e 9643 ec3e
000001c0: e931 6a3e 20a5 6f3e f876 0d3e 9723 913d
000001d0: 1566 373f 0e51 5b3e 45a4 fe3e 3262 c23d
000001e0: 929d 4d3e be2f 4d3e 58d8 653e 88a0 3b3d
000001f0: 23f5 1b3e b56e 1f3f 5af3 ee3e 8319 f93d
0.03746426 0.31712535 0.12830043 0.19666864 0.40593976 0.26719964 0.2790651 0.20212445
0.10584958 0.21675926 0.41439992 0.29537976 0.531278 0.44352582 0.19030504 0.32783473
0.06681328 0.32220837 0.0508434 0.19040647 0.6346374 0.18774934 0.5409655 0.03394509
0.4629231 0.13386329 0.03697133 0.111713745 0.020921862 0.4266219 0.40834993 0.18436258
0.049415957 -0.42650315 -0.32857963 -0.07064256 -0.6920698 -0.13653478 -0.48324722 -0.40243694
-0.15090968 -0.061920986 -0.17943327 -0.025932176 -0.5421293 -0.45305392 -0.03459246 -0.6630037
-0.0103212455 -0.19597735 -0.02192609 0.103558384 -0.65281975 -0.21316373 -0.3341393 -0.08884809
-0.2831045 0.090302154 0.03204547 0.13726826 -0.029384485 -0.686254 -0.540159 -0.32599953
0.12773097 0.08994213 -0.05944421 0.019090798 -0.105126955 0.0077176844 0.10286328 -0.050275788
-0.011455184 0.0789245 -0.07487412 0.02280034 -0.11052989 -0.044319533 -0.10354026 -0.09603187
-0.10101204 -0.0913419 0.21053325 -0.041855548 0.059822086 0.0917823 0.09489793 -0.13683708
0.12598337 -0.11123814 0.04886922 -0.23422179 -0.20159177 0.12261616 0.031860825 -0.06675413
0.24378693 0.30470207 0.15571493 0.2696995 0.4546983 0.21585375 0.31555837 0.23013869
-0.0085140215 0.24943832 0.1905832 0.24908137 0.47780278 0.44164813 0.2105363 0.46145314
0.22870602 0.23402834 0.13814914 0.07086866 0.7164014 0.21417639 0.49734703 0.094913855
0.2007964 0.20037743 0.2244581 0.04580739 0.15230231 0.622783 0.46670038 0.12163069

bias_hh_l0 f4 [128]
00000000: 4fab dfbb 4714 a93e 77e6 b3bb 855f b73e
00000010: 47ba 0c3f 01df be3c 70ac 353e b566 c23e
00000020: 2392 433e 6f68 c33e 9ebc 213e dca4 2e3e
00000030: 2102 963e 04e0 3c3f d168 6c3e a5fc f93e
00000040: 9818 a5bc 5729 a13e bfb1 37bd efa2 153e
00000050: cc45 483f bba7 bc3e 2eca 113f 7c33 c93d
00000060: e1aa ba3e 452b f33d 745b e23d a7eb a43c
00000070: 9fa4 78bd 94a5 d53e 55ab f43e cd2e 703e
00000080: 1d26 21bd 0a03 cdbe 5f24 babd edb6 8dbe
00000090: 0275 c4be 9e85 d73c 9642 afbe 4019 0cbf
000000a0: a8ca 9fbd 1bf5 f1bd cb59 24be 8a6c b2bd
000000b0: 507f 0bbf c5ea 21bf 4726 923d 74e6 1cbf
000000c0: 3681 10be 121e 87be 6497 d23b 8d2f 9fbd
000000d0: 2c48 02bf ba7d c0be d9a4 0ebf 8e47 efbd
000000e0: 302f f9be 1b91 5fbe d1ce 62be 6dd3 9c3d
000000f0: c4f3 6bbd cc98 e7be 69ef d0be 4d97 c9bc
00000100: bc42 1fbe fd1e 37be 9594 e23d 15ab 15bd
00000110: a92b 1b3e c5ff 233d 498e aabd 09d9 5dbb
00000120: f9ea 043e bbbe 70bc eeeb 583d a839 243d
00000130: 6abc 8f3d c63e b53c f797 39be 65ba 4d3d
00000140: 2b3c 04bc 91ac 1a3e 6a3e 0b3e e07a 2cbe
00000150: 2ff8 c6bd 2a53 003d b343 18be 86d2 e33d
00000160: c36d e6bd d068 b7bb 4152 543d 5c7b f4bd
00000170: 44b3 42be dcc5 1fbe 1e97 ef3b 0e8b 183d
00000180: 6ed6 033e 25c8 e03e bbf8 c9b9 7778 fe3e
00000190: dda5 0d3f 9436 f43d 839e 033f 7e6d 0a3f
000001a0: 3f08 80bd e827 8b3e f81b dd3e bfe5 a63e
000001b0: 03dd fa3e 3e84 223f 1f85 053e 584a f03e
000001c0: a521 7d3e 1524 c73d 3215 793e df88 57bd
000001d0: 6af0 2d3f c87f cf3e e12c 263f 8cf6 683e
000001e0: dff9 c63e 2540 343e 8d80 8d3e 4409 553d
000001f0: 691b bc3c 8503 1e3f b4c8 fc3e 900d a53e
-0.0068258415 0.33023283 -0.00549012 0.35815063 0.54971737 0.023299696 0.17741561 0.37968984
0.19098715 0.38165614 0.15794608 0.17055076 0.292985 0.7377932 0.2308686 0.48825565
-0.020153329 0.31476852 -0.044847246 0.14612935 0.782315 0.36846718 0.56949127 0.09824273
0.36458495 0.118734874 0.110525995 0.020131899 -0.06070387 0.4172789 0.47786966 0.23455353
-0.03934299 -0.4004138 -0.090889685 -0.27678624 -0.3837052 0.02630883 -0.3423049 -0.5472603
-0.078023255 -0.11814328 -0.16049878 -0.087121084 -0.5449114 -0.63248855 0.07136207 -0.61289144
-0.1411179 -0.2639013 0.0064267386 -0.077727415 -0.50891376 -0.37595922 -0.5572029 -0.1168357
-0.48668814 -0.21832697 -0.22149207 0.07657514 -0.05760552 -0.45233762 -0.40807655 -0.024608279
-0.15552801 -0.17882915 0.11063496 -0.03654011 0.15153374 0.040038843 -0.0832792 -0.0033851287
0.1298026 -0.014693911 0.052959375 0.040094048 0.07018359 0.02212466 -0.18124376 0.050226588
-0.008070986 0.15104891 0.13598028 -0.16843748 -0.09715306 0.03132931 -0.14869575 0.111241385
-0.11251404 -0.0055972114 0.051836256 -0.119375914 -0.19013697 -0.15602821 0.0073117157 0.037241988
0.12874767 0.43902698 -0.00038523026 0.49701282 0.5533121 0.119244725 0.51413745 0.5407332
-0.06251573 0.27178884 0.431854 0.32597157 0.48996744 0.63483036 0.13039063 0.4693172
0.24719866 0.09723679 0.24324492 -0.052620765 0.6794497 0.40527177 0.6491223 0.227503
0.38862512 0.17602594 0.2763714 0.05201079 0.022962289 0.6172412 0.49371874 0.3223691

weight_ih_l0 f4 [128, 2]
00000000: c307 133e 57db 973d b618 74bd 622e 283d
00000010: 7215 cb3c c76d 2ebd afc5 a8bd 591e 4ebd
00000020: 49f6 9b3c f79d f6bd 4140 be3d 8502 0a3d
00000030: 1ecc 60bd 5e35 9fbd d6a0 8abc 4588 cf3c
00000040: 03e8 c03a 3687 0cbb e911 393d fd5b 4f3d
00000050: 4b93 4e3d 096c ec3d 3de2 d9bb 5b55 8dbd
00000060: 4107 b3bd c892 923d 825a 7a3d 2817 bbbb
00000070: 3b8d 6cbe 2cda 84bc 180a 8cbd 237b b93d
00000080: 3db9 ea3d ca77 b03c 6afe f9bd c3f2 453d
00000090: 1ea6 8a3d 4eed 563d 384b c6bd e23e 3bbd
000000a0: f36b 4bbc 46a9 febc d5f0 c6bd cb22 dc3d
000000b0: 4aaa 45bd 1477 0e3d aa79 60be 8efc 1e3d
000000c0: bd4a 3e3e 34f5 b43c 840c 11be 8e0f 83bc
000000d0: 3235 81bd 7ca9 ca3c 0267 d2bd 7fc5 d33d
000000e0: 722d f4bc ac08 de3d 0aa1 babb c644 7c3d
000000f0: 9054 773e ade5 b63d 3f4a acbd 5dfa 00be
00000100: 6c72 c8bd 2f90 9abd 5de9 28bd 5e3d 24be
00000110: 4a87 303e 4510 14be 427d c13d 1bc1 623d
00000120: f559 b13e b46d 81be 23d0 dcba 6ceb 07bd
00000130: 9c20 10be 87d1 863e 8526 813e f82e 0e3d
00000140: b16e bebd 863d 5d3c a1d9 863e ed08 65bd
00000150: 456d 2b3e dfc9 883c ccfd eebd 2a90 053e
00000160: b3b3 16bc f87b 163e 6e36 3bbe 35a9 c63d
00000170: 6511 db3d 3d51 373e 7b98 233e b536 b13d
00000180: ea55 163e 2244 78bd c9f8 80be 28b8 02be
00000190: cdb2 f6bb 5808 993e c148 d4be bc10 0dbe
000001a0: f076 a3be 3667 51be 2dd2 f73d 1321 bdbd
000001b0: 3440 ae3d 9ab8 ff3d bc4e 26be decc e8bd
000001c0: 91ad 943d 0ee1 89bc 0b69 a1bc 3976 2abe
000001d0: 294e debd 7ce2 93bc 791a d7bd d111 afbd
000001e0: 2c50 313e 1591 c4bd b649 0c3d 330a 373e
000001f0: bc9d ae3e 44e1 5b3d cc28 f3bd c786 59be
00000200: 4210 d03d 64d2 b93d 8c67 1fbc ca6a 27be
00000210: 71dd 0abe c2bd f5bd 4874 9ebd f9ed 25be
00000220: 2184 15bd 4184 533d ef98 b33e 94ac 0ebd
00000230: 8ea1 213e 035e c7bd 8362 f83e c649 f83c
00000240: eace c33e db42 093e 5a56 30be 468a 7c3e
00000250: fdf6 7d3e 7aa7 1f3e 04ee 22be c367 da3d
00000260: a75e 5cbe 4b18 b3bd 38f1 183f 3073 833c
00000270: cfa7 85bd 3eed 5abe ef50 6d3d cfe6 6d3e
00000280: fd58 163e cba6 99bc cc31 b4be b776 263d
00000290: 3343 353e 9b04 413e 0e79 5b3e 3898 bb3d
000002a0: a1ac 1fbe 1880 8bbd 64ec b9bd 184d 953c
000002b0: 3239 a63c 36b9 09be afce f03e ca73 be3d
000002c0: 6ec9 bb3e 2149 cf3d 301e 823d dc4f 843e
000002d0: eba0 afbe ce35 1cbd 78a5 f53d ad79 94bd
000002e0: 185c 013f 5f16 bd3d d284 d93d 5817 933e
000002f0: 6998 a63e 276d 853d 1e78 ea3b ac57 85bd
00000300: a355 08be 77f5 a9bc a099 633d c139 b43d
00000310: bd44 583e f4b6 59be 4991 b43d df13 13bc
00000320: f2f2 dcbc bd12 91be d358 15bd 29ca 64bd
00000330: bdc3 60bc 9a0c 923d 759d a4bb b63d 8cbc
00000340: dc1f 37bd df93 f93d 5e43 af3d f1ae 3abe
00000350: 0c31 923e e292 b93d ab20 30bd 6f30 003d
00000360: 2043 403e 985c e93d d80d 8dbe f513 173e
00000370: 90ab 803c 363c 8a3e c85f 603d e6cc 2b3e
00000380: f0e7 54bd 7bba 6f3c 7c14 c4be f057 4fbe
00000390: eb15 5fbd 92df 433d 8a30 f13c 1aa0 083d
000003a0: 5745 49be 517a 3bbd 514f bfbd 3d2b dcbc
000003b0: 2f21 ae3d f11a c93d 8ccc a4be abca 78bd
000003c0: f899 be3e b105 3f3e 6796 fdbd 2be5 28be
000003d0: 84c8 efbd 054c 8ebd bdb7 86bc 2cd9 553e
000003e0: 2918 a33d 5943 223b fe42 d23c 6f5b 2d3d
000003f0: 7398 603e fc2e 283e ccd2 ccbd b2f6 83be
0.1435843 0.07414883 -0.05959388 0.04105986 0.0247905 -0.04258516 -0.0824083 -0.05032191
0.019038336 -0.12041848 0.09289599 0.03369381 -0.05488216 -0.07773851 -0.016922396 0.025333533
0.0014717582 -0.0021442897 0.045183096 0.050624836 0.05043344 0.115440436 -0.006649284 -0.06901046
-0.08741618 0.071569026 0.06112147 -0.0057095475 -0.2310075 -0.016217314 -0.06837863 0.090566896
0.11461113 0.021541495 -0.12206729 0.04832722 0.067699656 0.052472405 -0.096823156 -0.045714267
-0.012415874 -0.031086575 -0.09713904 0.10748824 -0.048258103 0.03478153 -0.21921411 0.038815074
0.18583198 0.022089578 -0.1416493 -0.015998628 -0.06308974 0.02473902 -0.102735534 0.10340404
-0.029806826 0.10841498 -0.005695467 0.061589025 0.24153352 0.08930526 -0.08412599 -0.12595506
-0.09787449 -0.07547032 -0.041238178 -0.16039035 0.17239109 -0.14459331 0.09447719 0.05535994
0.34638944 -0.2527901 -0.0016846698 -0.0331835 -0.1407494 0.26331732 0.252247 0.03471276
-0.092984565 0.013503438 0.26337913 -0.055916715 0.16740902 0.016697822 -0.11669502 0.13043275
-0.009198117 0.14695728 -0.18282482 0.097002424 0.10696677 0.17902084 0.15976135 0.08653013
0.14681211 -0.06061185 -0.25189808 -0.12765563 -0.007528639 0.29889178 -0.41461757 -0.13775915
-0.3192668 -0.20449528 0.12100635 -0.09234824 0.085083395 0.12486382 -0.16240972 -0.113672
0.07259668 -0.016830947 -0.019703409 -0.16646661 -0.108547516 -0.018052332 -0.10503096 -0.0854832
0.1731574 -0.09597985 0.034249984 0.17874984 0.34104717 0.053681627 -0.11873016 -0.2124282
0.10159351 0.09073332 -0.009729277 -0.1634933 -0.13561036 -0.11999084 -0.07737023 -0.1620406
-0.03650296 0.0516398 0.35077617 -0.034832552 0.15784284 -0.09734728 0.48512658 0.030308615
0.382438 0.1340441 -0.1722044 0.24662122 0.2480125 0.15591231 -0.15911108 0.10664322
-0.21520482 -0.08744868 0.5974307 0.016046137 -0.065261476 -0.21379563 0.057938512 0.23232578
0.14682384 -0.01875629 -0.35194242 0.04064056 0.17701416 0.18849413 0.21432897 0.09159893
-0.15593196 -0.06811541 -0.09078291 0.018225238 0.020290945 -0.13449559 0.47032687 0.09299429
0.36677116 0.1012137 0.06353414 0.25842178 -0.34302458 -0.03813725 0.11994451 -0.0724977
0.5053115 0.092327826 0.106210366 0.28728747 0.32538155 0.0651496 0.0071554324 -0.06510863
-0.13313918 -0.02074693 0.05556643 0.08800078 0.21119972 -0.21261197 0.088167734 -0.008976906
-0.026971314 -0.2833461 -0.036461663 -0.055856857 -0.013718543 0.0713131 -0.005023653 -0.01711927
-0.044708118 0.12186407 0.08557771 -0.18230797 0.28553045 0.09061219 -0.042999905 0.03129619
0.18775606 0.11394614 -0.27549624 0.14753707 0.015706807 0.26999062 0.054778844 0.16777381
-0.051979005 0.014631863 -0.38296878 -0.20248389 -0.054464262 0.047820635 0.02944209 0.03335581
-0.19655357 -0.045770947 -0.093413 -0.026876086 0.08502423 0.09819592 -0.32187307 -0.060740154
0.37226844 0.18654515 -0.123822026 -0.1649367 -0.11708167 -0.06948093 -0.016445035 0.20883626
0.079635926 0.002475938 0.02566671 0.042323526 0.21933155 0.16424173 -0.10001144 -0.2577415

weight_hh_l0 f4 [128, 32]
00000000: 336b ecbd 3af6 c63c f585 47bd 66af 9f3e
00000010: a4a4 7dbd 92fe b93d b429 e3ba fc7a 04be
00000020: 522f c6bd e74a e9bc ce4e ca3d e06f f83c
00000030: c324 473e 33bc d23c f913 01be 43de 0c3d
00000040: 7034 2b3e b840 78be 5747 73bb 26b6 1b3e
00000050: 3f28 ef3d cb3a 253d b2b5 dabd dd79 0ebe
00000060: 6e03 2cbd 4bda 2dbe afd6 42be 8e13 543e
00000070: 4756 d13d 8e7f ebbd b92a 44be 7139 a83e
00000080: dcb1 293d 48fe 15be 21c4 f53d f17f 14bd
00000090: deb5 e2bd e8dd 883d 0ee3 53be 8edc fe3a
000000a0: b9ea 553d 0d11 63bd 2ae8 4fbc 54ef 23be
000000b0: a923 9ebc e648 733e 7958 34be 0ee6 473e
000000c0: 85d0 4e3d f1b3 f1bd 446c 343e e929 8d3e
000000d0: f203 043e 1443 cbbd c030 95bb 209e 2e3e
000000e0: 9a42 0b3e f0b8 69be a4fa 12bd 21ae 91be
000000f0: 1503 993d 1177 013e 9f6e 183e ea9b cd3d
00000100: 48ca 68bc c0d5 e9bc 9cce 983d 83cb 4d3d
00000110: fac0 09be f17b f1bd 3063 6bbc 2d1a 39be
00000120: 2724 2cbe a9c6 44be 402f 2cbe 854e 96bd
00000130: 6787 aa3b 6ffe 873e 5fc4 8bbd 41c2 cb3d
00000140: be1e cd3b d6f5 aabc 7df6 76bd 1790 3bbe
00000150: 067a c1bd f7c7 043d 031f 0ebe 2e1b 95bc
00000160: 5b92 b6bc 5a0d 5ebe 41d4 51bd ca3b 0bbd
00000170: 78fa 0cbe d083 1b3e 836e 0f3d 20a4 17bd
00000180: 162f c43e e096 68bd aa8d 5c3e 98cd dd3a
00000190: f626 16be 651d 46bd 99ad 2dbb 5576 9ebd
000001a0: 2765 0d3d 4f2b f23c df43 61bd 25ad 46be
000001b0: 3a3d 0bbe f2d4 23bd c9c7 bebe ad46 c2bd
000001c0: 2a98 37be 8141 6dbd 68d4 01be 4ebe b8bd
000001d0: 797c 443d 7978 e73d e02d 42bd 5bf3 21bd
000001e0: 7e13 753d 6f39 19bd 090d 5ebd 3504 59bd
000001f0: 62e5 56bd eabc 4abc c562 203e 37d8 5cbd
00000200: aa44 1b3e 6713 313d 287a 0d3e 32a5 26bd
00000210: c2a1 b63c c164 523e f0ae 923d 5a06 3dbe
00000220: d29b f13d aa24 21bd bddd 3abe a9cb 3bbd
00000230: e0b3 f3bd ba3f 0f3e 1eeb debd 3e6d e33d
00000240: 04b8 27be f473 993d 1885 b73d 1dc4 1c3d
00000250: 7766 033d 66cb 573e bd60 b73d d322 8abe
00000260: 3a6e a33d 4a32 46bd 6b22 f9bd abef 2fbd
00000270: 3302 99bc d6e5 293e a67d 1e3e 8f1b 853d
00000280: ad1d 313d 0d8f 82be 7559 5ebc 15ed b4bd
00000290: 5ccf 1abe 78ad 793e f783 0dbe 3908 9e3e
000002a0: 6a3c a93e bb8a bdbe 0b55 49be e918 4d3d
000002b0: ba32 fd3b 23ef b53e 2856 5dbd 6f96 8ebd
000002c0: a4c5 25be a18d d5bd 31af 91bd 9d62 f33e
000002d0: 7520 98be aa8d 9f3d effb 31be fb6d ea3d
000002e0: 2a54 eb3d 3056 86bd 8ac1 3a3e 05f9 34ba
000002f0: ee17 763e 569b 60be 7f72 743e c580 f33d
00000300: 7aaa 333e f344 9bbd b047 5c3e ac52 e93c
00000310: ccfb 5c3c 8905 f1bd 620e 45be 4e6d fc3c
00000320: 115d 50bd 8f7c 9abe 71f0 8cbe 430d 69bc
00000330: 69c9 b1bd 2222 813e db80 87be d37d 28be
00000340: f3a2 0a3d d3c2 e7bd 37a9 953d aaa0 a83b
00000350: bcf5 563e 8fb6 6e3e 7a1e 5ebe 55b8 9cbd
00000360: 39eb bf3d e45a 8fbe bb4c 0a3d 624c c93c
00000370: 4131 823e 7011 aabd 68de 8abe b963 423e
00000380: e478 403d ed53 5ebb 1d26 18bd 7e1a 3b3b
00000390: 9516 373d 1abe b2be 1a77 1bbd 5046 263d
000003a0: 76ea b9bd 97ce 35be ea2f ddbd af22 833e
000003b0: c60a c43d ebff 10be 9972 863e de20 05bd
000003c0: c4ff 8fbc 1253 c8bc 39c8 5abe 2038 63be
000003d0: 53ce 74be e500 f6bb 3ab5 dfbd 50f1 843c
000003e0: 00ce bfbd 76b5 de3d 6894 713c c68f 2d3e
000003f0: 3089 bdbe 2c67 1f3d a564 283c cdda c23d
-0.11543884 0.024287332 -0.048711736 0.31188506 -0.06192459 0.090817586 -0.0017331154 -0.1293754
-0.096769944 -0.028478099 0.09878312 0.030326784 0.19447617 0.025724506 -0.12605275 0.034391653
0.16719222 -0.24243438 -0.003712138 0.15206203 0.11677598 0.040339272 -0.10679187 -0.13913675
-0.04199546 -0.16977803 -0.19027208 0.20710585 0.10221534 -0.114989385 -0.19156922 0.32856324
0.041429386 -0.14647782 0.12000299 -0.036254827 -0.11069845 0.0668295 -0.20692083 0.0019444393
0.052225802 -0.055436183 -0.01268963 -0.16009265 -0.019304113 0.23758277 -0.17611875 0.19521353
0.05049183 -0.11801899 0.17619425 0.27571037 0.1289213 -0.099249035 -0.0045529306 0.17052507
0.13599625 -0.22824454 -0.03588356 -0.28453162 0.07471291 0.12643076 0.14885949 0.10039504
-0.014208384 -0.028544307 0.074612826 0.050242912 -0.13452521 -0.11791218 -0.01436691 -0.18076392
-0.16810666 -0.19216408 -0.168149 -0.07339195 0.0052041295 0.26561305 -0.06824564 0.0994916
0.0062597683 -0.020869177 -0.060293663 -0.18316685 -0.09447102 0.032417264 -0.13879018 -0.018201437
-0.022286585 -0.2168478 -0.05122781 -0.033992566 -0.13767421 0.15187001 0.0350175 -0.037021756
0.38317174 -0.05678451 0.21538416 0.0016922234 -0.146633 -0.048367877 -0.0026501177 -0.07737414
0.034520295 0.029561667 -0.054996368 -0.19401987 -0.13597575 -0.039998002 -0.372618 -0.094861366
-0.1792914 -0.057923798 -0.12678683 -0.09020673 0.04797027 0.11302275 -0.04740703 -0.039538722
0.059833042 -0.03740829 -0.05421165 -0.052982528 -0.05246485 -0.012374142 0.15662678 -0.053917136
0.15162912 0.043231394 0.1381613 -0.040684886 0.022293929 0.20546247 0.07162273 -0.18459454
0.117972985 -0.039341606 -0.18248649 -0.045848522 -0.11899543 0.13989154 -0.10884689 0.11104821
-0.1637879 0.074928194 0.089609325 0.038272966 0.03208014 0.21073684 0.08953998 -0.26979694
0.079800084 -0.048387803 -0.12164768 -0.042953175 -0.018677806 0.16591582 0.15477619 0.06499397
0.04324119 -0.25499764 -0.013571133 -0.08834282 -0.15118164 0.2438258 -0.13819872 0.30865648
0.33053905 -0.37019905 -0.19661348 0.050072584 0.0077269943 0.3553401 -0.054037243 -0.06962287
-0.16188675 -0.10427404 -0.07113493 0.47536173 -0.29712263 0.07790692 -0.17381261 0.11446758
0.114906624 -0.06559408 0.18237892 -0.0006903562 0.24032566 -0.21934256 0.23871802 0.11889795
0.175455 -0.075815104 0.21511722 0.028481804 0.013487767 -0.11768634 -0.19243768 0.03081384
-0.050870005 -0.30173156 -0.27527192 -0.014224353 -0.08680994 0.25221354 -0.26465496 -0.16454248
0.033846807 -0.11316457 0.07307666 0.005146106 0.20992178 0.23311828 -0.21691313 -0.07652346
0.09371037 -0.27999032 0.033764582 0.024572555 0.25428203 -0.08304107 -0.27122808 0.18983354
0.04699029 -0.0033924535 -0.037145723 0.0028549726 0.04469927 -0.3491066 -0.03795538 0.0405944
-0.09077923 -0.17754589 -0.108001545 0.256124 0.09572367 -0.14160125 0.26259306 -0.032502048
-0.017578013 -0.024453674 -0.21365441 -0.22189379 -0.23906831 -0.007507431 -0.10923238 0.016228348
-0.09365463 0.10874455 0.014744855 0.16949376 -0.37018728 0.03891675 0.010277902 0.09514389

bias_ih_l0 f4 [128]
00000000: 9476 12be 0a70 01be aab9 00bc 5684 443d
00000010: 0835 e2bc 51d7 2b3d b695 903d 2032 eebd
00000020: e9f3 debb aabe 92bc d568 40be 8ccd 47be
00000030: 5ab4 4bbd 3640 093e 8f97 40be 3e8f c3bc
00000040: 69c1 70bc 9f6f d13d 9a0f ec3d effa cabd
00000050: 9b1c 823d af56 23bd cf9b 67be c800 0fbd
00000060: b325 4cbb 6646 ddbc a0c3 743c e409 16bc
00000070: 0cb8 d33d 0fd9 ae3d efbf 8a3d fcf0 61bd
00000080: 0140 343e 3875 b9bd 8815 d2bd 33b1 93bd
00000090: 33fb 03bc 559e fa3d 5c07 533d 3bb7 783e
000000a0: 485e 893e ab62 483e ef1b 3f3d c16a 3b3e
000000b0: d67f 83bd 18e3 513e 35de a73d bf7d 00bd
000000c0: 62f9 dbbd 8ed1 723e 5c0c 833e 7135 503e
000000d0: c9f6 5a3c 2ab9 5f3e c2fd c7bd 2f1e ce3d
000000e0: 0c20 acbc 07b5 e33d 3314 853d cc26 683e
000000f0: b98f e5bd 06c4 cb3d 9436 43bd 96c3 09bd
00000100: b6ca 4cbe f188 353d 877d 443e db90 23be
00000110: 3382 ad3d 56ed 2d3d f2d1 633d da5b 4f3c
00000120: 98e0 653e ec0b 08bc 7594 d53d c135 bc3d
00000130: 1b75 9f3c f028 d53c 3810 d23c c6d9 1bbe
00000140: ece8 16be 0a84 1ebe afb8 263e 3e6f 30be
00000150: 65e3 ccbd 30e0 2cbe 8503 ccbd 9ccf 7a3e
00000160: 6d79 60be 91f3 a3bc c909 4c3c 4c74 8c3c
00000170: 16ba 31be 062a 86bd 5648 9fbd e5a1 423e
00000180: 335e e6bc 942b 8d3e 32a3 0d3e 5121 f33d
00000190: 004e 3f3e fb72 623e 3603 ad3e 1d13 8a3d
000001a0: 5704 333d 6df9 423e ea03 52bc 8405 9dbd
000001b0: 9b4a 54bd 5e1d 733e 0c26 123e fcb5 023e
000001c0: b49b ec3d 4c7a 9fbd 48fe 783e f2f3 e63d
000001d0: 0045 84bd 4995 863e 96b2 9dbc 740e 4fbd
000001e0: b1b7 6a3e 2faa 233c 2742 5d3e 30fb 4c3d
000001f0: c884 47bd f48b ee3d 910e e53d 50d9 3f3d
-0.14303046 -0.12640396 -0.007856766 0.047977768 -0.027613178 0.04195339 0.07059805 -0.11630654
-0.0068039787 -0.017913181 -0.1878999 -0.19512004 -0.049732544 0.13403401 -0.18807815 -0.023872014
-0.01469455 0.10226368 0.11526413 -0.09911143 0.06353112 -0.03987759 -0.2261803 -0.034912854
-0.00311504 -0.027011108 0.014939219 -0.009157632 0.103378385 0.085374944 0.0677489 -0.05516146
0.1760254 -0.09055561 -0.10258013 -0.072115324 -0.008055496 0.12237231 0.05152069 0.24288647
0.26829743 0.19568889 0.0466575 0.18302442 -0.06420867 0.20496786 0.081966795 -0.03136992
-0.10740925 0.23712751 0.25595367 0.20332886 0.013364502 0.21847978 -0.09765197 0.10064351
-0.021011375 0.111185126 0.06497993 0.2267105 -0.112090535 0.09949498 -0.04765947 -0.03363379
-0.19999203 0.04432005 0.1918851 -0.15973227 0.08472099 0.04246267 0.05562014 0.012656176
0.22448957 -0.008303624 0.104287066 0.0918994 0.01946502 0.026020497 0.0256425 -0.15219793
-0.1473729 -0.15480056 0.16281389 -0.17229936 -0.100043096 -0.16882396 -0.09961609 0.24493259
-0.2192132 -0.020013602 0.012453505 0.017145298 -0.17356142 -0.06550984 -0.07777469 0.1900707
-0.02812109 0.2757231 0.13831785 0.11871589 0.18682098 0.22114174 0.33791512 0.06741927
0.04370531 0.19040461 -0.012818316 -0.07667068 -0.05182896 0.23741671 0.14272326 0.12764734
0.115531355 -0.07786998 0.2431575 0.112769976 -0.06458473 0.2628577 -0.019250195 -0.050550893
0.22921635 0.009989305 0.21607266 0.05004424 -0.048710614 0.11647788 0.11184419 0.046838105

bias_hh_l0 f4 [128]
00000000: fa24 b03d 3247 083e f410 9fbd 52b6 f7bd
00000010: ea07 883d 64be 043e d73e 34be 303d 48bc
00000020: 5b32 933d 9b13 5e3d 308f 8c3c ad62 5f3c
00000030: 887c 49bd 56c2 123e b9c6 283d cdd8 de3c
00000040: 99a3 86bd 9091 bd3c f5fa cc3c 0988 13be
00000050: 067c 8c3d d873 8e3d 5bae 8b3d 33fb ddbd
00000060: 8982 e1bd 5ba0 e1bd 528c aabc 9ab8 d7bd
00000070: b352 043e ca6d e03d 71a3 95bd ea8c d6bc
00000080: 9b48 2b3d da96 053e e2db ae3c f344 043d
00000090: 8e71 1a3b 423f 36bd a19b 92bd 8eda 40bd
000000a0: 4303 da3b 8436 8b3c 4706 0ebd 1340 9e3d
000000b0: 2d87 a43d 2a4b 5f3e 7187 98bd 57a5 d7bd
000000c0: 329b 23bd 4629 bcbc db39 e33d 4842 843c
000000d0: e31a bd3b 99ff 103e 5b45 413d 713a 40bd
000000e0: 005f 603b ced5 1f3e c503 c7bc 721a fe3b
000000f0: afdc b03d 3f02 bebd 8235 2bbe 05c2 123e
00000100: 199b a9bc af06 7f3d 51f1 4f3b 4c97 01be
00000110: dd03 223e 4e9c 22be 3e25 18be 8e62 443c
00000120: 5970 14bd 1f80 5b3e c545 ef3c 3502 4c3e
00000130: d2f4 9ebc 3d8d ca3d 12ce 333b 3410 3abd
00000140: 0e81 6fbd f924 863c 328e f6bd dc10 98bd
00000150: be67 59bd cd2f 02be 0cf1 023d 8df0 383e
00000160: 19c8 1ebe 5562 4f3e fd58 44be e552 083d
00000170: 8802 a5be 9e55 d5bd 5fc9 163e 3d1e 2c3c
00000180: ebee 713e 39de 803e 3084 1a3d eb24 17be
00000190: 5481 5f3c f9f5 6f3e 7ca8 863e 3888 103e
000001a0: 17b9 b13d 5101 503e 956b 8abd 25f7 64bd
000001b0: 9302 34bd 81c8 c53d 0378 553e ce3d 6b3e
000001c0: 97f9 863e 499d 9fbc dab6 ad3c b7d3 c83d
000001d0: ab6d a7bd 1df1 943d 7d1a d03d dee5 713e
000001e0: 024d d53d 2315 0b3e e269 903b 2218 713e
000001f0: f73f 683e aa13 3c3e fe2e 163d 4273 e43d
0.08600803 0.13308409 -0.077669054 -0.12095322 0.066421345 0.12963253 -0.17602096 -0.0122216195
0.07187339 0.054217916 0.01715812 0.013634366 -0.049191028 0.14331946 0.04120514 0.027202988
-0.065741725 0.023140699 0.02502201 -0.14407362 0.06859593 0.06955689 0.06820365 -0.10838928
-0.11011226 -0.110169135 -0.020818863 -0.10533257 0.12922172 0.109584406 -0.073065646 -0.02619024
0.04181729 0.13045827 0.021345083 0.032292318 0.002356622 -0.04449392 -0.0715859 -0.04708343
0.006653221 0.016993769 -0.034673955 0.07727065 0.08033595 0.21806017 -0.074477084 -0.10529583
-0.039942928 -0.0229689 0.110950194 0.016144887 0.0057710274 0.14160003 0.047185283 -0.046930734
0.0034236312 0.15608904 -0.02429379 0.0077546174 0.08635842 -0.09277772 -0.1671963 0.14331825
-0.02070384 0.062262233 0.003172953 -0.12655371 0.15821786 -0.15879938 -0.14857957 0.011986388
-0.036239956 0.21435593 0.029208073 0.19922717 -0.019403849 0.0989022 0.002743606 -0.04542561
-0.058472686 0.016375052 -0.1203884 -0.07425091 -0.053077452 -0.12713547 0.03196816 0.18060513
-0.15506019 0.20252354 -0.19174571 0.03328218 -0.32228494 -0.10416721 0.14725254 0.010505256
0.23626296 0.25169542 0.03772372 -0.14760177 0.013641674 0.23433675 0.26300418 0.14114463
0.08677881 0.20313002 -0.06758801 -0.055899758 -0.043947767 0.09657384 0.20846562 0.22972795
0.26362297 -0.01948418 0.021205354 0.098060064 -0.081752144 0.07272551 0.10161302 0.23622844
0.10415079 0.13582282 0.0044071535 0.23544362 0.2268065 0.18366876 0.03666591 0.11154796

weight_ih_l0_reverse f4 [128, 2]
00000000: 2e33 3cba 1597 cfbd 3ac9 743e fffa 01be
00000010: 0c3c a5be d36e f5be 89be 90bd fe2b 10bf
00000020: 296e edbd 098c edbe 61fe 703e 74eb 6fbf
00000030: 377a 65bd ac14 263e 2e5f 293e f656 afbe
00000040: a07c f2bc 22a3 e0be 06e2 75be 0a5d 003f
00000050: 7198 e0be 61d5 2b3f be7a e13e 0562 39be
00000060: c1ff 5cbd f673 e1bd db4a b2bd cb56 5bbe
00000070: 2ac6 ab3e b6fc 30be be3d f03e e32f 44be
00000080: fc98 1fbd eaf8 afbe be9b 363e 8b70 a83e
00000090: 842e 0fbd 1826 4abe 6b91 86be 5648 c03e
000000a0: 876e e7be fe82 e33d 4abf 93bd f819 403f
000000b0: 5b65 27bf 52c5 8a3e fea2 6f3e 3500 e1bd
000000c0: 339d a3be 9d59 e63e 5cf2 4dbf d9ba debe
000000d0: 92f5 033e 2381 d63e 2a0e 39be bbd1 b23e
000000e0: 9c19 a63e accd 003e 2657 21be 9b77 0b3f
000000f0: 926e 17be b95e ec3d cf67 c63d e1b5 81be
00000100: f121 30be 4382 79bd e5a9 ba3e ef50 bcbe
00000110: d836 27be b67f 91be dd55 46be 4143 f6be
00000120: bafe a03c 5e26 4dbe 75db a23e 487a 8abe
00000130: 4e29 b3be 2b5b d03e bb27 4e3e b448 8bbe
00000140: 0221 743d 5280 88be 2b65 7fbd 71f5 ab3d
00000150: 2f18 4dbd 77e1 b73e 5cf0 643e 2310 bebd
00000160: 7581 263d 2791 603c fdd1 033e d544 4c3d
00000170: 60bc 7a3e d496 8bbe 311d 003f 912e 343d
00000180: 39c7 543c 5eba bcbe 4fca e43d 0079 aa3e
00000190: 7c9a 573c 2d50 edbd bcff 7cbe f23d 193e
000001a0: 0d21 61be 8403 6f3e 1e3e 62be b5fd ce3e
000001b0: e723 a73d 5df8 5ebd 5f00 bbbd 20e0 87be
000001c0: 402c 13be 668b f33d 7325 60be 5604 86be
000001d0: ab34 bd3d 93db 733e 6107 b43c 8fcd cd3d
000001e0: b0fd 8a3c c930 d63d 6ce9 7cbb def3 253e
000001f0: 0c7f debd db34 933d 42ba ea3c 7402 79be
00000200: 5783 59be ae19 a4be a2b9 093b 6141 ad3e
00000210: 8ad8 b63d 601b 883e a8f7 74be e4a0 c8be
00000220: 7581 833e e164 3a3f 1955 9c3e acf3 cdbe
00000230: 37e7 ca3b f4b1 b2be d465 27bf 97a0 683f
00000240: ca01 5e3d b3c4 51be 0a8f 27be 561d 103f
00000250: 720b a83e cd41 96be 6112 343f 7cec 23be
00000260: 831b c63d 9a91 edbd 8066 203e 1183 983e
00000270: 03bf 863b 2483 80be d547 a93e f325 43bd
00000280: 40ad 9c3d a0c7 ec3d 89f6 cc3e ee2e 4f3f
00000290: 9b6c 3e3d a96d 9ebe 32af 39bf 557a 0f3f
000002a0: df68 bebe 5762 cd3d b45a 3e3e da7f 4cbe
000002b0: 6a9b 21bf 6dd7 cc3e 6074 8f3a bcf3 b13e
000002c0: 5159 8cbe c12f 113f 1d92 223f 63f2 093f
000002d0: dbfb 8fbd d151 04bf c0f3 90bd 0524 5bbe
000002e0: fc64 3dbf dd0e 0bbe 040b f33e 75b0 adbe
000002f0: 61bd d23d f756 e9bd e503 e43e 696b 25bf
00000300: 39a3 be3d a669 ecbd a4bf 553e cca1 cbbe
00000310: 05fa 57be 3649 efbe 86bc 9cbe 52ad e4be
00000320: 1801 19be 83f6 38be 98f1 563e 2662 17bf
00000330: 52ad c3be f4ba 513e 4d9c 6e3e 0cef acbe
00000340: 16ea 69be 8d1e 8dbe fa9b e3bd 154f 0a3e
00000350: 1a2b 8cbd 1237 b23d 6a3d f23e 3a7e 303c
00000360: 5ca8 9e3e aee1 fcbe 3795 3cbe 2e2c 553e
00000370: a13d a63e c450 3cbe 0cff 2e3e e8b3 5cbe
00000380: 8e3a 083d 0d58 35be 80b3 ad3e dea0 333e
00000390: cfdc d7bb 8ff4 38be a48b b7be 8b1c b13e
000003a0: 07f4 a5be 0dbd 72be 2809 18be 1813 883f
000003b0: 82b8 b5be 30ae e63d c273 17bd 56ba 853c
000003c0: d8ca 14be 5468 1f3f 837b 7ebe b30d 37bf
000003d0: a90b e63d 3283 2d3f 51d3 8fbe 3028 073e
000003e0: 8c85 f83e 367f 903e 4248 70bd 57c2 4d3e
000003f0: d14f 54be 8055 df3d 15fc 1b3e f062 adbe
-0.0007179257 -0.101362385 0.23904887 -0.12693404 -0.32272375 -0.47936115 -0.07067592 -0.56317127
-0.11593277 -0.463959 0.23534538 -0.9371865 -0.056024756 0.16218823 0.16540214 -0.34246033
-0.029600441 -0.4387446 -0.24012002 0.50141966 -0.43866304 0.67122465 0.44038957 -0.18103798
-0.053954843 -0.11008446 -0.08705684 -0.21419828 0.33549625 -0.17283902 0.46922106 -0.19158892
-0.038964257 -0.34369594 0.17832848 0.32898363 -0.03495647 -0.19741094 -0.2628282 0.37555188
-0.45201513 0.11108969 -0.0721422 0.75039625 -0.6538903 0.27103668 0.2340202 -0.109863676
-0.3195587 0.44990245 -0.80447936 -0.43501928 0.12886646 0.41895398 -0.1807181 0.34925637
0.32441413 0.12578458 -0.157559 0.5447938 -0.14788273 0.115415044 0.09687769 -0.25334075
-0.17200448 -0.060915243 0.36457744 -0.36780497 -0.16329515 -0.28417748 -0.19368692 -0.48098186
0.019652713 -0.20034167 0.31808057 -0.27046418 -0.3499245 0.40694556 0.20132343 -0.27203906
0.05960179 -0.266604 -0.06235234 0.083964236 -0.05007189 0.35914204 0.22357315 -0.092804216
0.040650804 0.013706482 0.12873073 0.04987033 0.24485922 -0.2726351 0.5004454 0.04398972
0.0129869515 -0.36860937 0.111714 0.3329544 0.013159391 -0.11587558 -0.2470693 0.14965037
-0.21985264 0.23341185 -0.22094008 0.40427938 0.08161145 -0.054436076 -0.0913093 -0.2653818
-0.14372349 0.118918225 -0.21889286 -0.26175183 0.09238561 0.2381423 0.021976175 0.10048973
0.01696667 0.10458524 -0.0038591279 0.16206309 -0.10864076 0.07187816 0.028653268 -0.24317342
-0.21241508 -0.32050842 0.0021015187 0.33838943 0.0892802 0.26583385 -0.23922598 -0.3918525
0.25684705 0.7281018 0.30533674 -0.4022497 0.0061921137 -0.34901392 -0.6538975 0.9087004
0.054200925 -0.20485191 -0.16363159 0.56294763 0.32821232 -0.29347077 0.70340544 -0.1600818
0.09673216 -0.11600037 0.156641 0.29787496 0.004112126 -0.25100052 0.33062616 -0.047643613
0.07650232 0.11561513 0.4003184 0.80930984 0.046490293 -0.3094304 -0.7253295 0.5604604
-0.37189385 0.100285225 0.18589288 -0.19970647 -0.6312777 0.40008107 0.0010944717 0.34756267
-0.27411893 0.5671349 0.635042 0.5388548 -0.070304595 -0.5168734 -0.070777416 -0.21400459
-0.73982215 -0.13579889 0.47469342 -0.3392369 0.102900274 -0.1139354 0.4453422 -0.6461702
0.09308476 -0.11543588 0.20873886 -0.3977188 -0.21091469 -0.46735543 -0.30612582 -0.44663483
-0.14941823 -0.18062787 0.20990598 -0.5913414 -0.3821817 0.20481473 0.23301812 -0.33776128
-0.22843203 -0.2756237 -0.111137345 0.1350673 -0.068441585 0.0870191 0.4731248 0.010772282
0.30987823 -0.4939093 -0.18416296 0.20817634 0.32468894 -0.18390185 0.1708948 -0.21553004
0.033258967 -0.1770937 0.3392601 0.17541835 -0.0065876017 -0.18062042 -0.35848725 0.3459209
-0.3241274 -0.2370493 -0.14847243 1.0630827 -0.3549233 0.112636924 -0.03697563 0.016324203
-0.14530504 0.6226857 -0.24851803 -0.7150528 0.11232693 0.67778313 -0.2809091 0.13198924
0.48539388 0.28222054 -0.05866266 0.20093666 -0.20733573 0.1090498 0.1523288 -0.33864546

weight_hh_l0_reverse f4 [128, 32]
00000000: 2ef9 103d 7cc0 57be 6669 1ebe 1864 2a3e
00000010: 8932 a43e 2ee8 85bd 5d65 d7bd 4827 7d3e
00000020: 7b78 a23e 76f9 bf3e 597d 803e 800f e7bc
00000030: 564b 723f 4b43 443f ec32 31bc c0e4 6fbd
00000040: 3671 32be d325 bcbc ad3d 153e 236a 03be
00000050: 255d b73e 292f d9bd 3893 98bd 74c2 4abf
00000060: 1285 49bd 2cbf 1f3e 5b6c d13d 3270 24bf
00000070: 7c01 efbd 9330 5f3f 07c3 24bf 4968 b5be
00000080: d117 04be 574f bfbc d2f3 76be f35a 793e
00000090: c2a5 f83c 19a4 d4bd ba95 7d3e bb40 5f3d
000000a0: cadd 8a3e a473 453e 1025 0f3c 8e5a 01bd
000000b0: f70a ed3e 5a3b 573d 1686 973e 325c 2cbd
000000c0: 7864 0ebd a3ba e83c fe4f af3e bfeb 62be
000000d0: 6ab0 8f3d 90bb 43bd 9e92 863b a12b d9be
000000e0: 9c37 a9bd a76e f7bd ed3d b33d 605f c1be
000000f0: e21c 23be 605e 2a3f cbf9 0ebe fe19 e93d
00000100: 1d51 583e a81e 2fbe 7a9a e9bd 6310 663c
00000110: 0367 193e 7229 2b3c 5c85 573e 1742 d1bd
00000120: 9607 b73d d866 1ebe dedf 9bbc 42c3 34bd
00000130: 673a 673e e463 61be e271 0f3e 9e87 f7bd
00000140: 2d94 40be 7aba 24be a60c f6bd 5a6b bc3c
00000150: 5048 37bd 6450 87bd 6a2b bd3d ce9e 7cbe
00000160: 92ce 7dbe a08d 633e 585b e13d 2556 283e
00000170: 4aec 833e 9799 65bc 1373 b9bd e41e acbe
00000180: 6034 ee3d dbce 84be a58d 91be 55f7 973d
00000190: 39b3 c0bd ec09 9fbd 3912 0e3f dc2e 9f3d
000001a0: 24ec 093e 6cfa 10bd dd73 0bbe a161 373d
000001b0: c4c1 183e fb23 5abe e410 ab3e 17c0 32be
000001c0: 2933 41be 232f ecbe 98e7 3f3e db71 893d
000001d0: 2268 823d 5749 823e 01ba 01bd 90b4 68be
000001e0: 20cf a7be 099c 023d 9902 f43e 5bec c2bb
000001f0: e27e 773e 37b1 f9bc 98b6 57bd cd6e 09be
00000200: bac6 8d3e cfde 43be 765a 82bd e627 6b3e
00000210: dde2 82be ef2a e43d ed45 123f 61eb f0bd
00000220: f22b 5c3e bd82 18be 1029 883d 1fea 6ebe
00000230: 7ab8 24be 550e 8ebd 6e69 243e a9b6 b0be
00000240: fa94 5cbe 0a80 2bbf 83fe d13d 6eff 8bbe
00000250: ab31 a3bd 64ad f23e 2d5e 33be fd2f c0bd
00000260: d50b 0bbf 0008 373e eee0 603e 7f18 a53e
00000270: cfbb be3e d6e6 233d edaf 80bc d396 c0be
00000280: 0dcf 0e3e 4696 9cbe ed36 263d 746e 653e
00000290: 013f 94bd 2324 e73e 2fb0 c03e e571 31bf
000002a0: ed83 783d a14b 91be b78b f03e 91b9 03be
000002b0: a0c9 6a3d 39bf aa3e 9342 803e 6943 753d
000002c0: 0198 afbe 938d 1ebf b275 e13c cf28 2ebf
000002d0: 9b8d eabd 4566 4b3e d8c0 21bf 1edd 4abe
000002e0: 6936 f5bd e721 123e d922 d03d 477f dabd
000002f0: c427 51be 05b2 c03e 70f8 e73d 0180 eebd
00000300: 2645 2b3e f0ee 723e 7142 b63d d3a0 ffbd
00000310: 84f2 92bd f7fe d5be cba0 2d3d aac9 68bd
00000320: 2752 ebbd c589 e6bd e499 153e 7bdd 223e
00000330: bc51 843d 163e e53d ddf3 4dbe 8781 3939
00000340: 65fb d4bc 330a fb3c 12b4 9ebd 502f 713d
00000350: c149 233e cd61 483d 7a74 113e 32d1 4abd
00000360: 680d 8cbd 3014 e03d 20d5 ca3c b987 eebd
00000370: f456 cbbd 8ab3 103d 4226 4fbe cd41 70be
00000380: 2ffa d33e fafc b7be 5fba e23d 55c6 253e
00000390: 7db7 9bbe d8d8 453e 188b 00bf 46a1 c6be
000003a0: 8b1f 883e 5be8 0fbf 104f 3e3e ded1 1cbe
000003b0: 07c7 223c 96c1 c13e d1ee 81bc 9b44 e3bd
000003c0: 07db 60bd 95a5 463e a7fe 0dbf ff86 1cbe
000003d0: 64a6 a4bd ad87 df3d 2a70 8dbe af61 91be
000003e0: ed7a 6e3d 9e75 debd e79b 78be e705 3a3f
000003f0: 16f3 fa3d 7df0 ffbd c18f f43e c7a2 82be
0.035393886 -0.2106952 -0.15469894 0.16639745 0.32069805 -0.065384254 -0.105173804 0.24722016
0.31732544 0.3749501 0.25095633 -0.028205633 0.94646204 0.7666518 -0.010815363 -0.058567762
-0.17425999 -0.022967255 0.14574309 -0.12833457 0.3581325 -0.10604698 -0.07449955 -0.7920296
-0.04919917 0.1560027 0.10225745 -0.64233696 -0.11670205 0.87183493 -0.6436009 -0.35431126
-0.1289971 -0.023353262 -0.24116448 0.243511 0.030352477 -0.10382862 0.24764147 0.05450509
0.27122337 0.19282395 0.008736864 -0.0315805 0.46297428 0.052546836 0.29594487 -0.04208011
-0.034763783 0.028409308 0.34240717 -0.22160242 0.0701607 -0.047786295 0.0041068336 -0.424161
-0.0826256 -0.12081652 0.08752046 -0.37768078 -0.15928987 0.66550255 -0.13962476 0.11381911
0.21124692 -0.17101538 -0.11406417 0.014041993 0.14980702 0.010446893 0.21046966 -0.10217684
0.08936994 -0.1546892 -0.019027647 -0.044131525 0.22580872 -0.22010761 0.14008287 -0.12086414
-0.18806525 -0.1608676 -0.12014131 0.023000408 -0.044746697 -0.0660713 0.09236796 -0.24669954
-0.24785832 0.22221994 0.110037506 0.16439112 0.25766212 -0.014013669 -0.09055152 -0.33617318
0.116310835 -0.25939068 -0.2842838 0.07420222 -0.09409184 -0.07765564 0.55496556 0.077726096
0.13468987 -0.03539507 -0.13618417 0.04477084 0.14917666 -0.21302788 0.33411324 -0.17456089
-0.18867172 -0.46129712 0.1874069 0.06711169 0.06367518 0.2544658 -0.031671528 -0.22725129
-0.3277521 0.031887088 0.47658232 -0.005948586 0.24169496 -0.03048001 -0.05266437 -0.13421173
0.2769068 -0.19127963 -0.0636491 0.22964439 -0.25563708 0.111410014 0.5713795 -0.11763645
0.21501139 -0.14893623 0.06648457 -0.23331498 -0.16085997 -0.06936327 0.16055843 -0.3451436
-0.21541205 -0.6699225 0.102536224 -0.27343315 -0.07968458 0.47397912 -0.17516394 -0.09384153
-0.5431493 0.17874146 0.21960804 0.32245252 0.37252662 0.040015064 -0.015708888 -0.3761507
0.13946171 -0.305834 0.040579725 0.22405416 -0.072385795 0.45144758 0.37634417 -0.69314414
0.06067269 -0.28378013 0.46981594 -0.12863757 0.05732119 0.33349016 0.25050792 0.05987874
-0.34295657 -0.61934775 0.027521942 -0.6803102 -0.1145279 0.19863231 -0.6318488 -0.19810912
-0.119732685 0.14270745 0.10162897 -0.106688075 -0.20425326 0.37635818 0.113266826 -0.116455086
0.16725597 0.2372396 0.088993914 -0.12481847 -0.071751624 -0.41796085 0.042389672 -0.056832947
-0.11490279 -0.11256746 0.14609486 0.159048 0.06460902 0.111934826 -0.20112558 0.00017691228
-0.02599878 0.030644512 -0.077491894 0.05888301 0.15946104 0.048921395 0.14204589 -0.04951591
-0.068384945 0.109413505 0.024759829 -0.11646981 -0.09928694 0.03532747 -0.20229438 -0.23462601
0.41401812 -0.35935193 0.11070704 0.16188939 -0.30413428 0.19321 -0.5021224 -0.38794917
0.26586565 -0.5621392 0.18584847 -0.15314433 0.009935147 0.37843007 -0.015860947 -0.1109707
-0.05489638 0.19399102 -0.55466694 -0.15285872 -0.08039549 0.1091455 -0.27624637 -0.2839484
0.0582227 -0.108622774 -0.24278222 0.72665256 0.12253396 -0.124970414 0.47765926 -0.25514814
