experiments/pedestrians/models/zara1_attention_radius_3/model_registrar-100.pt (torch_old, 545361 bytes, 43 tensors)

weight_ih_l0 f4 [128, 6]
000000 a0 fc bb bc 35 38 e3 3d eb 6c 41 be 9e e3 27 be
       -0.02294761 0.11094705 -0.18889205 -0.16395423
000010 6f bb e9 3c a8 d6 9e 3d 1c 57 61 be 13 65 7d be
       0.028531758 0.07755786 -0.22005886 -0.24745588
000020 3f 92 39 bd d0 75 ca 3e b7 90 cb 3c f9 30 dd bd
       -0.045305487 0.3954301 0.024849279 -0.108003564
000030 31 17 1d 3e fd 26 3f 3e 2b 37 4c be d6 84 9f be
       0.15340878 0.18667217 -0.1994292 -0.31156033
000040 e7 8b 2f bd f5 a7 b1 3b 2e 4c 9c bc e1 eb 83 3e
       -0.04285803 0.0054216334 -0.019079294 0.257659
000050 d0 dc 27 3e 07 96 f6 bc 8b 9f 00 be 72 49 ce 3d
       0.16392827 -0.030100835 -0.12560861 0.10072602
000060 63 95 01 3e 55 57 26 be a6 87 8a be f6 55 d3 3e
       0.12654643 -0.16244252 -0.27056617 0.4127652
000070 cd 4e 45 bd 49 20 a9 bd bd c4 a0 3e 95 01 e0 bd
       -0.048170853 -0.08258111 0.314001 -0.10937802
000080 a6 51 e6 bc 62 be 8c 3e 62 b7 18 bd 1a a3 11 bd
       -0.028115105 0.27489 -0.037284262 -0.035555936
000090 27 b6 0f be 8b 3e f3 bd 77 26 aa bd 19 2b 37 3d
       -0.1403433 -0.118771635 -0.08308118 0.044718836
0000a0 a3 d0 31 be a2 c3 b6 be 9a 06 31 be 0a 59 7f 3e
       -0.17364745 -0.3569613 -0.17287675 0.2493631
0000b0 7c c2 c2 3e f6 d1 6d be 4b 76 89 bd 4a f4 98 3e
       0.38039005 -0.23224625 -0.06712016 0.29873878
0000c0 c5 45 df 3e 63 27 88 bd e2 02 87 3e a1 9d 9c bc
       0.43607917 -0.066481374 0.26369387 -0.019118132
0000d0 6c 9c 01 bd 43 af 35 3d dd 1b 54 be 70 47 89 be
       -0.031643316 0.044356596 -0.20713754 -0.26812315
0000e0 4d ac bc 3d 96 0a a1 3e f7 5b 03 bd b0 54 84 be
       0.09212551 0.3145339 -0.032070126 -0.2584586
0000f0 ad 3e 8d 3e 48 52 cb be ec a9 ea be 08 07 04 3f
       0.2758688 -0.39711213 -0.45832765 0.5157323
000100 cf 5d b2 be bd 8f ae bd b0 a5 d6 be 78 d8 82 be
       -0.34837195 -0.0852351 -0.41923285 -0.25555778
000110 be 3e 9a 3e 20 86 9a 3e 5f 67 b2 3c bc 9c 80 3e
       0.30125993 0.30180454 0.021777807 0.2511958
000120 b8 5d a1 bd 0f 64 65 3d 17 ca 0a 3d ba 1e 7f be
       -0.078792036 0.056003626 0.033884134 -0.24914065
000130 4e f4 39 bd c5 bc 5a be ae 33 b5 3d 46 05 a5 3e
       -0.045399003 -0.21361072 0.08847748 0.32230586
000140 e8 29 97 3d 16 d3 cd bd 0c a1 1f 3e b8 8e d9 3e
       0.0738104 -0.10050027 0.15588778 0.42491698
000150 21 4b 72 be 67 64 4c 3d e0 29 aa be 3e 5b 08 3e
       -0.23661472 0.04990044 -0.33235073 0.13316056
000160 dd c3 cf 3e 4e 1e 7c bd 0f bc 83 be 8d a0 46 3e
       0.4057912 -0.06155234 -0.25729415 0.19397183
000170 cb 28 a7 3e 72 7e 99 bd 26 3f 33 be 57 1f 07 3e
       0.3264831 -0.07494821 -0.17504558 0.13195549
000180 b5 fd bf bd 5f 8d c4 3e 55 1d 82 3e 57 ac 0c 3d
       -0.09374563 0.38389108 0.25413004 0.034344044
000190 ae 6b 9f be b7 d6 31 bf 38 31 1a bd 46 c5 4f be
       -0.3113684 -0.69468254 -0.037644595 -0.20290098
0001a0 f8 74 dc 3d 4e 90 6f bd e7 12 dd 3d 7a 92 40 3e
       0.107644975 -0.05848723 0.10794621 0.18805876
0001b0 31 f3 5b bd e3 7e 3e 3d af f7 d4 3d e8 3b c7 bd
       -0.053698722 0.046507727 0.103988044 -0.09728223
0001c0 7a b1 a0 3e 2b 6e 52 3e 25 32 48 be 57 58 d2 bd
       0.31385404 0.20549838 -0.19550379 -0.10270756
0001d0 6e bd ac 3d 8a 70 80 3e e5 f5 13 3e 2f 3a f8 3d
       0.08434568 0.2508586 0.1444927 0.12120473
0001e0 02 fa 3d be 3a 99 80 3e 8f 83 a9 3d d6 0d 89 be
       -0.18552402 0.25116903 0.08277046 -0.26768368
0001f0 90 93 72 3c 40 67 03 3d 4f 87 0b 3f d7 1e 10 3f
       0.014805689 0.03208089 0.5450334 0.5629706
000200 5d c5 12 bf f6 bf b4 be 56 59 de 3e d1 55 35 3d
       -0.573324 -0.35302705 0.43427533 0.044271294
000210 d4 d3 f4 bc 5b 64 31 be 1f fd 21 3d 23 90 70 3d
       -0.029886164 -0.17323439 0.039548036 0.05873121
000220 70 3a 86 bd 07 05 c3 bc e1 01 16 bd 9f 44 ed bc
       -0.06554115 -0.023806108 -0.036622886 -0.028963385
000230 31 b8 49 3d f1 8f 04 be 0d f9 ac 3d 9c 56 96 3b
       0.049247924 -0.12945534 0.0844594 0.0045879614
000240 ec b1 90 3c 1a f7 85 be 4f f2 99 3d 3a b1 28 3e
       0.017662965 -0.26165086 0.0751692 0.16473857
000250 7d d4 51 bf 9b cb 38 bd 22 9a 88 3e cc 30 b9 3b
       -0.81964856 -0.04511605 0.26680094 0.005651569
000260 dd b2 8e be 17 23 17 3e 42 2a 81 be 2f 68 89 3d
       -0.27870837 0.1475948 -0.25227553 0.067093246
000270 b9 b0 36 bd 4d fd ad be d8 4d 30 be 82 4e ab 3d
       -0.04460213 -0.33982316 -0.17217195 0.083645836
000280 a7 f2 c3 3d 05 89 f2 3d e2 e5 22 3d b4 a8 c0 3e
       0.09567767 0.11842541 0.039770015 0.3762871
000290 10 45 cd 3e b5 07 8a 3e 46 20 0e be ae 2b 24 3e
       0.40091753 0.26959005 -0.13879499 0.16032287
0002a0 6e 27 d0 bd 19 bb 76 3e d3 50 73 be 3e 4c 0f 3e
       -0.101637706 0.2409481 -0.237613 0.13993928
0002b0 cf 30 03 3e 59 23 a5 3e 65 db 37 be cf 0e 68 be
       0.12811588 0.3225353 -0.17954786 -0.22661899
0002c0 da f6 2b be f4 e6 0e ba eb d6 15 3e ef db fd 3d
       -0.16793385 -0.0005451285 0.14632766 0.12395465
0002d0 b1 dd 8c be da d5 55 be 00 ce b9 3e 22 de 37 3e
       -0.27512887 -0.20882359 0.36289978 0.1795583
0002e0 0b 9a ed bd 1d 2d 2e bd 88 6a 5d 3d 48 d1 c7 3c
       -0.11601647 -0.042523492 0.054056674 0.024391785
0002f0 7c 80 0c be c4 d6 80 bd 87 6a dd bd ca b6 f5 3c
       -0.13720888 -0.06290963 -0.10811334 0.029994387
000300 76 75 57 3e 81 e4 71 3e 51 d8 48 be 93 4e 8a be
       0.21040902 0.23622324 -0.19613768 -0.27013072
000310 42 e0 8b 3c 2b 27 a2 be a4 44 9b 3e 9b a0 df 3d
       0.017074708 -0.31670508 0.30325806 0.10919305
000320 86 b1 c8 bc ac d5 c5 bd 26 16 34 3d 10 e1 97 3d
       -0.024498712 -0.09659895 0.043966435 0.07415974
000330 41 46 26 be c8 32 f2 bc d0 74 b2 3c 3b fd 8f bc
       -0.16237737 -0.02956523 0.021784216 -0.017576804
000340 53 9a 9a 3d d2 f4 4b bb 7b 19 4b be 50 72 7c bd
       0.07548966 -0.0031121266 -0.19833939 -0.061632454
000350 a1 09 14 3e a4 69 d4 ba 67 d2 ea bd c1 78 aa be
       0.14456798 -0.00162058 -0.11465912 -0.33295253
000360 b6 0b 78 3d 2c 87 0e be 00 8b a2 3d 5c fc 83 3e
       0.060558043 -0.13918751 0.079366684 0.25778472
000370 5a c2 51 be f7 21 5c be 4c b3 76 3e 02 d7 1d 3d
       -0.20484295 -0.21497332 0.24091834 0.038535126
000380 be ed a7 3c df df 26 be 97 9c 83 be bb 64 34 ba
       0.020499106 -0.16296338 -0.25705406 -0.0006881465
000390 c8 66 45 bd 23 ff 89 3d 3f e2 87 3d 39 69 f7 ba
       -0.048193723 0.067381166 0.0663495 -0.0018875963
0003a0 f4 51 2d bd 32 5f a2 3d 62 bc 2b 3e 94 02 96 be
       -0.042314485 0.07928313 0.16771081 -0.29298842
0003b0 b0 1e 13 3e 79 9e fc ba d0 a3 eb bc 5a ea 5d 3c
       0.14367175 -0.0019273303 -0.028764635 0.013544643
0003c0 ea 34 f8 3e d7 bd a8 be 4c 39 40 3e 94 2c 0d 3e
       0.4847787 -0.32957336 0.18771857 0.13786536
0003d0 a1 4c 3e bf df 70 f7 3d de 20 81 bd 80 50 f9 bd
       -0.74335676 0.12082075 -0.06305097 -0.12173557
0003e0 90 72 11 3e 2f 48 1f 3e e6 c5 db bc c3 20 fb bc
       0.14203858 0.1555488 -0.026827764 -0.03065527
0003f0 cd fa 0d 3d 87 ad a0 3d 58 73 8c be b3 f2 8f 3d
       0.03466301 0.07845598 -0.2743175 0.07028713

weight_hh_l0 f4 [128, 32]
000000 70 25 ab 3d c7 90 83 be 93 90 67 3e 27 62 d2 3d
       0.0835675 -0.25696394 0.22613744 0.10272627
000010 ed 17 19 3d 73 09 25 3e 9a 06 9c bd 1d 19 28 be
       0.037376333 0.16116886 -0.07618447 -0.1641583
000020 b6 4f 23 3f 18 e8 26 3e 95 7c b9 be f4 73 f2 3e
       0.63793504 0.16299474 -0.3622786 0.4735409
000030 a4 80 4b be 10 4f 9d bd bc c7 90 be 52 80 10 3d
       -0.19873291 -0.076810956 -0.28277385 0.035278626
000040 83 7a 5c be d5 c9 54 bd 08 f1 0b 3f 2b d6 45 bf
       -0.2153111 -0.051950295 0.5466466 -0.7727992
000050 f8 c3 8c be 64 1f 37 3e a7 06 97 bd e6 fb a1 be
       -0.27493262 0.17883068 -0.07374316 -0.31637496
000060 c1 10 8b 3e 04 2d e0 be cd 61 88 3e 0d c1 a8 be
       0.2716122 -0.43784344 0.26637116 -0.32959786
000070 95 a0 0c bf b3 b6 5c 3e bf 34 5e 3d 6e 9b 6a be
       -0.5493253 0.21554069 0.05424952 -0.22910854
000080 f0 36 ce 3d 86 93 81 be 3e 13 9a 3e 65 a3 cd 3c
       0.10069072 -0.25307864 0.30092806 0.025102327
000090 f4 33 e8 bc dc 96 3c 3e d4 40 93 3d 9a 29 a0 be
       -0.028345086 0.18416923 0.07190099 -0.3128174
0000a0 b2 dc 9c 3e b5 e9 6c 3c 1b 0d 98 be e8 6f 96 3e
       0.30637127 0.014460017 -0.296975 0.29382253
0000b0 1a b5 bc be f7 6f 90 3d 25 cd 17 3e 68 80 87 bc
       -0.3685692 0.070526056 0.1482435 -0.016540721
0000c0 c3 1c f8 bc 0b b5 8a 3e 39 8f e1 bd b1 70 0a be
       -0.030287152 0.2709125 -0.11013646 -0.13519551
0000d0 c9 2a 3c be f3 92 89 3e 2d bf 55 bd bd c5 55 be
       -0.18375696 0.26869926 -0.052184273 -0.20876212
0000e0 31 74 2e 3e d0 89 6a be 4e c2 21 bd eb ab 50 be
       0.17036511 -0.22904134 -0.039491944 -0.20378082
0000f0 ea 06 dc bd 12 5b 0d 3e 7d c1 22 3e dc 1f 27 be
       -0.10743506 0.13804272 0.15894122 -0.16320747
000100 28 42 9d bb 2f 3a ab be 57 46 ca bd 5d 94 cd 3d
       -0.004799146 -0.33442828 -0.098766975 0.10038064
000110 99 c7 61 3e fb eb 26 3e c1 98 80 be 34 e3 53 be
       0.22048797 0.16300957 -0.25116542 -0.2069214
000120 20 7a bd bd f2 fe 2e 3e 92 49 85 be 10 59 55 3e
       -0.09251809 0.17089441 -0.26032692 0.20834756
000130 f0 03 8e be ca 7a 4b bd 13 a7 69 3e 49 b6 8b be
       -0.2773738 -0.049677648 0.2281764 -0.2728751
000140 07 7b a9 bc cb b8 98 bd 52 46 c9 3c 88 a5 b1 bc
       -0.020688547 -0.074571215 0.024569664 -0.021685377
000150 e3 27 5b 3d 96 bb 1d 3d 06 cf cc 3c c3 61 b9 3d
       0.053504836 0.038508974 0.02500106 0.0905185
000160 7a 8e c0 3e 11 88 7c 3d 60 92 0a 3e 64 1c 98 3e
       0.376087 0.0616532 0.135324 0.2970916
000170 9b eb 3c 3e 8a 4f 3b bd 96 e0 79 3c ed b4 45 3c
       0.18449251 -0.04573015 0.015251299 0.012067062
000180 15 2b 06 bd f3 ba 5a bc 01 a8 08 3e 2f 94 bd 3d
       -0.03275593 -0.013350236 0.13345338 0.092567794
000190 ce 90 9b bd 1c 0d c6 3b 42 9f 5c bd 92 ce eb bd
       -0.07595979 0.006044043 -0.053862818 -0.115140095
0001a0 ad 83 c3 3e f4 a9 d6 3d ef a8 ac be 39 ff 80 3e
       0.38186398 0.10481635 -0.33722636 0.2519472
0001b0 c4 ba 84 be b0 03 1f be 20 32 d9 be 8f 56 0d be
       -0.2592374 -0.1552875 -0.42421055 -0.1380255
0001c0 cb cd 72 be d2 05 66 3e 26 d2 bb 3e 1a a8 1c bf
       -0.23711316 0.22463158 0.36683768 -0.61194
0001d0 83 62 9e bd 88 57 93 3e 48 87 9b 3d f5 7b 30 be
       -0.07733633 0.2877772 0.07594162 -0.17234786
0001e0 ae 72 6c 3e 6b 30 65 be 34 2c 73 bc c6 c7 99 be
       0.23090622 -0.22381751 -0.014842082 -0.30035228
0001f0 a1 b3 15 bf 72 77 8a 3e a4 57 49 3e c9 27 0b bd
       -0.58477217 0.27044255 0.19662338 -0.03397349
000200 bd dd 61 3d 85 e0 f7 be 10 57 0c 3f 11 2a 6e be
       0.055143107 -0.48413482 0.54820347 -0.23258235
000210 30 2d 69 3e 4e f1 00 3e 00 c7 2e 3e 7d ec f3 be
       0.22771144 0.1259205 0.170681 -0.47641364
000220 8f 43 81 3f 48 3d ca bd 04 09 0c bf 1d da b1 3e
       1.0098742 -0.0987497 -0.54701257 0.3473672
000230 24 53 83 bd 31 f3 d7 3c ea f1 32 bf a7 fa 68 3d
       -0.06412342 0.02636108 -0.6990038 0.056879666
000240 d7 81 00 bf 44 54 5f 3c c8 b5 80 3f 67 8a aa bf
       -0.5019812 0.01363093 1.0055475 -1.3323487
000250 38 83 d3 bd b0 b8 55 3f 5e dd 78 3d 01 a8 84 be
       -0.10327762 0.83484936 0.060757987 -0.25909427
000260 ca 76 15 bd 00 27 06 bf dd 30 85 3e 07 60 9d bf
       -0.03649024 -0.5240326 0.26013842 -1.229493
000270 15 b8 93 bf 5f 0d c4 3b 36 05 91 3e 52 32 c8 bc
       -1.1540552 0.0059830393 0.28324288 -0.024438057
000280 9c 17 01 3d 93 fa 1f be 7f 63 22 3e 45 bd 4e be
       0.031516656 -0.1562293 0.15858267 -0.20189388
000290 cb a7 c9 3d 47 49 6d 3d 70 d2 e2 3c 18 fc 69 be
       0.09846457 0.05793121 0.027688235 -0.22850072
0002a0 23 3e bc 3c 96 9c 86 3e 3e 86 1a be f4 32 91 3d
       0.022978848 0.2629134 -0.15090272 0.07089797
0002b0 57 37 eb bd be 88 84 bc a1 03 02 3d f7 32 43 be
       -0.114851646 -0.016178485 0.031741742 -0.1906241
0002c0 0c b3 01 be 3a ff 44 3e 97 49 40 be b0 ec a1 3d
       -0.12665957 0.19237986 -0.18778072 0.07906473
0002d0 05 b6 9d 3d 3b 8c 12 3e 63 1f 66 be 74 05 f9 bd
       0.07700733 0.14311306 -0.2247291 -0.12159243
0002e0 fa d2 a7 bc 16 ed 58 be b2 b5 48 3e 9f 59 03 3e
       -0.020486344 -0.21184191 0.19600561 0.12827156
0002f0 ab 47 29 3d 60 05 94 3e cf 6f 88 3e db 81 e2 ba
       0.041328114 0.2891035 0.26647803 -0.0017281132
000300 82 de 8b 3d 38 cd 37 3c aa bc c8 bd 05 9e e5 3d
       0.06829549 0.011218362 -0.0980161 0.112117805
000310 13 08 52 bb 6c 1e dd 3d 39 60 c9 3c 38 ac 75 be
       -0.003204827 0.10796818 0.024582015 -0.23991477
000320 15 98 81 bb 9c b8 f4 3d c3 0e a7 be fe df 70 3e
       -0.003954897 0.11949274 -0.3262845 0.23522946
000330 6a de d4 39 34 e5 95 3d b2 ef a9 3c 80 98 ce 3d
       0.00040601502 0.07319108 0.020744178 0.10087681
000340 5b d3 65 3c fe 6d 84 bd f1 36 04 3d cd 75 5e be
       0.014027442 -0.06466292 0.03227896 -0.21724625
000350 60 a4 e5 bb e1 0b b2 3e dc ac 30 3e 80 6f 7b bd
       -0.0070081204 0.34774688 0.1725344 -0.06138563
000360 67 2d 07 bc 1e 98 da bd 74 8a 5e 3e ab e4 5d bc
       -0.008250571 -0.10673545 0.21732503 -0.013543288
000370 9a 94 8e be 6b 0c 95 3e b0 a5 e4 bd 80 3d b0 bc
       -0.2784775 0.29111037 -0.11164415 -0.0215137
000380 40 4c 52 3e 3d bb 08 be 01 29 96 bc ba 15 be 3d
       0.205369 -0.13352676 -0.018330099 0.09281488
000390 a6 4e f0 3d 3e 82 24 3e 86 e5 29 3e 49 f4 22 3d
       0.11733751 0.16065308 0.16591462 0.03978375
0003a0 47 2d cb bc 91 d5 9c bc 41 c9 af bd bc 0f df bd
       -0.024801863 -0.019144805 -0.08583308 -0.10891673
0003b0 69 3f 69 bc 78 1a 9d 3a ba b2 1e 3d 24 f8 0d 3e
       -0.01423631 0.0011986038 0.038744666 0.1386419
0003c0 1e 85 dc 3d 40 46 63 bd c6 01 31 be 6d a7 7b bd
       0.107675776 -0.055486917 -0.17285833 -0.061438967
0003d0 fe f0 a2 be ec 5d 6d 3e 76 8b b1 bd dd 3b 73 be
       -0.31824487 0.2318036 -0.08669178 -0.23753305
0003e0 b6 8a 78 3e 2b 6f 1a bb d4 c5 ea 3c 3b cd 02 3e
       0.24271664 -0.0023564796 0.028658785 0.12773602
0003f0 d6 be 19 3e 3e 1b 0e 3e 87 92 91 3d aa b6 ae 3d
       0.15014204 0.1387758 0.07108026 0.08530934

bias_ih_l0 f4 [128]
000000 d6 b5 2d 3e 60 b9 80 3e d8 26 1a 3e cd 3d d5 3d
       0.16963896 0.2514143 0.1505388 0.10412178
000010 10 04 ca 3e 64 4e 80 3e 87 1a 76 3e 65 b6 ec 3d
       0.39456224 0.25059807 0.24033557 0.115582265
000020 e5 05 85 3d c7 27 b7 3e 13 48 19 3f b9 2f a2 3e
       0.06495265 0.35772535 0.598756 0.31677034
000030 92 33 24 3f 8f 33 bb 3e 3c 22 28 3e 93 1b d8 3e
       0.6414119 0.36562774 0.1641931 0.42208537
000040 e9 2c f4 3d 0f 72 b8 3e c2 70 ae 3c 61 a3 40 3e
       0.119226284 0.3602452 0.021294001 0.18812324
000050 6b 76 12 3f 06 ae 64 3e 89 9b 08 3f 14 59 7c 3d
       0.5721194 0.2233201 0.5336233 0.06160839
000060 68 cf b7 3e 45 4d dd 3d 98 b5 7c 3d 73 be d1 3d
       0.35900426 0.108057536 0.06169662 0.102414034
000070 37 04 0e 3d d2 71 b4 3e a4 5f bf 3e 49 00 97 3e
       0.03467199 0.35243088 0.37377656 0.29492405
000080 b2 b6 02 be d1 c6 be be af 46 9b be 08 4c 48 3d
       -0.12765005 -0.3726106 -0.30327365 0.048900634
000090 37 6e 48 bf b6 92 08 be 85 83 d4 be 7b 19 ad be
       -0.78293175 -0.13337216 -0.4150659 -0.33808503
0000a0 6f ef 2e be 0e 05 94 be 39 75 d5 be 58 58 da bd
       -0.17083524 -0.28910106 -0.41690996 -0.106613815
0000b0 8b 29 e7 be 93 19 8e be b0 47 98 bd 57 f8 3d bf
       -0.45148882 -0.27753887 -0.07435548 -0.7420706
0000c0 0a b7 70 bc f8 ce 74 be 92 36 67 bd eb 5a dc 3d
       -0.014692077 -0.23907077 -0.056448527 0.10759529
0000d0 63 6b 19 bf 78 70 40 be 1b 26 ae be 4d fd c9 bd
       -0.59929484 -0.18792903 -0.34013447 -0.098627664
0000e0 ad cf 16 be 31 b5 55 3d db 15 0e 3c 56 47 e8 3d
       -0.1472766 0.05217475 0.008672203 0.11341731
0000f0 ea 90 3b bc 7a 36 19 bf b8 ad fb be ae f4 05 bf
       -0.011448124 -0.5984875 -0.49155974 -0.52326477
000100 24 f1 0e 3e 3b 7a d3 3d 11 ea 25 bd 0e da b6 3c
       0.13959175 0.10326048 -0.040506426 0.022320773
000110 c9 b7 e1 bd ad c2 bc bb 32 9f db 3d 75 f6 4a bd
       -0.11021382 -0.005760512 0.107237235 -0.049551446
000120 84 1e b4 3d 69 11 8e 3d a4 71 b8 bd 74 a2 eb 3c
       0.08794883 0.069369145 -0.0900605 0.028763987
000130 66 3a df bd fa de 33 bd d5 48 c3 bc bd 01 b6 bd
       -0.108998105 -0.04391382 -0.02383844 -0.0888705
000140 4d 21 b4 bd f6 db d4 bd a7 3a 20 3e 1d 7d d2 bd
       -0.08795414 -0.10393517 0.15647374 -0.1027777
000150 30 54 6a 3d 53 81 96 3d d5 f3 e9 3d c7 1f 03 be
       0.057209194 0.073488854 0.114234604 -0.12805091
000160 25 b5 03 3e ad 15 b1 bd ec 78 ed 3c f2 ff 60 be
       0.1286207 -0.086467125 0.028988324 -0.21972635
000170 21 83 16 be ca 2c 0a 3e ac 43 12 3d c2 48 a9 bd
       -0.14698459 0.13493648 0.03570907 -0.082658306
000180 5b f8 bc 3e f7 ad 66 3e c6 22 3a 3e 92 7b 27 3e
       0.3690823 0.225273 0.18177328 0.16355732
000190 52 03 ed 3e c7 7c 48 3e 4c 2f 92 3e 1a a6 21 3e
       0.46291596 0.19578849 0.2855171 0.15786019
0001a0 06 c6 2b bd 9a 7f d2 3e af f3 c3 3e 18 e4 86 3e
       -0.041936897 0.41112977 0.38271853 0.26345897
0001b0 c7 48 14 3f fd 84 b9 3e 54 94 3e 3e b5 f4 08 3f
       0.5792355 0.36234275 0.1861127 0.53498393
0001c0 d0 61 7f 3e e7 e4 86 3e ed ff e5 3d 5b fa 8f 3d
       0.24939656 0.26346514 0.112304546 0.070301734
0001d0 c5 ad 27 3f 14 f8 86 3e 35 25 01 3f 91 5a 05 3e
       0.65499526 0.26361144 0.504474 0.1302283
0001e0 6e 10 15 3e 15 a1 37 3e a7 8d 84 3e 1c e5 29 3d
       0.14557049 0.17932542 0.25889322 0.04147826
0001f0 de 55 27 3e 14 38 0d 3f 52 a9 d6 3e 0c 0a 7b 3e
       0.1634135 0.55163693 0.41926056 0.24515551

bias_hh_l0 f4 [128]
000000 74 5b 00 3e 5e 6f 87 3e 2a 33 89 3c 7d fd 87 3e
       0.12534887 0.26452154 0.01674803 0.26560584
000010 6a d0 09 3f cd 7a db 3b a5 03 0e 3e 68 17 96 3e
       0.5383364 0.0066979886 0.13868578 0.29314733
000020 a3 b1 19 3e 9a ca 05 3f 59 42 af 3e 71 8c 44 3e
       0.1500917 0.5226227 0.34230307 0.19194199
000030 40 65 ce 3e c4 ee 28 3f b7 ab 51 3e f1 1e 15 3f
       0.40311623 0.6598933 0.2047566 0.5825034
000040 b9 22 04 3d e5 a2 b4 3e 22 5d 98 bd 6c 4c 13 3e
       0.032259677 0.3528053 -0.07439639 0.14384621
000050 7f 44 38 3f 0a de ce 3e 04 e9 0f 3f c1 ed 00 3e
       0.71979517 0.40403777 0.5621493 0.12590696
000060 d1 75 85 3e 4a 51 be 3d 6b 7f 0a 3e ff 77 31 3c
       0.2606645 0.092928484 0.13525169 0.010831832
000070 1b 53 40 bd 39 a9 af 3e b3 f7 e2 3e be b2 b0 3e
       -0.046954256 0.34308794 0.44329605 0.3451137
000080 4a 9a 5d be 32 6b b1 be 1f 51 86 bd 6c 04 21 be
       -0.21640888 -0.34652096 -0.06558441 -0.15724343
000090 ab fa f2 be ab 6d f1 3c 1a 5a 8c be 03 40 f7 be
       -0.4745687 0.02947124 -0.27412492 -0.48291025
0000a0 6e 9a c8 bd 37 ce b0 be 60 c3 cb be 58 d4 2b be
       -0.0979508 -0.3453233 -0.39797497 -0.16780221
0000b0 39 96 e8 be dd f8 e9 be 73 6e 01 3d 32 24 31 bf
       -0.4542711 -0.4569768 0.031599473 -0.69195855
0000c0 58 fb 14 be 8f 2e 9d be 3b 28 e6 bc 0d eb 96 bd
       -0.14549005 -0.30699584 -0.028095355 -0.07369051
0000d0 72 28 e9 be 6c 92 b3 be d6 2d 10 bf 6c a7 01 be
       -0.4553867 -0.3507265 -0.5631994 -0.12661523
0000e0 b8 a3 b3 be dc 4d 83 be fd bd 7a be 8f f5 57 3d
       -0.35085845 -0.2564534 -0.24486537 0.052724417
0000f0 0f 7c 22 bd be a8 ba be 1d 0d b8 be 84 32 63 be
       -0.039669093 -0.36456865 -0.35947505 -0.22187239
000100 80 1d 13 be e6 7b 29 be b7 ae 04 3e 24 70 08 bd
       -0.14366722 -0.1655117 0.12957273 -0.03331007
000110 70 f6 15 3e b8 95 d9 3c 13 99 a1 bd 53 5d 2e bb
       0.1464479 0.02656065 -0.07890525 -0.0026605919
000120 5c b5 6a 3e 7b a6 c6 bc 63 b7 1a 3d e7 a6 3c 3d
       0.22920746 -0.024249306 0.037772547 0.046057608
000130 69 df 92 3d 8a 92 b8 3c c8 f5 cf bd 54 0f 6b 3d
       0.07171518 0.022530813 -0.10154301 0.057387665
000140 9d 6b a3 3b 3d c7 0d 3e 62 c6 a7 3d 36 dd 6a be
       0.0049871937 0.13845535 0.081921354 -0.22935948
000150 df 51 cc bd 65 95 55 3c 26 77 04 be 53 d1 f5 3d
       -0.09976553 0.013036107 -0.12936077 0.12002816
000160 89 06 e1 bd 29 11 9d 3c 96 e3 02 3d e2 ca d6 bd
       -0.109875746 0.019173222 0.031955324 -0.104879156
000170 5c c8 0a be 21 28 13 be 49 d8 36 3c 5c cc ae 3c
       -0.13552994 -0.14370777 0.011159965 0.02133768
000180 04 12 82 3e 54 1d b8 3e 32 4f d2 3c 49 20 c8 3e
       0.2540437 0.35959876 0.025672529 0.39087132
000190 7b c0 0f 3f d4 1d cb 3d e6 db f7 3e ed d8 ef 3e
       0.56153077 0.09917799 0.48409957 0.4684519
0001a0 1c 7b c4 bd 27 f1 dd 3e a1 bd 1f 3f 99 42 ae 3e
       -0.09593794 0.43348047 0.62398726 0.34035185
0001b0 ca 65 17 3f ea 36 0e 3f a9 05 d9 3d 10 f8 0a 3f
       0.5913969 0.5555254 0.10596783 0.54284763
0001c0 be 28 89 3e 58 b7 01 3e 8f 9e 5e 3e 10 db 59 bd
       0.26788896 0.12667596 0.21740173 -0.05318743
0001d0 16 38 1e 3f 73 cf e8 3e 0a 00 28 3f cd 8f 86 3e
       0.6180433 0.4547077 0.6562506 0.26281586
0001e0 41 b3 aa 3e 70 b1 1e 3e 37 22 9f 3e fa 4d 43 3d
       0.33339885 0.15497375 0.3108079 0.047681786
0001f0 3e 91 0b 3d e5 cc 0b 3f a9 7e e4 3e 71 4c e4 3e
       0.03407406 0.5460952 0.44627884 0.4458957

weight_ih_l0 f4 [128, 2]
000000 90 02 87 3e e8 ad c3 3d 1e 96 a6 bd 57 a4 3f 3d
       0.26369143 0.09554654 -0.08134101 0.046787586
000010 a5 78 70 3b 36 1d 0f 3b 92 89 48 bb e6 ff 78 bc
       0.0036693003 0.002183748 -0.0030599576 -0.01519773
000020 c8 ab ab bd ad 0a c6 bd 7e 39 e4 3c dc 46 01 3e
       -0.08382374 -0.09670005 0.027859446 0.12624687
000030 26 de 50 3d e2 e5 3d ba 20 4f 30 be ae 2a 2b bd
       0.050993107 -0.0007244033 -0.17217684 -0.04178875
000040 54 9d e0 3b 2b 74 1b be 0e 57 d5 bb e1 23 ba bc
       0.0068546925 -0.15181033 -0.006510622 -0.022722187
000050 38 df 29 3c 8c 54 75 3d 33 5e cb bc b8 0b 3e bd
       0.010368161 0.059895083 -0.024825191 -0.046397895
000060 03 47 14 be 01 55 25 3e 73 c7 55 3d b5 d3 29 3d
       -0.14480214 0.16145708 0.052192163 0.041461665
000070 2a ee fc bd cc a1 da 3c 08 80 00 3e 0f d9 dd 3d
       -0.12350114 0.026688479 0.1254884 0.10832416
000080 ed 79 31 3c f3 28 45 3d 12 f3 11 bc 48 6d fc 3d
       0.010832292 0.048134755 -0.00890805 0.12325531
000090 4a 4e c5 3d c1 ed 95 3b de 81 04 be 5e c1 a2 bd
       0.09634073 0.0045754616 -0.12940165 -0.07947038
0000a0 58 23 1a bc fd 78 56 3b 6c d4 ca 3d c3 39 16 3e
       -0.009407841 0.0032725923 0.099037975 0.14670472
0000b0 7d d3 25 be e9 a5 16 3d 22 e1 af be 24 51 58 3d
       -0.16193958 0.036779318 -0.3435145 0.052811757
0000c0 7c 55 4b 3e 10 3d a5 3c 64 a9 62 bb 7a 5a 14 bd
       0.19856828 0.020170718 -0.0034585828 -0.036219098
0000d0 ea ee 20 3e 34 f9 c8 3d 4e 9d 1d 3d 25 35 e9 3d
       0.15716138 0.09813157 0.038480096 0.1138709
0000e0 04 fe 15 3d 10 c0 49 3d d7 e7 c2 bc fd 50 df 3c
       0.0366192 0.04925543 -0.02379219 0.027260298
0000f0 e4 9b b6 3e 92 99 b9 bb da a2 86 3c db 94 a2 bd
       0.3566581 -0.005664059 0.016435076 -0.07938548
000100 fe 21 8a bd f5 a8 4a be 34 e0 d6 3d 88 bb 04 3d
       -0.06744765 -0.19791014 0.10491982 0.032405406
000110 1e a6 17 3e 42 9f d5 bd bc e6 64 3d a4 d9 3c bc
       0.14809462 -0.10430767 0.055884108 -0.011526499
000120 97 93 d1 3e f1 b3 03 be ba e1 ea 3c 77 5b 1d bd
       0.40932915 -0.12861611 0.028672088 -0.038417306
000130 7c c5 59 bc 93 7a 5d 3e b8 b1 2e bd cb b3 3e 3e
       -0.013291713 0.2162879 -0.042649955 0.18623273
000140 66 8a 97 be 9c eb 21 be 26 37 03 3e c0 d9 d1 bd
       -0.29597777 -0.15812534 0.12814006 -0.10246611
000150 25 21 0c 3e eb 6f 81 3c 97 10 47 be 72 8e af 3d
       0.13684519 0.015800437 -0.19439922 0.08572091
000160 c5 06 47 bd f3 63 f1 3d f7 dc f7 bd ae 89 91 3d
       -0.04859044 0.11786642 -0.121026926 0.071063384
000170 9b 2a 2a 3c b6 1d 92 3d d8 ce a0 3e a4 de ca 3c
       0.0103861345 0.07134573 0.3140781 0.024764366
000180 18 bf 6d 3d 06 19 21 3e 1f ab 48 bd 91 41 6f be
       0.05804357 0.15732202 -0.04899132 -0.23364855
000190 e8 0c ca 3c a0 18 56 3e d0 31 31 be c4 e4 b8 bd
       0.024664357 0.20907831 -0.17304158 -0.090280086
0001a0 9d 1b 2d be 9c ef 88 3c 18 13 aa 3d 84 8d 10 be
       -0.16905065 0.016715817 0.08304423 -0.14116484
0001b0 36 c7 11 3e 08 ea 5d 3d dc 22 6d be ad 88 bd bb
       0.14236149 0.054178268 -0.23157829 -0.0057841153
0001c0 d2 ab a6 be 25 fd fe bd 9c a0 37 bd d5 d7 d0 bd
       -0.32552963 -0.12450627 -0.044830903 -0.10197417
0001d0 8c 9a 2a 3e 9f 4e c8 bc 82 cb 58 be c0 ff 4e 3d
       0.16660517 -0.024451552 -0.21171382 0.05053687
0001e0 bd 2d 48 bd 17 1a 54 be 17 00 f4 bd 68 57 ab 3d
       -0.048871744 -0.20713077 -0.1191408 0.08366281
0001f0 18 fc 85 3e f4 a2 1f 3d f9 f0 7f bd ea d1 14 be
       0.26168895 0.038973764 -0.06248567 -0.14533201
000200 5a b6 4b 3e b9 25 9e 3d c8 77 a3 bd 49 77 f2 bd
       0.1989378 0.07722039 -0.07981831 -0.11839158
000210 3c d5 c7 bc 77 0f 08 be 13 25 7b bd 12 f8 38 be
       -0.02439367 -0.1328715 -0.061314654 -0.18063381
000220 b6 bb d1 bd 01 a8 d9 3d 3d 41 e1 3e 39 c3 a2 bd
       -0.10240881 0.10627747 0.43995085 -0.07947392
000230 7c 34 84 3e a6 53 ab bd 88 1d e2 3e d1 57 8b bc
       0.25821292 -0.08365564 0.44163156 -0.017009648
000240 a4 74 da 3e 6d 54 ec 3d 96 d1 ca bd 3a d2 84 3e
       0.42667115 0.115395404 -0.099032566 0.2594164
000250 a6 8f 3c 3e 79 18 2e 3e 44 1c ef bd 7a bc 37 3d
       0.18414173 0.17001523 -0.11675313 0.04485748
000260 e4 8a 28 be 51 b6 cc bd 37 78 fe 3e c5 59 ab 3a
       -0.16459233 -0.099957116 0.49701092 0.0013073018
000270 8e ab 17 bd 8c 11 1b be 01 8e 9e bc 5d f6 92 3d
       -0.03702884 -0.15143412 -0.019354822 0.07175896
000280 5e ce ed 3d 38 3b 4d bd a7 52 8e be 39 dd 97 3d
       0.11611627 -0.050105304 -0.27797434 0.07415242
000290 fd 54 4a 3e b8 1e fb 3d 54 80 d5 3b 19 3f d8 3d
       0.19758983 0.122617185 0.006515542 0.1055891
0002a0 af b7 30 be 85 15 cc bd a6 c5 c4 bd de 61 92 3d
       -0.1725757 -0.09965042 -0.09608011 0.07147573
0002b0 c4 e2 ba 3c bb 54 32 be 11 cf b2 3e c6 56 90 3c
       0.022813208 -0.17415135 0.34923604 0.017619502
0002c0 9d 75 93 3e 6a e9 75 3c 02 47 ef 3c 0b b0 3e 3e
       0.2880067 0.0150092635 0.029208664 0.18621843
0002d0 c6 7a 8d be 7e a1 77 bc 0c 5f c3 3d 41 35 89 bd
       -0.2763273 -0.015114186 0.09539613 -0.066996105
0002e0 3e 3a c1 3e ac 85 aa 3d 99 ac e3 3d 45 61 15 3e
       0.37739748 0.08326277 0.11116905 0.14587887
0002f0 34 0d 04 3f 76 22 71 3d a7 db 97 3c 9e 63 96 bd
       0.51582646 0.058870755 0.018537356 -0.07343219
000300 f3 f7 a8 bd e3 e8 7f bd d3 df 0c 3e c7 1d 7d 3d
       -0.082504176 -0.062477957 0.13757257 0.061795976
000310 ee f6 e6 3d 7a 1d 2d be 40 7e f6 3d 7d 5b b6 bd
       0.11277567 -0.16905776 0.12035799 -0.08904169
000320 66 ba c1 3d 80 1e 82 be eb 64 1f bb d1 88 29 bd
       0.09459381 -0.25413895 -0.0024321626 -0.041390244
000330 08 d8 10 3d 22 8c 53 3d f3 20 80 be 57 09 01 3d
       0.035362273 0.051647313 -0.25025138 0.031503048
000340 2b 3b 94 be 74 01 96 3d da fc 9c 3b f6 ab 80 be
       -0.28951392 0.07324496 0.0047908844 -0.25131196
000350 e6 05 4d 3e 35 6e a6 bb f5 59 06 3d 90 80 af bb
       0.20021781 -0.0050790557 0.032800633 -0.005355902
000360 6f 70 92 3e fe 09 5c 3e 9b a0 27 be ed f4 68 3e
       0.28601405 0.21488187 -0.1636986 0.22749682
000370 bd 59 3f bd aa 8c 0b 3e 79 97 ba 3d 3f 9b 14 3e
       -0.04671644 0.13627878 0.09110922 0.14512347
000380 f2 83 00 bd b6 db df 3d 7f 03 8c bd eb 17 a5 be
       -0.031375833 0.109305784 -0.06836604 -0.3224481
000390 97 13 17 be 4d d5 06 bc 2c f1 b8 3d f0 48 17 bd
       -0.14753567 -0.008229566 0.09030375 -0.036934793
0003a0 5c c9 ac bc e2 e5 bb bc be 5a c3 bd 96 f9 46 bc
       -0.02109211 -0.022936765 -0.09538792 -0.012144467
0003b0 67 16 08 3e b8 0b d6 3d 5f 90 8b be 6e 85 ab 3c
       0.13289796 0.10451454 -0.27258584 0.020937648
0003c0 e2 f2 e1 3e dc 2b 09 3d a8 56 08 be 3a e4 2e be
       0.44130617 0.033489093 -0.13314307 -0.17079249
0003d0 52 c7 f4 3d 78 d3 96 bd 5b f2 bd bd 43 1a 14 3e
       0.1195208 -0.07364553 -0.09274741 0.14463143
0003e0 b4 22 50 3e a5 b0 e4 3c 30 86 d9 bd a5 e8 82 3d
       0.20325738 0.027916262 -0.10621297 0.0639203
0003f0 27 44 b5 3e 26 c0 e8 3d 4f a7 8a bd 40 ce 82 be
       0.3540356 0.113647744 -0.06770193 -0.2554798

weight_hh_l0 f4 [128, 32]
000000 e6 11 b3 bd b8 f0 72 bd 0c e7 97 be 43 b5 c7 3e
       -0.08743648 -0.0593116 -0.29668462 0.3900548
000010 e5 e2 e1 3d 2c 1e f9 3e 5a 16 40 3e 68 ea 01 bd
       0.11029605 0.48655832 0.18758526 -0.031717688
000020 8a 25 b7 bc c1 57 8d bd 92 50 77 3e 83 0b 94 3c
       -0.022356767 -0.06901503 0.24151829 0.018071895
000030 c8 c1 19 3e a3 10 b9 3d 60 a7 2b be cf 69 2c 3e
       0.15015328 0.09036376 -0.16763067 0.16837238
000040 52 8c 72 3e 36 a1 db bd da 4e 2e 3e f9 85 1b 3e
       0.2368634 -0.10724108 0.17022267 0.15187825
000050 ac f5 48 3c e9 57 19 3e a5 42 01 3d 3e 64 1c be
       0.012265604 0.14974941 0.031557698 -0.15272614
000060 e0 e4 5d 3e bb ca 35 3d 95 6a 1e be 2b b3 0f 3e
       0.2166934 0.044382792 -0.15470345 0.14033191
000070 46 00 0a 3f 40 6d 5e bb 2e 6c ce 3c 05 89 db 3e
       0.5390667 -0.003393963 0.025198068 0.42877975
000080 43 0e ac 3c 10 6a 3c be 19 29 03 3e 7f af eb 3d
       0.021002894 -0.18399835 0.12808646 0.115080826
000090 fd 86 72 be fd 23 72 bd 27 27 1b be 27 f5 34 be
       -0.23684306 -0.059116352 -0.15151654 -0.17671643
0000a0 8a 45 ba be d6 20 41 bd 12 c9 5f be d4 85 09 be
       -0.3638118 -0.047150455 -0.21854046 -0.13429958
0000b0 67 9d 07 bd b6 51 46 3e 1d 7f 38 bc 60 57 69 3d
       -0.033109095 0.19367108 -0.011260775 0.056968093
0000c0 c8 0f 7d 3d 31 ec 8a bd 74 82 e8 3d 5f 49 05 be
       0.06178263 -0.06783331 0.11353007 -0.1301627
0000d0 ab d0 50 3e 32 70 16 be c9 19 e2 3d 9a 3e 96 3e
       0.203921 -0.14691237 0.110400744 0.29344636
0000e0 53 38 d5 3d c6 3d a1 be 61 9b 5f 3c c7 c4 49 be
       0.104111336 -0.31492442 0.013647885 -0.19703971
0000f0 76 c3 2f be d9 29 41 3d 5c ba ae 3b ef fb c5 3d
       -0.17164406 0.04715905 0.0053322744 0.09667193
000100 7a ad bb bd 03 25 19 be 05 0d a3 3d 9a af 72 3d
       -0.091639474 -0.14955525 0.07961468 0.059249498
000110 17 02 47 be fe 9c 3e be 56 77 c0 bc 28 8c 5d be
       -0.19434391 -0.18614575 -0.023494404 -0.21635497
000120 d9 7c 8c be 5f df 12 be 9e d5 da bd d6 dd b7 bd
       -0.27439 -0.14343022 -0.106852755 -0.08977859
000130 5e f5 48 3c 73 94 3a 3e 50 ae 40 bd 36 16 0a 3e
       0.012265531 0.18220691 -0.047041237 0.13485035
000140 bf a8 9f bd 86 c2 74 3d 7e 94 c1 bc a5 dd 81 be
       -0.07795858 0.059755825 -0.023630377 -0.25364414
000150 c2 ab a0 bd 2a 26 c2 3d 53 9c 5f be ab 18 a8 3c
       -0.0784526 0.094799355 -0.21836977 0.020519575
000160 2c 0a 11 bd 75 9f 80 be 9a e4 e0 bd 1b 69 5b be
       -0.03541009 -0.25121656 -0.10981102 -0.21426813
000170 6c 4d 06 be 62 79 0c 3e 78 e5 39 3e 2f fe 5d bd
       -0.13115472 0.13718179 0.18153942 -0.054197486
000180 d0 61 64 3d e5 a8 9b bd 34 5f 31 3e b5 ae 50 3d
       0.055757344 -0.076005735 0.17321473 0.050947864
000190 72 df af bd 26 f9 b2 bd 2c bb 3c 3d dd 0b 00 be
       -0.08587541 -0.087389275 0.04607694 -0.12504525
0001a0 0e db 82 bc 44 76 e5 3d 94 26 2e bd 03 a8 28 3d
       -0.015973594 0.11204198 -0.04251726 0.041175853
0001b0 73 69 94 bc 8e 89 19 be 74 1a a7 bd 94 47 ba bd
       -0.018116688 -0.14993879 -0.081593424 -0.09095684
0001c0 a6 5c 75 be ed 60 fc bc 23 46 27 be 27 b0 88 be
       -0.23961124 -0.030807937 -0.16335349 -0.26696894
0001d0 b6 d8 2c 3d e5 78 ec 3d 5a 8c 69 bc e5 92 22 3b
       0.04219886 0.11546496 -0.014254654 0.0024806794
0001e0 ce 95 bf bd a1 d8 bd 3d 59 22 58 bd b2 6d c4 bc
       -0.09354745 0.09269834 -0.05276713 -0.023978088
0001f0 6b ab 26 be 7b 0f e9 bd 9c a2 eb 3d eb e7 fc 3b
       -0.16276328 -0.11379906 0.11505625 0.0077180765
000200 8b aa 9d 3d 60 53 2a 3d 3a 5c b6 3d dc cf 88 3e
       0.07698544 0.04158342 0.089043096 0.26721084
000210 93 ed f4 bd 59 41 23 3d be c6 6b bc 9c b5 a4 be
       -0.11959376 0.039857242 -0.014390646 -0.32169807
000220 07 36 01 be 93 41 31 bb ac 49 09 be 43 8b 14 be
       -0.12618266 -0.0027047142 -0.1340701 -0.14506249
000230 1d cb 48 bd a3 8a bf 3d 32 94 f3 bd 52 6e b7 3d
       -0.04902183 0.09352615 -0.118935004 0.08956589
000240 e0 26 8d be ea 2e 35 3e 3b 8c f9 3d a5 fa 98 be
       -0.27568722 0.17693678 0.1218495 -0.29878727
000250 80 80 1a 3e 39 13 99 3e 80 a9 0e 3e 6f 98 ae be
       0.15088081 0.29897478 0.13931847 -0.34100673
000260 a1 ef 58 bc b9 27 39 bc 0e ba e3 bd 6d b6 e9 bd
       -0.013240726 -0.0113009745 -0.111194715 -0.11411748
000270 66 e4 bd bd 8b db a1 3e a1 41 70 3e 41 95 24 3d
       -0.09272079 0.3161281 0.23462535 0.040181402
000280 20 85 a0 bd a3 aa 84 be 19 c5 5a ba 62 49 16 be
       -0.078378916 -0.25911435 -0.000834541 -0.14676431
000290 b0 1b 91 be f8 af 3e 3e 44 39 21 be f0 b9 f5 3e
       -0.28341436 0.18621814 -0.15744501 0.47993422
0002a0 73 2a 97 3e fd cf 14 be 41 2b 41 be f9 af 01 3e
       0.29524574 -0.14532466 -0.18864156 0.12664784
0002b0 c7 33 ae bd 27 11 27 3e 3c 14 23 3d a5 c6 22 be
       -0.085059695 0.16315137 0.03981422 -0.1589609
0002c0 aa 6b 44 be d8 f5 a2 bd aa e3 48 bd 5c 3f 76 3e
       -0.19181696 -0.07957047 -0.049045242 0.24047607
0002d0 72 59 a4 bd ac 18 77 bd 7e 8f 27 be 3e 53 1d 3e
       -0.08024873 -0.060326263 -0.16363332 0.15363786
0002e0 b4 80 95 3d 87 6e d9 3d c0 5a 01 3d 0e 86 d4 3d
       0.07299939 0.106167845 0.031580687 0.103771314
0002f0 1e 46 0c 3c 25 e5 80 be d0 94 c4 3e b4 f6 0d 3e
       0.008561639 -0.25174823 0.38394785 0.13863641
000300 c2 3a 60 3d 4c 82 1f be ea 30 50 3e 37 5e fc 3d
       0.054743536 -0.15577048 0.20331159 0.123226576
000310 d8 94 b7 bc 2b b2 2e bd f7 a0 8d bd 17 ff 24 3e
       -0.022409841 -0.042650383 -0.06915467 0.16112934
000320 51 e4 91 3d f7 b0 34 be e4 19 86 bd 2b 91 2f bd
       0.07123626 -0.17645632 -0.06547907 -0.042863052
000330 df fe 03 be 68 ca 82 3e 42 19 98 be 81 95 5a be
       -0.12890194 0.2554505 -0.2970677 -0.21346094
000340 fc 9b 49 bc d9 3f 48 be e4 b0 28 3e 3c 6f 4b 3c
       -0.012305256 -0.19555606 0.16473728 0.012416657
000350 43 2e bc 3e 9f f3 3d 3e fe 99 6a be 64 4b c9 bd
       0.36754045 0.18549965 -0.22910306 -0.09828833
000360 85 80 a8 3e 5d a5 61 be 94 68 65 bd 4b d7 9b 3d
       0.32910553 -0.22035737 -0.056007937 0.07609423
000370 be 7e 24 3f 22 05 24 bd 6d 95 9d 3c 0e e1 89 3e
       0.64255893 -0.040043958 0.01923629 0.26929516
000380 cd 7e 44 bd 98 16 b2 3d db 47 13 bd 1c d4 98 bd
       -0.04797249 0.08695716 -0.0359572 -0.07462332
000390 08 47 be 3d 6f 08 d8 be 69 a1 19 bd 87 9f 04 3e
       0.09290892 -0.42193934 -0.03750745 0.1295148
0003a0 86 42 7e 3c 3c 1e c7 bd 4d 52 63 be 9c ad be 3e
       0.01551879 -0.097225636 -0.22199364 0.37241828
0003b0 bf 92 5f 3e ab 27 98 3c 89 ab 8b 3e 82 21 59 bd
       0.21833323 0.018573603 0.27279308 -0.05301047
0003c0 a5 9c cd bd ef d7 b7 bd 59 00 1b be 1e 34 e9 bc
       -0.10039643 -0.08976733 -0.15136851 -0.028467234
0003d0 45 7c c4 bd ab c8 8e bd f8 d5 71 bc 15 19 b3 3d
       -0.09594015 -0.06971868 -0.014760487 0.087450184
0003e0 37 6b 69 be 62 44 68 3d 78 c7 0a 3d 7f d2 17 3e
       -0.22794805 0.05670584 0.033881634 0.14826392
0003f0 44 b3 d9 be 1c d9 ca bd 3e 2c 81 bd 5b 2c 9b 3b
       -0.4251958 -0.099046916 -0.06307267 0.004735512

bias_ih_l0 f4 [128]
000000 57 eb 15 be 5e 13 24 be 36 8d 8f 3c aa 95 9c 3d
       -0.14640556 -0.16023013 0.01752339 0.07645734
000010 e7 0c 4d bd ed c5 e0 3d 1a 1e 0f 3e 8f 3b a1 bd
       -0.050061133 0.10975251 0.13976327 -0.07872688
000020 39 2c c6 bc 14 c4 0c 3d 3f 9a 3a be 63 9c 21 be
       -0.024191009 0.034366682 -0.18222903 -0.15782313
000030 27 67 83 bd 7a 07 1f 3e 6e 8e 32 be 93 11 45 bd
       -0.06416159 0.15530196 -0.17437145 -0.048112463
000040 dd 23 a8 3a 07 be d5 3d 31 71 e6 3d 57 ce a2 bd
       0.0012828071 0.104366355 0.11252058 -0.079495125
000050 87 08 a8 3c 7e d6 da bc 16 4e 6d be c7 0e 7f bd
       0.020511879 -0.026713606 -0.23174319 -0.062269952
000060 ee fa 9b 3c ab 80 de bc d6 cb 88 bb 58 c4 cb bd
       0.019040551 -0.027160963 -0.0041746898 -0.09949559
000070 46 e3 09 3e 95 5c 9a 3d d0 29 ad 3d c9 76 9e bd
       0.13465604 0.0753719 0.08455241 -0.077375
000080 f5 8c f3 3d 86 71 07 be 4a e4 94 bd a9 58 dd bd
       0.1189212 -0.132269 -0.07270105 -0.10807926
000090 68 66 07 bc 8a 04 26 3e 96 a5 e5 3d a6 81 66 3e
       -0.008264162 0.16212669 0.11213224 0.22510394
0000a0 3f 73 47 3e f2 19 30 3e 0f 5e 0d 3d 87 b4 3a 3e
       0.19477557 0.17197397 0.03451353 0.18232928
0000b0 10 0c ca bd 36 0c 82 3e fd e9 d5 3b 4e f0 2a bd
       -0.09865582 0.2539994 0.0065281377 -0.04173308
0000c0 e3 d6 d7 bd 47 ac 54 3e 54 07 8c 3e 5e 84 3a 3e
       -0.10539033 0.20768844 0.2734934 0.18214557
0000d0 9c 6b 19 3d b7 0a 74 3e e1 6e ce bd 7e d3 77 3d
       0.03745614 0.23832212 -0.10079742 0.06050443
0000e0 6b c9 12 bd a4 8c d3 3d d9 60 3e 3c 94 01 46 3e
       -0.03583662 0.103295594 0.01161977 0.1933654
0000f0 69 93 17 be a5 2f 0d 3c 53 2d 1d bd 7f 96 98 bd
       -0.14802326 0.008617316 -0.038373303 -0.0745058
000100 0a 42 5f be 15 d1 8a 3d 33 b4 fc 3d cf 5f 31 be
       -0.21802536 0.067781605 0.12339058 -0.17321704
000110 1f f9 73 3d 55 d3 04 3d 97 38 a7 3d 0e 63 6d 3e
       0.059563752 0.032428104 0.081650905 0.23182318
000120 5d ed b7 3e 85 2b dc bc ab ab bd 3d e2 da 23 3d
       0.3592328 -0.02687622 0.09261259 0.040003665
000130 28 c2 99 3d 44 0d 24 3d c8 eb 49 3d c9 7f f9 bd
       0.075077355 0.040051714 0.049297124 -0.12182576
000140 6b 41 ea bd 89 14 fb bd 0c 79 3e 3e 4a ed 4d bc
       -0.11438259 -0.12259776 0.18600863 -0.012568781
000150 cc e9 93 3d 61 1c 01 be ee b6 1c be 45 7c a2 3e
       0.072223276 -0.12608482 -0.15304157 0.31735435
000160 6c e4 59 be be 36 d5 bc cd 6f a4 3d 72 51 fe bb
       -0.21278542 -0.02602708 0.08029137 -0.007761174
000170 18 02 2e be 2c 01 85 bd 16 57 85 be 81 5c 35 3d
       -0.16992986 -0.06494364 -0.26043004 0.04427767
000180 1c 24 55 bd 86 8f 3a 3e 87 83 3b 3e 6b 93 ef 3d
       -0.05203639 0.18218812 0.18311892 0.116980396
000190 82 93 2e 3e a5 12 8b 3e 21 36 d1 3e 3c 59 bc 3d
       0.17048457 0.27162662 0.4086161 0.091967076
0001a0 be ae 9c 3c b9 4f 47 3e b2 97 ac 3b 06 9b b4 bd
       0.019126292 0.19464006 0.005267107 -0.08818631
0001b0 49 9b 98 bd d2 95 76 3e 26 2e b3 3d a0 7a f5 3d
       -0.07451493 0.2408059 0.087490365 0.119862795
0001c0 65 f1 d8 3d c0 cd 20 bd 05 9e 6d 3e 97 de 0b 3e
       0.10592917 -0.03925872 0.23204811 0.1365913
0001d0 c7 e7 1d bd a3 9c 87 3e e8 37 8e bc cb 14 9c bd
       -0.03855112 0.26486692 -0.017360643 -0.076211534
0001e0 03 33 52 3e f9 5b f0 3c 00 2f 35 3e ed b5 07 bc
       0.20527272 0.029340731 0.1769371 -0.008283121
0001f0 ab c3 39 bd c2 c8 31 3d d4 df 23 3e a4 3e f6 3b
       -0.04535262 0.04340435 0.16003352 0.0075147916

bias_hh_l0 f4 [128]
000000 bc 3b a9 3d 80 47 cb 3d b8 2c 56 bd d4 62 bd bd
       0.082633466 0.09925747 -0.05228874 -0.092473656
000010 0f 1d 34 3d be 2b 4a 3e a4 d6 da bd 83 bb cf 3c
       0.043973025 0.19743249 -0.10685471 0.025357967
000020 34 2d 5f 3d c6 1b da 3d f9 01 bb 3c fe 9d 50 3d
       0.05448647 0.106498286 0.02282809 0.050931923
000030 3c 4b 82 bd 9a 89 28 3e 07 ec 60 3d 91 22 42 3b
       -0.06362006 0.16458741 0.054912593 0.0029622654
000040 53 d5 4b bd 2e cd ce 3c 48 82 b6 3c ef e2 fe bd
       -0.04976399 0.025244322 0.02227892 -0.12445628
000050 31 86 d1 3c 93 69 a9 3d 26 4a 80 3d 15 01 0b be
       0.025576683 0.0827209 0.06264143 -0.13574632
000060 b5 22 b4 bd fd ee e1 bd 92 90 23 bd ff 5d 48 be
       -0.08795682 -0.110319115 -0.039932795 -0.19567107
000070 b4 59 24 3e f3 f0 cb 3d c2 73 66 bd af 43 46 bd
       0.16049844 0.09958067 -0.05626274 -0.04840439
000080 9a 71 7a bc 7a c0 b5 3d fb cf 51 3d dc 9e 70 bb
       -0.015285874 0.088746026 0.051223736 -0.0036715781
000090 90 c3 0c 3b 69 48 9b bb b6 cc 33 bc fd d8 84 bd
       0.002147887 -0.0047388566 -0.0109741 -0.064867
0000a0 f4 f1 88 bd b0 42 dc bb 87 c4 3f bd d0 d2 9c 3d
       -0.06686774 -0.006721817 -0.046818282 0.07657397
0000b0 f3 f5 3b 3d 3e c0 88 3e 6e 83 19 be 94 de ec bd
       0.045888852 0.2670917 -0.14991543 -0.11565891
0000c0 af 56 1b bd 82 a9 56 bd ab 92 03 3e cb 1b a5 bb
       -0.037924465 -0.05240775 0.12848918 -0.0050387136
0000d0 5d a2 f4 3c 5d 51 25 3e ed 62 34 3d 88 51 b2 bd
       0.029862577 0.16144319 0.044039655 -0.08706957
0000e0 6b cd 3a bc 6b c1 17 3e 09 09 9f bd 05 a4 d1 bc
       -0.0114015145 0.14819877 -0.07765395 -0.025590906
0000f0 f1 8a 4e 3d eb 0f 3c be 02 b3 21 be 32 cf d1 3d
       0.050425474 -0.18365447 -0.15790942 0.102445975
000100 29 aa 1e bd 0d 90 af 3d 3a c7 85 bd 49 66 0f be
       -0.038736496 0.085723974 -0.0653214 -0.14003862
000110 ed 40 08 3e cb e2 2c be a4 fa fa bd 79 b3 6c 3e
       0.13306017 -0.1688339 -0.12254837 0.23115338
000120 c1 bb c9 3d 87 7b 48 3e 44 a3 8f 3c 57 de 16 3e
       0.09850264 0.19578372 0.017533906 0.14733253
000130 33 4f 14 3d ef 49 e7 3d 77 40 d8 3c cc a0 76 bc
       0.036208343 0.112933986 0.026397927 -0.015052985
000140 6e c0 d0 bc 98 f9 46 3d dc 0d c7 bd 0c 10 af 3d
       -0.025482383 0.048577875 -0.0971944 0.085479826
000150 71 19 f4 3d 1c d8 ac bd b6 c7 af bc c0 8c 81 3e
       0.11918915 -0.08439657 -0.021457534 0.25302696
000160 e7 32 18 be b6 39 49 3e 53 c3 fd bd e1 39 09 3c
       -0.14863168 0.19650921 -0.12390771 0.008375616
000170 7b 26 a3 be 64 2c d4 bd e7 01 11 bd f4 88 0a be
       -0.31865296 -0.10360029 -0.035402205 -0.13528806
000180 b1 71 59 3e c0 f4 21 3e 9b 02 a9 3d 85 eb 18 be
       0.21234776 0.15816021 0.0825245 -0.14933594
000190 42 a3 30 bb 3f d4 91 3e 4e db aa 3e 1a ab 29 3e
       -0.0026952778 0.28482243 0.3337044 0.16569176
0001a0 6f c4 7e 3d a2 57 54 3e 7e c3 4a bd f8 10 8a bd
       0.062199052 0.20736554 -0.049502842 -0.06741518
0001b0 85 77 88 bd 20 b9 cc 3d 02 e9 1c 3e 15 45 63 3e
       -0.066634215 0.09996247 0.1532326 0.22194321
0001c0 27 0f 82 3e 79 b0 9c 3c ae 69 25 3c ff 9c f9 3d
       0.25402185 0.019127117 0.010095997 0.12188148
0001d0 22 39 64 bd f9 0e 99 3d 74 f9 d3 3d da 9e 57 3e
       -0.05571855 0.07473559 0.10350314 0.21056691
0001e0 15 44 a4 3d d8 e5 1e 3e 40 3f 0e bd f1 5d 35 3e
       0.08020798 0.15517366 -0.03472829 0.17711617
0001f0 eb af 6b 3e 0f 80 e2 3d 60 c8 ad 3d 91 ea 93 3d
       0.23016326 0.110595815 0.08485484 0.07222474

weight_ih_l0_reverse f4 [128, 2]
000000 d9 70 2a 3e 5d 38 9d be 1d 37 9e 3e be a6 d3 be
       0.1664461 -0.30707064 0.30901423 -0.41338152
000010 36 ff 41 be 07 d4 3a be 4f 8b 60 3d 46 1f 44 bf
       -0.18945011 -0.18244945 0.054820355 -0.7661022
000020 9b 8a 98 3c 79 78 09 be 02 ef 2c 3e 33 91 55 bf
       0.01862078 -0.13424863 0.16888049 -0.8342468
000030 98 3a 65 bd c8 af 52 3e ff 39 46 3d 39 be b2 be
       -0.055964082 0.20574868 0.048395153 -0.34910753
000040 fe 4d 53 3c bb 2d 12 bf ca de a6 bd a1 af a8 3e
       0.012897013 -0.5710103 -0.081479624 0.32946494
000050 64 0f b9 be 32 37 11 3e 05 61 71 3f 5c 06 a8 3d
       -0.36144555 0.14181212 0.94288665 0.08204338
000060 13 53 71 bc e4 3b e4 3d fe cf d2 be 6a 6c cc be
       -0.014729279 0.11144236 -0.4117431 -0.39926463
000070 3b af 57 3e c0 99 cd bd 39 82 e0 3e fc 9b a2 3e
       0.21062939 -0.10039091 0.43849352 0.31759632
000080 77 9d 8c be 79 17 27 3e cd ee 00 bd d6 3d 20 3e
       -0.27463886 0.16317548 -0.03147774 0.15648589
000090 2e 73 b4 bd cf 6a 24 3e 2d 3d e0 be c9 b9 ba 3e
       -0.08811031 0.16056369 -0.43796673 0.36469868
0000a0 00 01 02 bf 5d 13 04 3e d6 e1 b5 bd 8f 61 27 3f
       -0.50782776 0.12898012 -0.088809654 0.6538324
0000b0 0f d4 e7 be e4 f8 16 be eb 84 57 3e 89 21 c5 be
       -0.45278975 -0.14743382 0.21046798 -0.38502148
0000c0 75 fc 95 be ee 0e f7 3e c1 d6 15 bf 29 49 fa be
       -0.29294172 0.48253578 -0.58530813 -0.48883942
0000d0 77 cd 3b bb 6d 58 a6 3e c9 77 f6 bd c2 b2 00 3f
       -0.0028656402 0.3248934 -0.12034566 0.5027276
0000e0 ea 3d 54 3e 34 02 3e bb 94 dd 44 3d 16 17 94 3e
       0.20726743 -0.0028993012 0.048062876 0.28923863
0000f0 bd f4 00 be bc dd 54 3e d0 86 55 3e d9 2b bd 3c
       -0.1259336 0.2078771 0.20852208 0.023092197
000100 6d 62 03 be 2f 68 49 be 69 3a 35 3e d5 fe b8 be
       -0.12830515 -0.19668649 0.17698063 -0.3613192
000110 c1 f4 b1 bd 6c 59 10 bc b8 96 a1 bd 4e b0 07 bf
       -0.08689261 -0.008810382 -0.078900754 -0.53003395
000120 4c 69 f2 3d 00 c8 ef 3d 7b b6 b0 3e 4b 0f a1 be
       0.1183649 0.11708069 0.34514222 -0.3145698
000130 f3 77 83 be 41 fc b9 3e 5e 30 04 3e c8 69 ae bd
       -0.25677451 0.36325267 0.12909076 -0.0851627
000140 43 e0 a8 3d f0 66 44 be dc db 9f 3d 1c 39 b1 bd
       0.082458995 -0.19179893 0.07805607 -0.08653471
000150 d7 21 37 3d 84 6a 83 bd 73 7f a3 3e 6a 6c dd bd
       0.044710007 -0.064168006 0.31933174 -0.10811694
000160 f1 35 a9 3b 22 80 c3 3e 19 3b 18 be bc 87 26 be
       0.005163901 0.38183695 -0.14866294 -0.16262716
000170 2e f6 fa 3d b1 91 23 be 58 1f 3f 3e e8 cc 09 3e
       0.12253986 -0.15973546 0.186643 0.13457072
000180 6c cd 6f bd 64 0b 3a 3e be 82 ef bb 0d ee 8c 3e
       -0.058545515 0.18168408 -0.007309287 0.27525368
000190 8f 7f 9e bd 9a 88 73 3e 0b 4f 47 be 2c 57 e9 3d
       -0.077391736 0.23782578 -0.19463746 0.1139358
0001a0 fd c7 6e be fc 46 12 3e 34 84 82 be aa be 92 3e
       -0.23318477 0.14284891 -0.25491488 0.2866109
0001b0 b9 01 e7 bd 66 74 a5 be 2d 96 a3 bd 90 f1 cd be
       -0.112796254 -0.32315367 -0.07987628 -0.4022336
0001c0 de ba 96 bb f3 ce f4 3c 93 3a 64 be e7 cd a9 be
       -0.004599913 0.029883837 -0.2228797 -0.33164904
0001d0 af c6 a8 bc c9 26 5e 3e a9 73 59 bc ef c9 5d 3e
       -0.020602552 0.21694483 -0.013272204 0.21659063
0001e0 5b f0 24 be 88 47 d2 3d 0a bf 77 3e 8e b2 50 3e
       -0.16107313 0.1026755 0.2419397 0.20380613
0001f0 e5 9a 29 bd 1e cb 08 3e 33 c9 b3 3d 12 70 27 be
       -0.041407485 0.13358733 0.0877861 -0.16351345
000200 f9 18 29 be 9e a2 f0 bd d9 8d ba 3c e2 74 09 3f
       -0.16513433 -0.11749767 0.022772716 0.53693974
000210 f5 12 ad 3d 58 ac cf 3d b6 27 d5 bd b2 59 01 bf
       0.084508814 0.10140294 -0.10407965 -0.5052749
000220 34 20 4d 3e 23 75 fb 3e 6e e8 e8 3e 2e fd b6 be
       0.20031816 0.49112806 0.4548983 -0.35740036
000230 e2 f0 e5 3c 0d b0 df bd ef c2 20 bf 09 6b 1a 3f
       0.028068963 -0.10922251 -0.62797445 0.6031957
000240 a9 da 29 39 76 af 00 be b3 fe 6a be d9 8a 83 3f
       0.00016198553 -0.12566933 -0.22948723 1.0276748
000250 1f 23 83 3e a2 72 99 bd 8c 3b 68 3f b1 dc 04 3d
       0.25612733 -0.074925676 0.9071586 0.03243703
000260 68 26 08 3b e6 a0 0b 3e 83 68 54 3e 69 51 99 3e
       0.0020774845 0.13635597 0.20742993 0.29944924
000270 f8 db 16 3d be 87 80 be 9b ce e0 3e 10 cf 01 3f
       0.036830872 -0.25103563 0.43907627 0.5070658
000280 cc 88 ee 3d 28 17 96 3d c5 86 fa 3d 06 62 65 3e
       0.11647186 0.073286355 0.122327365 0.22400674
000290 7e 05 8e 3d 36 ed c2 bd 25 ee 35 bf 54 c3 a1 3e
       0.06934641 -0.09517901 -0.71066505 0.31594336
0002a0 71 db 1b bf 56 81 e4 bc 9a e6 1c 3e ff b9 78 be
       -0.60881716 -0.027893703 0.15322343 -0.24289702
0002b0 62 f3 cb be c3 71 70 3d e3 70 9d bc 43 8f a8 3e
       -0.39834124 0.05870224 -0.019218868 0.329218
0002c0 ba 7d 94 be 27 06 3a 3f b1 fb ee 3e d9 ea 0a 3f
       -0.29002172 0.7266564 0.466764 0.542646
0002d0 e0 48 4c 3b 2d be 2c bf c4 36 bb 3b 47 75 b1 be
       0.0031171367 -0.67477685 0.0057133157 -0.34659788
0002e0 12 3b 2c bf 8c 66 98 3e b5 2a c2 3e ae 07 57 3e
       -0.67277634 0.29765737 0.37923208 0.20999023
0002f0 b6 0e 26 3e eb 6a 37 be 3d 9c 31 3e 98 19 e0 be
       0.1621655 -0.1791188 0.17344756 -0.43769526
000300 2d 68 90 3e b2 0a c7 3d 5b 18 44 3e b2 b9 a7 be
       0.2820448 0.09718837 0.19149916 -0.32758862
000310 a9 e8 89 be 6a ac 60 be 9f 8a b6 be 72 11 d3 be
       -0.26935318 -0.21940771 -0.35652635 -0.41224247
000320 8d 3e ba 3d 19 91 66 3e 6d fe 9d 3e 5a f2 fe bd
       0.09093962 0.22516288 0.30858174 -0.12448569
000330 4c 6d fd be 93 59 67 3c 8c be 18 3e 01 22 9b be
       -0.4949745 0.014120477 0.14916438 -0.3029938
000340 7c 4d 04 3c 8d 3a 07 bf 6c a6 12 bc 28 2f 7c 3d
       0.008075114 -0.52823716 -0.008950811 0.06156841
000350 c3 d1 4c 3e e1 d5 2f 3d b3 48 3f 3f 89 d0 a2 3d
       0.20001893 0.04292858 0.74720305 0.07949931
000360 f3 e1 8d 3e 3f 1a 91 be ee f1 84 be 7b 72 f1 bd
       0.27711448 -0.28340337 -0.25965828 -0.117894135
000370 a2 ce 83 3e 08 a1 e8 bc 01 8f 3c 3e 7d 0a 98 3e
       0.25743586 -0.028397098 0.18413927 0.29695502
000380 fe a4 4d 3d 21 f3 f5 3d c0 17 4e 3e 1d df 9a 3c
       0.050206177 0.12009264 0.20126247 0.018905217
000390 6e c3 14 be 0e ee 9e 3d e4 91 0b bf 82 a8 c5 3e
       -0.14527676 0.07760249 -0.54519486 0.38605124
0003a0 5f d8 e0 be 04 9f 9f be 6e 17 18 be 74 dd 81 3f
       -0.43915078 -0.31176007 -0.14852688 1.0145707
0003b0 d7 0b 16 be 67 c9 b5 bd a3 02 0a be 36 2b 34 be
       -0.14652954 -0.08876305 -0.13477568 -0.17594609
0003c0 bf bf 9c bd e4 47 c3 3e d1 3a ec bd c2 20 c8 be
       -0.0765376 0.38140786 -0.11534656 -0.39087492
0003d0 c4 55 63 bd 2a a4 22 3f 72 ec 83 bd bd a3 1b 3f
       -0.055501714 0.63531744 -0.06441583 0.6079672
0003e0 9d 18 e0 3e 07 26 02 be 25 8b 3b 3b 82 dc c9 bd
       0.43768778 -0.12709819 0.0028616872 -0.09856512
0003f0 97 6e 89 be 5f 33 ad 3e c6 6e 36 3e 12 52 0a 3e
       -0.26842186 0.33828256 0.17815694 0.1350787
