data/models/zara1/model_registrar-1999.pt (torch_old, 492052 bytes, 45 tensors)

weight_ih_l0 f4 [128, 6]
-0.07507962 0.04861514 -0.07661124 0.12431539 0.093617424 -0.23230374 -0.11682324 0.39584053
-0.11792758 -0.091862574 0.21707137 -0.21119688 -0.055783816 -0.30728742 0.058762707 0.1835816
-0.5766453 0.5867819 0.07472764 0.2653277 0.23148581 0.30729994 -0.63547635 0.26879388
-0.07494665 0.088302374 -0.39204082 0.072122775 1.319396 -1.1063443 0.1451436 0.31670466
0.25545332 -0.21975918 0.0045842286 -1.089208 -0.054208957 -0.1810681 -0.11780163 0.016732585
0.070307165 0.11146877 0.0758744 0.24367599 -0.26646605 0.14093332 -0.09289909 0.30874255
0.12053297 0.11344173 0.09301033 -0.29747057 0.47368443 0.5673087 0.1281452 0.18499653
-0.36736223 -0.18376917 0.19133332 0.07341333 0.108252175 -0.03811378 -0.14779103 -0.16335216
-0.12064082 -0.03190337 0.04406087 0.13308926 -0.3768013 -0.3178864 1.1700029 -0.6735613
-0.11618182 -0.17357837 -0.11638893 0.21484263 -0.21798514 -0.28912413 -0.22605002 0.067948304
0.4317241 -0.16673544 0.6246999 0.8479553 -0.018213956 -0.024646932 -0.2118207 -0.091778554
-0.5345964 -0.396187 -0.25340608 -0.24539328 0.20296736 0.049168836 0.3778287 0.42183498
0.15166253 0.038036365 0.006551657 0.28675565 -0.99867404 -1.1270427 -0.025365207 -0.07372341
-0.045179196 -0.068600796 0.057204407 -0.006083252 0.076117985 -0.18762526 0.07890851 0.49730146
-0.12671427 -1.0755523 -0.16878687 0.40760416 -0.23791686 0.14117397 0.6869444 0.845787
-0.24372937 -0.2896513 0.19796363 0.22738437 0.43316653 -0.3150282 -0.021130057 -0.42853993
0.13281219 0.9767285 0.4766824 0.40690657 -0.040043123 -0.40287495 0.08366825 0.48030543
0.23379256 -0.108533494 0.15722883 -0.2522904 -0.24423622 0.29652765 0.22563255 0.029552693
0.20964418 0.4493431 -0.2250142 -0.8405663 -1.4838948 0.85283434 -0.05294754 -0.073976345
0.082529016 0.50925034 0.25227678 -0.19200282 -0.31390363 0.10337217 -0.260167 -0.33815527
0.14377159 0.24032763 -0.17880575 -0.058185764 0.19550273 0.7417779 0.18691991 0.4253583
0.32237852 -0.081076086 -0.33801946 0.070282914 0.825843 0.58646595 -0.26048255 -0.1819327
-0.085612364 0.33004636 0.38838124 0.20472392 -0.08221317 0.17020129 0.14438987 -0.27803072
0.014661297 -0.08585029 -0.20377162 -0.15521923 0.025647154 0.2207041 0.19371842 0.12763612
0.07359393 0.18402822 -0.05528554 -0.04994327 -0.040269088 -0.2621776 0.0896223 0.2614167
0.023911338 -0.26521772 0.31621355 -0.10644117 -0.14965333 -0.09372589 -0.08256917 0.12937123
0.23375128 -0.5462305 0.086641364 0.18153484 0.016180865 0.033764794 0.3393541 -0.30572027
0.008806382 -0.10182608 -0.06403126 -0.087992534 -0.3022852 0.50514126 0.09052285 -0.05052367
0.06696199 -0.35594755 -0.07770267 0.04444884 0.15995055 0.020948347 0.03403362 0.121078
-0.022003492 -0.10155322 0.09121279 -0.03713807 -0.034670964 -0.023837185 0.0036199947 0.48241806
0.036176346 -0.07264574 -0.13483262 -0.11054385 -0.44128555 -0.08953041 -0.048153292 0.007358743
-0.04260284 0.00045736288 0.28876275 0.27274913 0.2304055 -0.111586675 0.05993539 -0.16221057
00000000: 58c3 99bd ab20 473d 5be6 9cbd 1199 fe3d
00000010: 7eba bf3d 08e1 6dbe 0641 efbd 9cab ca3e
00000020: 0484 f1bd 7222 bcbd f547 5e3e ff43 58be
00000030: 927d 64bd c754 9dbe 2ab1 703d d1fc 3b3e
00000040: 079f 13bf 5737 163f ce0a 993d 08d9 873e
00000050: 9e0a 6d3e 6b56 9d3e 94ae 22bf 5a9f 893e
00000060: a17d 99bd e0d7 b43d 93b9 c8be 1bb5 933d
00000070: f8e1 a83f b19c 8dbf 86a0 143e 1d27 a23e
00000080: c7ca 823e 8d08 61be 4c37 963b 2b6b 8bbf
00000090: 360a 5ebd ea69 39be fb41 f1bd c612 893c
000000a0: 34fd 8f3d bd49 e43d 0a64 9b3d 3386 793e
000000b0: 3d6e 88be d350 103e e141 bebd 8113 9e3e
000000c0: fdd9 f63d 2354 e83d 337c be3d 104e 98be
000000d0: c486 f23e 253b 113f 7f38 033e bb6f 3d3e
000000e0: e716 bcbe fc2d 3cbe e2ec 433e ba59 963d
000000f0: 51b3 dd3d 321d 1cbd 8856 17be ca45 27be
00000100: 8912 f7bd 1cad 02bd 2c79 343d 8d48 083e
00000110: 1aec c0be 02c2 a2be a8c2 953f 836e 2cbf
00000120: bcf0 edbd 87be 31be 525d eebd b5ff 5b3e
00000130: 7f37 5fbe 1408 94be a879 67be 7b28 8b3d
00000140: f10a dd3e b2bc 2abe 55ec 1f3f 9913 593f
00000150: 6f35 95bc 5de8 c9bc 87e7 58be 65f6 bbbd
00000160: 4fdb 08bf 06d9 cabe 71be 81be 6048 7bbe
00000170: add6 4f3e 4365 493d c372 c13e c1fa d73e
00000180: 6c4d 1b3e 05cc 1b3d 48af d63b a3d1 923e
00000190: 1aa9 7fbf ef42 90bf b2ca cfbc 4dfc 96bd
000001a0: d20d 39bd 937e 8cbd 2b4f 6a3d 0456 c7bb
000001b0: bfe3 9b3d d620 40be c99a a13d 4c9e fe3e
000001c0: 63c1 01be b3ab 89bf 77d6 2cbe 7eb1 d03e
000001d0: 7aa0 73be e98f 103e 97db 2f3f 7f85 583f
000001e0: 3194 79be 2d4d 94be fab6 4a3e 73d7 683e
000001f0: 01c8 dd3e 604b a1be f118 adbc 9669 dbbe
00000200: ebff 073e e10a 7a3f b70f f43e 0f56 d03e
00000210: 4204 24bd a045 cebe 425a ab3d 98ea f53e
00000220: 5167 6f3e cf46 debd 9800 213e 352c 81be
00000230: 0f19 7abe 79d2 973e 380c 673e 7d18 f23c
00000240: f7ac 563e 4c10 e63e 1f6a 66be 5a2f 57bf
00000250: 44f0 bdbf 5a53 5a3f 85df 58bd e980 97bd
00000260: f904 a93d 3b5e 023f 6c2a 813e 639c 44be
00000270: fab7 a0be cab4 d33d 9c34 85be b022 adbe
00000280: dc38 133e 7218 763e db18 37be 3254 6ebd
00000290: de31 483e 28e5 3d3f ef67 3f3e 90c8 d93e
000002a0: cc0e a53e 380b a6bd e310 adbe 7df0 8f3d
000002b0: 726a 533f a222 163f f85d 85be 914c 3abe
000002c0: 8955 afbd d6fb a83e e8d9 c63e 26a3 513e
000002d0: 615f a8bd 3f49 2e3e f0da 133e 0b5a 8ebe
000002e0: f035 703c 47d2 afbd 82a9 50be caf1 1ebe
000002f0: fb19 d23c 4100 623e 1f5e 463e 0bb3 023e
00000300: 6ab8 963d e571 3c3e 1773 62bd 5091 4cbd
00000310: 33f1 24bd 243c 86be e58b b73d 69d8 853e
00000320: b6e1 c33c 9eca 87be bee6 a13e d4fd d9bd
00000330: b93e 19be 5cf3 bfbd 061a a9bd e479 043e
00000340: 7f5c 6f3e c3d5 0bbf 0771 b13d 45e4 393e
00000350: bc8d 843c f44c 0a3d d2bf ad3e 5e87 9cbe
00000360: a548 103c 318a d0bd d222 83bd 6e35 b4bd
00000370: 20c5 9abe f050 013f 0b64 b93d e8f1 4ebd
00000380: 5e23 893d c23e b6be 9422 9fbd fd0f 363d
00000390: 14ca 233e de9b ab3c d666 0b3d bef7 f73d
000003a0: ab40 b4bc 22fb cfbd c5cd ba3d 171e 18bd
000003b0: 2403 0ebd 3346 c3bc 6f3d 6d3b 80ff f63e
000003c0: a62d 143d 4ac7 94bd 9011 0abe d064 e2bd
000003d0: 2ef0 e1be b85b b7bd 633c 45bd 9c21 f13b
000003e0: 5180 2ebd 35ca ef39 b6d8 933e c6a5 8b3e
000003f0: 6bef 6b3e 8e87 e4bd d07e 753d 871a 26be

weight_hh_l0 f4 [128, 32]
-0.12766051 -0.08615301 -0.05236339 0.11022548 -0.081185445 -0.06661054 -0.047377244 0.0017146084
0.15961774 0.043009534 -0.03334207 0.11348394 -0.019933421 0.11265141 0.07169603 -0.0048304275
0.07571087 -0.21430889 0.10426239 -0.16525291 -0.29234502 -0.18709514 -0.16817509 -0.17974158
0.18231072 -0.0072853905 0.15709627 0.14717737 0.13030401 0.13652961 0.0814288 -0.24526605
0.13393 -0.15883616 0.10685452 -0.030688629 0.07374122 0.08307479 -0.00055293064 -0.08460056
0.19225642 -0.18028188 -0.23268098 -0.09854265 -0.14044766 0.1714672 0.17624833 -0.07236066
0.0022594288 0.1623241 0.01864311 -0.09403805 -0.06563018 -0.12950349 -0.16633902 -0.057238765
0.083310165 0.007054625 -0.20519944 -0.12457678 -0.051366888 0.04507547 0.02203863 -0.0958212
-0.13993062 -0.24614346 -0.056606736 0.13162394 0.13759303 0.08816281 -0.21796957 -0.15001136
0.012549641 0.15822196 -0.19317658 0.15444788 -0.05136709 -0.07144815 0.048751608 -0.20559667
0.03321139 0.009250669 0.13697122 -0.18698283 0.122076176 -0.039570916 -0.100499816 0.16928226
0.37746277 0.16284321 0.11414916 0.2041996 0.13037026 -0.060624715 0.0058723367 0.070851
-0.20615958 -0.100548424 0.04529543 0.14881721 -0.024195716 -0.1191018 -0.048809838 0.07401741
-0.13132744 0.12725954 -0.116677985 -0.07154372 -0.17949219 -0.18392894 -0.25307745 -0.32451147
-0.1143802 0.30037528 0.011130936 -0.13314058 -0.11153547 -0.076832324 0.031225225 -0.10371322
0.29983804 0.07672785 -0.17230992 0.03850441 -0.13923627 -0.016049603 0.2538497 -0.019176548
-0.06718211 0.02430667 0.4496355 -0.07700078 0.1705304 -0.08114471 0.5164881 0.15469326
-0.080335595 -0.28530526 -0.1342936 -0.12556572 0.05485231 0.027557895 0.05411676 -0.17451961
-0.020680608 -0.3079725 -0.12170541 0.022584343 -0.08967172 0.117062636 0.13942559 0.044578936
0.4816564 -0.18053265 -0.1219953 -0.15454476 0.20483805 -0.030825164 0.04480584 -0.09998464
0.0059584654 -0.18600754 0.049803466 -0.1913589 0.2624024 0.05045664 0.15457954 -0.07200521
0.06830432 0.04909002 0.10710702 -0.0013024585 -0.08528504 0.070476875 -0.08793237 -0.012183459
-0.04011008 0.11149474 -0.18252254 0.18035255 0.06414307 -0.13812536 -0.042448033 0.025204958
0.058089156 -0.108649865 0.2147052 0.21105538 -0.074211895 -0.0534229 0.15461399 0.09968292
0.15037018 0.07060039 -0.13090241 0.23138976 0.36674264 -0.03280062 -0.03770082 -0.16445506
0.17695194 0.0826247 -0.41966024 -0.0079133725 -0.036420945 0.3059537 -0.15061577 -0.13373843
-0.065294206 -0.036809195 0.12031382 -0.31206578 0.14236227 0.043062747 0.19385473 0.15115121
-0.0467575 -0.24941908 0.18759258 0.13357559 -0.3326268 -0.036262747 -0.15846786 -0.04123859
0.21757697 -0.017911745 -0.02941814 0.06736195 -0.055777725 0.17473868 -0.20007943 0.0045404695
0.01133751 -0.10256489 -0.12548439 -0.118046224 0.21364568 -0.06488485 0.016552137 0.06629021
0.09138419 -0.122386776 -0.07865854 -0.051490188 0.0049939784 -0.072610766 -0.0737026 -0.10599544
0.12015227 0.12752451 0.008747733 0.109346636 0.1136908 0.25313258 0.04435584 0.011465882
00000000: 70b9 02be fd70 b0bd fe7a 56bd e5bd e13d
00000010: 8e44 a6bd 1b6b 88bd a40e 42bd b6bc e03a
00000020: d572 233e c42a 303d b291 08bd 456a e83d
00000030: 6a4b a3bc c8b5 e63d 5ed5 923d 9048 9ebb
00000040: 4d0e 9b3d ca73 5bbe 8587 d53d 0f38 29be
00000050: 3fae 95be de95 3fbe 1736 2cbe 2d0e 38be
00000060: a9af 3a3e 49ba eebb d8dd 203e aab5 163e
00000070: 6a6e 053e 6bce 0b3e 25c4 a63d 0627 7bbe
00000080: f224 093e f2a5 22be 8bd6 da3d b866 fbbc
00000090: a305 973d 1e23 aa3d 8cf2 10ba 0f43 adbd
000000a0: dede 443e d09b 38be ec43 6ebe bbd0 c9bd
000000b0: 83d1 0fbe 1995 2f3e 717a 343e d331 94bd
000000c0: ed12 143b 4a38 263e 6fb9 983c 0597 c0bd
000000d0: 1e69 86bd 909c 04be c754 2abe 3273 6abd
000000e0: 859e aa3d 7c2a e73b cd1f 52be 1c22 ffbd
000000f0: 1666 52bd 0ea1 383d 5b8a b43c e83d c4bd
00000100: f949 0fbe 080d 7cbe 77dc 67bd 6dc8 063e
00000110: 30e5 0c3e b48e b43d 6a33 5fbe 949c 19be
00000120: 029d 4d3c f004 223e 15d0 45be 9627 1e3e
00000130: 4c66 52bd 6853 92bd c4af 473d ef87 52be
00000140: ab08 083d 1e90 173c 2f42 0c3e 6d78 3fbe
00000150: 1303 fa3d 1d15 22bd d9d2 cdbd 5458 2d3e
00000160: cd42 c13e 5fc0 263e 09c7 e93d b319 513e
00000170: c87f 053e 9f51 78bd bb6c c03b 541a 913d
00000180: 7f1b 53be 55ec cdbd b387 393d 8a63 183e
00000190: 1836 c6bc a5eb f3bd d3ec 47bd 7196 973d
000001a0: b37a 06be 5350 023e def4 eebd 8485 92bd
000001b0: cdcc 37be de57 3cbe 5e93 81be 5e26 a6be
000001c0: 2b40 eabd caca 993e 885e 363c 0156 08be
000001d0: b56c e4bd 445a 9dbd 0bcc ff3c 9967 d4bd
000001e0: 5f84 993e 7e23 9d3d 0372 30be cdb6 1d3d
000001f0: f493 0ebe 757a 83bc 96f8 813e 2318 9dbc
00000200: c696 89bd c81e c73c a036 e63e 96b2 9dbd
00000210: 859f 2e3e 332f a6bd 9038 043f e967 1e3e
00000220: fd86 a4bd 8813 92be 4384 09be 4d94 00be
00000230: d1ac 603d 18c1 e13c 89a9 5d3d 45b5 32be
00000240: 616a a9bc 92ae 9dbe b040 f9bd cd02 b93c
00000250: cfa5 b7bd 89be ef3d 95c5 0e3e 6798 363d
00000260: ab9b f63e 8ddd 38be acd8 f9bd fb40 1ebe
00000270: 11c1 513e 0e85 fcbc 5486 373d bfc4 ccbd
00000280: 3b3f c33b c378 3ebe b8fe 4b3d 96f3 43be
00000290: 9b59 863e 9fab 4e3d 194a 1e3e 7877 93bd
000002a0: 23e3 8b3d 9e12 493d ed5a db3d 41b7 aaba
000002b0: eca9 aebd 2e56 903d e315 b4bd 219d 47bc
000002c0: 784a 24bd 5b57 e43d 30e7 3abe 57ae 383e
000002d0: 715d 833d bc70 0dbe fddd 2dbd a17a ce3c
000002e0: e5ee 6d3d d283 debd aedb 5b3e e71e 583e
000002f0: 68fc 97bd f9d1 5abd 2153 1e3e 8f26 cc3d
00000300: a4fa 193e f096 903d 480b 06be 70f1 6c3e
00000310: b1c5 bb3e f159 06bd 2d6c 1abd e866 28be
00000320: e432 353e 2437 a93d b5dd d6be 17a7 01bc
00000330: 212e 15bd f7a5 9c3e 053b 1abe baf2 08be
00000340: f8b8 85bd 3dc5 16bd 1867 f63d 16c7 9fbe
00000350: 6ac7 113e 9062 303d db81 463e 62c7 1a3e
00000360: cb84 3fbd b767 7fbe 4518 403e 0ac8 083e
00000370: 0f4e aabe 3f88 14bd 6645 22be cce9 28bd
00000380: 7fcc 5e3e a7bb 92bc 50fe f0bc 10f5 893d
00000390: 2f77 64bd b2ee 323e 9fe1 4cbe 38c8 943b
000003a0: f7c0 393c 8b0d d2bd fb7e 00be 38c2 f1bd
000003b0: efc5 5a3e 59e2 84bd 5998 873c 29c3 873d
000003c0: a227 bb3d eba5 fabd bb17 a1bd 60e7 52bd
000003d0: 87a4 a33b f4b4 94bd 64f1 96bd 2314 d9bd
000003e0: 6512 f63d c995 023e a752 0f3c 21f1 df3d
000003f0: b9d6 e83d 989a 813e 78ae 353d 65db 3b3c

bias_ih_l0 f4 [128]
0.055011384 0.2376351 0.09344248 0.041719522 -0.18895613 0.3002066 0.47632053 -0.10854534
0.04089964 0.14590116 0.41915813 0.06718667 0.30812037 -0.12156788 0.5997853 0.30688086
-0.05000664 0.29648885 0.02952536 0.26993528 0.44425496 -0.0020970602 -4.72723e-06 0.08281635
0.41075522 0.08316969 -0.06619167 0.06951629 -0.11660324 0.20365122 0.104484245 0.16882662
0.09506374 -0.48082793 -0.3426464 -0.047745347 -0.2583969 -0.21416351 -0.7163129 -0.0772843
-0.17313878 0.022502854 -0.04936961 -0.0398923 -0.14558364 0.12799339 -0.5720367 -0.6202764
-0.014488773 0.030647922 -0.22324246 0.0007633578 -0.60518306 0.045354493 0.06049309 0.020689685
-0.24588986 0.08099396 0.057314973 0.15445377 -0.085950084 -0.29561436 -0.5556978 -0.23749317
0.14084099 0.14371975 -0.073807664 0.032831717 -0.08319481 -0.009731867 0.09353436 -0.034729484
-0.053231873 0.058160912 -0.07793849 0.017671084 -0.09085986 -0.040066265 0.046873946 -0.07343939
-0.057448626 -0.11181581 0.07095156 0.033081114 0.07541471 0.03743947 0.13123664 -0.13131271
0.119204916 -0.0663609 0.0075699394 -0.05771358 -0.10955688 0.13827789 0.0054021226 -0.06391864
0.2577569 0.19431192 0.12665112 0.09628076 -0.0021470252 0.24472135 0.46840683 -0.091153905
-0.07276452 0.17947407 0.17806327 0.04736066 0.24710998 -0.12263892 0.64487344 0.46851507
0.092187636 0.1880478 0.12834613 0.18111227 0.4971492 -0.011062504 -0.037803598 0.12573543
0.3335811 0.1280939 0.099775374 0.03751695 0.017703237 0.389069 0.14980017 0.11823215
00000000: 9e53 613d 9e56 733e c55e bf3d 17e2 2a3d
00000010: b77d 41be aeb4 993e 49e0 f33e 054d debd
00000020: 6286 273d 1d67 153e e59b d63e 2a99 893d
00000030: f4c1 9d3e 95f8 f8bd 888b 193f 7d1f 9d3e
00000040: c3d3 4cbd 63cd 973e 2bdf f13c f534 8a3e
00000050: 6375 e33e d56e 09bb 999e 9eb6 9e9b a93d
00000060: 824e d23e df54 aa3d 808f 87bd 8f5e 8e3d
00000070: aecd eebd f289 503e d6fb d53d e3e0 2c3e
00000080: c7b0 c23d 142f f6be 596f afbe a090 43bd
00000090: 994c 84be ae4d 5bbe 4860 37bf 3b47 9ebd
000000a0: 4b4b 31be e857 b83c ca37 4abd 1c66 23bd
000000b0: e113 15be b310 033e ff70 12bf 6fca 1ebf
000000c0: 5262 6dbc 5a11 fb3c ac99 64be 131c 483a
000000d0: 47ed 1abf a2c5 393d 9ac7 773d 6a7d a93c
000000e0: 8dca 7bbe 29e0 a53d 1bc3 6a3d 2129 1e3e
000000f0: 9906 b0bd c45a 97be 3642 0ebf 6931 73be
00000100: 9f38 103e 452b 133e 7928 97bd 8d7a 063d
00000110: 0a62 aabd 6972 1fbc f18e bf3d 8140 0ebd
00000120: aa09 5abd 233a 6e3d 379e 9fbd f3c2 903c
00000130: bc14 babd 861c 24bd e5fe 3f3d 6467 96bd
00000140: 404f 6bbd b0ff e4bd 0d4f 913d 1080 073d
00000150: 0773 9a3d 215a 193d e662 063e d776 06be
00000160: b521 f43d 39e8 87bd 410d f83b 1365 6cbd
00000170: 5c5f e0bd b898 0d3e 4a04 b13b c7e7 82bd
00000180: b6f8 833e b4f9 463e d5b0 013e d92e c53d
00000190: 1bb5 0cbb 3c98 7a3e 05d3 ef3e e6ae babd
000001a0: 9105 95bd 0dc8 373e 3856 363e 40fd 413d
000001b0: 660a 7d3e 1d2a fbbd 6d16 253f 35e1 ef3e
000001c0: dfcc bc3d 9a8f 403e 2b6d 033e 7f75 393e
000001d0: 578a fe3e 813f 35bc f2d7 1abd cac0 003e
000001e0: 24cb aa3e 0c2b 033e 0857 cc3d 60ab 193d
000001f0: 6106 913c 0d34 c73e 3765 193e b323 f23d

bias_hh_l0 f4 [128]
0.010721172 0.25074264 -0.040347937 0.2032026 -0.045180067 0.056306113 0.37467074 0.06901919
0.12603737 0.31079698 0.16270451 -0.05764118 0.06982647 0.17270112 0.6403491 0.4673016
-0.13697334 0.28904894 -0.06616548 0.2256588 0.5919312 0.17862003 0.028520843 0.14711419
0.31241614 0.06804095 0.0073629976 -0.022065647 -0.19822924 0.19430815 0.17400369 0.21901762
0.0063043064 -0.45473835 -0.10495803 -0.2538896 0.049968872 -0.051320054 -0.5753698 -0.22211035
-0.10025323 -0.033719383 -0.030435046 -0.10108122 -0.14836591 -0.051443305 -0.46608153 -0.57016397
-0.14528681 -0.037275866 -0.1948893 -0.1805224 -0.4612753 -0.11744194 -0.16257298 -0.007297803
-0.4494727 -0.22763489 -0.19622216 0.09376091 -0.11417121 -0.061698493 -0.42361248 0.063897945
-0.14241801 -0.12505323 0.09627128 -0.022799177 0.17346585 0.022589214 -0.092608154 0.012161307
0.08802596 -0.03545748 0.04989473 0.034964625 0.089853466 0.026377928 -0.030830817 0.07281879
0.035492703 0.13057484 -0.0036014793 -0.093500495 -0.08156033 -0.023013443 -0.11235793 0.116765045
-0.11929201 0.03927957 0.010536991 0.057132863 -0.0981021 -0.14036636 -0.019147003 0.040077142
0.14271724 0.3286375 -0.029448748 0.32359374 0.09646722 0.14811075 0.6669864 0.21943977
-0.1267659 0.20182484 0.41933137 0.12425238 0.25927156 0.070543386 0.5647276 0.47637898
0.11068026 0.051256344 0.23344176 0.057623003 0.46019748 0.18003237 0.11397228 0.258325
0.5214096 0.103742234 0.15168992 0.043720454 -0.11163703 0.3835271 0.17681815 0.31897062
00000000: dba7 2f3c 5761 803e e143 25bd 5814 503e
00000010: bc0e 39bd 3da1 663d d8d4 bf3e ef59 8d3d
00000020: f10f 013e c820 9f3e 039c 263e 2819 6cbd
00000030: 2e01 8f3d 90d8 303e ebed 233f 2842 ef3e
00000040: bd42 0cbe 39fe 933e c481 87bd 1a13 673e
00000050: ce88 173f 2be8 363e 8ba4 e93c 1aa5 163e
00000060: 02f5 9f3e 0e59 8b3d 4d45 f13b 04c3 b4bc
00000070: 9bfc 4abe b7f8 463e 062e 323e 2846 603e
00000080: 5b94 ce3b 77d3 e8be 3cf4 d6bd d1fd 81be
00000090: 29ac 4c3d fa34 52bd 6f4b 13bf e570 63be
000000a0: 9151 cdbd 561d 0abd eb52 f9bc ac03 cfbd
000000b0: 3ced 17be 37b6 52bd 3da2 eebe 44f6 11bf
000000c0: 11c6 14be 94ae 18bd 1091 47be ddda 38be
000000d0: 472c ecbe 6685 f0bd 8879 26be 6922 efbb
000000e0: 4921 e6be 1f19 69be 76ee 48be b805 c03d
000000f0: 98d2 e9bd 8fb7 7cbd bce3 d8be eddc 823d
00000100: 07d6 11be f40d 00be e029 c53d 57c5 babc
00000110: 08a1 313e 040d b93c 58a9 bdbd 3840 473c
00000120: f446 b43d dd3b 11bd 6b5e 4c3d 1137 0f3d
00000130: 1805 b83d 8616 d83c e990 fcbc 0522 953d
00000140: cc60 113d 69b5 053e cc06 6cbb 307d bfbd
00000150: 1a09 a7bd b086 bcbc ea1b e6bd 8322 ef3d
00000160: 5f4f f4bd 9de3 203d 58a3 2c3c 2604 6a3d
00000170: c1e9 c8bd 33bc 0fbe 2dda 9cbc ee27 243d
00000180: 7824 123e 2d43 a83e 803e f1bc 14ae a53e
00000190: 9b90 c53d 58aa 173e 9fbf 2a3f d2b4 603e
000001a0: ecce 01be 2cab 4e3e 9ab2 d63e 0878 fe3d
000001b0: 3ebf 843e 0d79 903d fd91 103f f2e7 f33e
000001c0: 55ac e23d 2cf2 513d 5b0b 6f3e 1906 6c3d
000001d0: 019f eb3e 685a 383e 4c6a e93d 2d43 843e
000001e0: 197b 053f cf76 d43d 9a54 1b3e 3814 333d
000001f0: f5a1 e4bd aa5d c43e d10f 353e 1e50 a33e

weight_ih_l0 f4 [128, 2]
-0.22284947 0.2063714 0.025118731 0.43446273 -0.12885475 -0.02461308 -0.09559309 0.3891013
0.028791932 -0.49843386 -0.08852294 -0.08070604 -0.21041915 -0.26856178 -0.1600325 -0.2205276
0.098345324 -0.14262147 0.11857609 -0.2572559 -0.09274287 0.20647377 -0.65980244 -0.05767905
-0.010858637 0.35205597 -0.05020973 0.082833424 -0.00893224 -0.68313885 -0.04640298 0.08736922
-0.21917927 0.267043 0.110447414 0.003287703 -0.66811764 0.2013265 0.25910935 -0.10908857
-0.15225618 -0.31279978 -0.112985395 0.052542813 -0.007359749 0.21820761 -0.33851203 -0.43609697
0.36613357 -0.2052147 -0.3827822 0.48393226 0.04506224 -0.028214397 -0.03575145 -0.027008113
-0.14393508 -0.08610068 0.17645653 -0.123758 0.43777266 -0.2687422 0.022439357 -0.014928123
-0.5815945 0.0408529 0.16429731 -0.044765554 -0.12352622 -0.180303 -0.080163226 0.3722021
0.329562 -0.22896847 -0.07198575 0.19277701 -0.26008636 0.62687904 -0.06583972 -0.13823004
-0.17833228 -0.120985836 -0.0074842814 0.1485769 0.040709995 0.1600044 -0.36342525 -0.10708924
0.03256917 0.40855902 -0.44595364 0.17022872 0.12175136 -0.6487102 0.34133467 -0.15412878
0.06914633 0.0848236 -0.023764335 0.043739617 -0.704053 0.2732596 0.100475505 -0.10623785
-0.10675436 -0.29295295 0.1696617 0.039232302 0.048519574 0.15860632 -0.3551078 -0.6512138
0.42083886 -0.33526787 -0.3433165 0.33613083 -0.003698814 -0.11823239 0.4669825 -0.0929298
0.18101971 -0.3157701 0.25436804 -0.0066808355 0.32896787 -0.11974668 -0.05194747 -0.07061502
0.035596088 0.08199417 -0.06143854 -0.35885823 0.19081816 -0.22850591 0.010236527 -0.51799333
-0.43780002 0.26642674 0.07154817 -0.31252322 -0.24124564 -0.529447 -0.012674106 -0.1033511
0.07501051 0.14683138 -0.28749946 0.52993274 0.011811642 0.48368344 -0.46396825 0.04417377
-0.045546353 -0.43781576 0.027262421 0.18886237 -0.13221328 -0.48886552 -0.3716324 0.51667476
0.19767757 -0.11892853 -0.08169879 0.28408116 -0.2088672 0.13389458 0.021139879 0.5373757
0.18477215 0.012675343 -0.22903349 0.10661021 -0.24771681 -0.40449974 -0.070876606 -0.29281303
0.04112035 0.35788342 -0.119796395 0.49089438 -0.050646953 0.19834703 0.4656664 -0.28461832
0.06587098 0.25474024 0.013847384 0.41912973 -0.10586245 -0.44146776 -0.15800603 -0.3382383
-0.5095698 0.10731556 0.34074262 0.23315868 -0.27420402 -0.12540762 -0.033058636 0.44183564
0.08110718 -0.65043986 -0.17944928 -0.08699722 -0.3655492 -0.002601379 -0.28089884 -0.30493227
-0.18433617 0.12699825 -0.13908496 -0.341189 0.15569957 0.26532614 -0.33240008 -0.23591328
0.24942608 0.33332902 -0.25007653 0.28909865 0.17486642 -0.58495945 0.056983173 0.10069785
-0.12410231 0.05731459 -0.23428448 -0.05412537 -0.72422034 -0.09732358 0.45645046 0.057258356
-0.09715872 -0.22147536 -0.05101746 0.03385898 0.1913584 0.32630304 -0.39148247 -0.7016533
0.47126418 -0.008509923 -0.5031446 0.2646067 -0.021147544 -0.25943282 0.3016007 0.14193383
-0.24631257 -0.3363054 0.17595537 -0.35542604 0.16755459 0.10647407 0.071631156 -0.040276438
00000000: a732 64be 0653 533e ccc5 cd3c e671 de3e
00000010: 80f2 03be 5fa1 c9bc 4fc6 c3bd 4938 c73e
00000020: 0fdd eb3c b932 ffbe 844b b5bd 3549 a5bd
00000030: 1e78 57be ee80 89be 8fdf 23be fdd1 61be
00000040: 4669 c93d 5d0b 12be 05d8 f23d 0cb7 83be
00000050: f9ef bdbd dc6d 533e d0e8 28bf de40 6cbd
00000060: 6de8 31bc ae40 b43e b8a8 4dbd 92a4 a93d
00000070: 8858 12bc 30e2 2ebf 0d11 3ebd a2ee b23d
00000080: 8870 60be dcb9 883e 4132 e23d 8176 573b
00000090: c209 2bbf 8928 4e3e fba9 843e d469 dfbd
000000a0: 0be9 1bbe 4b27 a0be e364 e7bd 2237 573d
000000b0: 0d2a f1bb d171 5f3e 7351 adbe 1a48 dfbe
000000c0: dc75 bb3e cd23 52be 07fc c3be f8c5 f73e
000000d0: 2f93 383d e121 e7bc 1d70 12bd 1e40 ddbc
000000e0: b863 13be 8e55 b0bd 05b1 343e d674 fdbd
000000f0: bd23 e03e 9498 89be bed2 b73c 1695 74bc
00000100: 61e3 14bf 5f55 273d 8e3d 283e 165c 37bd
00000110: 51fb fcbd 5aa1 38be 9e2c a4bd 4691 be3e
00000120: 5abc a83e b676 6abe 446d 93bd 5667 453e
00000130: 0a2a 85be 257b 203f fad6 86bd 2d8c 0dbe
00000140: bd9c 36be 6cc7 f7bd b43e f5bb 8b24 183e
00000150: 86bf 263d 32d8 233e e012 babe 9a51 dbbd
00000160: 4067 053d a62e d13e 0954 e4be 7050 2e3e
00000170: c758 f93d df11 26bf 6bc3 ae3e efd3 1dbe
00000180: 979c 8d3d ffb7 ad3d 6cad c2bc 5028 333d
00000190: d13c 34bf afe8 8b3e 1ac6 cd3d 3b93 d9bd
000001a0: 08a2 dabd eefd 95be ccbb 2d3e 0db2 203d
000001b0: 76bc 463d b269 223e b1d0 b5be f3b5 26bf
000001c0: 3178 d73e 3ba8 abbe 2ec7 afbe 5719 ac3e
000001d0: cd67 72bb d323 f2bd 5518 ef3e fb51 bebd
000001e0: 3b5d 393e 9eac a1be 873c 823e e9ea dabb
000001f0: 7a6e a83e bf3d f5bd dfc6 54bd 9c9e 90bd
00000200: 34cd 113d 8fec a73d fba6 7bbd 44bc b7be
00000210: d665 433e 74fd 69be 1bb7 273c 369b 04bf
00000220: 5327 e0be 1669 883e d987 923d 0b03 a0be
00000230: 1909 77be d789 07bf 0ea7 4fbc bea9 d3bd
00000240: 1c9f 993d f75a 163e 2133 93be aca9 073f
00000250: 9e85 413c 5ba5 f73e 3f8d edbe 8eef 343d
00000260: d08e 3abd 6329 e0be 7155 df3c 2365 413e
00000270: eb62 07be 954c fabe 9a46 bebe cc44 043f
00000280: fd6b 4a3e cd90 f3bd b251 a7bd 1673 913e
00000290: 49e1 55be a91b 093e 8a2d ad3c 7491 093f
000002a0: e934 3d3e 3eac 4f3c c187 6abe 7456 da3d
000002b0: 7aa9 7dbe 971a cfbe c127 91bd 97eb 95be
000002c0: d06d 283d 7f3c b73e d057 f5bd 8256 fb3e
000002d0: 2e73 4fbd 7c1b 4b3e d46b ee3e 7eb9 91be
000002e0: 5de7 863d 506d 823e 23e0 623c 2c98 d63e
000002f0: 6ace d8bd 1008 e2be 55cc 21be 922d adbe
00000300: 2b73 02bf 43c8 db3d d175 ae3e 26c1 6e3e
00000310: 7864 8cbe db6a 00be 7e68 07bd 4838 e23e
00000320: 851b a63d 3a83 26bf 8dc1 37be 992b b2bd
00000330: 4429 bbbe e67b 2abb f9d1 8fbe 1520 9cbe
00000340: 9fc2 3cbe d40b 023e 4a6c 0ebe 53b0 aebe
00000350: b56f 1f3e d4d8 873e 5830 aabe 4093 71be
00000360: 8d69 7f3e 1aaa aa3e 080a 80be bd04 943e
00000370: 2f10 333e e7bf 15bf 3067 693d ad3a ce3d
00000380: 5a29 febd b4c2 6a3d 45e8 6fbe 90b2 5dbd
00000390: 8166 39bf 9651 c7bd e0b3 e93e bd87 6a3d
000003a0: 27fb c6bd 70ca 62be aff7 50bd b7af 0a3d
000003b0: 75f3 433e 3111 a73e 6470 c8be 8d9f 33bf
000003c0: 8a49 f13e 346d 0bbc 16ce 00bf 887a 873e
000003d0: 9d3d adbc 61d4 84be 686b 9a3e 1a57 113e
000003e0: 5d39 7cbe 3930 acbe a52d 343e 67fa b5be
000003f0: 6e93 2b3e 140f da3d 5bb3 923d e8f8 24bd

weight_hh_l0 f4 [128, 32]
-0.13129705 0.11575587 -0.037093613 0.010126814 0.08790772 -0.12251768 -0.14494164 -0.10543023
-0.32891792 0.08102791 0.11626771 0.2730299 0.09590963 0.0010379544 -0.17017035 0.1457466
0.022890288 0.020098697 0.008982787 0.20734075 0.14478366 -0.3145147 -0.3191057 -0.062058624
-0.23097983 0.47770295 -0.05262242 0.16383329 -0.054524574 -0.4751774 -0.021211589 0.02913498
0.21696731 -0.064284824 0.03322341 -0.27026883 0.16031656 -0.04240446 -0.30686134 -0.055821784
-0.048561845 0.2911706 0.17529874 -0.11544218 -0.023111895 0.4293476 0.011125042 0.021116437
-0.0058550998 0.010140469 0.20323643 0.43948126 0.16038711 -0.21812484 0.04383362 -0.21843335
0.045859795 0.089142196 0.17138702 0.033122707 0.09489737 0.08664406 -0.24138835 -0.323269
0.054347675 0.024181094 -0.031484 -0.20600381 -0.10607799 0.02941947 0.12801212 0.13491012
-0.050206855 -0.15396954 -0.10414009 0.19718346 0.020430947 0.27825126 0.2208888 0.015880162
-0.12994869 -0.080914 -0.0017175083 -0.16926582 -0.14016388 -0.035307575 -0.08622275 0.32924116
-0.09974974 -0.0337806 -0.20578608 0.03778322 -0.19235316 0.11530957 0.12402755 -0.12978753
0.12308602 -0.06809587 0.07595599 -0.13365754 0.1397229 -0.115772136 -0.13441104 0.010960442
0.025534507 0.301954 0.11439851 0.06740614 -0.17592165 -0.09266688 -0.047024935 -0.010361449
-0.2654424 0.12469144 -0.195364 -0.044237394 0.08969128 0.047360647 -0.11182166 -0.0491115
0.015059999 0.21572277 0.097540565 -0.054197144 -0.09060863 -0.0929273 0.0206686 -0.32273534
0.13768463 0.69483453 0.20256174 0.12260352 0.15025279 0.17230251 0.31654602 -0.017502762
-0.056998275 -0.0958792 -0.24403317 0.10372091 0.39884147 0.15251969 0.176652 -0.52711487
-0.11377241 -0.0061030276 -0.18751681 -0.03561797 0.4422414 -0.17931694 0.07180141 0.07779761
-0.5221169 0.28067744 -0.1708612 0.5176721 -0.24841835 -0.15980949 0.28572458 0.08550831
0.0023040506 -0.028030502 -0.043175593 -0.19195418 -0.026544092 0.15160367 -0.1269624 0.20987669
0.045887128 -0.21211743 -0.020467127 0.18043636 -0.006212059 -0.023196805 0.091996446 -0.17927152
-0.22310561 0.098144636 -0.15800025 0.26664996 -0.07038312 -0.18552195 -0.24765825 0.07657444
0.09024431 0.32445693 0.1857877 0.007509807 -0.004270117 -0.33547118 0.30585277 -0.22515625
0.16813152 0.124936245 0.04040994 -0.41622666 0.43520898 -0.28787273 -0.37808117 0.13873078
-0.22100335 -0.2854553 0.16373843 0.5074961 0.17373589 0.23065507 0.0023018627 -0.101053074
-0.37126154 0.023227725 -0.026175406 0.018269472 0.24965584 -0.112975545 -0.31162062 0.36291105
-0.17258765 0.49676502 0.012242092 0.32613182 -0.0066857105 -0.4328756 -0.093574665 -0.011673817
0.21771044 0.01313046 -0.2073313 0.07509512 0.110792086 -0.077004224 0.2745403 0.08010303
0.06643924 -0.19199952 -0.054289214 0.3371674 0.050254334 0.026263116 0.09420976 0.086934656
-0.01353021 -0.11615355 -0.05498182 0.08634129 -0.20467187 0.04697579 -0.047453918 -0.03759243
0.18999258 -0.10841722 -0.00014793835 0.14817144 0.027667288 0.062960654 0.21215905 -0.06499112
00000000: bc72 06be 6a11 ed3d 79ef 17bd f0ea 253c
00000010: f608 b43d 8dea fabd 956b 14be ceeb d7bd
00000020: ee67 a8be f6f1 a53d c41d ee3d 93ca 8b3e
00000030: 456c c43d f80b 883a 2341 2ebe 993e 153e
00000040: 6a84 bb3c 06a6 a43c 8a2c 133c 2251 543e
00000050: 2b42 143e 1208 a1be d361 a3be 2f31 7ebd
00000060: fa85 6cbe 7b95 f43e 9b8a 57bd eac3 273e
00000070: 2955 5fbd 744a f3be edc3 adbc 7bac ee3c
00000080: ae2c 5e3e c3a7 83bd 4515 083d ad60 8abe
00000090: 062a 243e 4db0 2dbd ee1c 9dbe 62a5 64bd
000000a0: c9e8 46bd 5014 953e 8381 333e f36c ecbd
000000b0: 2855 bdbc 73d3 db3e cf45 363c 61fc ac3c
000000c0: 23dc bfbb 3624 263c 361d 503e b003 e13e
000000d0: 853c 243e 1e5c 5fbe e28a 333d feac 5fbe
000000e0: 7bd7 3b3d 2f90 b63d 1480 2f3e adab 073d
000000f0: 8d59 c23d 7172 b13d 822e 77be 8483 a5be
00000100: ab9b 5e3d 6e17 c63c 5ef5 00bd aaf2 52be
00000110: 6b3f d9bd 1a01 f13c 9c15 033e e125 0a3e
00000120: b4a5 4dbd 31aa 1dbe 6647 d5bd 76ea 493e
00000130: cd5e a73c f376 8e3e ac30 623e 1d17 823c
00000140: 4511 05be 3db6 a5bd 041e e1ba 0554 2dbe
00000150: 1f87 0fbe ad9e 10bd 8e95 b0bd 4c92 a83e
00000160: 9749 ccbd 875d 0abd 96b9 52be 94c2 1a3d
00000170: 3af8 44be 6d27 ec3d 2802 fe3d 06e7 04be
00000180: 8614 fc3d d975 8bbd d08e 9b3d 86dd 08be
00000190: 8513 0f3e f119 edbd 0ca3 09be 6d93 333c
000001a0: be2d d13c b799 9a3e c449 ea3d 3b0c 8a3d
000001b0: ce24 34be 22c8 bdbd 389d 40bd 11c3 29bc
000001c0: 11e8 87be 3a5e ff3d 800d 48be 4532 35bd
000001d0: 10b0 b73d 3dfd 413d c102 e5bd 2429 49bd
000001e0: 37be 763c 6ee6 5c3e 59c3 c73d d3fd 5dbd
000001f0: 0491 b9bd ab50 bebd 3251 a93c 913d a5be
00000200: 33fd 0c3e ade0 313f 586c 4f3e 8e17 fb3d
00000210: dedb 193e 1270 303e 5212 a23e f461 8fbc
00000220: 0677 69bd 505c c4bd d5e3 79be a16b d43d
00000230: f334 cc3e 1f2e 1c3e 43e4 343e 00f1 06bf
00000240: 8201 e9bd e8fb c7bb 6804 40be 26e4 11bd
00000250: 776d e23e dc9e 37be 9e0c 933d 5a54 9f3d
00000260: 74a9 05bf f4b4 8f3e 3df6 2ebe 2986 043f
00000270: 6161 7ebe 19a5 23be 7e4a 923e fb1e af3d
00000280: 8eff 163b 39a0 e5bc e4d8 30bd a38f 44be
00000290: ff72 d9bc fe3d 1b3e 6e02 02be eae9 563e
000002a0: 24f4 3b3d 5035 59be adaa a7bc 4fc4 383e
000002b0: 878e cbbb 3a07 bebc a268 bc3d f492 37be
000002c0: cc75 64be 0e00 c93d d1ca 21be 5886 883e
000002d0: 0625 90bd 77f9 3dbe 209a 7dbe 0fd3 9c3d
000002e0: 02d2 b83d 381f a63e 213f 3e3e d414 f63b
000002f0: 56ec 8bbb e1c2 abbe bc98 9c3e 5c8f 66be
00000300: ab2a 2c3e 93de ff3d e584 253d a91b d5be
00000310: b6d3 de3e 0e64 93be db93 c1be 710f 0e3e
00000320: b44e 62be 3227 92be 0cab 273e 44eb 013f
00000330: d2e7 313e d830 6c3e d9da 163b eaf4 cebd
00000340: fe15 bebe 1248 be3c ce6d d6bc dca9 953c
00000350: c8a5 7f3e b95f e7bd bd8c 9fbe 7acf b93e
00000360: d1ba 30be fc57 fe3e 0e93 483c c0fa a63e
00000370: ce13 dbbb dfa1 ddbe 13a4 bfbd 8a43 3fbc
00000380: 7cef 5e3e 2421 573c a84e 54be 78cb 993d
00000390: f6e6 e23d 64b4 9dbd 8c90 8c3e 0f0d a43d
000003a0: 4c11 883d 869b 44be 5e5e 5ebd 35a1 ac3e
000003b0: 7dd7 4d3d bf25 d73c 0cf1 c03d cc0a b23d
000003c0: d0ad 5dbc eae1 edbd 9e34 61bd b4d3 b03d
000003d0: 8195 51be b069 403d 0a5f 42bd 85fa 19bd
000003e0: 6a8d 423e d909 debd e61f 1bb9 41ba 173e
000003f0: 82a6 e23c 84f1 803d 3940 593e 101a 85bd

bias_ih_l0 f4 [128]
0.016357258 -0.045656636 0.07944997 0.11387619 0.28395796 0.19922227 0.40132737 -0.10886603
0.07050559 0.25400797 -0.0068753394 -0.06475832 0.03871213 0.17949784 -0.12473704 0.2604362
-0.028118527 0.21976157 0.15035747 0.09000455 0.25035122 -0.056050003 -0.053286202 -0.051328417
-0.0045622117 0.064412855 0.12328243 0.1214689 0.087055445 0.17050198 0.2716044 0.16522616
0.2999013 -0.005889634 -0.09286544 -0.06988773 0.16266966 0.17423028 0.14634894 0.16808766
0.25388747 0.38423046 0.17990878 0.2580525 -0.023640992 0.22752681 0.08496141 0.08536416
-0.11356031 0.27473396 0.15436812 0.37854305 0.19374038 0.10495096 -0.008076126 0.06709716
0.0066667083 0.18120553 0.13988306 0.30048516 -0.14744234 0.13389255 0.11501636 0.043669824
-0.06575561 0.05959235 0.11673183 -0.1643722 0.019950353 0.12348727 0.12160247 0.11252931
0.13516946 -0.11914504 0.07478865 0.041380595 0.052493215 0.028086094 0.017357292 -0.09007737
-0.11566283 -0.09663282 0.16097035 -0.0489686 0.038215358 -0.15827912 -0.11145903 0.13924524
-0.13705596 -0.018651782 0.14780156 0.054639615 0.03571927 -0.08541246 -0.08153412 0.075650275
-0.018841144 0.18075442 0.15804684 0.16872749 0.32207537 0.2952175 0.42365998 -0.013120272
0.039622504 0.38962325 0.15441327 -0.009723182 -0.123066984 0.25399536 0.1529778 0.21333855
0.055392582 -0.02314742 0.086313196 0.2816082 0.058209296 0.11361874 0.049469437 -0.11945495
0.17584603 0.15503243 0.26430637 0.0062901834 -0.115871124 0.063274704 0.2637359 0.025959099
00000000: a8ff 853c 7402 3bbd aab6 a23d eb37 e93d
00000010: f062 913e ec00 4c3e c87a cd3e 27f5 debd
00000020: 3c65 903d 550d 823e 874a e1bb 03a0 84bd
00000030: 9c90 1e3d 48ce 373e 2276 ffbd e557 853e
00000040: d358 e6bc 2d09 613e 4ff7 193e 4e54 b83d
00000050: 092e 803e b094 65bd a242 5abd bf3d 52bd
00000060: 9b7e 95bb e3ea 833d 807b fc3d b0c4 f83d
00000070: 204a b23d 1298 2e3e bb0f 8b3e 0c31 293e
00000080: aa8c 993e d5fd c0bb 3c30 bebd 4c21 8fbd
00000090: e092 263e 6c69 323e 7fdc 153e 2c1f 2c3e
000000a0: 8afd 813e dbb9 c43e 023a 383e 751f 843e
000000b0: c1aa c1bc cafc 683e 3f00 ae3d 68d3 ae3d
000000c0: 4f92 e8bd eea9 8c3e ad12 1e3e 65d0 c13e
000000d0: e163 463e 87f0 d63d ba51 04bc 3c6a 893d
000000e0: 6774 da3b f18d 393e 813d 0f3e 31d9 993e
000000f0: 20fb 16be 211b 093e b38d eb3d 21df 323d
00000100: e1aa 86bd 1c17 743d 1911 ef3d 3051 28be
00000110: ec6e a33c e5e6 fc3d b70a f93d c475 e63d
00000120: dd69 0a3e 5102 f4bd cb2a 993d b37e 293d
00000130: 2003 573d cf14 e63c e130 8e3c 7c7a b8bd
00000140: a2e0 ecbd 6ee7 c5bd 69d5 243e 4c93 48bd
00000150: b587 1c3d ec13 22be a244 e4bd 4e96 0e3e
00000160: 6658 0cbe 9fcb 98bc 4b59 173e cacd 5f3d
00000170: 5f4e 123d baec aebd 5cfb a6bd 88ee 9a3d
00000180: be58 9abc b017 393e 08d7 213e e6c6 2c3e
00000190: 10e7 a43e c026 973e f6e9 d83e 69f6 56bc
000001a0: 354b 223d b37c c73e 831e 1e3e fb4d 1fbc
000001b0: 8b0a fcbd ae0b 823e 36a6 1c3e 6c75 5a3e
000001c0: 55e3 623d a89f bdbc f9c4 b03d f32e 903e
000001d0: df6c 6e3d f1b0 e83d 77a0 4a3d cca4 f4bd
000001e0: fb10 343e d2c0 1e3e 2a53 873e e21d ce3b
000001f0: d74d edbd 2b96 813d 6408 873e 2da8 d43c

bias_hh_l0 f4 [128]
0.24539664 0.21383137 0.009637573 -0.055054802 0.37799245 0.28690326 0.15470923 -0.004781318
0.14918314 0.32613945 0.19818191 0.14399582 0.039253645 0.18878326 0.10454719 0.31151077
-0.079165496 0.14063889 0.06011492 0.045042776 0.25541624 0.053384554 0.24109809 -0.124804996
-0.1115601 -0.018745407 0.087524086 0.025293898 0.112897746 0.19471076 0.13078941 0.19419742
0.16569372 0.21512419 0.031059379 0.03451998 0.17308174 0.0073646144 0.023242358 -0.12188265
-0.007755975 0.2055347 0.09857723 0.15229768 0.120903514 0.24061936 -0.07148248 0.011438656
-0.046094038 0.014637319 0.009364935 0.19135964 0.18614689 0.028072217 0.13676083 -0.08047691
0.031101724 0.22610982 0.050609354 0.08152926 0.05100601 -0.058380123 -0.0045203534 0.22062236
0.11353286 0.07753445 -0.07198072 -0.13119367 0.093446635 -0.077774964 -0.08259667 0.1118595
-0.12556052 0.10351425 -0.00029014776 0.14870943 0.013624594 0.10096825 -0.0055418103 0.016694844
-0.026762627 0.07454308 -0.12223266 0.049080007 0.08518141 -0.11659095 0.020125547 0.074918516
-0.07290221 0.20388502 -0.05639762 0.070776604 -0.11300465 -0.12406917 0.14349352 -0.10391489
0.2455428 0.15672666 0.057452183 -0.09758975 0.14889522 0.3084134 0.34874865 0.06060471
0.08269587 0.40234873 0.099643506 0.011047741 -0.11518568 0.11315366 0.21872124 0.3154202
0.20348582 0.03523798 -0.13563968 0.26689827 0.0410418 -0.07651281 0.17033294 0.16732417
0.050781194 0.280866 0.052641146 0.19168912 0.15964538 0.13046627 0.18855666 0.09066911
00000000: 4249 7b3e 9cf6 5a3e e9e6 1d3c 2581 61bd
00000010: 3a88 c13e fce4 923e 196c 1e3e 9aac 9cbb
00000020: 77c3 183e c0fb a63e 33f0 4a3e a473 133e
00000030: 6ec8 203d 6650 413e d61c d63d 577e 9f3e
00000040: 8521 a2bd a403 103e 103b 763d c67e 383d
00000050: ebc5 823e c3a9 5a3d 6be2 763e c399 ffbd
00000060: 9f79 e4bd f88f 99bc d43f b33d 2635 cf3c
00000070: ef36 e73d 4262 473e a9ed 053e b0db 463e
00000080: 9dab 293e 8449 5c3e 3d70 fe3c d364 0d3d
00000090: 573c 313e dd52 f13b c266 be3c 9c9d f9bd
000000a0: d525 febb b077 523e dce2 c93d ecf3 1b3e
000000b0: 439c f73d ec64 763e 6865 92bd 3369 3b3c
000000c0: 1acd 3cbd 5ed1 6f3c 626f 193c c8f3 433e
000000d0: 4a9d 3e3e b5f7 e53c 080b 0c3e 14d1 a4bd
000000e0: 0bc9 fe3c 5589 673e c14b 4f3d d0f8 a63d
000000f0: aeeb 503d ff1f 6fbd 791f 94bb d4ea 613e
00000100: eb83 e83d 62ca 9e3d a16a 93bd a257 06be
00000110: f360 bf3d 7b48 9fbd 7128 a9bd 9816 e53d
00000120: f092 00be 47ff d33d f91e 98b9 4947 183e
00000130: b039 5f3c 71c8 ce3d 1398 b5bb a0c3 883c
00000140: 4c3d dbbc 0baa 983d 1e55 fabd 1e08 493d
00000150: 9773 ae3d 3cc7 eebd 55de a43c e16e 993d
00000160: c14d 95bd 3cc7 503e 3101 67bd 53f3 903d
00000170: fb6e e7bd fa17 febd f7ef 123e 54d1 d4bd
00000180: 926f 7b3e f47c 203e fb52 6b3d 23dd c7bd
00000190: fd77 183e 5ce8 9d3e 2f8f b23e a53c 783d
000001a0: 745c a93d a700 ce3e e511 cc3d 9601 353c
000001b0: 78e6 ebbd 1bbd e73d 76f8 5f3e c27e a13e
000001c0: 965e 503e b355 103d 21e5 0abe e4a6 883e
000001d0: 721b 283d c0b2 9cbd c26b 2e3e 0757 2b3e
000001e0: f1ff 4f3d abcd 8f3e 3e9e 573d 274a 443e
000001f0: 147a 233e f398 053e ff14 413e bab0 b93d

weight_ih_l0_reverse f4 [128, 2]
-0.034095246 -0.220872 0.16054364 -0.0063009798 0.07023212 -0.78027225 0.045678973 0.062070776
-0.030338006 0.15904458 -0.33040357 -1.1042187 -0.3172902 0.10009905 -0.16306561 0.5563614
0.076088466 -0.10429041 -0.48505208 0.22009647 -0.15334988 0.016836386 0.046115674 -0.15705825
-0.5678313 -0.19401897 -0.15105982 -0.4565699 0.007744478 0.058214948 -0.09762062 0.12153359
-0.16265085 0.35207582 -0.020327074 -0.13270551 -0.429574 -0.06817163 0.10978285 -0.21189953
-0.18113412 0.056518994 0.08706707 -0.72256964 -0.15760049 0.36881733 0.21669562 0.30508485
-0.35044903 0.16997416 -0.1867784 -0.1799488 0.20388329 0.16418943 -0.24691777 -0.32110336
-0.26728514 0.6584097 0.1693771 -0.1986928 -0.049701355 -0.021919074 0.1748302 -0.42731294
-0.11009908 -0.08684189 0.24460092 -0.30125603 -0.1686656 -0.74793446 -0.008889577 0.025336677
-0.044178467 0.09635354 0.10443699 -0.17299156 -0.41011614 0.35515386 0.11556155 0.59867
0.09690273 0.2619741 -0.24330947 -0.016076976 0.40199488 -0.14008512 -0.088373505 -0.16625763
-0.5263195 -0.114898 0.06581259 -0.31044042 0.13266538 -0.02266216 -0.019546723 0.06858227
-0.021830954 0.2255905 0.040452648 0.01992692 -0.5527887 -0.09809247 0.1506717 -0.19757606
-0.12167474 -0.2473054 0.17673388 -0.74180704 0.19961655 0.028242314 -0.030544765 0.20543978
-0.28023538 -0.055572636 0.004290521 -0.20366175 0.27973944 -0.016367206 -0.091978736 -0.21744375
-0.075384356 0.56098527 0.38245818 -0.17527643 0.15393424 -0.053528104 0.32480076 -0.46632677
-0.2718289 -0.44778797 0.30587772 0.4307428 -0.5918749 -0.008358995 -0.16504236 -0.38441265
0.2516411 0.2890743 0.28499705 0.4996435 0.36178663 0.03947761 -0.6035416 0.4810441
0.13100195 -0.74192953 -0.04616397 0.5512672 0.33331954 0.113252506 0.70202935 0.0631166
0.94313014 -0.14349104 0.38532716 0.4828902 -0.02338039 -0.061865807 0.65984136 0.025581626
0.09424061 0.24379629 0.13853498 0.59927046 0.5393923 -0.4181891 -0.5270427 -0.24512276
-0.029488586 -0.21458232 0.23304307 -0.29680017 -0.11283854 0.27445647 0.24259515 0.39258972
0.25209028 -0.12482717 0.18754219 0.32943195 -0.15082406 -0.16981295 -0.03364984 -0.5139017
-0.7328699 0.49959898 0.55844176 0.04775395 0.6523758 -0.42641473 -0.10100932 -0.22577167
0.001070092 -0.011740622 0.12567821 -0.06066252 -0.3718927 -0.36689916 -0.38775036 -0.07819558
-0.050081037 0.36152872 -0.2972228 -0.7753811 -0.4301391 0.40765175 -0.28243464 0.5739461
-0.08551603 0.11931063 -0.5162575 -0.10076664 0.0705978 -0.18315223 0.18970521 -0.28264594
-0.2501835 -0.22741331 -0.0043252213 -0.046802804 -0.1394337 -0.29276073 -0.36108145 0.07696621
0.10742547 0.4655918 0.08808118 -0.06591858 -0.46670744 0.059293225 0.035680525 -0.24875018
0.06910126 -0.024705432 0.036236722 -0.36324543 -0.06738136 0.2847914 0.03689968 0.16428947
-0.32622543 -0.007192137 0.14188184 -0.17725006 -0.023748616 0.15319368 -0.13855873 -0.23158951
-0.016543673 0.40516084 0.22868964 -0.5339833 -0.17633446 0.34285325 0.208025 -0.1552485
00000000: 75a7 0bbd 452c 62be 8d65 243e 7378 cebb
00000010: dcd5 8f3d ecbf 47bf e019 3b3d ed3d 7e3d
00000020: 6987 f8bc 95dc 223e a82a a9be 0a57 8dbf
00000030: dc73 a2be bb00 cd3d acfa 26be b36d 0e3f
00000040: 45d4 9b3d 3696 d5bd bf58 f8be f860 613e
00000050: c007 1dbe 76ec 893c cae3 3c3d e1d3 20be
00000060: 645d 11bf e9ac 46be 6daf 1abe 88c3 e9be
00000070: 64c5 fd3b cc72 6e3d 52ed c7bd 9ae6 f83d
00000080: f28d 26be 4843 b43e f784 a6bc f4e3 07be
00000090: 20f1 dbbe 919d 8bbd d5d5 e03d 31fc 58be
000000a0: 397b 39be 7680 673d 3850 b23d 53fa 38bf
000000b0: 0662 21be a0d5 bc3e 75e5 5d3e 1534 9c3e
000000c0: 0e6e b3be b50d 2e3e d642 3fbe 8044 38be
000000d0: c8c6 503e 4621 283e 03d8 7cbe a967 a4be
000000e0: 99d9 88be 8a8d 283f 3171 2d3e 2076 4bbe
000000f0: a693 4bbd a18f b3bc b006 333e c3c8 dabe
00000100: a07b e1bd 29da b1bd aa78 7a3e 3b3e 9abe
00000110: adb6 2cbe a278 3fbf 97a5 11bc dd8e cf3c
00000120: 7bf4 34bd 0155 c53d 10e3 d53d b324 31be
00000130: befa d1be bad6 b53e 89ab ec3d 7042 193f
00000140: f074 c63d 7821 863e 1e26 79be ddb3 83bc
00000150: 46d2 cd3e 7972 0fbe 2bfd b4bd 713f 2abe
00000160: e0bc 06bf a54f ebbd c0c8 863d 0cf2 9ebe
00000170: 6fd9 073e ffa5 b9bc 7320 a0bc dc74 8c3d
00000180: d4d6 b2bc 3201 673e adb1 253d c83d a33c
00000190: 8f83 0dbf b4e4 c8bd af49 1a3e 6151 4abe
000001a0: 9b30 f9bd a03d 7dbe baf9 343e 11e7 3dbf
000001b0: 4868 4c3e 6d5c e73c 0439 fabc ce5e 523e
000001c0: 037b 8fbe 22a0 63bd 8097 8c3b b58c 50be
000001d0: 023a 8f3e 8514 86bc 595f bcbd 93a9 5ebe
000001e0: 1d63 9abd bb9c 0f3f 8fd1 c33e aa7b 33be
000001f0: f0a0 1d3e 4940 5bbd 494c a63e 62c2 eebe
00000200: 282d 8bbe 7744 e5be 019c 9c3e 528a dc3e
00000210: 1d85 17bf 2bf4 08bc dd00 29be bcd1 c4be
00000220: 1ad7 803e 8c01 943e 22eb 913e 46d1 ff3e
00000230: 193c b93e 46b3 213d b481 1abf 6a4b f63e
00000240: 6025 063e 18ef 3dbf 6e16 3dbd d91f 0d3f
00000250: dca8 aa3e eef0 e73d 32b8 333f 4743 813d
00000260: fa70 713f 51ef 12be 9a49 c53e 623d f73e
00000270: 3b88 bfbc 0067 7dbd 5deb 283f 8f90 d13c
00000280: 3901 c13d bca5 793e 1ddc 0d3e ca69 193f
00000290: 9d15 0a3f e21c d6be 45ec 06bf 7601 7bbe
000002a0: 0c92 f1bc 78bb 5bbe d8a2 6e3e 31f6 97be
000002b0: e417 e7bd 8f85 8c3e dd6a 783e 8501 c93e
000002c0: fa11 813e 63a5 ffbd 0f0b 403e 4eab a83e
000002d0: 9f71 1abe 72e3 2dbe 6ad4 09bd 108f 03bf
000002e0: 5d9d 3bbf 70cb ff3e 0af6 0e3f a599 433d
000002f0: 1a02 273f 0853 dabe f9dd cebd b030 67be
00000300: 5442 8c3a bd5b 40bc cab1 003e 4379 78bd
00000310: b868 bebe 35da bbbe 3787 c6be 0125 a0bd
00000320: c621 4dbd 4b1a b93e 962d 98be 607f 46bf
00000330: 313b dcbe bbb7 d03e 469b 90be 22ee 123f
00000340: 0723 afbd 2259 f43d 7429 04bf bd5e cebd
00000350: 9495 903d 428c 3bbe 1542 423e f8b6 90be
00000360: 0d18 80be 09df 68be 96ba 8dbb 4cb4 3fbd
00000370: b5c7 0ebe bce4 95be abdf b8be 76a0 9d3d
00000380: e301 dc3d 0c62 ee3e e863 b43d 5200 87bd
00000390: 47f4 eebe 74dd 723d be25 123d 5eb8 7ebe
000003a0: f684 8d3d 0c63 cabc f56c 143d 4efb b9be
000003b0: 3dff 89bd 2ed0 913e 1e24 173d 803b 283e
000003c0: 0507 a7be 05ac ebbb 7949 113e 0a81 35be
000003d0: 758c c2bc cede 1c3e 57e2 0dbe cd25 6dbe
000003e0: 9986 87bc 3e71 cf3e 9e2d 6a3e 21b3 08bf
000003f0: 0591 34be 768a af3e 8104 553e 76f9 1ebe

weight_hh_l0_reverse f4 [128, 32]
0.06828621 0.0030328855 0.177236 0.105742425 0.054877058 0.051712394 -0.09140169 -0.090385675
-0.110275984 -0.059979215 0.21791129 0.02376173 -0.17338584 0.08358755 -0.23541051 -0.09892158
0.059502967 0.2296553 -0.08849595 -0.032576557 -0.15991725 0.05760531 -0.03343463 -0.032026667
-0.22677687 0.10553038 -0.23108295 -0.07154292 -0.09508674 0.02389495 -0.064696245 -0.1235548
0.007928562 0.061417587 0.12864415 0.29809272 -0.030667966 -0.039374772 0.10927368 -0.25153115
-0.09786205 -0.0017943616 0.31716552 0.16010806 -0.004506334 -0.028224323 -0.05735941 0.0063468902
-0.0230962 0.06843474 0.03540632 -0.07867544 -0.038035985 0.07696734 -0.121464446 -0.060932685
-0.16265374 0.009941092 -0.13666944 -0.055091597 -0.2361466 -0.021543177 0.18509452 -0.028769026
0.17030255 -0.17339034 0.02891536 0.0878311 0.090015106 0.26376492 0.25647715 -0.5583322
-0.06839153 -0.07526863 0.47909504 0.5455226 0.25480244 0.12302039 -0.07592075 0.14379965
-0.35042885 0.09427761 -0.21376099 -0.13638806 -0.10194561 -0.17289409 -0.03990892 -0.16593355
-0.261335 0.23705514 0.01432942 -0.025132433 -0.49873275 0.18092933 0.29183725 -0.5140565
-0.0069186212 -0.11096187 -0.0314431 -0.03813237 -0.027642768 0.057778373 0.09617525 0.06633201
-0.29053062 -0.08850685 0.02663584 0.21781923 0.038888544 0.07954304 0.04440783 0.08071207
0.037103955 0.4035201 -0.13462107 -0.09876093 -0.16957745 0.06543001 -0.2541433 0.111204326
-0.20644361 0.15286478 -0.047500372 0.0037477664 0.089943945 -0.22052222 0.041760586 -0.09651656
0.23489057 -0.12982136 0.10833109 0.13248183 -0.17909132 0.013065766 -0.039783813 -0.037427455
0.010220727 -0.27153927 0.21808633 0.12484379 -0.2574644 0.121500276 -0.2207902 -0.14921339
-0.017219016 0.13679008 -0.08992481 -0.06583576 -0.13306427 -0.033802688 -0.12578282 0.14852993
-0.2970764 0.18952045 -0.2048903 0.2240474 -0.062240552 0.14221035 -0.07769646 -0.1616276
0.18329969 -0.29599756 0.35420594 0.15460013 -0.02772251 0.025060454 -0.19883007 -0.19432655
-0.065965526 -0.2759592 0.020326428 -0.33287826 -0.30685145 -0.13107017 -0.14113666 -0.13251786
-0.13652092 -0.36337826 -0.31366432 0.084185384 0.062126264 0.10104712 -0.3052066 -0.15621766
-0.024404328 -0.23951873 -0.09421289 0.034868386 -0.32995847 -0.15720469 0.18963005 -0.18756893
0.29168725 -0.03525976 0.30507085 -0.037702076 -0.23153517 -0.16549829 0.07487536 -0.045083847
-0.15226388 -0.2371995 0.097985476 -0.07304117 -0.24962729 -0.110898875 -0.14204042 -0.07029688
-0.18991369 -0.006841723 -0.22545023 0.302806 -0.03593534 0.10940037 0.07126453 -0.22569995
-0.2591964 0.020264901 0.1155439 -0.13821791 -0.08229096 -0.5124587 -0.037000276 -0.006502572
0.05853649 0.04128862 0.1978374 -0.12675503 0.29820642 0.4165434 -0.14984672 -0.27557877
-0.48782584 -0.099430874 0.2708815 -5.922092e-05 -0.19111788 0.3234855 0.019367667 -0.18738028
0.302609 0.5943244 -0.33245263 -0.33466408 -0.2355109 0.05806328 -0.09328482 0.19822258
0.05154505 0.4820343 -0.087405406 -0.085804634 -0.06268567 0.016037382 -0.007902975 -0.13730785
00000000: a4d9 8b3d 60c3 463b 5b7d 353e 7c8f d83d
00000010: c4c6 603d 60d0 533d cf30 bbbd 201c b9bd
00000020: 60d8 e1bd c4ac 75bd 2324 5f3e f6a7 c23c
00000030: 0f8c 31be f32f ab3d 740f 71be 6697 cabd
00000040: 62b9 733d c22a 6b3e 5d3d b5bd ff6e 05bd
00000050: 59c1 23be 8cf3 6b3d c0f2 08bd 652e 03bd
00000060: 3238 68be 5020 d83d 02a1 6cbe 1885 92bd
00000070: d6bc c2bd 58bf c33c 777f 84bd 4d0a fdbd
00000080: cde6 013c 0291 7b3d 4bbb 033e 9c9f 983e
00000090: 633b fbbc 7147 21bd e1ca df3d b1c8 80be
000000a0: e66b c8bd c930 ebba 8563 a23e 5ef3 233e
000000b0: dfa9 93bb b236 e7bc b3f1 6abd 93f9 cf3b
000000c0: 3e34 bdbc 8327 8c3d 3806 113d 9720 a1bd
000000d0: 9fcb 1bbd 0ea1 9d3d 5ac2 f8bd 8d94 79bd
000000e0: b48e 26be f6df 223c 13f3 0bbe baa7 61bd
000000f0: 6ad0 71be 517b b0bc 6b89 3d3e 05ad ebbc
00000100: cb63 2e3e 3d8d 31be e8df ec3c cbe0 b33d
00000110: d759 b83d 320c 873e f950 833e dcee 0ebf
00000120: dc10 8cbd 7126 9abd f24b f53e 5ea7 0b3f
00000130: 7775 823e 1df2 fb3d 577c 9bbd 3740 133e
00000140: 696b b3be 9f14 c13d 29e4 5abe 50a9 0bbe
00000150: dcc8 d0bd 260b 31be 8977 23bd 7cea 29be
00000160: b3cd 85be 95be 723e f2c5 6a3c 88e2 cdbc
00000170: e659 ffbe 8a45 393e b16b 953e 3599 03bf
00000180: 9ab5 e2bb fa3f e3bd 7bca 00bd b030 1cbd
00000190: 1673 e2bc 04a9 6c3d 88f7 c43d 14d9 873d
000001a0: 6ec0 94be 1443 b5bd 6833 da3c 010c 5f3e
000001b0: 9849 1f3d 76e7 a23d fce4 353d 5f4c a53d
000001c0: 51fa 173d 309a ce3e 1bda 09be 2c43 cabd
000001d0: b6a5 2dbe 2b00 863d 121f 82be 18bf e33d
000001e0: f465 53be 9688 1c3e c08f 42bd 169d 753b
000001f0: 8834 b83d 94d0 61be 260d 2b3d 79aa c5bd
00000200: 2787 703e e4ef 04be b1dc dd3d 51a9 073e
00000210: b763 37be cb11 563c 5af4 22bd 884d 19bd
00000220: d674 273c 3207 8bbe 0652 5f3e 1aae ff3d
00000230: 60d2 83be 23d5 f83d d416 62be 65cb 18be
00000240: e50e 8dbc b312 0c3e 802a b8bd e6d4 86bd
00000250: 0042 08be b074 0abd 36cd 00be 3b18 183e
00000260: 661a 98be a611 423e c3ce 51be ae6c 653e
00000270: f3ef 7ebd 979f 113e 521f 9fbd b581 25be
00000280: eab2 3b3e fe8c 97be 7b5a b53e 7f4f 1e3e
00000290: 511a e3bc 954b cd3c 1c9a 4bbe 8afd 46be
000002a0: ef18 87bd 864a 8dbe 9c83 a63c 056f aabe
000002b0: a21b 9dbe 4237 06be 2186 10be c3b2 07be
000002c0: 24cc 0bbe b70c babe 9c98 a0be 6369 ac3d
000002d0: 1c78 7e3d cbf1 ce3d 0a44 9cbe 86f7 1fbe
000002e0: 96eb c7bc 6644 75be b0f2 c0bd 27d2 0e3d
000002f0: 51f0 a8be 44fa 20be 612e 423e 1212 40be
00000300: 0858 953e 8a6c 10bd 3f32 9c3e 7e6d 1abd
00000310: 8e17 6dbe 6278 29be 4158 993d d7a9 38bd
00000320: 10eb 1bbe 6de4 72be 9cac c83d 9c96 95bd
00000330: 4c9e 7fbe f31e e3bd 0b73 11be d0f7 8fbd
00000340: bc78 42be 8830 e0bb 6ddc 66be 6309 9b3e
00000350: ef30 13bd 4d0d e03d 23f3 913d e31d 67be
00000360: 64b5 84be 9402 a63c 48a2 ec3d ff88 0dbe
00000370: 2a88 a8bd 7e30 03bf 9a8d 17bd 8713 d5bb
00000380: f5c3 6f3d 421e 293d e395 4a3e 12cc 01be
00000390: 83ae 983e 2d45 d53e 6b71 19be a918 8dbe
000003a0: 4fc4 f9be 6aa2 cbbd fbb0 8a3e fb63 78b8
000003b0: 68b4 43be e49f a53e f1a8 9e3c 9ee0 3fbe
000003c0: 91ef 9a3e a525 183f 3b37 aabe 1759 abbe
000003d0: c529 71be c3d3 6d3d 1d0c bfbd dcfa 4a3e
000003e0: e720 533d 33cd f63e 9b01 b3bd 57ba afbd
000003f0: 5861 80bd d460 833c 7b7b 01bc 6e9a 0cbe
