data/models/eth/model_registrar-1999.pt (torch_old, 492052 bytes, 45 tensors)

weight_ih_l0 f4 [128, 6]
000000 d9 5e 86 bd 54 54 24 bd 83 c6 00 bd ff 2f bd 3d
       -0.065610595 -0.040119484 -0.031439316 0.0923767
000010 60 3b 9a bd 59 61 35 3d 98 00 21 3b a2 dc 4c be
       -0.07530856 0.04428229 0.0024567004 -0.2000604
000020 fb 20 20 be 85 16 7e 3d ba 46 8d be fa 59 16 3e
       -0.15637581 0.062033195 -0.27593023 0.14682761
000030 12 32 1d be 05 71 7a be 09 09 a5 3c 1e f1 0f 3c
       -0.15351132 -0.24457176 0.02014591 0.008785514
000040 30 84 f2 be 12 3b d9 3e c6 2c 36 be f1 9e 48 3e
       -0.47366476 0.4242788 -0.17790517 0.19591881
000050 b1 09 7a 3e d5 8a 6a 3d 43 12 56 be cf 6c 85 3e
       0.2441776 0.057261307 -0.20905404 0.26059577
000060 97 a5 30 be 8c b9 3f 3e e5 43 a0 3c 66 6f 71 bd
       -0.17250668 0.18723124 0.019563625 -0.05894413
000070 5b bf b3 3e 38 8c 1a bf 65 6a 8c 3e 55 3d 5d 3e
       0.3510693 -0.60370207 0.27424923 0.21605428
000080 b3 75 38 3e 2a b3 8d be 80 6c 13 3e 3d bb 85 bf
       0.18013649 -0.27675754 0.14396858 -1.0447766
000090 e5 a3 49 be 3a 39 0b be a3 00 b6 bd 7d 50 14 3e
       -0.19691427 -0.13596049 -0.0888684 0.14483829
0000a0 fd cb 37 bd 3e b8 9e be ac 20 68 be 78 7a 98 3d
       -0.044872273 -0.3099994 -0.22668713 0.07445234
0000b0 97 d7 e9 3d 60 3d 12 3d 79 14 c6 bd d9 1d ba 3e
       0.114180736 0.035703063 -0.096718736 0.36350897
0000c0 b8 5e 17 3e 8f 24 c0 3d b8 f0 ca 3c a4 83 a6 be
       0.14782226 0.09381973 0.024772987 -0.3252231
0000d0 5f 3a f3 3e cc 1c 22 3f a0 78 93 3d 44 9f 99 3e
       0.4750547 0.6332519 0.07200742 0.30004323
0000e0 21 26 12 be 3e e7 bb be cb af 63 be f3 1b b5 be
       -0.14272358 -0.3669986 -0.22235028 -0.35372886
0000f0 58 4a 25 3e 36 f2 57 bd 3d 3e 24 be a8 4e 2b be
       0.16141641 -0.052721225 -0.16039367 -0.16729224
000100 0c d4 e3 be 8d c1 af be 46 6f a3 bc 93 56 d7 3e
       -0.44497716 -0.34327355 -0.01995052 0.42058238
000110 d6 7e 87 be b8 e6 16 bf b0 91 27 3f 48 ea 40 bf
       -0.26463956 -0.589458 0.65456676 -0.75357485
000120 47 b1 2f be e1 5a 09 be 32 9c e9 3b ed 87 24 3e
       -0.1715747 -0.13413574 0.0071292156 0.16067477
000130 68 e0 04 be 80 2a d2 3e 93 7d 70 be 9b f0 4c 3e
       -0.12976229 0.4104805 -0.23485403 0.20013659
000140 01 d9 d0 3e 10 ed 0c bf 45 0f 81 3e d0 23 2e 3f
       0.4079056 -0.5504923 0.25206962 0.68023396
000150 b8 42 35 be af ef 4c 3d 3d 0e c4 bd 02 1a 70 bd
       -0.17701232 0.050033268 -0.09573028 -0.058618553
000160 ff 0e c3 be 8e cf d9 be 0f b5 58 bc 62 8e 89 3e
       -0.3809738 -0.42541164 -0.0132267615 0.26866442
000170 15 ee ed 3c c8 d1 11 3e ed fa 41 bd fb 61 1b 3e
       0.02904419 0.14240181 -0.047358442 0.15174095
000180 12 dd 58 3e 2c 2f f9 3d 8e bd 0e 3d 3d 2c af 3e
       0.21178082 0.121672004 0.034848742 0.3421344
000190 15 65 94 be 1b eb 7d 3d ca 97 39 bd 11 bb 52 be
       -0.2898337 0.061991792 -0.045310773 -0.20579173
0001a0 07 a8 d2 3d 67 a5 d0 3d 2a 49 f8 be 0c 64 00 be
       0.10285955 0.10187798 -0.4849332 -0.12538165
0001b0 5e 7a ac bb 0e 16 96 3d 66 51 45 3e c0 0c 83 bc
       -0.0052636107 0.07328425 0.19269332 -0.01599729
0001c0 af a3 75 bd 5c 31 07 bf 3b 36 16 be 2b 04 ec 3d
       -0.059970554 -0.5280969 -0.14669125 0.115242325
0001d0 bd 70 96 be 8e ee 5c 3e 1c 34 99 3e 48 1b 1a 3f
       -0.29382887 0.21575376 0.2992257 0.6019788
0001e0 a3 b8 94 bd c7 4e 02 be 8a 80 49 3e 10 45 4b 3e
       -0.07261779 -0.12725364 0.1967794 0.19850564
0001f0 f8 c9 41 3e 41 2e b2 be 66 d0 08 bd d6 b8 7a be
       0.18924701 -0.34800914 -0.03340187 -0.24484572
000200 cf 5d 6c 3d 21 e0 3e 3f 1b 6a 45 3f 06 53 40 3f
       0.05770665 0.74560744 0.7711503 0.75126684
000210 bf d3 4c bd 38 3b 01 bf e2 da 2b 3d de b6 ad 3e
       -0.050006624 -0.50480986 0.04195679 0.3392858
000220 5d 5b 6f 3e 0b c9 d7 3e 82 30 f8 3d 44 98 06 be
       0.23374696 0.4214557 0.12118627 -0.13144022
000230 5d a6 ee bd b3 b1 a7 3e 62 44 7a 3e dd fa da 3e
       -0.11652825 0.3275276 0.24440148 0.42769518
000240 96 46 f7 3c 19 2f ce 3e f5 5f 8f bd d2 32 2e bf
       0.030185025 0.40270308 -0.07000724 -0.68046296
000250 9c d8 60 bf 3a 6f 21 3e 34 9e 0a be 05 5c 58 bd
       -0.8783052 0.15765086 -0.13536912 -0.05282213
000260 8c 72 45 3e d2 1b ac 3e 1d ff cf be bd 13 ce bd
       0.19281977 0.33614975 -0.40624323 -0.100623585
000270 ca 6a 29 be 81 83 65 3e a6 3c 5d bd 2a 10 d4 be
       -0.16544643 0.22413446 -0.054012917 -0.41418582
000280 c6 60 77 be f2 2a 53 be eb 6d 7a be 55 2d b5 bb
       -0.2415801 -0.20621851 -0.24455993 -0.0055290856
000290 9a 43 b5 3e 8c c0 f2 3e 90 72 4d 3e a5 e4 70 3e
       0.35403138 0.47412527 0.20063233 0.23524721
0002a0 2a d7 e2 3e 0c 04 3c be 80 43 bd be 52 37 c4 3e
       0.44304782 -0.18360919 -0.3696556 0.38323456
0002b0 c0 3e cf 3e 45 f8 22 3f f2 09 80 be 2e 13 45 bd
       0.40477562 0.6366008 -0.25007588 -0.048113994
0002c0 58 79 d7 bd b1 6d 92 be 8f a4 0b 3f b0 3e a7 3e
       -0.10521191 -0.28599313 0.5454797 0.32665014
0002d0 e1 0b c6 bc 7f 64 4f 3e 0f 64 07 3d c5 f4 46 be
       -0.024175586 0.2025318 0.033054408 -0.1942931
0002e0 56 dc 9b bd d6 95 85 bd 1b bf 3a be 9d e2 69 3d
       -0.07610385 -0.065227196 -0.18236963 0.05710088
0002f0 36 bb 92 3d 40 1f b5 3d f3 8f 60 bc 1c 5e cf 3d
       0.07164614 0.08843851 -0.013706195 0.10125372
000300 13 10 18 3d 5c 21 5f 3d 29 c4 11 bd 5e 23 5f bc
       0.037124705 0.054475173 -0.035587464 -0.013619272
000310 26 02 63 3d 9e 31 d6 be df 79 91 3e 5d 42 1a 3e
       0.05542197 -0.4183473 0.28413293 0.15064378
000320 4c ab 93 bd 23 06 5d be 91 d8 f2 bd 8e 65 14 be
       -0.07210407 -0.21584372 -0.11857713 -0.14491865
000330 55 27 29 be ae ee 2e bd 6e 7f 08 3d a9 e8 82 3d
       -0.1651891 -0.04270809 0.03332465 0.06392033
000340 39 7b 1c 3e 9e 3d f7 bc ce f7 48 bd 6c 3c c6 bc
       0.1528138 -0.030180749 -0.04906445 -0.024198733
000350 fd 72 af 3d c4 78 8f 3d 31 58 cf 3e ed 8f 96 bd
       0.08566854 0.07005456 0.40496972 -0.073516704
000360 9f ad 98 3b 14 89 16 bd a9 4c 46 bb a3 f8 f7 3b
       0.004659369 -0.03675182 -0.0030258095 0.0075674816
000370 73 19 9f be a3 4a 25 be d6 73 71 3e 0d 0c c5 bd
       -0.31074104 -0.16141753 0.23579344 -0.09621439
000380 32 76 92 bc 46 6e de be 43 95 ba be 7f 8a d6 be
       -0.017878626 -0.43443507 -0.36442003 -0.4190254
000390 d3 66 22 3e e0 2f 67 3c 3b 82 0c bd 0c bc eb 3d
       0.15859537 0.014110535 -0.034303885 0.115104765
0003a0 7a 99 80 be 9a 42 a6 bd 8d 2a ab bd 5a 89 71 be
       -0.25117093 -0.08118172 -0.08357725 -0.23587552
0003b0 8f 44 45 3d 63 76 cf bd 87 7d 0b be 1c 20 14 3f
       0.048161086 -0.10130002 -0.13622104 0.57861495
0003c0 fe 31 a4 3d 13 31 75 be 4f ad e3 bd d4 7f 1e 3d
       0.08017348 -0.23944502 -0.1111704 0.038696125
0003d0 23 59 80 be c2 fc 9c 3e bd 34 13 3c ef 79 37 3e
       -0.25068006 0.3066159 0.008984742 0.17917608
0003e0 88 1e f7 3d 89 42 84 be 6a dc ee 3c 9d be cd 3d
       0.1206637 -0.25832012 0.029157836 0.10046122
0003f0 ca 48 76 3e 04 c3 73 be e0 e9 56 3c 98 8e f0 bd
       0.24051204 -0.23804861 0.013117284 -0.117459476

weight_hh_l0 f4 [128, 32]
000000 64 6f 1a be e2 d2 b5 bc 2c 3b 9a bc d7 48 6b 3d
       -0.15081555 -0.022195283 -0.018827043 0.057442512
000010 d9 64 62 bd 5e 8c 0e be 9c d2 aa bd eb 53 d5 3c
       -0.055271957 -0.13920733 -0.08340952 0.026040992
000020 f8 56 25 3e 38 c1 ab 3d 50 7e 0e bd 60 eb 29 3e
       0.16146457 0.08386463 -0.03478843 0.16593695
000030 26 86 c5 bc cc c5 80 3e da ef c3 3d c9 71 d1 3c
       -0.024111819 0.25150907 0.095672324 0.025566952
000040 39 c3 14 3e 73 1f 24 be ee 5d 6b 3c 02 ac cf bd
       0.14527597 -0.16027622 0.014365656 -0.1014023
000050 96 92 2d be 57 4e eb bd 55 5e 1e be a7 74 8d bd
       -0.1695045 -0.114895515 -0.15465672 -0.06907015
000060 8f 82 0a 3e e7 71 8b bc 28 cc ae 3d 66 5b 53 3e
       0.13526367 -0.017022086 0.085350335 0.20640334
000070 01 76 53 3e 1a 51 a9 3d db a3 3d bc 00 15 5d be
       0.20650484 0.08267422 -0.011574711 -0.21590042
000080 3f 03 61 3c 4d bf 1b bc 6f fc 8e 3d 35 1b c2 bd
       0.013733684 -0.009506059 0.06981742 -0.094778456
000090 ae 95 e3 3d 0e d7 0f 3d 47 db 89 3d 65 be 92 bd
       0.111125335 0.0351172 0.06731277 -0.07165221
0000a0 76 6c 8f 3e 3b ae 30 bd f1 71 9d be 59 c7 48 bd
       0.28012437 -0.04313491 -0.30750993 -0.049018238
0000b0 7e a0 c9 bd 52 c1 81 3e 8d bb 4e 3e 37 c9 ba 3c
       -0.098450646 0.25342804 0.20188732 0.022801025
0000c0 62 88 07 3e 32 6d fe 3d a1 ae 97 bd 23 6e c0 3d
       0.1323562 0.12423171 -0.07406355 0.09396007
0000d0 ae 46 9d bd f1 d3 97 3a f5 c0 a6 bd 55 af cb bb
       -0.07679497 0.0011583549 -0.081422724 -0.0062159696
0000e0 97 cc 0b bd 41 3f 9c bc 80 c8 0f be a4 c2 71 bd
       -0.03413066 -0.01907313 -0.14041328 -0.059023514
0000f0 0e ca b3 3d ca f2 a8 3d fb 50 80 be 0f 0f 18 be
       0.08778773 0.08249433 -0.25061783 -0.14849494
000100 e1 12 84 3d 19 39 05 3d a7 93 9a bd c8 6d 46 3e
       0.06448913 0.032525156 -0.07547694 0.19377816
000110 45 05 e5 bc fb a4 8d bc f4 bb 93 be ea 1c 68 be
       -0.027956614 -0.017290583 -0.28854334 -0.2266728
000120 01 80 e9 3d e7 f7 27 bd 22 e6 f8 be 05 6a b3 bd
       0.11401368 -0.041007902 -0.48613077 -0.08760456
000130 41 09 65 3c e4 21 a3 bd 06 42 07 3e 92 a2 20 be
       0.013979257 -0.079654485 0.1320878 -0.15687016
000140 e4 51 b1 3d bd d0 7a bd 8f 06 5b 3e 94 29 41 be
       0.086581975 -0.061234225 0.2138922 -0.18863517
000150 12 24 d9 3d 53 08 be bb 70 8d 00 be 9d b7 8a 3e
       0.10602583 -0.005799332 -0.12553954 0.2709321
000160 0d eb 62 3d 11 44 92 3c 01 00 86 bd f9 d6 35 3e
       0.055399943 0.017854722 -0.065429695 0.17757787
000170 26 3a 15 3e 6f 33 b2 3d eb 82 1f be d7 a7 9f 3c
       0.14572963 0.087012164 -0.15577285 0.019489212
000180 cc fa a1 bc 98 a2 35 bd f1 7c 81 bd c3 f2 bb 3d
       -0.01977291 -0.044344515 -0.06322659 0.091771625
000190 00 8c fd bd 9f 12 f6 bd c0 dc 1a be ae 1b 03 3e
       -0.123802185 -0.120152704 -0.15123272 0.12803528
0001a0 16 95 e9 bd 92 f4 3f bd f3 45 82 bd de 74 6c be
       -0.11405389 -0.0468641 -0.06360998 -0.23091456
0001b0 b1 70 19 be 96 bb 86 be 0d d1 65 be f0 cb 21 be
       -0.14984395 -0.26314992 -0.22443028 -0.15800452
0001c0 01 3d aa bd 9c b9 5d 3e 8b 36 8f bd dc 14 b5 bd
       -0.08312417 0.21652836 -0.06992825 -0.08841869
0001d0 81 9e 3d be bc 28 5d bd 7b a8 99 3c 4a 10 0d be
       -0.18517496 -0.053993925 0.018757096 -0.13775745
0001e0 97 78 c8 bd f7 71 85 3d d4 51 09 be 7f 8a 94 3d
       -0.09788626 0.06515878 -0.13410121 0.072529785
0001f0 a3 2c 7d be 91 aa a5 3d 89 00 5a 3e 8b ce 75 bb
       -0.24724059 0.080891736 0.21289267 -0.0037507142
000200 03 76 9b be 93 3e 05 39 3c 41 0d 3f f1 26 e1 3c
       -0.30363473 0.00012707179 0.55177665 0.027484389
000210 37 5b c6 3d bf d9 95 bd cc a0 86 3e dd 07 c0 bd
       0.096853666 -0.073169224 0.26294553 -0.093765
000220 65 ca 04 bd 57 b9 4a be e8 60 d8 bd 41 a4 01 be
       -0.03241958 -0.19797264 -0.105653584 -0.12660314
000230 71 1e bd bd 79 7b 9d 3d 25 14 69 3d a2 7e da be
       -0.09234322 0.07689566 0.056903977 -0.42674738
000240 6e 3a b2 bd 93 59 d1 bd cd a4 a1 bc 6b e1 50 be
       -0.08702551 -0.10222163 -0.019731903 -0.2039849
000250 b3 55 2e be 5b b9 1a 3c 2a 16 27 3d fb 85 15 3c
       -0.17024879 0.009443606 0.04079262 0.009126182
000260 73 52 19 3e f7 df 65 be 91 72 0b be c3 83 35 bd
       0.14972858 -0.22448717 -0.13617922 -0.04431511
000270 89 64 c2 3c 9f f6 7f be 46 10 c4 3c dc 8f d2 bd
       0.02372958 -0.24996422 0.023933541 -0.10281345
000280 3f a5 1d be 97 fd ab be 74 b5 c2 3c 1d a4 9d be
       -0.15395068 -0.3359191 0.023768164 -0.3078927
000290 32 ec 42 3e b8 16 e0 3d c8 e3 e4 3e 15 c6 79 bd
       0.19035414 0.10941833 0.44705033 -0.06097992
0002a0 91 05 23 3e 38 d5 ba 3e ef 64 61 3e e5 0e 38 3e
       0.15920092 0.36490798 0.2201116 0.17974432
0002b0 90 32 51 be ba 42 30 be fd aa 32 be e3 9d 12 be
       -0.20429444 -0.17212954 -0.1744804 -0.14318042
0002c0 7a 3d 20 bd 63 4c 14 3e 43 76 bd be 98 18 a6 3d
       -0.03912113 0.14482264 -0.3700429 0.0811016
0002d0 54 60 05 be 90 5c 9e bd 1c 6a 2f 3d 85 8f 6e be
       -0.13025028 -0.07732499 0.042825803 -0.23296936
0002e0 96 eb 29 3e c0 75 d4 bd e9 fe cf 3e a7 68 1c 3e
       0.16593775 -0.103740215 0.4062417 0.15274297
0002f0 16 8a 60 be cb cc 76 3d 36 9e 76 3e 07 fb 1e 3d
       -0.21927676 0.0602539 0.2408379 0.038813617
000300 10 10 d5 3d 2d 0a 40 3e fc 47 28 be 92 b2 79 3e
       0.10403454 0.18753882 -0.1643371 0.24384525
000310 08 7d af 3d dd e6 ef bd cd 5b 67 3c d2 bc 62 be
       0.0856877 -0.117139556 0.014121008 -0.22142342
000320 60 1e e9 3d 18 dd d0 3d 96 23 04 bf f5 7e 03 be
       0.11382747 0.1019842 -0.516168 -0.12841399
000330 18 98 09 3d 86 42 b8 3e 20 34 05 bd 72 15 82 3d
       0.033592314 0.35988253 -0.032520413 0.063517466
000340 60 e6 e7 3c 9d a0 fa bc 2b 46 f9 3d 41 52 33 be
       0.028308094 -0.030594165 0.121715866 -0.17511846
000350 c4 73 1e 3d 2a c5 97 3e 65 cc 1a 3b 7f 84 e4 3c
       0.03868462 0.29642612 0.0023620364 0.02789521
000360 75 6d f3 bd c7 e0 a4 3d b2 7d 24 3d 5b 06 f9 3d
       -0.11886112 0.080506854 0.040158935 0.12159415
000370 3e b6 08 be 1a 6e 45 3e 24 43 1c be e2 00 38 3d
       -0.1335077 0.19280282 -0.15259987 0.044922717
000380 0f 12 6c 3e 63 5c 1a be fc 51 ac bc 94 b0 95 3d
       0.23053764 -0.15074305 -0.021035187 0.0730907
000390 2f ae fa bd b1 ce b8 3d c6 20 1b bd 43 99 58 bd
       -0.12240254 0.09023798 -0.037873052 -0.052880537
0003a0 a0 d8 10 bd db 5f 32 bd 71 73 9b bc b5 7b 1f be
       -0.03536284 -0.043548446 -0.018975945 -0.15574534
0003b0 c8 de 1e 3e 36 a9 5e bd 90 8b 1b 3d 1f 47 d9 3d
       0.15514672 -0.05436059 0.037974894 0.106092684
0003c0 51 0f c1 3d 79 06 ec bc 80 59 b8 bd 49 f8 67 bd
       0.094267495 -0.02881168 -0.09001446 -0.056633268
0003d0 ae 8d 54 bd 80 a6 fb bd 32 00 cf bd 3c bc fd bd
       -0.05189293 -0.12287617 -0.10107459 -0.123894185
0003e0 32 9f b0 3d 26 5e 3e 3e c8 01 30 3d bc 2e 24 3e
       0.08624114 0.18590602 0.04297045 0.16033453
0003f0 a9 e6 ae 3d 9f 01 dd 3d eb 08 8a 3d 11 f6 d4 3d
       0.08540089 0.10791325 0.06739982 0.10398496

bias_ih_l0 f4 [128]
000000 b7 5f a8 3d 1e b2 6f 3e 2d 91 93 3e a3 b0 2a bd
       0.08221381 0.2340779 0.28821698 -0.04167236
000010 e3 26 1f 3e e9 57 49 3e bd f9 1b 3e ce c9 c3 bd
       0.15542178 0.19662441 0.15231986 -0.095599756
000020 46 f8 78 3d a5 9d e6 3d 3e c4 ad 3e 08 16 35 3e
       0.060783647 0.11260537 0.33938783 0.17684186
000030 0c 95 8c 3e d2 c3 26 be 5b 82 db 3e 2d cc 07 3f
       0.27457464 -0.16285637 0.4287289 0.5304592
000040 b9 7f 68 bb 5a 52 66 3e b0 a5 13 3d bc 42 ca 3e
       -0.003547652 0.22492352 0.036046684 0.3950404
000050 e8 e5 a1 3e 57 48 29 3d 66 a2 f9 3d eb dc 96 3c
       0.31620717 0.041328754 0.12189178 0.018415889
000060 4c 15 ac 3e 52 dc d9 3c 9d 93 09 bd bd b3 ff bc
       0.33609998 0.026594315 -0.03358804 -0.031213636
000070 81 b0 f6 bd 1f 26 0f 3e cf 24 c0 3e 95 e2 05 3e
       -0.12045384 0.13979386 0.37528083 0.13074715
000080 19 7d 40 3d 01 9e c4 be 61 19 1d bf 19 0c bf 3d
       0.046994302 -0.38401797 -0.6136685 0.09328479
000090 b4 0b 15 bf 5d 0f 42 be 96 36 e6 be f4 9f 3f bd
       -0.5822098 -0.18951173 -0.4496352 -0.046783403
0000a0 24 d6 4d be b9 ef 0c bd fa de 3f be 0e 3c ae 3d
       -0.2010122 -0.034408305 -0.18737403 0.08507548
0000b0 26 ed 4f be 64 a3 08 3e 24 29 dc be 1b da 45 bf
       -0.20305309 0.13343579 -0.43000138 -0.7728593
0000c0 b5 6d 2b 3d 84 f5 62 bd 61 3f 23 be d5 e6 9a be
       0.04185267 -0.055409923 -0.15942146 -0.30254236
0000d0 b9 4a 08 bf 37 cc 3d be be 06 92 3c da 43 ba 3c
       -0.5323902 -0.18534933 0.01782548 0.022737432
0000e0 9a 31 53 be 33 83 63 3d c5 07 bc 3d e8 d0 27 3d
       -0.2062439 0.055545043 0.091811694 0.040970713
0000f0 e2 40 a4 bd 29 26 c1 be 07 6c 43 bf af a7 82 be
       -0.08020188 -0.37724426 -0.7633671 -0.25518557
000100 7e 25 10 3e 15 8b 0a 3e b6 04 a8 bd d9 c6 0e 3d
       0.14076802 0.13529618 -0.082040235 0.034857605
000110 21 0a f5 bd f4 f1 33 bc 86 4f c1 3d 51 7c 1b bd
       -0.119648226 -0.010982979 0.09438996 -0.037960354
000120 37 79 5b bd c3 1a 5a 3d 7f 10 9c bd 3b 1f 29 bc
       -0.053582396 0.05324818 -0.07620334 -0.010322387
000130 15 0b c3 bd 9a 03 77 bd 1b 44 10 3d 78 ba a1 bd
       -0.09523598 -0.06030617 0.0352212 -0.07896894
000140 7c 6e 87 bd 2e c1 ea bd ce b0 51 3d f4 e6 40 3d
       -0.0661287 -0.11462627 0.051194005 0.047095254
000150 af d5 9d 3d 8d 3d 46 3d dd a1 f7 3d b4 d2 07 be
       0.077067725 0.048398543 0.1209142 -0.1326397
000160 5e 0c e8 3d b1 50 c2 bd cc cd 06 3c f2 87 8f bd
       0.11330484 -0.09488047 0.008227777 -0.070083514
000170 5c 4f c9 bd 79 8e 13 3e f8 95 2e 3c 1e 20 64 bd
       -0.0982959 0.14409818 0.0106558725 -0.05569469
000180 5c 36 8d 3e 06 f6 40 3e 6d 2d a4 3e 2e 9d 55 bc
       0.27580535 0.1884385 0.32065907 -0.013037963
000190 86 e0 a8 3e 98 27 0c 3e 12 51 3a 3e 79 b9 9e bd
       0.32983798 0.13686979 0.18194988 -0.0775022
0001a0 f6 75 7e bd fc 0b 1c 3e d5 64 db 3d 44 a6 e8 3d
       -0.062124215 0.15238947 0.107125916 0.11359838
0001b0 a2 50 66 3e a1 c9 34 be ea b4 f5 3e 42 98 38 3f
       0.22491696 -0.1765504 0.4798959 0.72107327
0001c0 06 81 f6 3d e3 4b 0e 3e bd 05 f8 3d b6 2b a1 3e
       0.12036328 0.13896136 0.121104695 0.3147866
0001d0 f5 82 c3 3e f2 04 a5 3d 66 15 a2 3d a3 9d 85 3d
       0.3818585 0.08057584 0.07914238 0.065242074
0001e0 ea 99 13 3e bd e9 8c 3d fc bb d7 3d 44 0b b2 bd
       0.14414182 0.068805195 0.10533902 -0.08693555
0001f0 c4 64 ca 3b ca 87 b3 3e c3 f4 e3 3e 7c f7 be 3d
       0.006176563 0.35064536 0.44522676 0.09324548

bias_hh_l0 f4 [128]
000000 e2 55 1b 3d 30 1e 7d 3e 07 22 1e 3e 61 5f f5 3d
       0.0379237 0.24718547 0.15442668 0.11981083
000010 60 30 99 3e c0 a4 41 bd 69 8b 4f 3d 00 dd a7 3d
       0.2991972 -0.04727626 0.05067006 0.08196449
000020 75 6c 15 3e 8d 14 8e 3e 61 d9 a9 3d 00 0d 55 3d
       0.14592154 0.27750054 0.08293415 0.05201435
000030 0c 9b 14 3d 04 91 06 3e 17 47 f0 3e 79 dd 30 3f
       0.036280677 0.13141257 0.46929237 0.6908794
000040 b2 5f b9 bd 0c b4 5e 3e 42 4d 74 bd 46 97 b3 3e
       -0.090514556 0.2174837 -0.05964399 0.3507635
000050 41 82 ed 3e f6 5f 63 3e 0d 07 1a 3e d7 65 a9 3d
       0.46388438 0.22204575 0.15041752 0.082713775
000060 a7 77 73 3e f6 d9 3b 3c 07 b4 23 3d 4d 7c fb bd
       0.23776112 0.01146554 0.03996661 -0.12279568
000070 f4 ed 4e be e2 94 05 3e d8 bc e3 3e d5 47 39 3e
       -0.2020796 0.13045076 0.44480014 0.18093808
000080 80 11 2b bd 5f 42 b7 be 54 80 c0 be b7 22 e7 bd
       -0.041764736 -0.35792825 -0.37597907 -0.11285918
000090 4c 35 8c be d8 76 da bc f3 0c 9e be 0f 35 44 be
       -0.27384412 -0.026667997 -0.30869254 -0.19160865
0000a0 a4 33 03 be 78 9c b9 bd 5f 7b 2c be b7 ad c3 3c
       -0.12812668 -0.09063047 -0.16843937 0.023886545
0000b0 83 c6 52 be 84 6b 3c bd 6e e9 a5 be ec 05 39 bf
       -0.20583539 -0.046000972 -0.32404655 -0.7227466
0000c0 08 29 b6 bd 75 96 fc bd d0 36 06 be 53 b8 f7 be
       -0.08894545 -0.12333385 -0.13106847 -0.48382816
0000d0 35 e7 c6 be 26 40 b2 be 91 2a 52 be d6 09 ac bb
       -0.38848272 -0.34814566 -0.2052405 -0.005250196
0000e0 c0 d4 d1 be 23 94 81 be 4c 9b 25 be 89 8f a1 bc
       -0.40982628 -0.25308332 -0.16172522 -0.019721763
0000f0 df 0c de bd 74 c4 12 be bd 9b 21 bf c7 41 3d 3d
       -0.10842299 -0.14332753 -0.6312826 0.04620531
000100 25 e9 11 be 2d ae 08 be b8 4d b4 3d 44 2d aa bc
       -0.14249094 -0.13347693 0.08803886 -0.020773537
000110 e6 4c 0c 3e 2f cd ae 3c bb e8 bb bd 89 50 12 3c
       0.1370121 0.021338074 -0.09175249 0.008930334
000120 43 8f b3 3d 2e 5b 25 bd a8 79 53 3d 1c 6e e4 3b
       0.087675594 -0.04037016 0.051629692 0.006971134
000130 c6 0e af 3d 34 22 c9 3b 8b 03 2e bd 2c cf 89 3d
       0.0854774 0.0061381105 -0.042483848 0.06728968
000140 02 a6 db 3c 98 d4 02 3e 50 5b bf bc d2 c9 a2 bd
       0.026812557 0.1277641 -0.02335897 -0.079486504
000150 83 a6 a3 bd 65 80 45 bc aa 3f fb bd bf 6a ec 3d
       -0.07990744 -0.012054537 -0.12268002 0.11543798
000160 49 32 00 be c7 49 30 3c 9d 6a 37 3c 6e 59 37 3d
       -0.12519182 0.010759777 0.011194852 0.04476302
000170 b8 d9 b1 bd 7b c6 09 be 81 a0 63 bc 5f d7 45 3d
       -0.08684105 -0.1345462 -0.013893248 0.048301097
000180 a8 9f 24 3e 4a 41 a5 3e fa 81 28 3e f2 6a 5b 3e
       0.16076529 0.32276374 0.16455832 0.21427515
000190 10 5e db 3e f1 e6 24 3d c5 d4 c2 3e 81 af 6e 3e
       0.42845201 0.040259305 0.38052955 0.23309137
0001a0 20 d3 ed bd 15 ef 32 3e bb 60 b2 3e e9 0f 43 3e
       -0.116125345 0.17474015 0.34839424 0.19049038
0001b0 bb c4 72 3e 19 40 88 3c 0b ac cc 3e a0 9b 3a 3f
       0.23707859 0.016632127 0.39975008 0.72893715
0001c0 34 30 0e 3e 88 30 0e 3b 2f a1 67 3e 68 e3 43 3e
       0.13885576 0.0021696407 0.2262008 0.19129717
0001d0 93 97 b0 3e 61 18 8b 3e ce 75 6c 3e 48 94 4a 3e
       0.34490642 0.27167037 0.23091814 0.19783127
0001e0 0e f8 a9 3e e0 14 36 3d 13 07 21 3e dc 56 a5 bd
       0.33197063 0.0444535 0.15725355 -0.08073208
0001f0 3e 3d fc bd 63 b1 b0 3e 0c ca f1 3e 04 85 96 3e
       -0.123163685 0.34510335 0.47224462 0.29398358

weight_ih_l0 f4 [128, 2]
000000 fa 15 94 bd 90 c1 20 be c0 d5 68 be 2d 38 94 be
       -0.07230754 -0.15698838 -0.22737789 -0.2894911
000010 8a a7 a6 3c 19 86 08 be 64 5c e0 bd 5d df 91 3e
       0.02034356 -0.13332404 -0.10955122 0.28490725
000020 20 e3 ae bd 67 7a f0 be c0 0b 97 bd 34 06 a1 3e
       -0.085394144 -0.46968386 -0.07375288 0.31450045
000030 a7 6c de bd 71 45 d0 3e 6a 65 c7 3d d0 19 70 3d
       -0.108605675 0.4067798 0.0973614 0.058618367
000040 7e 61 1b 3d bf cc c9 be 5d 4e ec 3c e8 9a 9a be
       0.037934773 -0.3941402 0.02884596 -0.3019631
000050 61 9a 38 3d 20 18 6f 3c e1 39 c5 be 56 ac 3c 3e
       0.045069102 0.014593154 -0.3852072 0.18425116
000060 1a 0f 8a be d4 9e 27 3e 20 22 bd 3d 63 6e 50 3e
       -0.26964647 0.16369182 0.092350245 0.20354609
000070 5f 8f a3 bd 3c 96 9d be 9b 68 93 3d 87 09 28 3e
       -0.0798633 -0.30778682 0.07197686 0.16409884
000080 6f 7b 92 bd 89 a6 b0 bd 04 6b b2 3d b5 37 ae 3c
       -0.07152449 -0.08625514 0.08711818 0.021266798
000090 ff 1c 54 3e 47 cc f3 bd de fb 26 be a7 de 14 3e
       0.20714186 -0.11904197 -0.16307017 0.1453806
0000a0 a1 51 26 3e 89 c4 35 3e 1a 88 4a 3d cd b2 9c b9
       0.16242076 0.17750753 0.049446203 -0.00029887856
0000b0 4e f9 e8 bd 1d a8 82 3e 66 10 0c be 68 fb 8c 3e
       -0.11375676 0.25518885 -0.1367813 0.27535558
0000c0 a9 b3 93 3b c8 92 9e be 27 2c 99 be 16 95 fd 3e
       0.004507501 -0.3097136 -0.29916498 0.49527806
0000d0 7e 71 cf 3d 15 d4 f7 3d ea e7 7a be 99 80 de be
       0.10129069 0.12100998 -0.2450253 -0.43457487
0000e0 55 e4 f4 bd 5b e8 89 be 90 4f 15 be 41 9c 70 be
       -0.119576134 -0.26935086 -0.14581132 -0.23497106
0000f0 a6 1c 9a bd ad 01 d0 3e 19 be 8d be a9 f1 a7 bc
       -0.075249955 0.4062628 -0.27684096 -0.020500975
000100 de 18 b4 be f9 8b e2 be 84 dd 3d be 37 55 03 bf
       -0.35175222 -0.44247416 -0.18541533 -0.513019
000110 c6 70 1f be 37 fe 75 be 75 7c 44 3d 11 c0 ac 3e
       -0.15570363 -0.24022757 0.047970254 0.33740285
000120 47 df 70 3e 93 a8 54 bf 22 9e 4e 3d 96 c8 79 bd
       0.23522674 -0.83069724 0.050443776 -0.06098231
000130 f7 1b a4 be 4e 03 d4 3e b3 39 4f 3e 60 40 ab 3e
       -0.32052585 0.4140877 0.20236854 0.33447552
000140 a8 34 5d be d0 e9 0e bf dc 32 e2 3d d0 08 18 bf
       -0.21602118 -0.5582552 0.11044857 -0.59388447
000150 12 5f 23 3d 45 81 a2 be 92 2f ee be 26 8a ac 3e
       0.039885588 -0.3173925 -0.46520668 0.3369915
000160 2b ac 95 be 14 13 36 3e 9e 0d 3c be 66 5b ba 3e
       -0.29232916 0.17780715 -0.1836457 0.36397856
000170 42 00 99 3d 8a 7e c6 be 37 b3 86 3e 30 89 c8 be
       0.07470752 -0.38768417 0.26308605 -0.39167166
000180 b1 92 e8 3c 7e c7 8f bd aa 60 2c bc 1a cc ae be
       0.02839026 -0.07020472 -0.010521093 -0.34140092
000190 7b 31 8b 3e c5 09 17 bf 19 e3 c9 be ef 9f d3 bd
       0.27186188 -0.5899928 -0.39431074 -0.10333239
0001a0 bf 29 e4 bc d4 62 d4 3c 0f b0 95 3e 08 35 a4 be
       -0.027851937 0.025926031 0.29235885 -0.3207171
0001b0 a3 bf f8 bd 75 a4 23 bc 84 4a 18 be b5 79 cd 3c
       -0.12145927 -0.00998794 -0.14872175 0.025082448
0001c0 b7 f1 ff bd 51 ee 04 bf 6d c0 94 be 3b d1 70 3e
       -0.12497275 -0.5192614 -0.2905306 0.23517315
0001d0 8f e9 f9 3d d9 28 95 be 40 27 70 bd 3a 29 0f bf
       0.12202751 -0.29132727 -0.05863118 -0.5592228
0001e0 7c 12 a2 3d d9 da 13 bf 0d 44 51 be 84 f0 22 be
       0.07913682 -0.5775581 -0.20436116 -0.15912062
0001f0 8c 90 92 be 51 f8 d2 3e 6e a0 be be 83 a4 76 be
       -0.28625906 0.41205075 -0.37231773 -0.24086194
000200 d2 ec ef 3d 90 7e 05 bf b2 28 1a be 8f ef 10 bf
       0.11715092 -0.52146244 -0.15054587 -0.5661554
000210 52 05 10 be 18 58 f7 be c9 ae af be b7 5b e2 be
       -0.1406453 -0.48309398 -0.34313038 -0.44210598
000220 c5 eb 2c be 96 bd 42 3e 57 6f 24 3e 88 9a 62 be
       -0.16886814 0.19017634 0.16058098 -0.22129261
000230 2f 88 1b be bf 3e e2 be f6 f1 19 3e 55 96 b0 3d
       -0.15188669 -0.44188496 0.15033707 0.086224236
000240 6f 44 7e 3e 34 2a 2a be d4 83 41 bb 7a c3 06 3f
       0.24830793 -0.16617662 -0.0029528039 0.52642024
000250 58 dc 2f 3e 34 a0 0a 3f f3 18 d3 be 80 bd 3c 3e
       0.17173898 0.541507 -0.41229972 0.18431664
000260 ce 99 8c be 1a ba dd be c9 a8 98 3e f5 d7 07 3f
       -0.27461094 -0.43306047 0.29816273 0.530639
000270 66 46 49 be b0 1f e1 be b8 30 23 be 29 30 d2 3e
       -0.19655761 -0.43969488 -0.15936553 0.41052368
000280 68 6a e0 bd 69 3f 2b be 30 3d 00 be 5d 3c 7d 3e
       -0.109577954 -0.16723408 -0.12523341 0.24730058
000290 ea af c6 3c c1 b2 83 3e df e3 71 3e 74 3d c8 3e
       0.024253804 0.25722316 0.23622082 0.39109385
0002a0 66 c6 f2 3a a0 f4 a8 3e b5 ee ed bd 90 c6 00 3e
       0.0018522262 0.32999134 -0.116177954 0.12575746
0002b0 a5 fc f7 3b 0d 28 d8 be 1d 53 89 3d d5 02 1c bd
       0.0075679594 -0.42218056 0.06705306 -0.03808864
0002c0 d6 26 84 3e 3d 14 ba 3e 95 82 b6 3d 17 a4 cf 3e
       0.2581088 0.36343566 0.08911625 0.40554878
0002d0 84 6e 3b be f6 1d 44 3e 43 95 c9 bc 70 cf f9 be
       -0.18303877 0.19152054 -0.024607306 -0.48791075
0002e0 8d dc 04 3e bd 7e d7 3e fc ad 89 3e e3 a8 c6 3e
       0.12974758 0.4208888 0.26890552 0.38800725
0002f0 78 a9 97 bd 58 d2 3e be e2 6a 97 be a9 fd 8e be
       -0.074053705 -0.18634927 -0.29573733 -0.27927902
000300 d3 cc a4 be b7 c5 5b be e1 e1 e8 bc 69 5e 87 be
       -0.32187518 -0.21462141 -0.02842802 -0.26439217
000310 89 ba bb bd 9c 29 9a be c5 94 f4 bd a2 ca fd 3e
       -0.09166438 -0.3010987 -0.11942438 0.4956866
000320 4b a1 8e 3a a4 65 41 bf d7 df 24 bd ab 95 aa bc
       0.0010881809 -0.75545716 -0.040252533 -0.02082332
000330 48 1a 69 be 9a 0f 4c 3e b1 af d6 bd 73 0f d4 bd
       -0.22763932 0.19927827 -0.10482729 -0.10354509
000340 d0 be 3c be 85 53 86 be 3a c4 f4 bd 40 14 1c bf
       -0.18432164 -0.26235595 -0.1195149 -0.609684
000350 96 fb 55 3e 6c 9c 01 be c4 3c a5 be 00 47 76 3e
       0.20896754 -0.12657326 -0.32272923 0.24050522
000360 13 43 68 bb d9 98 af 3c b1 d9 9f bc b5 af bb 3e
       -0.003544037 0.021435188 -0.019512983 0.3665749
000370 0b ac 67 3d da dc b7 be e2 cd b6 3d ee 41 6c 3d
       0.056560557 -0.35910684 0.08925988 0.057680063
000380 93 06 a8 bd 54 df 94 be cd fa 03 be ac 1b b0 be
       -0.08204379 -0.29076636 -0.12888642 -0.34396112
000390 fc 0e b8 3d dc 9a f5 be 84 6b d6 3d 1f b2 10 be
       0.08987233 -0.4796971 0.10469726 -0.14130448
0003a0 8f 6a a2 3d d9 c6 9d 3e 34 fe 53 3d 7b 6c 94 be
       0.07930481 0.3081577 0.0517561 -0.28989014
0003b0 11 25 2d 3e 19 c8 7a 3e 77 1b 19 be 1c 42 c7 be
       0.16908671 0.24490394 -0.14951883 -0.38917625
0003c0 57 da 79 3e fc 12 50 be 72 f6 cb be 3e b3 89 3e
       0.24399696 -0.20319742 -0.3983646 0.26894563
0003d0 0a f4 d9 3d 9d ed 98 be b5 30 b5 bd bd 7e ae bc
       0.1064225 -0.29868785 -0.08847181 -0.021300668
0003e0 69 47 6d be b9 89 ea be ca 41 73 be 44 0b f4 be
       -0.23171772 -0.458082 -0.23755565 -0.47664845
0003f0 81 0d 82 be 69 b2 d7 3e 72 b4 a0 bd 61 4b a3 be
       -0.25400928 0.42128304 -0.07846917 -0.31893447

weight_hh_l0 f4 [128, 32]
000000 87 1b fd 3c 16 0d 69 3e 70 dc 3c 3d 76 80 6f 3e
       0.030896915 0.22758898 0.046108663 0.23388848
000010 9a e1 3e be a5 b0 03 3e 84 1b 04 bd c8 28 06 3d
       -0.18640748 0.12860353 -0.032252803 0.032753736
000020 d5 0e 6d 3c 64 8b 55 be ed ec a5 3b 60 fa 8e 3e
       0.014468868 -0.20853955 0.005063644 0.27925396
000030 12 10 ce 3e 0a 8e 45 3c 12 19 8d 3d e3 9d 09 be
       0.40246636 0.0120577905 0.068895474 -0.13439135
000040 97 89 a9 3b 39 fe af bd e4 41 2e be 83 3a ce bd
       0.0051738727 -0.08593411 -0.17017323 -0.10069754
000050 bd 21 4a bc 30 43 82 be 05 14 e6 bd 39 09 4c 3e
       -0.012337145 -0.25441885 -0.11234287 0.19925393
000060 9a 7b a8 be 12 d3 8a be 37 ee 73 be 48 79 48 3e
       -0.329068 -0.2711416 -0.2382134 0.19577515
000070 cd 39 93 bd 69 4f b9 be 64 22 79 3e 66 45 04 3f
       -0.07188759 -0.36193398 0.24329525 0.51668394
000080 31 bb d2 3b c2 73 73 bd 40 8e 11 3d 0d 6a 28 be
       0.0064310064 -0.059436567 0.03553605 -0.16446705
000090 6d 2f b7 bd 39 a3 71 3e b5 42 02 be a7 ec 4a bb
       -0.089445926 0.23597421 -0.12720759 -0.003096381
0000a0 fa 5d 83 3d a8 68 10 3d 40 b6 99 be 8f 62 60 bd
       0.06414409 0.035256058 -0.30021858 -0.054781493
0000b0 2b 2e 3d 3e 57 56 88 3e 39 39 bd 3d d2 36 90 bd
       0.18474643 0.26628372 0.0923943 -0.07041706
0000c0 65 96 50 bd b8 3c 0a be a0 81 33 bd 4d 9d c4 3d
       -0.050924677 -0.13499725 -0.043824792 0.09600315
0000d0 be 1f 05 3e 26 7f 74 be 48 62 1d 3e 4e ee 8e 3e
       0.1300039 -0.23876628 0.15369523 0.27916187
0000e0 bf 2b 6d ba 10 d1 fe 3b dd cb f5 bd ad 67 77 bd
       -0.0009047351 0.007776387 -0.120017745 -0.060401607
0000f0 57 45 f3 bd 13 2c 69 3d 9e 84 15 3c 41 4f bf 3d
       -0.1187846 0.056926798 0.009125857 0.09341288
000100 07 25 2d be 21 90 55 3d d4 92 4b 3d 2b 16 b3 be
       -0.16908656 0.052139405 0.049700573 -0.3497785
000110 66 e6 91 be c3 e9 f1 3d 58 98 47 be 95 a8 0f 3e
       -0.28496093 0.11812165 -0.19491708 0.14029153
000120 f7 db ea bd d1 7e 90 be 34 9f 6a be 8e c8 5e 3a
       -0.11467736 -0.28221753 -0.22912294 0.0008498513
000130 f4 f0 04 3e bf 9c 8e 3e 76 0d 05 3e bb 11 3b bd
       0.12982541 0.27853963 0.12993416 -0.045671206
000140 b2 d0 44 be c5 de 0e be 65 74 3e be e8 b2 94 be
       -0.19220236 -0.13952167 -0.18599088 -0.29042745
000150 89 cd 75 bd e4 36 05 be b6 57 8a be 05 5c b3 3e
       -0.060010467 -0.1300922 -0.27020043 0.35031143
000160 ae 7a 4b be e3 4a 5f 3e dc 18 40 be 00 3e 5e 3d
       -0.19871017 0.21805911 -0.18759483 0.054258347
000170 94 d1 6b be 54 4c 39 3d 43 c2 12 3e e7 ae 0f bd
       -0.23029166 0.045238808 0.14331917 -0.03507891
000180 2d c2 79 3e d6 b8 59 3e be a0 18 3e e0 8a b9 bd
       0.24390478 0.21261916 0.14905068 -0.090596914
000190 52 dc 8c be 00 c9 1e 3e 5d 31 57 3d 95 6f e1 3d
       -0.2751184 0.15506363 0.05253731 0.11007611
0001a0 ab fe 47 3e 8d 50 50 bb 39 f9 4d bd 06 c9 a2 3d
       0.19530742 -0.0031786293 -0.050286505 0.079484984
0001b0 58 f5 af bb ac 5e d6 bc 49 4c 18 3e 72 e0 31 be
       -0.0053698234 -0.02616819 0.1487285 -0.17370775
0001c0 9f 0f 8b be bf 92 88 be d7 80 0f ba 2f 9c 0d bf
       -0.27160355 -0.26674458 -0.0005474216 -0.5531644
0001d0 8d ce 79 3d 02 c9 4e 3d 0a a3 a1 bd 03 3c 94 3d
       0.060987998 0.050484665 -0.07892425 0.07238009
0001e0 0b 53 a3 be 01 18 11 3e 99 6e 69 be 83 e5 61 3d
       -0.31899294 0.14169313 -0.22796096 0.05515052
0001f0 32 49 3d be e2 8d 84 be b4 02 e2 3d 30 40 d1 bd
       -0.18484953 -0.25889498 0.11035672 -0.10217321
000200 f9 18 da bc 9b 57 eb 3d 26 3a 30 be 5b 0f b6 be
       -0.026623236 0.11491319 -0.17209682 -0.3555859
000210 7a a2 56 3d 32 68 2a 3e f6 e1 bc bd fb 09 3e 3b
       0.052401043 0.1664131 -0.09222786 0.0028997648
000220 cc d4 ec 3e 5b d2 1b 3e 85 7f c3 bc c9 ef b8 3e
       0.462561 0.15216963 -0.023864517 0.36120442
000230 b0 89 7b 3d 78 85 f6 3e 79 a6 32 3e ac b3 f8 3d
       0.061410606 0.48148704 0.17446317 0.12143645
000240 eb 17 2d be 41 51 98 3d 12 b9 1d 3e a3 36 56 bd
       -0.16903655 0.07437373 0.1540263 -0.0522982
000250 dc 59 17 3e f8 da 3c 3c 49 9c 97 bb 95 dd 2c be
       0.14780372 0.011526816 -0.004626785 -0.16881402
000260 2d 64 69 be bb 68 c4 3e 48 67 0c be 75 e7 04 3d
       -0.2279212 0.38361153 -0.13711274 0.032447297
000270 33 64 29 bb e3 82 a8 3d c0 12 2a 3e 97 82 f9 3c
       -0.0025847077 0.0822809 0.16608715 0.030457778
000280 43 e4 c7 bd 22 57 04 bc 5b 50 f2 bd cc 6b 5c be
       -0.09760334 -0.008077415 -0.11831733 -0.21525496
000290 fa eb 4d be ef 9b 39 3e 94 0e d4 be 57 89 9d 3e
       -0.20109549 0.1812589 -0.41417372 0.30768844
0002a0 5e eb 07 3e 36 7c 2e be fa f8 16 bd 9b aa 98 3e
       0.13273379 -0.1703957 -0.036858536 0.29817662
0002b0 d9 5d a8 3d fd 44 12 3e 8b 73 1e 3e be 59 6a be
       0.08221025 0.1428413 0.15473764 -0.22885796
0002c0 ba 74 55 be 66 fb 06 3e 8d 06 c5 bd 5e ed 8c 3c
       -0.20845309 0.13181838 -0.0962039 0.01720303
0002d0 6b d8 d1 bc a3 3d 52 be 5d eb ad be 99 c9 19 3e
       -0.025615891 -0.20531325 -0.3396863 0.1501831
0002e0 eb 86 99 bd 46 8c a8 3e 0c 95 9f 3d ad 3d 20 be
       -0.07496437 0.3291952 0.077921 -0.15648527
0002f0 dd e7 af 3b 96 5e fc bd 02 bf 0d 3e 0e cd 0c 3c
       0.0053682164 -0.12322728 0.13842395 0.008593811
000300 3b bd d4 3d 9b d9 49 3e 46 4d 74 3e ab 76 ad bc
       0.10387655 0.19711916 0.23857602 -0.02117475
000310 78 6d bc 3c d5 d3 20 be c7 c8 95 be 77 64 6d 3e
       0.023001418 -0.15705808 -0.29254743 0.23182856
000320 b7 98 81 be f1 aa 5b be 71 db 8d bc ab 1c 53 3e
       -0.25311825 -0.21451928 -0.017316552 0.20616405
000330 67 d3 cf 3d ba 3d 7d 3e 77 ef ed 3d c4 78 b5 be
       0.10147744 0.24730578 0.1161794 -0.354437
000340 8c d5 8c be db 27 72 bd 41 1f 18 3e ed 59 a6 be
       -0.27506673 -0.05912004 0.14855672 -0.32490483
000350 99 23 9f 3e 98 7a 87 bd 13 7a 9a be 96 c7 d5 3e
       0.31081846 -0.0661518 -0.3017126 0.41753834
000360 5f 02 ae be ca 0c f5 3d 15 73 e2 bd fa 95 22 3e
       -0.33986184 0.1196533 -0.110571064 0.15877524
000370 eb fe 0e be 3d 03 cd bd 39 8a 8e bd a7 fd f1 3d
       -0.13964431 -0.10010383 -0.06959958 0.118159585
000380 ff 9e 41 bc fc 06 07 3e 8a 63 bb bb ea 75 7e 3c
       -0.011817693 0.13186258 -0.005718653 0.015531043
000390 5f 8b 04 be ce cf 31 3d 91 ce 89 3d ff b4 0a 3e
       -0.12943791 0.04341107 0.067288525 0.13545607
0003a0 67 b1 1a bd 32 1a 88 be 74 0c 75 be 92 56 ed 3d
       -0.03776684 -0.26582485 -0.23930532 0.115887776
0003b0 e6 e9 70 3e 49 9c 2e 3e 9a 66 39 3e da cb 14 be
       0.23526725 0.17051806 0.18105546 -0.14530888
0003c0 c4 29 ac bd d3 21 41 be a9 08 12 bf 6d 5f 59 bd
       -0.08406404 -0.18860559 -0.57044464 -0.05306952
0003d0 ae 75 07 be 42 3c c6 bd 10 b8 c6 bd b1 20 00 3d
       -0.13228485 -0.09679462 -0.09703076 0.031281177
0003e0 cc 4f 85 bd 6d 6d c1 3a 77 61 06 be 93 ce 2e 3e
       -0.06509361 0.0014757343 -0.13123117 0.1707099
0003f0 a4 dd 86 bd 46 21 7a 3d 3e d0 fc 3d c2 0a 38 3e
       -0.06585243 0.06106689 0.123444065 0.17972854

bias_ih_l0 f4 [128]
000000 36 9c c3 3d 6b 7b 6e bd e3 dd 17 3e bc 46 07 3e
       0.09551279 -0.05822317 0.14830737 0.13210577
000010 e3 79 01 3e c3 00 5f 3e 06 c0 a6 3e d9 c3 48 bd
       0.12644152 0.21777634 0.32568377 -0.0490149
000020 fc dc c2 3d 3e a4 f8 3d 00 49 56 3c 8f c0 d6 bd
       0.09514806 0.12140702 0.013078928 -0.104859464
000030 a5 5c bb 3d c3 25 92 3e 31 69 0a be 35 82 05 3e
       0.0914853 0.28544435 -0.1351669 0.13037951
000040 b0 0c 7f 3d 10 76 4a 3e 66 25 75 3e 5c 65 5f 3d
       0.06226796 0.197716 0.23940048 0.054540023
000050 18 42 89 3e f7 44 7e bd 1c 23 8e bd 89 bf 02 bd
       0.26808238 -0.06207749 -0.0694029 -0.031920943
000060 12 9a 17 3d a7 b7 29 bd 57 ad 2e 3e f9 0e b0 3d
       0.037012167 -0.04143491 0.17058311 0.08596606
000070 1f 70 fd 3d 70 68 08 3e d3 6f 1b 3e bb 45 ba 3d
       0.12374901 0.1332109 0.15179376 0.09095331
000080 76 56 84 3e ee 3e df bd 6b 66 82 bd 32 c4 b3 bd
       0.25847214 -0.10900675 -0.06367191 -0.08777656
000090 c6 90 ee 3d 6c 49 49 3e 72 b0 ec 3d 54 28 59 3e
       0.11648707 0.19656914 0.11557092 0.2120679
0000a0 95 ae 5c 3e 3a 7b 87 3e b3 93 07 3e 49 e1 7a 3e
       0.21550973 0.26461202 0.13239937 0.24500002
0000b0 e8 d7 47 bd a9 04 72 3e f0 b8 0a 3d a8 b4 43 3d
       -0.04878989 0.2363459 0.033867776 0.04777971
0000c0 d0 05 36 bc 98 3b 88 3e 4f 18 48 3e 45 9c 9a 3e
       -0.011109784 0.26607966 0.19540523 0.3019735
0000d0 bd 02 21 3e c6 30 ce 3d cf c3 a9 3c d8 8c 89 3d
       0.15723701 0.100678965 0.020723252 0.06716317
0000e0 bd f4 b8 3b 23 0e b2 3d 4a 8a 51 3e 6d 08 6e 3e
       0.0056444095 0.086941026 0.2046291 0.23245402
0000f0 c7 71 06 be 3f bc 63 3d 92 50 70 3c 5b 2c d4 3c
       -0.1312934 0.055599447 0.014667647 0.025900057
000100 70 83 f8 bd 44 5a 84 3d f9 71 f1 3d bd b1 2a be
       -0.12134445 0.06462529 0.11789317 -0.16669364
000110 20 16 52 3b 5e c6 eb 3d 98 54 0e 3e c2 59 0e 3e
       0.0032056645 0.11512445 0.13899457 0.13901427
000120 99 8e 08 3e e7 7b f2 bd 52 bb a3 3d cd 9a a6 ba
       0.13335647 -0.11840039 0.07994713 -0.0012710929
000130 b1 e1 8d 3d 8a 65 b7 3c 1d b0 fb 3d 7d 67 b1 bd
       0.06927813 0.022387285 0.1228945 -0.08662317
000140 29 bd 1d be f0 c4 e4 bd 87 91 3b 3e 18 46 c9 bd
       -0.1540419 -0.11170375 0.18317233 -0.098278224
000150 f3 a3 14 3c ee 0b 30 be 34 ee a4 bd 0b ad 3a 3e
       0.009072292 -0.17192051 -0.08053246 0.18230073
000160 a1 f1 15 be df 61 af bd 7c 95 15 3e 4d c3 1c 3d
       -0.14642955 -0.08563589 0.14607805 0.03827219
000170 34 da f8 3b 6c 7b bf bd ed d3 e6 bc 9d 04 ec 3d
       0.007594371 -0.09349713 -0.028177226 0.115243174
000180 58 05 2b 3d ed c0 36 3e 1e ca 67 3e 20 21 3b 3e
       0.041753143 0.17847033 0.22635695 0.18274355
000190 7f 18 6a 3e 3d 4f 96 3e 34 48 c4 3e 53 b5 d2 3c
       0.22860907 0.2935733 0.38336337 0.025721228
0001a0 5f 1f 9d 3c 76 42 5f 3e 01 07 10 3e d6 3b ab bc
       0.019179998 0.21802697 0.14065172 -0.020902555
0001b0 97 75 c5 bd 87 77 a3 3e 9e 7a 9d 3d 58 9d 20 3e
       -0.09641569 0.3192713 0.07689403 0.15685022
0001c0 a2 3f d1 3d 75 31 d4 bc 7d 7e 37 3e 6b e3 5a 3e
       0.10217215 -0.02590249 0.17919345 0.21375816
0001d0 8d 65 45 bb 30 d5 cb 3d 08 77 6d 3d 9e 3f c6 bd
       -0.0030120343 0.09952772 0.057974845 -0.09680103
0001e0 08 d9 3a 3e e1 6d a8 3d bc 8e ac 3e df e7 36 3c
       0.18246853 0.08224083 0.33702648 0.011163681
0001f0 98 23 bd bd 99 f7 86 3c 1e 52 0a 3e e1 64 0a 3b
       -0.092353046 0.016475486 0.13507888 0.0021117257

bias_hh_l0 f4 [128]
000000 bf 2b a6 3e 70 18 4e 3e e7 c1 a0 3d e1 d5 16 bd
       0.3245525 0.2012651 0.07849484 -0.036825065
000010 79 c4 61 3e e2 64 9c 3e 06 ed a1 3d cd 90 61 3d
       0.22047605 0.30545717 0.07906537 0.055069733
000020 47 ff 31 3e cd 2e 46 3e 14 5f 5f 3e d0 c6 d4 3d
       0.17382537 0.1935379 0.21813613 0.10389483
000030 8e 78 bc 3d cf e6 96 3e 86 c0 c0 3d 2a cf 39 3e
       0.092026815 0.29472968 0.09411721 0.18145433
000040 9a d8 37 3c f0 e0 f2 3d e6 bc 18 3e be ee 1c 3c
       0.011221075 0.1185931 0.14915809 0.009578405
000050 f3 d9 8b 3e 62 f9 41 3d 77 61 66 3e ad da d7 bd
       0.2731472 0.04735697 0.22498117 -0.10539756
000060 98 54 8f bd b6 2a ff bd 8a 0f 0a 3e e0 43 27 bc
       -0.06998557 -0.12459318 0.1348249 -0.010209054
000070 79 2e 19 3e a0 32 21 3e bd df 33 3c f3 9a f5 3d
       0.14959134 0.15741968 0.010978636 0.11992445
000080 35 7e fe 3d f5 63 e5 3d b3 cb 76 3d 1a 3e 88 3c
       0.12426416 0.11200706 0.060252856 0.016631175
000090 dc f1 01 3e ba 54 f3 3c ca ee f6 bb 50 8b 9f bd
       0.12689918 0.029703487 -0.00753579 -0.077902436
0000a0 cd f6 3c bd 71 f5 af 3d 77 2c 51 3d 56 96 0e 3e
       -0.046133805 0.08591736 0.051067796 0.13924536
0000b0 e9 1a c4 3d bb 6c 7f 3e 34 09 fb bd 87 2f d6 bc
       0.09575445 0.24943821 -0.12257615 -0.02614571
0000c0 15 d6 66 3d c5 0b c4 3b 58 72 4e 3d 13 17 eb 3d
       0.05635651 0.0059828483 0.050402015 0.114790104
0000d0 23 3c 19 3e 25 f9 c2 3c 96 88 29 3e 82 ae a4 bd
       0.14964347 0.023800442 0.1655601 -0.08041097
0000e0 40 69 f6 3c 71 02 07 3e 5e 3f ec 3d 47 27 5d 3c
       0.030079484 0.13184525 0.11535524 0.013498134
0000f0 b2 88 89 3d 07 f4 0b be d8 c5 d6 bd 89 b8 4f 3e
       0.06715526 -0.13667308 -0.104869545 0.20285238
000100 85 56 6d 3d 10 19 a9 3d d1 09 91 bd 40 b8 08 be
       0.05794384 0.082567334 -0.070819505 -0.13351536
000110 d6 15 9d 3d 02 69 b0 bd cb 89 85 bd 2b aa 0d 3e
       0.076701805 -0.08613779 -0.065204225 0.13834445
000120 2d 6e 02 be c0 85 d5 3d dc 85 9f 3b c2 34 d9 3d
       -0.12737341 0.104259014 0.004868252 0.10605766
000130 47 1d f9 3c 8f 1c c3 3d 62 ca cc 3d aa 0f a5 3c
       0.030409468 0.095269315 0.09999539 0.02014907
000140 d4 68 85 bd 16 99 73 3d fa dc cc bd 01 c3 70 b9
       -0.06514135 0.059472166 -0.100030854 -0.00022960828
000150 60 88 65 3d 8d 5b 05 be 01 1c 51 3d 18 9c f1 3d
       0.05603826 -0.13023205 0.051052097 0.11797351
000160 8c 80 a8 bd b7 2f 0c 3e f9 0f 6e bd f3 db 5e 3d
       -0.08227643 0.13690077 -0.0581207 0.05440898
000170 38 84 10 be 51 53 07 be 17 93 49 3e 40 bb 83 bd
       -0.14112937 -0.13215376 0.19685017 -0.064321995
000180 fe bd 9c 3e 23 26 1e 3e d8 c7 00 3e cf 28 ab bd
       0.30613703 0.15444236 0.12576234 -0.08357393
000190 4a 09 63 3d d2 10 9d 3e 5a ed 9d 3e 76 aa cb 3d
       0.05542878 0.30676895 0.30845147 0.09944622
0001a0 61 fd 7e 3d 5a 4a 6c 3e d5 e2 af 3d 58 1c 0a b9
       0.06225336 0.23075238 0.08588187 -0.00013171264
0001b0 a5 51 b5 bd 1a b6 36 3e 98 0f 12 3e a7 92 84 3e
       -0.08853463 0.17842904 0.14263761 0.25893137
0001c0 c4 22 80 3e ce 0c 05 3d 4c 24 2f bd 50 d3 4b 3e
       0.25026524 0.032482915 -0.042759225 0.19904828
0001d0 ba 4f a5 bc 81 8e b9 bd 55 21 37 3e a0 89 42 3e
       -0.020179618 -0.090603836 0.17883809 0.18997812
0001e0 54 20 6b 3d 45 11 55 3e cb 5e 00 3e bb 47 49 3e
       0.057403877 0.20807369 0.1253616 0.19656269
0001f0 38 8f 3b 3e 89 59 ab 3d 87 5a 75 3d d4 d9 88 3d
       0.18316352 0.08366687 0.059900787 0.066821724

weight_ih_l0_reverse f4 [128, 2]
000000 5b 29 29 be 75 78 94 3e 77 37 df bc 3e f8 f7 bd
       -0.16519682 0.2899815 -0.027248127 -0.12107895
000010 bd a6 10 be 24 2b ec be b3 c9 a2 3d a2 de 74 be
       -0.14126106 -0.46126664 0.07948627 -0.23913053
000020 f2 83 2a 3d b3 b1 00 be 0b 00 aa be 31 28 13 be
       0.04162974 -0.12567787 -0.33203158 -0.143708
000030 46 a7 99 3e d5 c1 62 be 51 25 d8 bd c9 c8 16 3e
       0.30010432 -0.22144254 -0.105539925 0.14725031
000040 82 11 b0 3e 79 75 0e bf 19 d9 b9 be 61 65 d2 3c
       0.34388357 -0.55648 -0.36298445 0.025683107
000050 30 b3 16 bf 7d 5f 0f 3f 67 0b 5f 3e 88 ec e0 3d
       -0.5886717 0.5600508 0.21781693 0.10982615
000060 ef 22 66 be 05 ef 05 bf 32 4f 1d be ef 67 3a be
       -0.22474264 -0.5231784 -0.15362242 -0.1820371
000070 d8 b5 6f bd c7 fb b1 3e 5d fa ae bb c0 3a 9f 3e
       -0.05852303 0.34762403 -0.005339904 0.3109951
000080 f0 04 38 bd 97 9a 47 bd 8d ba 5c bd e4 18 ec be
       -0.044926584 -0.048731413 -0.053888846 -0.4611274
000090 9e 54 69 be 98 4c df be 64 f9 ea bd 0e 76 18 3f
       -0.22786185 -0.43613124 -0.11473349 0.5955514
0000a0 5a d4 70 be 8d c9 85 3e b4 9d 1d be e2 cd 84 3e
       -0.23518506 0.26130334 -0.1539219 0.25938326
0000b0 39 c8 c0 bd 8c 1b be 3e 57 95 94 3c 08 8d 5e be
       -0.094131894 0.37130392 0.018137617 -0.21733487
0000c0 76 cb ae be 2e e8 10 3f f4 c8 08 bd ab d6 2c be
       -0.34139603 0.5660428 -0.03339477 -0.16878764
0000d0 aa 02 66 3e 63 52 9c 3e 76 71 6c be 69 1e 85 bd
       0.22461954 0.30531606 -0.23090157 -0.06499941
0000e0 45 ec c8 bd 03 be de 3e fa 22 13 bd 19 2b d9 3e
       -0.0981069 0.43504342 -0.035922028 0.42415693
0000f0 b8 82 88 3e 30 33 20 3e 67 5c 79 3e 7a 3e 77 be
       0.2666223 0.15644526 0.24351655 -0.24144927
000100 6b 8d b6 be 59 dd 2c 3f ca 1e 84 ba 11 d6 0a bd
       -0.35654768 0.6752525 -0.0010079977 -0.033895556
000110 36 96 6c be bd 17 8b be c1 4c 12 bd 48 90 b6 bd
       -0.23104176 -0.27166548 -0.03571773 -0.08914238
000120 aa 3e 47 3d ec 5e ea 3d bf 33 01 bd b4 db 83 3e
       0.048643745 0.11443886 -0.03154349 0.25753558
000130 c3 8c 18 3d 71 63 ac bd d0 67 8b 3e 3f 56 e1 3e
       0.037243616 -0.084174044 0.2722764 0.44011113
000140 f2 6e 19 3f ea dc 1a be 17 8d a2 be d3 d5 2f bd
       0.59934914 -0.15123335 -0.31748268 -0.042928528
000150 d0 b3 bd be 4f 17 c6 3e 8b ea b6 3e 5a 82 47 3e
       -0.3705125 0.38689658 0.35725817 0.19483319
000160 01 85 62 be 5d 28 ca be ad 64 58 3d 33 f9 ef bc
       -0.2212105 -0.3948392 0.052830387 -0.029293632
000170 60 3a 38 be 22 81 d5 3e 76 c1 5f bd 65 2e 99 3e
       -0.17991018 0.41700083 -0.054627858 0.2991821
000180 55 85 2b 3e 7d 8e 6e 3d 51 80 81 3c d0 a5 ae bd
       0.16750081 0.058241356 0.015808256 -0.0852772
000190 d6 79 97 be 26 94 50 be 5c c5 04 be ea c7 09 3f
       -0.2958514 -0.20369014 -0.12965912 0.5382067
0001a0 1c 78 32 3d 7b 35 7a 3e 97 c1 92 3e 25 1c 6f 3e
       0.043571576 0.24434464 0.28663322 0.2335058
0001b0 ca d1 de 3e 92 81 15 3e 2b a7 83 be fc 6e 54 bd
       0.4351943 0.14600208 -0.25713477 -0.051863655
0001c0 70 b8 b6 be aa ad e4 3e f9 01 7b 3e 29 b6 4a be
       -0.3568759 0.44663745 0.24512471 -0.19796051
0001d0 ff bf 0e 3f 27 96 9b 3e 95 e3 c9 bd 95 d1 69 be
       0.5576171 0.30387995 -0.09857861 -0.22833855
0001e0 10 0a c3 bd af b7 15 3f ab 46 65 3e f7 21 eb 3e
       -0.09523404 0.58483404 0.22390239 0.4592435
0001f0 7f 9e 0e 3f 7d 5b 93 3e f7 c8 1d 3f 3e 47 73 be
       0.55710596 0.28780738 0.61634773 -0.23757645
000200 4c 1f a4 be 5f ee be bd c0 20 8e 3e 30 38 be 3e
       -0.32055128 -0.093228094 0.2775936 0.37152243
000210 a5 67 65 be a2 4d ce 3e 7e 12 78 be fa 7e c9 be
       -0.22402819 0.40293604 -0.24225804 -0.39354688
000220 c4 fe 7e 3e 5d ad 8c 3e a8 a1 ab 3e 2d 89 a6 3e
       0.24901873 0.27476016 0.3352177 0.32526532
000230 77 54 98 3d 14 24 57 be 4b c6 34 bf 71 a4 a0 3e
       0.074379854 -0.21009856 -0.7061507 0.3137546
000240 10 a6 3a be 5b 2a 02 bf 18 e5 06 be 21 c0 c9 3e
       -0.1822741 -0.5084588 -0.1317333 0.39404395
000250 e7 be 43 3e 98 0e 56 be 16 2a ad 3e 5c 34 b1 3d
       0.19115792 -0.20904005 0.33821172 0.08652565
000260 19 0c b8 3e ed 4d 16 be c6 31 8a 3e ab cd a1 3e
       0.3594673 -0.14678164 0.269911 0.31602225
000270 6c bb 62 3e f9 74 0f bf 8a 31 8b 3e 5b 81 3c be
       0.22141808 -0.5603786 0.27186233 -0.1840872
000280 a1 3e 74 3e bf b3 51 3e 3a d2 70 3e f8 c2 ff 3e
       0.23852016 0.20478724 0.23517695 0.49953437
000290 a6 d8 ac 3e 0d b7 04 bf 2a 58 c2 be da fd 71 3e
       0.3375904 -0.51841813 -0.3795789 0.23631993
0002a0 90 87 8e be f7 ae 9f 3d e4 3c 21 3f 4b 0a 0a 3d
       -0.278378 0.07797044 0.62983537 0.033701222
0002b0 04 8d cf be 78 7b 2c 3e 12 5b 86 3e 81 8f f6 3e
       -0.40537274 0.16843975 0.26241356 0.4815636
0002c0 1f d5 23 3e 43 50 59 3e b3 46 2f 3e 30 20 a0 3e
       0.15999268 0.21222024 0.17116813 0.31274557
0002d0 63 0f 94 be f4 20 a4 bd f0 ea c0 bc 71 ce 14 bf
       -0.2891799 -0.08014098 -0.023549527 -0.58127505
0002e0 f0 2e b3 be f7 29 2f 3d 26 89 d5 3e e2 fa 23 3d
       -0.34996748 0.04276463 0.41706198 0.040034182
0002f0 87 e4 0d 3f 12 b9 98 be 2c 71 34 bc f4 4b cb 3d
       0.5542683 -0.29828697 -0.01101331 0.09926596
000300 dc cf 18 bc aa cd d8 3e f5 d0 33 bd 76 86 41 be
       -0.009326901 0.4234441 -0.04390045 -0.18898949
000310 15 07 82 be c9 e4 22 bf 17 c2 57 be 2a ec 62 be
       -0.25396028 -0.6363035 -0.21070133 -0.22160402
000320 bf 15 7f bd dd 28 5c 3e 6a fd 8f be 3b ec 2c bd
       -0.062276598 0.21499963 -0.28123027 -0.042217474
000330 a8 ed 4d 3e 85 04 6e be 20 b2 07 3e 72 47 ff 3d
       0.2011019 -0.23243912 0.13251543 0.12464799
000340 c8 ee b0 3e de 1a 4e be fd 5e a2 be 32 30 79 be
       0.34557176 -0.20127437 -0.31713095 -0.24334791
000350 93 8c 2a be b9 4d cd 3d e4 0a 97 3e 9b 69 98 3d
       -0.16655187 0.1002459 0.29500496 0.07442018
000360 9c b1 78 3e 85 bb 9c 3c 7f 5f 07 3c b3 81 c7 3d
       0.24286503 0.019132385 0.008262514 0.09741535
000370 0f 33 06 be 1b 41 b2 3d 91 98 40 be 11 1b 5b 3e
       -0.13105415 0.08703824 -0.188082 0.21397044
000380 c1 1d a4 3e 66 cf 3d 3e 1e 2d bd 3d 03 f0 a5 be
       0.3205395 0.18536147 0.09237121 -0.32409677
000390 7c a6 5b be 00 11 db be b7 f8 69 be ec ad 10 3f
       -0.21450227 -0.42786407 -0.22848783 0.56515384
0003a0 c4 2f 13 3e 5f 4a 9d bd ae 1f e7 bc dd 92 c6 3e
       0.1437369 -0.07680201 -0.028213348 0.38783923
0003b0 af 86 fb 3d 27 48 82 3e 59 b1 78 be 3e 04 35 be
       0.12281548 0.25445673 -0.24286403 -0.176774
0003c0 02 fe b9 bd f3 6c c4 3e fb 8b ef 3e 0b cd 5e be
       -0.09081651 0.38364372 0.46786484 -0.21757905
0003d0 67 a2 f7 3d bd a6 a5 3e 59 27 03 be 6a 4a 6e bc
       0.12091523 0.32353774 -0.12807979 -0.014544109
0003e0 7a 52 41 3e 41 52 80 3e 9c 6a 5d 3d 35 ec eb 3d
       0.18879119 0.25062755 0.05405675 0.11519662
0003f0 a3 f6 5e 3e ba 21 cd 3e 3f bf dd 3e 17 87 83 be
       0.21773772 0.40064794 0.43309972 -0.25689003
