data/models/hotel/model_registrar-1999.pt (torch_old, 492052 bytes, 45 tensors)

weight_ih_l0 f4 [128, 6]
000000 24 01 28 3e f4 e4 c5 3e 85 2b 77 be f2 52 c6 be
       0.16406685 0.3865124 -0.24137695 -0.38735157
000010 d9 e1 00 be ef 4f fb be ad cc 46 bd ca 92 fe 3d
       -0.12586154 -0.49084422 -0.048535038 0.124303415
000020 b3 66 df bd 5b cb 47 3d f3 98 a9 3c 51 1c e9 be
       -0.1090826 0.04877792 0.020702815 -0.45529416
000030 76 28 39 be 10 1f 49 bd 06 d4 a4 bc 48 08 0f bc
       -0.18081841 -0.04910189 -0.020120632 -0.008730002
000040 fe a3 01 bf 1a 33 3e 3f 09 c3 86 bc 18 f8 e2 3e
       -0.5064086 0.74296725 -0.016450422 0.44329906
000050 a9 70 a4 3e 82 70 c7 3e 27 a5 6b bf 62 0c 3a 3f
       0.32117203 0.38953024 -0.9204888 0.72675145
000060 36 f2 be bd e5 4d 83 3d b1 3b 97 be 07 06 a2 3b
       -0.09323542 0.064113416 -0.29537728 0.004944566
000070 33 29 cd 3f c7 c0 a3 bf d0 e6 17 3e 34 a2 a2 3e
       1.6028198 -1.2793206 0.14834142 0.31764376
000080 19 0a 79 3e e7 d6 52 be 1d c3 0b bd 92 4c 45 bf
       0.24320258 -0.20589791 -0.03412162 -0.7706996
000090 af a8 0e be ac 23 86 3c b0 cc 93 bd 85 5e 22 3e
       -0.13931535 0.016374432 -0.072167754 0.15856369
0000a0 b9 0b 8e bc 51 3c 83 be 77 f2 82 bd 83 8a 24 3e
       -0.017339574 -0.25631955 -0.06393903 0.16068463
0000b0 e0 d4 45 be 3c 8c a9 3e 02 5f 86 3d 76 87 fd 3d
       -0.19319487 0.33114803 0.0656109 0.12379353
0000c0 2f e4 25 3e a4 c4 10 3d b5 91 b6 3d 61 22 78 be
       0.16200326 0.03534378 0.0891451 -0.24231865
0000d0 f0 db 1b 3f ab cd 6e 3f 91 1f 5c 3d d4 02 a3 3e
       0.60882473 0.93282574 0.05374104 0.31838095
0000e0 59 04 88 be 76 70 12 bf e7 90 9a 3e 8c 7f 43 3c
       -0.26565817 -0.5720285 0.30188677 0.011932265
0000f0 f8 dc 33 3e c9 2d 4f be 0b c2 27 be ff aa 29 bf
       0.17564762 -0.2023231 -0.16382615 -0.66276544
000100 29 5a 51 be 2b 51 ca 3e 35 2e 0d bd 17 95 99 3e
       -0.2044455 0.3951505 -0.034467895 0.2999656
000110 07 fa b0 be b6 0e 2c bf 95 00 8c 3f b1 8b 5d bf
       -0.34565756 -0.6720995 1.0937678 -0.8654128
000120 9e 12 5b be 3d 62 48 be 48 0e e9 bc 99 2f dc 3d
       -0.2139382 -0.19568725 -0.028449193 0.10751266
000130 af 93 aa 3d e0 cd bb be 6f 9a 0e be c4 be 36 3d
       0.0832895 -0.36680508 -0.13926099 0.044615522
000140 4d 5d da 3e 03 c3 19 be 32 33 2a 3f f7 aa 2b 3f
       0.42649308 -0.15015797 0.6648437 0.67057747
000150 5c 9f 1e bc ad 47 98 3d f2 af 7e be f9 5e 02 be
       -0.009681549 0.07435546 -0.24871805 -0.12731542
000160 a2 a9 07 bf b8 7b cd be 4e f6 7c be a8 28 7d be
       -0.52993214 -0.40133452 -0.24703333 -0.2472254
000170 f9 74 19 3e 53 59 b3 3e 51 99 19 3f b8 f6 7a 3e
       0.14986028 0.35029086 0.5999957 0.24508178
000180 38 7d 39 3e 52 48 89 3d de f6 57 3c bc 4f 7a 3e
       0.18114173 0.06703247 0.013181416 0.24444479
000190 92 21 dc be 7d a7 4e bf f1 b9 7e bd 64 48 d4 bd
       -0.42994362 -0.80724317 -0.062189046 -0.1036537
0001a0 77 20 5b 3c d7 bb 76 bd e6 84 6a bc d8 1e 49 bd
       0.013374439 -0.06023773 -0.014313912 -0.04910168
0001b0 6e 78 0b 3e 71 f7 9a 3d 38 a2 dc 3d 04 86 b0 3e
       0.13620159 0.07566727 0.10773128 0.34477246
0001c0 c4 9f 0f 3f 5e 9b 50 bf 9d d2 02 be 77 36 8a 3e
       0.5610316 -0.8148707 -0.12775655 0.26994678
0001d0 63 82 7a be e2 96 d8 3c 13 d9 39 3f 05 12 af 3f
       -0.24463801 0.026439134 0.72596854 1.3677374
0001e0 ee f7 94 be 1b c3 2f be 6e 3c 72 3e e1 90 85 3e
       -0.29095405 -0.1716427 0.23655865 0.26087096
0001f0 65 54 14 3e 07 2e 4d bd e7 55 a0 3c 23 d1 9f be
       0.14485319 -0.050092723 0.019572211 -0.31214246
000200 b7 d7 7d 3e 51 d9 6c 3f 18 f3 26 3f 71 c5 66 3d
       0.2478932 0.925191 0.6521468 0.05634064
000210 f1 e0 16 be 85 34 0e bf 7b b9 11 3e 98 ff 04 3f
       -0.14734246 -0.5554889 0.14230911 0.51952505
000220 a6 d8 27 3f a3 d2 da 3e 7a c2 3e 3e c9 fc 5c be
       0.65564954 0.42738828 0.18628874 -0.21580805
000230 ad 92 4e be 9e a4 70 3e 48 34 8c 3e 1f 5d 40 bc
       -0.2017314 0.23500296 0.27383637 -0.011740952
000240 be a7 31 3d 60 0c 16 3f 80 5b 94 be c4 6b 0c bf
       0.043372862 0.5861263 -0.2897606 -0.5485194
000250 c6 6a 9b bf 4a 97 f2 3e 63 49 49 be ad b8 7f be
       -1.214196 0.4738105 -0.19656901 -0.24972792
000260 d6 5e 38 3e 96 6b f0 3e 63 8c 8b 3e 50 a9 7f be
       0.18004927 0.46957082 0.27255544 -0.24966931
000270 a1 2d e2 be 14 34 2d 3e cc 62 16 be b5 f0 17 bf
       -0.44175437 0.16914397 -0.14686126 -0.59351665
000280 a6 fc c3 3e 2a 48 55 bd e3 ba 34 be 03 3e 4f 3e
       0.38278693 -0.052070774 -0.17649417 0.202385
000290 76 66 a0 3e 46 84 06 3f 19 b4 0d 3f 67 ec 06 3f
       0.31328171 0.52545583 0.5535293 0.5270447
0002a0 86 63 e4 3e 30 9a 47 bd 4c 37 e4 be aa f0 79 3e
       0.4460718 -0.04873103 -0.44573438 0.24408212
0002b0 b7 ff 4f 3f da 39 f8 3e 5b 0e 66 be b0 c4 1e be
       0.81249565 0.48481637 -0.22466414 -0.15504718
0002c0 9a 06 85 bd 8e 0a 03 be a1 ea 3b 3f 75 6e f4 3e
       -0.064954 -0.12796995 0.7340489 0.47740522
0002d0 38 e4 86 3e 22 a5 dc 3e 8a 96 9c 3d 07 89 f3 be
       0.26345992 0.43094736 0.076459005 -0.4756548
0002e0 88 ba f1 be cb f5 e9 be aa 55 af be 0f 4f 91 3e
       -0.47212625 -0.45695338 -0.34245044 0.2838063
0002f0 7a 3a 3c 3e 1f 74 2a be 15 d3 00 be 8e 35 0e be
       0.18381682 -0.16645859 -0.12580521 -0.13887617
000300 38 27 bd 3d 82 39 b1 3e 3d c2 19 be 9d 02 c2 be
       0.09235996 0.34614187 -0.15015502 -0.3789262
000310 5b 9b 83 3d ca 65 09 bf 68 bb 3f 3d d6 d5 88 3d
       0.06426116 -0.5367094 0.046809584 0.06681411
000320 d4 b8 eb bc d0 8b 45 be de 86 9b 3e ad 8c d7 bd
       -0.028774656 -0.19291615 0.30376333 -0.10524879
000330 1b 2c 77 be 29 6e ba 3b 5a 79 a2 3d 62 28 4c 3d
       -0.24137919 0.0056894016 0.07933302 0.0498432
000340 a2 21 43 3e 0c fc 3a be 7f f2 ec bd c0 ed a7 3e
       0.19055799 -0.18260211 -0.1156969 0.32798576
000350 a5 8f 0a 3e 15 14 33 3d 19 d7 2d 3e 70 5c 3b bf
       0.13531359 0.043720324 0.16976584 -0.73187923
000360 7a 8e 67 bc 77 77 81 be 50 a1 11 3d d5 33 49 bc
       -0.01413309 -0.25286457 0.03555423 -0.012280424
000370 1b 96 45 bf 20 0b 41 3d e1 97 a0 3d b0 d4 e7 3c
       -0.7718217 0.04712975 0.078414686 0.02829966
000380 fb 83 37 3e 64 ea e2 be 1c 66 b6 bd 08 b8 8f 3e
       0.1792144 -0.4431945 -0.089061946 0.28070092
000390 6b d1 f3 3d fd 19 6f 3d 9b f1 af 3d 19 0e c4 3b
       0.11905178 0.058374394 0.085910045 0.005983126
0003a0 35 06 0f be 60 f3 99 bc d0 66 36 bd 5d 81 08 be
       -0.13967212 -0.018792808 -0.044531643 -0.13330598
0003b0 a3 90 52 bd 68 86 19 3d 90 cd 36 3e 95 69 99 3e
       -0.051407468 0.037481695 0.17851853 0.29963365
0003c0 9a 48 bf 3d ff 1d 4c be b3 32 e9 bd 2a 31 0e bd
       0.093400195 -0.19933318 -0.11386623 -0.034714855
0003d0 74 f3 a4 be 13 57 9e 3e 9c 9a 1f be 85 21 55 3d
       -0.3221699 0.30925807 -0.15586323 0.05203392
0003e0 e6 f2 75 3d 09 5e 89 be 71 80 5e 3e 7f 91 56 3d
       0.0600461 -0.26829556 0.21728684 0.05238485
0003f0 48 78 83 3e ff 9e 0f bf 68 7b 3a bd e9 98 bb be
       0.25677705 -0.56101984 -0.045527846 -0.366401

weight_hh_l0 f4 [128, 32]
000000 d3 06 05 3e 99 89 25 bd d4 ad 34 3e 92 e6 fc 3d
       0.12990884 -0.040414426 0.17644435 0.12348665
000010 f0 77 ab be bb c2 a5 bd 1a 8d 0a be d5 98 d4 3c
       -0.33489943 -0.080937825 -0.13530388 0.025951782
000020 72 a9 89 3d 7c aa 96 bd 74 20 48 bd 5d 84 0d 3d
       0.06721772 -0.07356736 -0.048859075 0.03455006
000030 e6 89 d7 bd 6f 65 8b 3e 88 aa 17 3e b0 0e 8e 3d
       -0.10524349 0.27225825 0.14811146 0.06936395
000040 68 9c 8d 3d 21 1d be bd 67 44 6e bc 45 bb 63 be
       0.06914598 -0.092829 -0.014542676 -0.22239406
000050 0a 15 a5 be 1a e8 c4 be 27 f9 20 be 68 f4 e8 bd
       -0.32242614 -0.3845833 -0.15720044 -0.11374742
000060 bd 6d b0 3d 69 39 65 3d 33 35 28 3d e4 a2 8e 3e
       0.08614681 0.055962954 0.04106636 0.2785865
000070 c0 f3 6e 3e 20 9b cd 3d 1a 27 d9 bd 09 ca 70 bd
       0.23335171 0.10039353 -0.10603161 -0.058786426
000080 ab d9 c0 bc e6 5d b2 be 89 98 49 3e e8 83 f9 3d
       -0.023541292 -0.34837264 0.19687094 0.12183362
000090 93 5d 5c 3e e9 ab a6 3d 73 e3 71 be 1c dd a2 bd
       0.2152007 0.08138258 -0.23621921 -0.079523295
0000a0 08 e7 6a 3e 54 9b ea bd 22 0a 4e 3b c3 0a 38 bd
       0.22939694 -0.11455408 0.0031439145 -0.04493214
0000b0 79 dd 9e be 51 3a 17 3e 61 6f 3e bd 04 71 32 be
       -0.31028345 0.1476834 -0.046492938 -0.17425925
0000c0 13 b5 06 bd 85 05 96 3e ff 9d 06 bc 2c b2 f8 bd
       -0.03288753 0.29301086 -0.00821638 -0.121433586
0000d0 11 8b b7 bd 0c 46 36 be bd 0a 87 be 80 0c e3 bd
       -0.08962072 -0.17800158 -0.2637538 -0.110863686
0000e0 9b 6b bd 3e e8 cf 92 bd 47 33 8e be eb 70 31 be
       0.3699616 -0.07168561 -0.27773497 -0.17328231
0000f0 cf 41 a3 bd 65 58 e1 bb f7 17 8c 3e 22 78 83 3d
       -0.07971536 -0.0068769925 0.27362034 0.06419398
000100 dc 5c 17 3d 80 5e 9c be 32 f7 a7 bd 24 96 87 3e
       0.036953792 -0.30540848 -0.08201446 0.26481736
000110 56 53 cb 3e 27 9c 09 3e 63 c4 ee be 3f ce 17 be
       0.39712018 0.13438474 -0.46634206 -0.1482477
000120 12 b4 06 3e 7f f9 27 3e da 6e 83 be 04 bf 2b 3e
       0.13154629 0.16403769 -0.2567051 0.16772085
000130 8c ee a1 be 78 c5 77 be 51 d7 3a bd 1b 51 c6 bd
       -0.3162731 -0.24196422 -0.045615498 -0.096834384
000140 07 4c 54 bd a9 68 ec 3d 53 5f 8d 3e 62 ad a7 be
       -0.051830318 0.115434 0.2761179 -0.32749468
000150 97 ba 39 3e a7 df 19 3d b1 ea 6f 3d d8 f8 8a 3d
       0.18137585 0.037566807 0.05857343 0.067857444
000160 75 24 cf 3e 65 ff 5a 3c 5d 95 15 3e 80 ee dd 3d
       0.40457502 0.013366555 0.14607759 0.10836506
000170 ea 28 6f bd 61 93 9c bd 53 76 b0 bc 3a da 9a 3e
       -0.058388628 -0.07645298 -0.021540796 0.3024462
000180 8f 59 be be d9 01 69 be ef d7 02 3c de 8b 20 3e
       -0.37177703 -0.22754611 0.007986053 0.15678355
000190 14 37 29 be c0 0a df 3c 1b 34 80 be 8a 6d 8d 3d
       -0.16524917 0.027226806 -0.25039753 0.069056585
0001a0 91 43 30 be 28 0b 97 3e 29 ba 9f bd 54 e7 05 bd
       -0.17213275 0.295007 -0.07799179 -0.032691315
0001b0 7c c3 e5 be 5e 1a 0b be c6 e0 b9 be 20 eb 8f be
       -0.44875705 -0.13584277 -0.363043 -0.28109074
0001c0 18 66 5c be 90 64 a3 3e b9 9d 20 bd 1e 48 3c bc
       -0.2152332 0.3191266 -0.039212916 -0.011491803
0001d0 ff 71 9c bd 35 84 02 3e 7a 01 91 3d 35 1f b0 be
       -0.076389305 0.12745745 0.0708036 -0.3439881
0001e0 6b e1 fb 3d 95 60 bd bb c7 34 87 be 18 dc b8 3d
       0.122988544 -0.0057793357 -0.26407453 0.090263546
0001f0 1f 1e 64 be 13 ce d9 bc 8a d8 12 3f 3e 87 6b 3e
       -0.22277115 -0.026587522 0.5736166 0.2300081
000200 47 2d 61 bd 5e 46 09 3c a5 d9 02 3f 39 20 0a be
       -0.05497482 0.008378593 0.5111335 -0.13488854
000210 8d e9 94 3e 4a 4c b6 bd 3b 21 97 3e 0c 05 ea 3d
       0.29084435 -0.0890127 0.2951754 0.11426744
000220 6a ef 67 bd cf 48 07 be 72 95 20 be 14 2c f1 bc
       -0.056624807 -0.13211368 -0.15682009 -0.029439963
000230 37 54 9d 3d ab 3b 9e ba 47 c1 83 3d 46 dd c0 be
       0.07682078 -0.0012072226 0.06433349 -0.37668818
000240 34 ea 6e bc 9e 76 70 be 07 c3 93 bd 4b 99 eb 3c
       -0.014582206 -0.23482749 -0.07214933 0.02875962
000250 60 d8 5b be fe b9 4b 3e ee d7 f1 3d ee 11 98 bd
       -0.2146926 0.19895169 0.118087634 -0.07425295
000260 73 dd dd 3e 37 12 5e be c5 03 bf bd f0 af 56 be
       0.43333015 -0.21686636 -0.09326891 -0.20965552
000270 1a cf e0 3c 0a a7 67 3d c4 22 c4 3d 7d 51 0c be
       0.027442504 0.056555785 0.095769435 -0.1370296
000280 57 4f 92 3d 33 69 04 be 2a 54 d5 3c 1f 25 11 be
       0.07144039 -0.12930755 0.02604111 -0.14174317
000290 39 c8 92 3e 60 ad e9 bc e0 c0 28 3c fc 53 4b bd
       0.28668383 -0.028525054 0.010299891 -0.04964064
0002a0 b6 54 86 3d de 4e 8d 3d 85 41 76 3d 09 b3 1f bd
       0.06559126 0.06899808 0.060121078 -0.0389891
0002b0 17 5e 1a be fb eb f7 ba 65 a7 45 bd 09 1d bb 3d
       -0.15074955 -0.0018914932 -0.048255343 0.091363974
0002c0 3e 1e d0 bc 03 9b 30 3e ae 82 8e bd 2c 7f 3c 3d
       -0.025405046 0.17246632 -0.06958519 0.046019718
0002d0 dc 14 0b 3e d8 33 78 bd 16 df b8 3c 12 08 59 bd
       0.13582176 -0.060596317 0.022567313 -0.052986212
0002e0 ec a4 74 bc fb 18 27 be c7 85 2b 3e 1c 48 f3 3d
       -0.014931899 -0.16318123 0.16750251 0.11878988
0002f0 e3 49 4b bd cb e2 62 3e 86 2e 44 3d 1f f2 27 3e
       -0.04963101 0.22156827 0.04789593 0.16400956
000300 19 4c 5c 3e eb c2 1a 3d 49 ec 68 be dd fc 64 3e
       0.21513404 0.037783545 -0.22746386 0.22362085
000310 2b ac bb 3e 71 12 16 3e 79 2a 46 be e2 a4 50 bd
       0.3665479 0.14655472 -0.1935214 -0.050938495
000320 d6 76 2b 3e 21 ca 0b 3e bc f3 32 be 06 df 2e bd
       0.16744551 0.13651325 -0.1747579 -0.04269316
000330 41 07 ef bd 2c e0 72 3e 69 ec c9 bd fe 06 8a 3d
       -0.116713054 0.23718327 -0.09859545 0.06739615
000340 d2 05 23 bd 65 66 01 3c bf 18 da 3d 80 3a 6f be
       -0.039800473 0.007897948 0.10649251 -0.2336216
000350 12 b6 91 3e 41 37 c1 3c 70 cf c1 3c aa ab 07 3d
       0.2845922 0.023585917 0.023658484 0.033122696
000360 6d c3 50 be 8f 31 6d be 53 97 a2 3d 96 44 5f 3d
       -0.20387049 -0.23163436 0.07939019 0.054508768
000370 63 dd 68 be f7 a9 ee 3c 6d 0d 5f be 51 cd 7a 3e
       -0.22740702 0.02913378 -0.21782465 0.24492384
000380 a1 b3 57 3e 2f 86 d8 bd 36 b6 20 bd 35 14 bd 3c
       0.21064617 -0.105724685 -0.03923627 0.023080925
000390 52 62 68 bd 39 ab 39 3e af d4 8e be e7 8f 08 3d
       -0.05673439 0.18131723 -0.2789664 0.03334036
0003a0 33 81 d1 3c 40 b6 65 bd 87 b6 bb bc 62 86 aa bd
       0.025574302 -0.05608201 -0.022914184 -0.08326413
0003b0 9a 9f 24 3e c6 40 ec bb fe e0 30 3b 91 d8 e4 3d
       0.16076508 -0.00720987 0.0026989575 0.11174119
0003c0 2f 02 fa 3d 4f ae 10 bd cf d4 47 be 40 97 2a bd
       0.12207448 -0.035322484 -0.19514774 -0.04164815
0003d0 dd 04 61 3d b2 f2 44 be 95 07 12 be 61 8a 5e bd
       0.05493628 -0.19233206 -0.14260705 -0.054331187
0003e0 01 ee c1 3d ce 8f 23 3e 36 c0 a8 3c 96 c8 29 3e
       0.09469224 0.15972826 0.020599466 0.16580424
0003f0 81 9d 12 3e 63 3e cd 3d c6 28 a5 3d 04 1d 29 3e
       0.14317895 0.10021665 0.080644175 0.16514975

bias_ih_l0 f4 [128]
000000 b5 81 78 3d 15 72 a9 3e cf f4 9a 3e e7 e2 f4 bb
       0.060670573 0.3309485 0.302649 -0.007473338
000010 7e 90 c8 bd a9 81 a7 3e 12 c1 88 3e 13 1d e9 bd
       -0.09793185 0.3271611 0.267098 -0.113824986
000020 ca d5 a7 3c 3c f9 aa 3d e4 5b 90 3e a7 25 54 3e
       0.020487685 0.08348319 0.28195107 0.20717488
000030 b8 0d 56 3e 50 7f 09 be f6 90 1a 3f 67 3c ba 3e
       0.20903671 -0.13427472 0.6037744 0.36374208
000040 3d cd 6b bd 50 61 8e 3e 41 a6 1c bb cd e0 b3 3e
       -0.057568777 0.2780862 -0.0023902806 0.35132447
000050 23 ae c5 3e 9e 36 80 bd 43 cd 8b 3d 26 a6 07 bc
       0.38609418 -0.062604174 0.0682626 -0.008279359
000060 1d d7 1b 3f a8 5e 83 3d 6c 8e 1d bd 7a 65 b3 3b
       0.6087511 0.064145386 -0.038465902 0.0054747434
000070 1a b6 28 be cc cc 22 3e 08 6f bd 3d 45 f7 d8 3c
       -0.16475716 0.15898436 0.09249693 0.026485095
000080 69 d6 b0 3d 45 e8 0f bf bd 95 17 bf e7 a6 be 3d
       0.086346455 -0.5621379 -0.5921286 0.09309178
000090 16 48 9c be 8f 26 94 be 11 6b 05 bf da 47 cd bd
       -0.30523747 -0.28935668 -0.52116495 -0.1002347
0000a0 74 de 6d be 01 0a c7 3a 8c 95 c4 bd 16 cc b5 bc
       -0.2322939 0.0015185477 -0.09598836 -0.022192042
0000b0 24 f7 03 be b3 43 8f 3d 5e dc 0c bf 8e 7f 13 bf
       -0.12887245 0.069953345 -0.55023754 -0.5761651
0000c0 fc 30 52 bc 61 ec 01 bd bf b1 52 be bd e0 7c be
       -0.012829062 -0.03171957 -0.20575617 -0.24695106
0000d0 9f 17 15 bf 1a 9f 2c 3d 5e a5 e9 3b 8f bd 10 3c
       -0.5823917 0.04214392 0.007130309 0.008834257
0000e0 6b 9f f1 be fa 84 bf 3d 7f cb 2d 3d 1f 20 0a 3e
       -0.4719194 0.09351535 0.042430397 0.13488816
0000f0 87 96 f2 bd 42 cd 7e be a3 05 1b bf 94 2e 52 be
       -0.11845117 -0.24882987 -0.60555476 -0.2052558
000100 bd 13 0d 3e 58 a5 03 3e 96 e1 b0 bd 8d 40 43 3d
       0.13777061 0.12856042 -0.08636777 0.047668982
000110 05 e0 e0 bd d9 8e 60 bc b8 e4 ce 3d b8 77 e5 bc
       -0.10980228 -0.013705933 0.101022184 -0.028011188
000120 26 3d 69 bd e1 13 78 3d cc 85 81 bd 0f 3c 02 bc
       -0.05694308 0.060565833 -0.06324348 -0.007948889
000130 c6 f5 d9 bd 78 05 43 bd a2 68 1e 3d 8f 23 a1 bd
       -0.10642581 -0.047612637 0.038674004 -0.078681104
000140 8b 0d 76 bd fc 7c e0 bd 3e 64 85 3d ad 9d 60 3d
       -0.06007151 -0.10961339 0.0651326 0.05483787
000150 09 7c 95 3d 9e 29 3d 3d 03 c3 f7 3d 97 c1 0e be
       0.072990485 0.046182267 0.120977424 -0.13941036
000160 c5 04 df 3d 08 37 86 bd de bf fc 3b 28 97 8f bd
       0.108895816 -0.06553465 0.007713302 -0.07011253
000170 9a d4 cb bd 54 2f 01 3e fe 12 9c 3c 67 b2 44 bd
       -0.0995266 0.1261571 0.019052025 -0.0480217
000180 e2 6c 83 3e f5 3d 97 3e cc 2e ab 3e 80 3c 8d 3d
       0.25669008 0.29539457 0.3343414 0.06896305
000190 1d 48 de 3d 13 47 7f 3e db ef 92 3e 31 b2 bc bd
       0.10853598 0.24929456 0.2869862 -0.09213675
0001a0 89 b4 a1 bd 2e 63 ef 3d 16 6f 85 3d fd b7 29 3e
       -0.078957625 0.11688839 0.065153286 0.16574092
0001b0 1b 5d 24 3e f1 f4 0a be 4e 5a 27 3f a5 69 05 3f
       0.16051142 -0.1357 0.6537217 0.52114326
0001c0 bc f0 98 3d d2 16 2c 3e 4d 99 de 3d e7 bc 9a 3e
       0.074677914 0.1680558 0.108690836 0.30222246
0001d0 da 49 e9 3e 28 e6 44 bd d4 9a 2b 3d ad 62 2e 3d
       0.45564157 -0.048071057 0.041895702 0.042574573
0001e0 bf 5e f9 3e 03 fd e4 3d d9 84 eb 3d 35 db d8 bc
       0.48705098 0.11181071 0.11499948 -0.026471714
0001f0 7e 67 17 bd 45 0d b8 3e c6 9c 19 3e 6d 9f 91 3c
       -0.036963932 0.35947624 0.1500121 0.017776215

bias_hh_l0 f4 [128]
000000 32 30 86 3c 1b 28 b0 3e 4d e9 2c 3e bc b4 1d 3e
       0.016380403 0.34405598 0.16885872 0.15400976
000010 f1 c6 3b 3d b6 84 aa 3d 50 6b 29 3e d1 89 82 3d
       0.045844022 0.08326094 0.16544843 0.06373943
000020 29 52 d8 3d fe 56 7e 3e 9e e0 d0 3c 62 a5 a8 3d
       0.10562546 0.24837872 0.02549773 0.08234669
000030 53 ad ef bc 96 d5 23 3e 54 f3 24 3f 8a 2f 06 3f
       -0.029257452 0.15999445 0.6443379 0.5241629
000040 23 01 14 be 25 92 8a 3e 94 de c8 bd 4a 35 9d 3e
       -0.14453559 0.27064624 -0.098080784 0.3070472
000050 43 a5 08 3f 2f e5 f1 3d e6 38 c6 3d b7 73 65 3d
       0.5337717 0.118112914 0.09678821 0.056018557
000060 58 aa 02 3f b4 c5 48 3d 2a b9 0f 3d f6 58 b0 bd
       0.51041174 0.04901667 0.035088696 -0.08610718
000070 e9 4b 7c be 97 3b 19 3e 86 e7 25 3e 64 08 9d 3d
       -0.24638332 0.14964138 0.162016 0.07667616
000080 20 20 1e bb 70 3a 09 bf 17 79 b5 be f4 87 e7 bd
       -0.0024128035 -0.53604794 -0.35443947 -0.11305228
000090 8b fa 4c 3b 88 8c 01 be ae ac c2 be 0f f1 7a be
       0.0031277265 -0.12651265 -0.3802237 -0.24506019
0000a0 f1 3b 23 be ca 10 60 bd 4d ce 9d bd 9d c3 aa bd
       -0.15940835 -0.05470351 -0.077053644 -0.083380915
0000b0 79 d0 06 be eb 38 e0 bd 01 79 e3 be 64 ab 06 bf
       -0.13165464 -0.10948356 -0.44428256 -0.5260527
0000c0 01 13 13 be d6 11 cc bd 2c a9 35 be df 41 db be
       -0.14362718 -0.099643394 -0.17740315 -0.42823693
0000d0 ff 80 e0 be 84 18 f7 bd 3b 1e 5d be 61 e7 9c bc
       -0.43848416 -0.12065223 -0.21593563 -0.019153299
0000e0 a9 ed 2c bf a4 46 5c be 48 2c 58 be c2 f3 97 3d
       -0.6755014 -0.21511322 -0.21110642 0.0741954
0000f0 4f 31 16 be c1 56 74 bc 91 6a f2 be a0 e2 c4 3d
       -0.14667247 -0.014913262 -0.4734693 0.09613538
000100 ee fa 14 be dd 93 0f be ca 70 ab 3d f4 73 02 bc
       -0.14548847 -0.14021249 0.08371122 -0.007962216
000110 10 62 16 3e a2 7e 98 3c 9d 53 ae bd 08 a9 9a 3c
       0.14685845 0.01861507 -0.08512042 0.018879429
000120 57 ad ac 3d 04 62 07 bd 94 47 84 3d 7f 1a 19 3c
       0.084314995 -0.03305246 0.06458965 0.009344696
000130 28 24 98 3d b6 44 9a 3c ec de 1f bd f9 65 8a 3d
       0.07428771 0.018831592 -0.039030954 0.06757731
000140 73 a2 06 3d be f6 07 3e b3 57 1a bc 74 ee 92 bd
       0.032869767 0.13277718 -0.009420323 -0.071743876
000150 1e 00 ac bd 8b cf 69 bc 9e 1e fb bd e9 8c de 3d
       -0.0839846 -0.0142706735 -0.12261699 0.1086672
000160 29 b6 04 be e5 45 24 3d 68 fc 2e 3c fc 3a 37 3d
       -0.12960114 0.04010572 0.0106802955 0.044733986
000170 ff 5e b4 bd 92 25 1c be db 20 b4 bb 1c 45 65 3d
       -0.088071816 -0.15248707 -0.0054970807 0.05597411
000180 d8 0c 11 3e 56 04 dc 3e c7 84 36 3e 81 b1 97 3e
       0.14165056 0.42972058 0.17824088 0.29627612
000190 26 1f 54 3e 30 59 1c 3e 12 9c f8 3e 2d b3 5f 3e
       0.20715007 0.15268397 0.48556572 0.21845694
0001a0 52 26 08 be ac 94 0e 3e 49 e3 9c 3e d0 74 78 3e
       -0.13295868 0.13923901 0.30642155 0.2426331
0001b0 2c d1 30 3e 40 72 6b 3d de d5 12 3f 04 6d 07 3f
       0.17267293 0.057482004 0.57357585 0.5290072
0001c0 28 d0 be 3d f9 0e 00 3d e8 ea 5a 3e da 05 37 3e
       0.093170464 0.03126428 0.21378672 0.17873326
0001d0 7d 5e d6 3e d5 74 12 3e db 51 46 3e 32 5e 33 3e
       0.41868964 0.1430238 0.19367163 0.17516401
0001e0 e1 c4 2c 3f bf 1d b3 3d 99 eb 2a 3e 73 09 a6 bc
       0.67487913 0.08745908 0.16691436 -0.020268178
0001f0 b1 4b 2a be df 36 b5 3e 5d 47 35 3e 4e c2 5f 3e
       -0.16630436 0.35393426 0.17703004 0.21851465

weight_ih_l0 f4 [128, 2]
000000 48 9e 03 3d 56 1b da 3d 19 c4 31 3b ed e9 36 bd
       0.03213337 0.10649745 0.002712494 -0.044656683
000010 71 7a 1a 3e 0e 08 ec 3b a4 59 74 bd 18 68 1c 3d
       0.1508577 0.0072031086 -0.0596558 0.03818521
000020 ee df 0d be b2 5d 64 be ed 64 e2 bc 47 77 95 3e
       -0.13854954 -0.22301367 -0.027636016 0.29192564
000030 54 38 00 bc 69 0d e1 be 58 d1 b2 3e d4 5f 11 3e
       -0.00782593 -0.43955544 0.34925342 0.14196712
000040 00 41 5c 3d 8e 7c a2 3d 2f 7b 8e 3d b9 44 e0 3e
       0.053772926 0.07933913 0.06957089 0.4380243
000050 05 04 7b 3d 9a 30 54 3e 6c 53 ad be 12 ec d8 bd
       0.06128313 0.20721665 -0.33852708 -0.10591902
000060 78 17 56 be 45 68 1d 3e 41 03 35 3c 14 25 45 3d
       -0.2090739 0.15371807 0.011048139 0.048131064
000070 ab 11 32 be 65 bc 27 bd e6 7d 53 3d 3b 68 86 bd
       -0.17389552 -0.04095115 0.051633738 -0.06562849
000080 e4 4b 5a be 4b ec e3 3d 38 9e 3a 3e 1e c5 30 3e
       -0.21318012 0.11129054 0.18224418 0.17262694
000090 3d a6 25 3d 5d 25 49 be 18 f7 88 bd 99 cc 78 3e
       0.04044174 -0.19643159 -0.066877544 0.24296798
0000a0 7e b0 ac 3e 63 3c 5c 3d 67 87 1a bd da 05 23 3e
       0.33728403 0.053768527 -0.037726786 0.15920201
0000b0 2a bb 6e bc ac 64 63 3e ac 2d b5 bd 8d e2 03 3d
       -0.014570991 0.22206372 -0.08846602 0.032198478
0000c0 5f a1 23 bd 30 3f b3 bc 80 37 87 be de b8 e0 3c
       -0.039948817 -0.021880716 -0.2640953 0.027431902
0000d0 10 11 45 3e 45 5d 69 3e 56 ac 3e bd ee 63 34 be
       0.1924479 0.22789486 -0.04655107 -0.17616245
0000e0 f8 40 94 bd 8c 42 32 3d 38 dc 80 be 6b cd 04 3f
       -0.07238954 0.043520495 -0.25168014 0.5187594
0000f0 5d 77 3a 3e e6 0f c1 be 30 34 34 bd a3 af bc bd
       0.18209596 -0.37707442 -0.043995082 -0.092131875
000100 c9 02 45 be a7 b9 be be 8d eb 61 3d 7b af 89 be
       -0.19239344 -0.37251016 0.05515628 -0.26891693
000110 c8 79 08 3e cc 9b 9e bd aa 53 41 3e cc 9a e6 3c
       0.13327706 -0.0774456 0.18879572 0.028149985
000120 97 a1 e6 3d 21 99 e1 be 2e 99 55 bd af 54 47 be
       0.112612896 -0.4406214 -0.052148037 -0.19465898
000130 74 e8 77 be e9 65 c9 bd 27 53 b2 3e e1 71 36 3e
       -0.24209768 -0.09833891 0.34829065 0.17816879
000140 95 7b 37 be dd e5 37 bd 82 0b 5d 3d 1c a0 9f be
       -0.17918237 -0.04489695 0.053966053 -0.3117684
000150 ff 8a b3 3d 8a 7a 8c 3e 94 50 81 be 34 37 f8 bd
       0.08766746 0.2743724 -0.2525679 -0.12119904
000160 f3 07 8b bd 6b 5e a4 3e 20 71 8d bd c5 cd 49 3d
       -0.067886256 0.32103285 -0.069063425 0.049268503
000170 1e 49 af 3d a5 65 34 bc b9 ad 37 3e 9a 5b 8e be
       0.08558868 -0.011010562 0.17937364 -0.2780426
000180 12 17 3c bd 54 78 92 bd fc 75 d2 bc f8 2d e6 be
       -0.04592044 -0.07151857 -0.025691025 -0.44956946
000190 64 e3 a6 bd 6b d7 42 bc 34 d6 88 be 4a 52 4c 3e
       -0.0814884 -0.01189218 -0.26725924 0.19953266
0001a0 4e f7 4c 3d 5d d7 c4 3e c3 dd 5e 3d ed b9 c6 3b
       0.050040536 0.3844556 0.054410707 0.0060646445
0001b0 a1 95 4b 3d f8 31 ea 3d a6 7c 10 be 03 ed 0e bf
       0.049703244 0.11435312 -0.1411005 -0.558304
0001c0 96 97 55 be ea 98 6d bd ab 85 50 be b9 b0 35 bd
       -0.20858607 -0.05800716 -0.2036349 -0.04435799
0001d0 29 cf 56 3d aa 89 ae be 78 a2 7e 3d 4e 1b ff be
       0.052443657 -0.34089404 0.06216666 -0.4982552
0001e0 0e e5 80 3e 6b 68 0d be 65 85 d3 be 66 fc de 3e
       0.25174755 -0.13809364 -0.4131271 0.4355194
0001f0 c0 86 62 3e ae 6a da be 4d 54 a0 bc 73 04 8d bd
       0.22121716 -0.42659515 -0.019571448 -0.06885614
000200 6d cb 7b 3e 5f 3d 39 3d 5b 4f 4f be a8 06 be bd
       0.2458932 0.045224544 -0.20245115 -0.09278613
000210 cf 40 22 be 57 21 3e 3d 78 e0 43 be b8 b9 e7 bd
       -0.15845035 0.046418514 -0.19128597 -0.1131472
000220 ab 02 32 be f6 e7 57 bc a2 5a ca 3e 9a ab 94 be
       -0.1738383 -0.013177862 0.39522272 -0.29037172
000230 30 06 07 3e be 6e 8a be d3 89 3b 3e a0 b3 c8 bd
       0.13185954 -0.27037615 0.18314295 -0.09799886
000240 1d a6 e6 3e f4 8f 26 be 4e f3 99 be b1 a7 9e 3e
       0.4504861 -0.16265851 -0.3006844 0.30987313
000250 f2 2f 4b 3e 5c d0 23 3e c3 6a bf be f9 af 56 be
       0.19842508 0.15997452 -0.3738614 -0.20965566
000260 27 36 09 be 1f bd 54 be 67 56 b5 3e 36 57 ce bc
       -0.13399564 -0.20775269 0.35417482 -0.02518807
000270 6a 9a 0f be 16 06 48 be 60 f3 05 be d5 5f 4c 3e
       -0.14023748 -0.19533572 -0.13081121 0.19958432
000280 0c 34 0e 3d 0c 6e 7b bd 70 f2 ae be 7d 2b 16 3e
       0.034717605 -0.061384246 -0.3416934 0.14665027
000290 83 65 3b 3d d8 b9 87 3a 95 b6 19 bb d2 3b cc 3e
       0.045751106 0.0010355068 -0.0023454775 0.3988939
0002a0 a8 b8 25 be 80 7f a3 3e 7d a5 75 3d 42 32 3b be
       -0.16183722 0.31933212 0.059972275 -0.1828089
0002b0 71 01 ad bd 92 7e 36 be 11 6e fe 3e 8c 3e f5 3d
       -0.084475406 -0.1782172 0.4969335 0.119748205
0002c0 57 f1 77 3d 13 1e 9e 3e 2c c3 c2 3d 87 fe 02 3e
       0.060532894 0.3088232 0.09509882 0.12792407
0002d0 36 5c ec be 45 ad f4 3d 5b c0 0f 3e b6 96 1e 3d
       -0.461641 0.11947111 0.14038222 0.038717948
0002e0 31 d1 1a 3e 44 23 9d 3c 17 e0 8e 3e e4 9c 9c 3e
       0.15118863 0.019181855 0.27905342 0.30588448
0002f0 dd 9b 9a 3e e0 a7 6e be ee 22 8e be 7b 7d ec 3c
       0.3019704 -0.23306227 -0.27761024 0.028868428
000300 02 ba 45 be 97 91 b1 be 4a 24 18 3e 00 5e 3f 3e
       -0.19309238 -0.3468139 0.14857593 0.18688202
000310 01 86 9e 3d 4f 86 4c be 6d a4 d3 3d 3a 20 90 3e
       0.07740403 -0.1997311 0.10334096 0.28149587
000320 03 b4 81 bd f5 18 ac be 94 6e 06 be 74 3d 50 3c
       -0.06333163 -0.3361279 -0.1312812 0.012709964
000330 b7 80 d1 bd 77 d7 a4 be 5f 4c 8f 3e a8 79 bf 3c
       -0.102296285 -0.32195637 0.27987954 0.02337344
000340 d7 c2 5d be 3e aa b1 3d 7a 80 05 be 84 d6 56 be
       -0.21656357 0.08675049 -0.13037291 -0.20980269
000350 e3 f5 54 3e aa 1e 4c 3e 80 60 2d be 2f fb a2 3d
       0.20796923 0.19933572 -0.16931343 0.07958066
000360 d3 73 26 3e e5 6f a1 3d ed 7a 71 3c 81 9f 62 3e
       0.16255121 0.0788267 0.01473878 0.22131158
000370 2b 06 18 bd 46 22 5f 3e 0f fc d0 3d 2b 3e 0c 3a
       -0.037115257 0.21790418 0.10204326 0.000534984
000380 dc d2 29 be d3 95 44 bd c0 81 fc bd 1a d9 c6 be
       -0.16584343 -0.047994446 -0.12329435 -0.3883751
000390 cc f5 13 be 83 d7 d2 be 68 d4 4e 3e 5a 33 7e 3e
       -0.14449233 -0.41180047 0.20198214 0.24824277
0003a0 52 28 8d 3e de f2 b7 3c f9 09 9f bd c9 ab 01 3d
       0.27569824 0.022454675 -0.07765574 0.031657968
0003b0 eb f7 ec 3d 77 be b5 3e 2a 62 fd bd e0 8d be be
       0.11570724 0.35496876 -0.12372239 -0.37217617
0003c0 9f 54 eb 3c 1f bf fc 3e 4f cc 98 be 61 bc 17 bd
       0.028726874 0.49364564 -0.29843375 -0.037044886
0003d0 0a dc e4 3d d7 4b 98 be 4f 1c 19 3e b4 c4 67 3e
       0.111747816 -0.2974536 0.14952205 0.2263363
0003e0 ad 37 6a bd ee ca 38 bd e2 9d b1 be 54 54 49 3e
       -0.057182003 -0.045115404 -0.34690768 0.19661075
0003f0 03 3c a1 3d e8 44 26 be 66 f4 06 3d d7 f8 6b bd
       0.078727745 -0.16237223 0.03294792 -0.05761036

weight_hh_l0 f4 [128, 32]
000000 f6 8c cc bd 91 ac e2 3d 19 3c 25 bd ac 37 5e bc
       -0.09987824 0.11068071 -0.040340517 -0.013563078
000010 a6 e2 a7 bd 2d fb 4e 3d bc 10 b8 bd 30 ee 2e 3e
       -0.08197527 0.05053251 -0.08987567 0.17083049
000020 6f 64 0e be a6 f2 44 3d c1 1b 5e 3e 5d 58 03 3e
       -0.139055 0.04808297 0.21690275 0.12826677
000030 ea 4b c2 3d 85 3f 05 3e fa 12 50 3d d2 e5 b3 bd
       0.09487136 0.13012512 0.050799347 -0.08784069
000040 e8 14 0a 3d ce 30 b4 bd 95 54 c2 3d 23 40 95 3d
       0.033711344 -0.08798371 0.09488789 0.07287624
000050 c0 38 00 3e 30 a1 4b be 98 27 4e be 96 18 8a 3d
       0.12521648 -0.19885707 -0.20132291 0.06742971
000060 f2 40 88 be 7b f6 b3 3e 99 00 f0 bd c0 19 40 3e
       -0.2661205 0.35148987 -0.11718864 0.18759823
000070 c4 f8 25 bd 52 d1 16 be 7e 75 94 bc ac b1 51 3e
       -0.040520445 -0.14728287 -0.01812243 0.20477933
000080 45 08 ee 3d 03 98 e1 bc a6 54 04 3e 1c d7 b5 bb
       0.11622671 -0.027538305 0.12922916 -0.0055493247
000090 3e cb 3a be bf fe 3b 3e 39 e3 36 bd 62 88 d0 bd
       -0.18241593 0.18358897 -0.04465029 -0.10182263
0000a0 10 9d 31 be 0d 92 96 bd 62 d0 00 be 02 df 89 3b
       -0.17345071 -0.07352076 -0.12579492 0.004207493
0000b0 67 f3 49 3c 3b 28 b1 bc e3 36 b5 3d 10 2f 1c be
       0.012326098 -0.021625629 0.088483594 -0.15252328
0000c0 1c 7d 44 3e 64 4a 60 be 37 1a fb bd c1 cc 80 3d
       0.1918835 -0.21903378 -0.122608595 0.06289054
0000d0 81 ab a0 3e 9b e0 95 be a0 8f 92 3e d0 10 78 3e
       0.31380847 -0.29272923 0.28625202 0.24225163
0000e0 28 da f5 3c 41 58 eb bd e6 b9 36 be 1d 50 b6 3d
       0.030011252 -0.114914425 -0.17844352 0.08901999
0000f0 db 58 2a be 89 be 9a 3d 4e e9 14 3d 5a 68 e1 3d
       -0.16635458 0.07555873 0.03635531 0.110062316
000100 73 90 73 3d 3d a5 83 3d 3a e5 42 3d ec c1 5c be
       0.05946393 0.06428001 0.04758189 -0.2155835
000110 0e 34 61 be c1 b9 c6 bc 06 52 c8 bd 0d 77 d1 3c
       -0.21992514 -0.024258496 -0.0978127 0.025569463
000120 0e 57 14 be c6 ec 90 be dd 95 5b bd a0 05 63 3c
       -0.14486334 -0.28305644 -0.053609718 0.013856322
000130 4a 6c 11 be 55 81 48 3e 9f 77 8a 3d e1 0f ec bd
       -0.14201465 0.19580586 0.06761097 -0.11526466
000140 cd c6 86 bd 2e 31 9d bd 8b a0 50 be 58 7f 68 be
       -0.06580887 -0.07675396 -0.20373742 -0.22704828
000150 22 df de 3c f6 99 11 be 64 b9 1f be 23 16 80 3e
       0.027206007 -0.14218888 -0.15598065 0.2501689
000160 16 fb c6 bd 84 b1 33 3e e7 73 47 be d3 15 cc 3d
       -0.097158596 0.17548186 -0.19477807 0.099651
000170 b2 11 5f be ca 07 c3 3d 4f b2 b8 3d bb 88 06 be
       -0.21784094 0.0952297 0.09018385 -0.13138096
000180 f4 ad 81 3c d5 ee 35 bd 2c 45 8e 3c ec 08 e6 bd
       0.015830018 -0.04441722 0.017366968 -0.112321705
000190 66 8f b7 3d 69 ed 68 bd 1b 6b a7 3d 67 37 a6 3d
       0.08962898 -0.056867037 0.081747256 0.08116036
0001a0 a7 6e 12 3e b7 10 8a 3e c8 ea 82 3d 0e 8f 59 3d
       0.14300023 0.26965877 0.06392437 0.053114943
0001b0 7b d9 8d bc eb 54 32 3e 3b b5 99 bd c8 71 d0 bc
       -0.017315617 0.17415206 -0.0750527 -0.02544488
0001c0 2c 00 97 be 16 b7 bd 3d 84 91 2b 3e a1 27 58 be
       -0.2949232 0.092634365 0.16754729 -0.21108867
0001d0 62 0e 8b be 74 5f 42 3e 4a 1e 08 be da 3f 23 be
       -0.2715941 0.18981725 -0.13292804 -0.15942326
0001e0 13 16 e6 3c 27 8a 84 3e ed 2a 56 3d 9f 5c 29 be
       0.028086698 0.25886652 0.05228703 -0.16539238
0001f0 90 f5 ae 3d 33 34 25 bc 89 8e 32 3e 5e 6f 86 be
       0.08542931 -0.010083246 0.17437185 -0.2625684
000200 60 d9 b9 bc 94 cc 17 3e be 6b ca 3d 2e 6b 76 3d
       -0.02268666 0.14824134 0.098838314 0.06016081
000210 84 ae 98 3d ae 5a 2e 3e 9a b0 6a 3e 48 55 fe 3d
       0.07455161 0.17026779 0.2291893 0.1241861
000220 8c 81 8a bd 68 63 55 3e 44 2f 1b be 1c a4 e5 3d
       -0.0676299 0.20838702 -0.15154749 0.11212942
000230 a7 19 62 3e 60 89 23 3e f7 55 81 3e cd 8a c6 3c
       0.22080098 0.15970373 0.25260898 0.024236107
000240 c1 49 2d be 50 88 fc bb 5b 83 37 3d ec 2c ee bc
       -0.16922666 -0.0077066794 0.044803005 -0.029074155
000250 c7 eb 3f 3e f9 44 32 3d f2 df 00 3e d2 82 c8 3c
       0.18742286 0.04352281 0.12585428 0.024476442
000260 e1 ca 9e be 36 ca ed 3c 99 3d 09 be a7 73 c5 3d
       -0.3101416 0.029027086 -0.13402404 0.096411996
000270 f5 d8 0f be ce 70 3a be f2 45 6d 3e 59 a3 cd 3d
       -0.14047606 -0.18207094 0.23171213 0.10040922
000280 9a 88 81 bc 4f cc 77 3d 2d 7d ae 3c df e7 e4 be
       -0.015812207 0.06049758 0.021299923 -0.44708154
000290 5c 83 bd bd fa 9a 0d 3e dd a8 6c be d4 35 9c 3e
       -0.092535704 0.1382865 -0.23111291 0.30509818
0002a0 3d a5 cc bc 19 55 12 be 06 7e 34 bb 4e e3 91 3e
       -0.024981136 -0.14290275 -0.0027540936 0.28493732
0002b0 03 ba c1 be ef c3 42 3d ca 73 75 3e 75 56 4c be
       -0.37837228 0.047550138 0.23969951 -0.19954856
0002c0 33 06 9e be 32 fa d1 3d ff cb 8d bc 56 5d b1 3c
       -0.30864105 0.10252799 -0.017309187 0.021650951
0002d0 0a e8 d2 3b 73 e1 6f be 21 e0 ac be 7b 72 36 3e
       0.0064363526 -0.23425846 -0.33764747 0.17817108
0002e0 a3 32 11 bd a5 7d c2 3e 3f 0f 25 3e 1e f1 47 3a
       -0.03544868 0.37986484 0.16119097 0.0007627177
0002f0 15 2c b0 bd 44 1a 2d be 07 3e 79 3e d8 f0 b1 bc
       -0.08602158 -0.16904551 0.24340068 -0.021721289
000300 96 ed 2e 3d 53 ae 4c 3e 3b ac 34 3e f3 14 5b be
       0.04270705 0.19988374 0.17643826 -0.2139471
000310 eb 41 59 3e d4 9e 95 be 56 f7 13 be 1b a2 c1 3d
       0.21216552 -0.2922274 -0.1444982 0.09454747
000320 d7 3d 84 be 64 59 1c be 4d a5 92 3d b6 7d 7d 3e
       -0.2582843 -0.15268475 0.07160435 0.24754986
000330 26 6e 3f 3e c1 11 5b 3e 7f 0c b4 3c 05 23 ae be
       0.18694362 0.21393491 0.021978615 -0.34011093
000340 c9 af 7c be 7c e0 a6 bc 3d 05 1c 3e a8 35 82 be
       -0.24676432 -0.020370714 0.15236373 -0.2543156
000350 ec 27 d7 3e 98 74 a5 bd 2c 67 90 be 25 ce dc 3d
       0.42022645 -0.08078879 -0.28203714 0.107815064
000360 39 fc 1c be 8b bd df 3e c1 11 a8 bc 19 cf 82 3e
       -0.1533059 0.43699297 -0.020516278 0.25548628
000370 1b d8 0d be 21 ff 89 be e8 d6 83 bc 7a 4b 15 3e
       -0.13851969 -0.2695246 -0.016093686 0.14579573
000380 52 92 4d 3e c9 a2 5d 3e 59 b0 50 3d be 6a de bd
       0.20075348 0.21644129 0.05094943 -0.10860203
000390 82 f0 f9 bc 5d c2 27 3e df d9 b9 3d 2d f9 c8 3d
       -0.03051019 0.16382737 0.09074759 0.098131515
0003a0 a1 37 1b 3e d6 d6 e9 be ff 0f b9 bd a6 a3 6a 3e
       0.1515794 -0.4567172 -0.09036254 0.2291399
0003b0 15 84 35 3d 2c d4 49 3c 55 31 61 3e 18 b8 39 bd
       0.044315416 0.012318652 0.21991475 -0.04534158
0003c0 47 74 d6 bd f0 65 c2 be bb 83 6a be 18 81 05 bd
       -0.10471397 -0.37968397 -0.22901814 -0.032593817
0003d0 30 e3 c4 3d be ed 2a be 37 6e 35 be c8 90 c6 3d
       0.09613645 -0.16692254 -0.17717825 0.096955836
0003e0 f8 ee 96 3d ad 7c 14 3d e0 48 26 be 25 53 92 3e
       0.073697984 0.036251713 -0.16238737 0.2857906
0003f0 26 1f 0f be 3d 0a 82 3e 98 a2 25 3e a9 b9 42 3d
       -0.13976726 0.25398436 0.16175306 0.04754034

bias_ih_l0 f4 [128]
000000 d4 cd b5 3d 00 bb eb bd 87 21 d8 3d 6b 25 a0 3d
       0.08877149 -0.11510277 0.1055327 0.07819637
000010 eb ba 16 3e a3 46 af 3e 6a 8a 89 3e ca 1b 3c bc
       0.14719741 0.3423358 0.26863414 -0.011481235
000020 59 47 65 3e 5b 7d a9 3e d8 66 4d bd 5f 0f d6 bd
       0.22390498 0.3310345 -0.050146908 -0.104521506
000030 51 3b c5 3d 29 4d 57 3e 84 d9 10 be 73 6a a7 3d
       0.09630454 0.21025528 -0.14145476 0.081746005
000040 61 83 83 3a 59 3b 82 3e fb 4a a0 3e 0e f4 04 3d
       0.0010033661 0.25435904 0.31307206 0.03245931
000050 da 29 2b 3e 05 f9 60 bd c8 dc 9e bd af b7 ed bc
       0.16715184 -0.054924984 -0.077569544 -0.029018251
000060 e4 55 64 3d 7a 77 7a bc f8 4f 4f 3e 90 a9 9e 3d
       0.055745974 -0.0152872745 0.2024535 0.07747185
000070 a1 3a c3 3d b7 63 37 3e 7d 81 46 3e 9a 43 cb 3d
       0.09532667 0.17909132 0.19385333 0.09925003
000080 02 8b 72 3e 07 ff f9 bd ed 2d 00 bc e4 91 c3 bd
       0.2368584 -0.12206846 -0.00782345 -0.09549311
000090 8d 43 bf 3d 71 19 1a 3e 74 de 51 3c 5f db 67 3e
       0.09339056 0.15048768 0.012809385 0.22642277
0000a0 01 42 75 3e 46 6f a2 3e d4 21 06 3e b8 4f 84 3e
       0.2395096 0.3172552 0.13098842 0.2584207
0000b0 47 d0 8b bd 5c 4d 9a 3e ce e6 03 3d 8c ce 4d bc
       -0.06826835 0.30137146 0.032202534 -0.012561452
0000c0 ba fc 07 be 7e 79 5f 3e 53 59 b5 3e b8 a1 9a 3e
       -0.13280001 0.2182369 0.3541971 0.30201507
0000d0 ec 89 38 3e 24 4e e9 3d 67 c9 a5 3c 0d 87 9c 3c
       0.18021363 0.11391857 0.020237638 0.019107366
0000e0 6f b4 5a 3b b9 44 07 3e c1 85 b8 3d cc 2d 57 3e
       0.0033371707 0.1320981 0.090098865 0.21013564
0000f0 7e dd 12 be 11 5c 13 3e ad ee 9c bc 64 1a 00 3e
       -0.14342305 0.1439059 -0.019156778 0.12510067
000100 12 86 ba bd a0 0e 42 3d e3 46 ef 3d fc a6 22 be
       -0.09107603 0.04737723 0.116834424 -0.15884012
000110 cd 34 0b 3c 2b e1 00 3e e4 8a 09 3e 74 fc e5 3d
       0.008496475 0.12585895 0.13431889 0.11229792
000120 12 55 f4 3d 4a 7f 05 be 24 7f a6 3d 56 69 97 3d
       0.119302884 -0.13036838 0.08129719 0.07393138
000130 1a 8a 94 3d 31 fb 23 bb 3a 65 db 3d 74 b0 b2 bd
       0.07252903 -0.0025021548 0.10712667 -0.08725062
000140 34 e9 01 be 70 a5 cd bd 57 1c 13 3e e1 b4 30 bd
       -0.12686616 -0.1004132 0.1436628 -0.04314125
000150 71 6a ec 3c ea 03 22 be 92 1b a3 bd ad 5b 32 3e
       0.028859349 -0.15821806 -0.07964243 0.17417784
000160 34 5b 0e be 34 ae c0 bd ac cd 0e 3e 42 2b 43 3d
       -0.13901979 -0.094082266 0.13945645 0.047648676
000170 70 58 89 3c 85 34 f9 bd c6 e4 8c bd f2 3c bf 3d
       0.016765803 -0.121682204 -0.068795726 0.09337796
000180 04 ba ab 3d 2c fc 00 3e ad 22 62 3e e9 a9 3d 3e
       0.08385089 0.12596196 0.2208354 0.18521847
000190 34 5f 58 3e d7 40 a8 3e 3a ef a4 3e 2c 0d 78 3d
       0.21130067 0.3286197 0.32213765 0.060559437
0001a0 8a ec eb 3d a1 34 c9 3e fc 57 17 3e e8 3b c7 3b
       0.115197256 0.39297965 0.14779657 0.0060801394
0001b0 54 03 7c bd 6f 85 9b 3e f5 d8 c9 3c 9b 73 c4 3d
       -0.06152661 0.3037524 0.024639586 0.095923625
0001c0 7d 44 82 3d f2 36 b0 bc 55 62 98 3e ee e9 e7 3d
       0.06360719 -0.021510575 0.2976252 0.113239154
0001d0 07 8c fa bc 1e fa e0 3d ac f6 9f 3d 06 cd c5 bd
       -0.030584348 0.10985206 0.07810721 -0.09658246
0001e0 bf e0 4c 3e 8c 2d e0 3d 31 b2 91 3e 48 5f 3a bd
       0.20007609 0.109461874 0.28456262 -0.045501024
0001f0 e8 70 d1 bd 31 a2 b3 3d fe b1 16 3e 42 81 c2 3c
       -0.10226613 0.0877117 0.14716336 0.023743276

bias_hh_l0 f4 [128]
000000 22 b8 a2 3e c3 d9 13 3e bb 4f 12 3d 0f d3 b9 bd
       0.31781107 0.14438538 0.03572057 -0.09073459
000010 86 05 77 3e 1e 2b dc 3e ee 5a b4 3c db a6 bd 3d
       0.24123201 0.43001646 0.022016015 0.09260341
000020 1a ec 9a 3e b3 6b ce 3e bd a0 1e 3e d5 77 d5 3d
       0.30258256 0.40316543 0.15491004 0.10423247
000030 3c 57 c6 3d 52 cf 60 3e dc df b3 3d 0d 02 08 3e
       0.096846074 0.21954086 0.08782932 0.13282032
000040 78 fa 4c bd 29 71 33 3e 78 2d 64 3e a9 d6 4c bc
       -0.050043553 0.17523636 0.2228297 -0.012502351
000050 88 59 30 3e 54 45 5f 3d b7 04 5e 3e f1 e8 d1 bd
       0.17221653 0.054509476 0.21681486 -0.10249508
000060 39 ed 51 bd bb 9d c9 bd 34 b2 2a 3e dc 37 99 bc
       -0.051251624 -0.09844538 0.16669542 -0.018703394
000070 75 27 f8 3d f0 2d 50 3e f4 3e 59 3d 6e 4c 03 3e
       0.12116901 0.20330024 0.053038552 0.12822124
000080 8f 3a d2 3d cf a3 ca 3d 96 c6 ed 3d 77 0d 12 3c
       0.102650754 0.09894525 0.11610143 0.008914343
000090 77 96 d4 3d 36 2b 86 bc 8f e3 e1 bd 45 25 82 bd
       0.103802614 -0.016378026 -0.110297315 -0.06354765
0000a0 0b 51 b5 bc 93 e2 0d 3e 93 64 4b 3d 99 54 1c 3e
       -0.02213337 0.13855962 0.049656462 0.15266646
0000b0 c4 36 9c 3d 68 01 a1 3e 62 72 fe bd 18 20 b1 bd
       0.07627633 0.31446385 -0.124241605 -0.086486995
0000c0 d3 cd 85 bd 8d 74 2b bd 03 37 56 3e 9f 2c eb 3d
       -0.065333985 -0.0418592 0.20919423 0.1148312
0000d0 54 c3 30 3e 41 b7 17 3d 54 09 29 3e cb 8c 03 be
       0.17262012 0.03704 0.16507465 -0.12846677
0000e0 8b 82 e3 3c 27 40 35 3e 5d 45 58 3a 38 81 10 bc
       0.027772209 0.17700253 0.0008250082 -0.008819871
0000f0 25 62 61 3d cc 1b 46 bd a7 05 0e be b0 a6 9a 3e
       0.05502524 -0.048366353 -0.13869344 0.30205297
000100 aa a8 b4 3d 44 c6 85 3d dd 34 93 bd 6b ad 00 be
       0.088212326 0.06531957 -0.07187817 -0.12566154
000110 c1 eb a7 3d 0c 6d 9a bd 63 1d 8f bd 4f 9d e4 3d
       0.08199263 -0.0754033 -0.06988027 0.11162817
000120 40 d2 10 be db 02 bd 3d 56 c3 cb 3b 12 9c 39 3e
       -0.14142704 0.0922906 0.006218354 0.18125942
000130 65 df 09 3d 5b 23 90 3d 7e 7f ac 3d 62 eb 9f 3c
       0.03366031 0.070379935 0.08422755 0.019521419
000140 44 82 1b bd 09 ec 90 3d aa e3 0e be 77 e6 60 3d
       -0.037966028 0.0707627 -0.13954034 0.05490729
000150 5c 4a 9b 3d 5a a7 ee bd 5e c1 54 3d 5b f9 e0 3d
       0.07582542 -0.116530135 0.05194222 0.10985061
000160 8c 53 99 bd 7a 89 03 3e bb 97 84 bd 00 a2 82 3d
       -0.074866384 0.12845412 -0.06474253 0.06378555
000170 05 20 07 be f8 2f 24 be 2a fb 1f 3e ea 82 b0 bd
       -0.13195808 -0.16033924 0.15623155 -0.0861872
000180 d3 4b b2 3e a5 c2 d0 3d c2 40 f6 3d 03 17 a6 bd
       0.34823474 0.101933755 0.1202407 -0.08109858
000190 cf 23 1c 3d 73 02 af 3e e0 28 7d 3e d2 81 09 3e
       0.038120087 0.34181556 0.24722624 0.13428429
0001a0 b9 11 22 3e 90 b8 cf 3e ea 84 be 3d e6 f6 db 3c
       0.15827073 0.40570498 0.09302695 0.026851129
0001b0 43 bb 5b bd 10 d2 26 3e bf 1a b9 3d dd c1 4a 3e
       -0.053645384 0.1629107 0.090383045 0.19800515
0001c0 ed c7 58 3e 22 0a 17 3d 2e fa 9a 3d b3 c9 c9 3d
       0.21170016 0.036874898 0.07567249 0.09852924
0001d0 5a 97 43 bd 93 69 a4 bd 02 bf 4b 3e e4 c2 42 3e
       -0.047751762 -0.08027949 0.19897082 0.19019657
0001e0 9b 9f 99 3d 0b f1 70 3e 6c 4b 95 3d 78 41 0f 3e
       0.075011455 0.2352945 0.07289776 0.13989818
0001f0 96 68 31 3e d2 9e 1e 3e 9d 6c 93 3d 0a 27 b5 3d
       0.17325053 0.15490273 0.07198451 0.08845337

weight_ih_l0_reverse f4 [128, 2]
000000 9a ee 2c bd 50 75 92 be 0f 97 10 bd 22 20 99 be
       -0.042219736 -0.28605127 -0.03530031 -0.29907328
000010 ca 47 ef bd 86 3a b8 3c 49 cb a2 3e 8c d2 9f be
       -0.116836146 0.022488844 0.3179572 -0.31215322
000020 2b 62 d5 3b 57 48 4d bd b0 9c 6c be 01 59 fc be
       0.0065119467 -0.050117817 -0.23106647 -0.49286655
000030 40 60 1c 3e c9 7e 01 3f 08 36 00 3e 91 9c d5 bd
       0.15271091 0.50584084 0.12520611 -0.10430253
000040 76 6c b6 3d a7 b8 c9 bc 58 46 20 bd f3 3a 45 be
       0.08907406 -0.024624182 -0.039129585 -0.19260769
000050 0e e8 b0 be 28 3b e4 3e 9b 81 3b 3e 02 c5 8a be
       -0.34552044 0.44576383 0.1831116 -0.2710343
000060 99 15 c1 be 5b 85 29 3f ca bf 43 be 30 b6 63 be
       -0.3771179 0.6621911 -0.1911613 -0.22237468
000070 17 15 b9 bd 51 e6 a1 bc 5d 57 ff 3e 5c 91 c5 3d
       -0.09037226 -0.019763144 0.4987134 0.09646866
000080 c1 92 3d bd 41 31 b5 bd 24 5b e0 bd b6 dc b6 be
       -0.046282534 -0.08847285 -0.10954884 -0.35715264
000090 b3 be 90 be db 00 b5 3e a1 2b 06 3d 6e e3 ad bc
       -0.28270492 0.35352215 0.03275645 -0.021226611
0000a0 fe 26 00 bf 5d 1b 2d 3f 5a 7f 01 be 1c 4e df 3e
       -0.500595 0.6761988 -0.12646237 0.4361428
0000b0 b7 91 13 be 7d bd 28 3f 1c 57 d3 3c 55 f9 51 bc
       -0.14411055 0.65914136 0.025798373 -0.012815793
0000c0 a5 e0 b0 be 0d db 4d 3f 04 b0 16 be 04 c7 31 be
       -0.3454639 0.8041237 -0.14715582 -0.17361075
0000d0 1d b0 37 3e d8 55 1c 3f aa 34 85 3c dd 80 98 be
       0.17938276 0.6106849 0.016260464 -0.29785815
0000e0 98 36 62 bd b3 d5 8a be 45 a1 5c be 84 36 08 3e
       -0.055227846 -0.27116165 -0.21545894 0.13302046
0000f0 9b d4 b0 3e f7 73 0f bf 6f 95 8e be 57 b4 f5 be
       0.34537205 -0.56036323 -0.27848384 -0.4798915
000100 3c 85 c7 bd 82 19 26 bd c8 c6 36 3e 8e b8 de be
       -0.09742209 -0.04055167 0.17849267 -0.4350018
000110 58 f0 44 bd fc 29 d6 3d 9a 46 9a 3e 3b 1f 89 be
       -0.048080772 0.10457227 0.3013199 -0.2678164
000120 3c a4 4e 3d 5c 5a cc 3d c9 d2 2f 3e 21 3b c6 be
       0.050449595 0.09978172 0.17170252 -0.38716987
000130 b3 1a 49 bd cd e8 28 3f 57 5a 82 3e 29 fd 99 3e
       -0.049097728 0.65980226 0.2545955 0.30075958
000140 cf 4d 35 3e 70 f2 09 3f 80 2a 0e 3e 39 c7 c8 be
       0.17705463 0.53885555 0.138834 -0.39214495
000150 38 42 8d 3e 14 46 43 3d 8d f1 83 3e 6c 28 99 be
       0.27589583 0.047674254 0.25770226 -0.29913652
000160 bc 09 4f be 69 55 2a 3f c9 0a 66 3c c7 a2 3a be
       -0.20218557 0.66536576 0.014040657 -0.18226157
000170 4a 30 90 bd fc 28 6c be 82 c5 fa 3e 89 6c 83 3d
       -0.070404604 -0.2306251 0.48978812 0.06417186
000180 2c 40 b2 3d 67 79 5a 3e 0a d8 42 bd e0 b4 84 be
       0.08703646 0.21335374 -0.047569312 -0.25919247
000190 aa 60 95 be a4 88 13 3f b7 c7 19 3e db 8a 03 be
       -0.2917531 0.5763037 0.15017591 -0.12845938
0001a0 4c ea 55 be 35 fb 50 3f 11 9d f0 bc b5 37 fe 3e
       -0.20890158 0.8163331 -0.02937177 0.49651876
0001b0 5f bd 63 3e e0 a6 d9 3e 9f c0 5b be 71 a1 03 be
       0.22240208 0.42510128 -0.21460198 -0.12854554
0001c0 13 14 0c be e8 15 42 3f 1d c1 7b 3d 28 28 31 be
       -0.13679533 0.75814676 0.061463464 -0.17300475
0001d0 50 9a 7c 3e 0f ed 23 3f 68 63 9e 3e 85 c1 01 bf
       0.2466824 0.640336 0.30935216 -0.5068591
0001e0 e9 05 93 bd 19 9f 8c be 8c e8 15 3d 5c 3d 41 3e
       -0.07178862 -0.27465132 0.036598727 0.18871063
0001f0 78 24 d8 3e d9 3b e1 be 0f 7b 88 bd 0f 88 12 bf
       0.42215323 -0.43990973 -0.066640966 -0.5723886
000200 25 2f 5f be 1d bf a4 bd 96 33 6e 3e 15 84 05 3f
       -0.21795328 -0.080442645 0.23261866 0.52154666
000210 1d ac 12 be fe aa 9a 3d 4b 0b 6a bd f2 b3 cd be
       -0.14323469 0.075521454 -0.057139676 -0.4017635
000220 ab 4e ed 3d c1 c0 b3 3e 9b d5 89 3e 76 fd 6e be
       0.1158727 0.35107997 0.2692078 -0.23338875
000230 4e b9 1e b9 7b c0 b2 be 3a 2b ec be 73 d1 60 3e
       -0.00015137086 -0.34912476 -0.4612673 0.21954899
000240 af 5e 2c b8 bf e4 01 bf fb 72 43 be 7e 11 16 3f
       -4.1096177e-05 -0.50739664 -0.1908683 0.5862044
000250 e8 8f af 3d d3 0a 2c be bc e1 12 3f 0a d4 1c 3e
       0.0857237 -0.16801004 0.57375693 0.15315261
000260 5b af 37 3e 28 39 57 be 10 3b 82 3e ff 17 bc 3e
       0.17937987 -0.21017897 0.25435686 0.36737058
000270 4b 82 14 3e 3c 81 5f be c4 4e 3b be 7f 47 e9 3d
       0.14502828 -0.21826643 -0.18291765 0.1139059
000280 21 5f d8 3d 72 a8 6d 3e 9c 33 81 3e f2 93 cd 3e
       0.105650194 0.23208788 0.25234687 0.40151936
000290 38 0b 4f 3e 53 a7 01 bf d1 da f7 be 13 8b 61 3e
       0.20219123 -0.5064594 -0.4840913 0.22025709
0002a0 80 ec 23 3e 60 c3 86 be e7 a0 6f 3e d4 ef ad 3e
       0.16008186 -0.26320934 0.23401223 0.33972037
0002b0 93 13 12 be ff 8d 9e bd 1d 29 b0 3e 07 d6 6f 3e
       -0.1426528 -0.07741927 0.34406367 0.23421489
0002c0 9e 09 ec 3d af 10 60 be ac fe ad 3d 65 3f ae 3e
       0.11525272 -0.21881364 0.084958404 0.3403274
0002d0 b5 b8 5c be 16 fd ad be 42 51 d4 3d 97 48 c8 be
       -0.21554835 -0.33982152 0.10367061 -0.39117882
0002e0 0d 1a ac be 00 fb df 3e 4d 2d dd 3e dd 7a 3e 3e
       -0.33613625 0.43746185 0.43198624 0.18601556
0002f0 d3 49 b8 3e 6a 4b 6a be d9 37 b0 3e 54 ab b3 be
       0.35993823 -0.2288033 0.34417608 -0.3509165
000300 71 35 02 3e c9 ac 15 be 1f a7 f6 3d fd 8b bb be
       0.12715699 -0.14616694 0.120435946 -0.3663024
000310 b2 c9 4d be 09 c8 15 be 6c 2f 82 3d 2b 2a 1a be
       -0.20096472 -0.14627089 0.06356701 -0.15055148
000320 45 83 a9 bd 50 4e 36 3e 72 00 ef bd 91 01 41 be
       -0.08276991 0.17803311 -0.11670007 -0.18848254
000330 4a 33 40 bd bf b8 01 3f 58 a3 4e 3e 37 ed 8b be
       -0.046923913 0.50672525 0.20179498 -0.27329418
000340 a9 85 ae bb 51 fe be 3e 2c 4b db 3c 16 23 f0 be
       -0.005325992 0.37303403 0.026769243 -0.46901768
000350 43 8a 16 3e a2 0f 48 be d9 0a 3b 3e 98 0f 90 be
       0.1470118 -0.19537213 0.18265857 -0.28136897
000360 27 33 75 3e 33 91 20 3f 72 62 ce bd ce 06 f1 bd
       0.23945294 0.62721556 -0.10077371 -0.11768876
000370 b2 d8 f4 bc d9 2d 74 3e 2e b7 ef 3e 21 0c be be
       -0.029888485 0.23845614 0.46819443 -0.3711863
000380 11 c1 6f 3e ce 5d 9c 3e f1 34 0f 3c 92 e3 bf be
       0.23413493 0.30540317 0.00874065 -0.3747831
000390 47 20 64 be 1a e8 de 3e 93 3a 62 bd 48 78 fc bd
       -0.22277938 0.43536454 -0.055231642 -0.12327629
0003a0 2c c9 bf be d6 4c 82 3e c4 30 24 be e5 bb 20 3f
       -0.3745817 0.25449246 -0.16034228 0.62786704
0003b0 b5 5f 1f be 4f 97 aa 3e 45 50 4d be 4a d4 d8 3c
       -0.15563853 0.33318564 -0.20050152 0.026468415
0003c0 bc fb 2b bd a4 95 4f 3f ab 5f 37 3e 0b 14 13 be
       -0.04198812 0.8108771 0.17907588 -0.14363115
0003d0 d7 e4 5c bd 8b 0d 02 3f 28 19 78 3e 1d af 4f be
       -0.053929176 0.50801915 0.24228346 -0.20281644
0003e0 de 28 2b 3e 22 f8 c6 be e5 a3 18 be 23 c7 5a bd
       0.16714808 -0.38861185 -0.14906271 -0.053412568
0003f0 e0 43 af 3d e6 2a cd bd 8b 89 b2 3d 08 c6 08 be
       0.08557868 -0.10017948 0.087176405 -0.13356793
