data/models/univ/model_registrar-1999.pt (torch_old, 492052 bytes, 45 tensors)

weight_ih_l0 f4 [128, 6]
0.35139737 0.16885716 -0.2258509 -0.025854584 -0.13308673 -0.1353227 -0.15378144 0.35458028
-0.14672805 -0.017468814 0.081824936 -0.51236194 0.0127399955 -0.3975913 -0.03383605 0.26615593
0.004167808 0.54596615 -0.06203392 0.18450756 0.28882182 0.31825387 -1.3089483 0.122767836
0.038400855 0.04075574 -0.3556482 0.17797728 1.4101096 -1.2176542 0.048735835 0.22117163
0.37731352 -0.29028386 -0.060935725 -0.7242229 -0.12870945 0.0024840692 -0.09912647 -0.0047865007
0.0017734847 -0.14673097 0.24436954 0.43358335 -0.25998688 -0.16348797 -0.015497487 0.07677894
0.10429594 0.116583295 0.2219529 -0.41949925 0.3035844 0.6148032 0.008080294 0.1365474
-0.34312087 -0.22969067 0.026629405 0.03956938 -0.008065764 -0.052257203 -0.10911916 -0.14739807
-0.68353635 0.07069896 0.0060170484 0.18169269 -0.3321143 -0.39004955 1.3231397 -0.4548717
-0.098089084 -0.26295313 0.07663079 0.24752392 0.15268283 -0.21263129 -0.19796701 0.23504731
0.44685364 -0.43735301 0.4560499 0.6171435 -0.036167253 -0.12989306 -0.2702695 0.0024709224
-0.65788275 -0.39338166 -0.061767012 -0.036974568 0.1104789 0.031103779 0.47887066 0.49169126
0.15828829 0.05357357 0.022541359 0.5169567 -0.3327199 -0.63163155 -0.03635564 -0.11908389
-0.037242062 -0.14173108 0.10189684 0.1294121 0.061871156 0.00516019 0.1356968 0.33731824
0.06011828 -1.0958586 -0.08626048 0.37960708 -0.27029538 -0.0868103 0.65102166 0.8787155
-0.31235296 -0.08582519 0.22213097 -0.013891515 0.20403902 -0.13306127 0.11336568 -0.11540705
0.06937721 0.88361496 0.27612522 -0.06494281 -0.116003945 -0.44010812 0.04417247 0.46464068
0.13000676 0.14234325 0.23971806 -0.13983697 -0.09684625 0.14564793 0.33670458 0.18251027
0.12410299 0.59635895 -0.2870911 -0.95299226 -1.5922476 0.8217863 -0.20376353 -0.18052177
0.20370317 0.70712656 0.22569762 -0.34645545 -0.42913508 0.36026987 -0.1611085 -0.6121594
-0.017950557 0.12502386 -0.1913955 -0.12762572 0.28967026 0.49834397 0.11253412 0.17704493
0.24641779 -0.06845807 -0.32789657 0.0068248715 1.1515219 0.8302908 -0.26284644 -0.17516935
-0.013208641 0.0031939372 0.2257848 0.054069035 0.02153755 0.14236076 0.09636488 -0.1974652
-0.015425539 -0.32825252 -0.2564526 0.105803825 0.18653007 0.27056003 -0.2166038 0.08190735
0.29159465 0.213099 -0.37183428 -0.1864934 -0.08829297 -0.22327265 0.09317549 0.32392785
-0.02873816 -0.2371879 0.23049942 -0.13853163 0.0692335 -0.20689514 -0.09420339 0.11267117
0.0066520795 -0.1386384 0.040175814 0.17116766 0.04699346 -0.071097665 0.23254623 -0.89480114
0.19212386 -0.23278487 -0.1747201 -0.025424667 -0.080759965 0.41372603 0.019843757 -0.21436603
0.15533718 -0.31439626 -0.061287444 -0.21804978 0.14021525 0.2925933 -0.0037616764 0.094006315
-0.17652024 -0.018199425 0.28185743 0.10725722 -0.07581197 -0.20251627 0.106315866 0.6419339
0.062870726 -0.07598718 -0.066417195 -0.29458517 -0.35244185 0.13716595 -0.25673935 -0.011226795
0.14767966 0.008379969 0.10586616 0.30441898 0.11552517 -0.33097202 -0.021324411 -0.14049986
00000000: 5bea b33e e4e8 2c3e 7545 67be fecc d3bc
00000010: e347 08be 0992 0abe e278 1dbe 8c8b b53e
00000020: e13f 16be c21a 8fbc d593 a73d 272a 03bf
00000030: 6abb 503c 1691 cbbe ac97 0abd 9745 883e
00000040: 1c92 883b 70c4 0b3f 4817 7ebd 8def 3c3e
00000050: 74e0 933e 2cf2 a23e 9e8b a7bf b46d fb3d
00000060: 374a 1d3d 7eef 263d 8517 b6be ad3f 363e
00000070: 797e b43f 18dc 9bbf 3a9f 473d d17a 623e
00000080: 3d2f c13e 16a0 94be bd97 79bd ac66 39bf
00000090: 69cc 03be c4cb 223b d202 cbbd 14d8 9cbb
000000a0: 4674 e83a a540 16be 023c 7a3e a3fe dd3e
000000b0: 001d 85be 6469 27be 2ce9 7dbc 473e 9d3d
000000c0: 1c99 d53d 39c3 ee3d 9f47 633e 9bc8 d6be
000000d0: 6a6f 9b3e be63 1d3f 3663 043c 15d3 0b3e
000000e0: 8aad afbe 0834 6bbe e925 da3c 8113 223d
000000f0: 4426 04bc a60b 56bd de79 dfbd 85ef 16be
00000100: 3dfc 2ebf 9eca 903d a92a c53b a60d 3a3e
00000110: e30a aabe 93b4 c7be a45c a93f f2e4 e8be
00000120: eee2 c8bd cba1 86be 9bf0 9c3d e976 7d3e
00000130: e358 1c3e 04bc 59be ddb7 4abe 3eb0 703e
00000140: 00ca e43e bcec dfbe 5f7f e93e 1efd 1d3f
00000150: 1d24 14bd b002 05be c460 8abe 33ef 213b
00000160: 016b 28bf 5269 c9be 68ff 7cbd a572 17bd
00000170: c342 e23d 5acd fe3c 892e f53e f5be fb3e
00000180: 5316 223e f66f 5b3d a8a8 b83c 4657 043f
00000190: 435a aabe 9bb2 21bf a7e9 14bd 41e2 f3bd
000001a0: 228b 18bd f421 11be 4aaf d03d 9b84 043e
000001b0: 9c6c 7d3d d016 a93b 1af4 0a3e fab4 ac3e
000001c0: 963e 763d 1845 8cbf 56a9 b0bd dc5b c23e
000001d0: 2864 8abe 99c9 b1bd 5ba9 263f 80f3 603f
000001e0: baec 9fbe 1ec5 afbd 4d76 633e 3d99 63bc
000001f0: 9bef 503e 3741 08be 442c e83d 885a ecbd
00000200: a415 8e3d 9734 623f 4960 8d3e bc00 85bd
00000210: 7a93 edbd da55 e1be 31ee 343d 62e5 ed3e
00000220: 7e20 053e 6ec2 113e a778 753e 6c31 0fbe
00000230: 5457 c6bd bb24 153e 8b64 ac3e f9e3 3a3e
00000240: b529 fe3d fbaa 183f 9bfd 92be 4df7 73bf
00000250: c5ce cbbf 9660 523f 63a7 50be b3da 38be
00000260: 9097 503e 3f06 353f 471d 673e 9c62 b1be
00000270: 98b7 dbbe 4b75 b83e a0f9 24be 7ab6 1cbf
00000280: 0c0d 93bc 4106 003e 2ffd 43be 51b0 02be
00000290: a94f 943e f126 ff3e 4a78 e63d 444b 353e
000002a0: f254 7c3e bf33 8cbd 0fe2 a7be 2ca3 df3b
000002b0: 1265 933f f08d 543f cf93 86be 985f 33be
000002c0: 0e69 58bc 6051 513b 2134 673e 7e77 5d3d
000002d0: 846f b03c 05c7 113e f35a c53d 5134 4abe
000002e0: 66bb 7cbc b710 a8be c14d 83be adaf d83d
000002f0: bd01 3f3e d886 8a3e 63cd 5dbe 0abf a73d
00000300: e54b 953e a036 5a3e 1061 bebe 20f8 3ebe
00000310: f2d2 b4bd 96a1 64be cbd2 be3d dfd9 a53e
00000320: 4a6c ebbc 63e1 72be 0a08 6c3e 3cdb 0dbe
00000330: 4bca 8d3d 52dc 53be b5ed c0bd 24c0 e63d
00000340: b0f9 d93b 3af7 0dbe 658f 243d 9346 2f3e
00000350: 377c 403d a79b 91bd 9920 6e3e b011 65bf
00000360: 1ebc 443e 285f 6ebe d3e9 32be 6447 d0bc
00000370: 7b65 a5bd e6d3 d33e 608f a23c c582 5bbe
00000380: b610 1f3e 8cf8 a0be 8b08 7bbd 7148 5fbe
00000390: 9694 0f3e cace 953e 7586 76bb 6286 c03d
000003a0: b9c1 34be f616 95bc 9e4f 903e aca9 db3d
000003b0: 4e43 9bbd 6d60 4fbe 22bc d93d c855 243f
000003c0: 5ec2 803d 2b9f 9bbd bd05 88bd ded3 96be
000003d0: 4273 b4be 3b75 0c3e 5773 83be 97f0 37bc
000003e0: 5639 173e 234c 093c 5bd0 d83d cedc 9b3e
000003f0: 7698 ec3d 2a75 a9be 88b0 aebc 32df 0fbe

weight_hh_l0 f4 [128, 32]
0.070419624 0.01134864 -0.024025945 0.14158864 -0.23423894 0.018371075 -0.11674087 0.08675877
0.18775564 0.0150771625 -0.11635083 0.015556356 -0.017494202 0.13144659 0.08993379 0.08383217
0.069012 -0.20873909 0.07344345 -0.13865711 -0.14135377 -0.23467332 -0.07402308 -0.13254368
0.17262234 0.05370788 0.15153243 0.21399733 0.24934343 0.17530546 -0.0005740758 -0.22089484
0.11736448 -0.18066654 0.110515565 0.0699069 0.09901661 0.038196433 -0.15782465 -0.09155736
0.19663015 -0.14762731 -0.14924596 0.0023441464 -0.02878818 0.051406614 0.17018887 0.1192222
0.044782877 0.1864472 0.07349945 -0.021477785 0.10668629 -0.08567291 -0.15323143 -0.06911594
0.22017542 0.060663834 -0.1733046 -0.106559545 -0.045934938 0.15390384 -0.0052941167 -0.047123544
0.09711588 -0.16360286 -0.09613973 0.19839965 0.13139445 0.08984805 -0.21420488 -0.06858927
0.052740436 0.014069698 -0.3598523 0.16001803 0.028479397 -0.1643211 -0.01315485 -0.21502553
0.047257748 -0.1162227 0.17195395 -0.17531046 0.031687886 0.14148499 0.012514752 0.1752265
0.4350985 0.11507387 0.16905099 0.14755835 0.17882264 0.17779723 0.012750878 0.053278204
-0.15857469 -0.045633778 0.040738117 0.22396964 -0.100067526 -0.08890092 -0.28339007 -0.05839648
-0.09934498 0.23937139 -0.02300902 -0.09724385 -0.09283251 -0.20053416 -0.116126254 -0.057753224
-0.15234303 0.37715867 0.019373469 -0.30411485 -0.24171017 -0.054384872 0.017146206 -0.061126992
0.25945732 -0.012319091 -0.14213656 0.10640767 -0.24760394 0.0044489433 0.2601717 0.1320915
-0.14975064 0.07875776 0.3055358 -0.118464164 0.1598425 -0.025344698 0.41428944 0.220433
-0.03385226 -0.15655123 -0.2028164 -0.051948823 -0.14004077 -0.053759143 0.04770398 -0.2353842
0.008040898 -0.2440054 -0.2235523 0.003128077 -0.35608506 0.13689007 0.18397792 -0.028111145
0.4398242 -0.14631182 -0.03137061 -0.18987532 0.15865372 0.0047403406 -0.05150293 -0.23259476
-0.055935472 -0.30460012 0.03988973 -0.18458673 0.1500225 -0.027652675 0.05145375 -0.09694171
-0.015091038 0.13876869 0.17244826 -0.022151258 -0.2210955 0.09398229 -0.16069353 -0.118923664
-0.04719251 0.23221716 -0.13697997 0.17856435 0.1810023 -0.08435398 -0.0764297 -0.116254
0.15656647 -0.061716057 0.20310344 0.19541752 -0.045281302 -0.07185547 0.33656034 0.16814414
0.07616981 0.085330956 -0.16409723 0.27090025 0.21822612 -0.23757702 0.009908905 -0.074596554
-0.12884067 -0.060639873 -0.13911004 -0.02371526 0.08845526 0.14851722 -0.0948198 0.05512569
0.0076935296 -0.10268867 0.14939564 -0.25381854 0.10138593 0.2828346 0.04612518 -0.0010428436
-0.014556517 -0.14174692 -0.027221823 0.090664245 -0.21160564 0.22568485 -0.25088593 0.049766574
0.27250588 0.0800519 -0.011702087 0.09805448 -0.16441523 0.17664102 0.087877415 0.052950703
0.04873967 -0.14069587 -0.13064297 -0.1751423 0.19252186 -0.115694776 0.023185855 0.07317816
0.09974359 -0.20663026 -0.118903466 -0.07264815 -0.053252093 -0.024044618 0.018226448 -0.16186032
0.07509425 0.10538417 0.036167875 0.10265608 0.15417747 0.3282389 -0.017204987 0.04551195
00000000: 2a38 903d a5ef 393c 0fd2 c4bc 9dfc 103e
00000010: 55dc 6fbe f07e 963c d615 efbd 95ae b13d
00000020: 0443 403e 3406 773c 5849 eebd 16e0 7e3c
00000030: 0050 8fbc ef99 063e 352f b83d 33b0 ab3d
00000040: 2a56 8d3d b3bf 55be 8569 963d 21fc 0dbe
00000050: 0bbf 10be 344e 70be 6a99 97bd 88b9 07be
00000060: e9c3 303e cbfc 5b3d 512b 1b3e 1e22 5b3e
00000070: e253 7f3e 4683 333e 937d 16ba 4232 62be
00000080: ca5c f03d a600 39be fc55 e23d 592b 8f3d
00000090: 38c9 ca3d dd73 1c3d c99c 21be 6d82 bbbd
000000a0: 6a59 493e 9d2b 17be efd3 18be 40a0 193b
000000b0: 30d5 ebbc be8f 523d fe45 2e3e c52a f43d
000000c0: 406e 373d 04ec 3e3e e186 963d 2ef2 afbc
000000d0: 577e da3d 4775 afbd b3e8 1cbe a88c 8dbd
000000e0: aa75 613e a47a 783d c376 31be e43b dabd
000000f0: 4626 3cbd f898 1d3e 457a adbb 9e04 41bd
00000100: b1e4 c63d 8287 27be e8e4 c4bd 4729 4b3e
00000110: 448c 063e 4102 b83d 8658 5bbe 8878 8cbd
00000120: 5b06 583d 9784 663c 903e b8be c4db 233e
00000130: a04d e93c ca43 28be 7187 57bc a72f 5cbe
00000140: 5791 413d 2b06 eebd b214 303e 9684 33be
00000150: 28cb 013d 71e1 103e ad0a 4d3c 936e 333e
00000160: 3bc5 de3e d9ab eb3d b41b 2d3e 8919 173e
00000170: 481d 373e 7a10 363e 0fe9 503c 3f3a 5a3d
00000180: 6761 22be 7cea 3abd 03dd 263d 4c58 653e
00000190: 34f0 ccbd af11 b6bd 8118 91be 2631 6fbd
000001a0: 6275 cbbd c61d 753e 6a7d bcbc c927 c7bd
000001b0: f91e bebd d458 4dbe 9ad3 edbd a58e 6cbd
000001c0: d0ff 1bbe f11a c13e 1cb5 9e3c f1b4 9bbe
000001d0: df82 77be acc2 5ebd 3376 8c3c 4c60 7abd
000001e0: 97d7 843e 03d6 49bc 3f8c 11be 44ec d93d
000001f0: e38b 7dbe 71c8 913b 3a35 853e ff42 073e
00000200: 3b58 19be c04b a13d 306f 9c3e 579d f2bd
00000210: c1ad 233e af9f cfbc bf1d d43e 30b9 613e
00000220: aba8 0abd f74e 20be 1aaf 4fbe 4ac8 54bd
00000230: d966 0fbe 8c32 5cbd 4065 433d 8e08 71be
00000240: f8bd 033c 8ddc 79be e5ea 64be 6c00 4d3b
00000250: c850 b6be e92c 0c3e b564 3c3e 5849 e6bc
00000260: a330 e13e c4d2 15be 787e 00bd ad6e 42be
00000270: 1f76 223e dc54 9b3b bcf4 52bd 522d 6ebe
00000280: 981c 65bd 8cf4 9bbe 6a63 233d 4e04 3dbe
00000290: 809f 193e dd87 e2bc 2bc1 523d 6089 c6bd
000002a0: 6740 77bc 6119 0e3e 4796 303e 8e76 b5bc
000002b0: dc66 62be c979 c03d d88c 24be 408e f3bd
000002c0: ef4c 41bd 56ca 6d3e 7a44 0cbe 93d9 363e
000002d0: ab58 393e c8c1 acbd 2d87 9cbd 9416 eebd
000002e0: f652 203e fac9 7cbd 59fa 4f3e 881b 483e
000002f0: e378 39bd f628 93bd a351 ac3e fa2d 2c3e
00000300: ebfe 9b3d ffc1 ae3d 1b09 28be 70b3 8a3e
00000310: ab76 5f3e 6447 73be f658 223c 14c6 98bd
00000320: cfee 03be 8461 78bd dd72 0ebe 8146 c2bc
00000330: 0828 b53d e614 183e e230 c2bd 7acb 613d
00000340: 011a fc3b 704e d2bd 2cfb 183e 81f4 81be
00000350: 6da3 cf3d b2cf 903e c2ed 3c3d 06b0 88ba
00000360: 757e 6ebc 1b26 11be 4d00 dfbc 2dae b93d
00000370: 26af 58be ee19 673e 1f74 80be 09d8 4b3d
00000380: e485 8b3e 40f2 a33d 1cba 3fbc cad0 c83d
00000390: 775c 28be 62e1 343e 13f9 b33d d6e2 583d
000003a0: 40a3 473d 9412 10be 45c7 05be 8158 33be
000003b0: 7324 453e 62f1 ecbd 43f0 bd3c 6ede 953d
000003c0: 5e46 cc3d e296 53be a983 f3bd 8ec8 94bd
000003d0: de1e 5abd 38f9 c4bc a24f 953c b6be 25be
000003e0: 04cb 993d a8d3 d73d c424 143d 5a3d d23d
000003f0: b3e0 1d3e ee0e a83e 79f1 8cbc bd6a 3a3d

bias_ih_l0 f4 [128]
0.04741566 0.20407256 0.12635064 0.07056614 -0.15175585 0.20437297 0.13147238 -0.1466227
-0.03214606 0.112511665 0.36564344 0.07799273 0.43580946 -0.1401019 0.5956284 0.31616065
-0.09306437 0.233382 0.004446112 0.19751191 0.6034376 -0.053601652 0.05731391 -0.0054633915
0.20475718 0.0650928 -0.08355034 0.02504899 -0.17713964 0.17717515 0.07331553 0.06794241
0.09915131 -0.4528834 -0.28613693 0.037539747 -0.237842 -0.15923657 -0.3886669 -0.055534035
-0.23807985 0.034635 -0.041366544 0.051282987 -0.4115876 0.06138398 -0.6033716 -0.64459306
-0.040440273 -0.034650907 -0.15554169 -0.13735452 -0.7823415 0.04387338 0.027522251 0.045924433
-0.032708075 0.09498451 0.0660734 0.13814428 -0.110773556 -0.3875387 -0.5047609 -0.21556203
0.14381093 0.13697982 -0.07618886 0.040000092 -0.09552499 -0.0026412252 0.095443785 -0.048807263
-0.015195517 0.0677363 -0.086971484 0.029237358 -0.09194438 -0.057485055 0.040374998 -0.079596944
-0.091233574 -0.12326906 0.053213216 0.008046569 0.07384372 0.05248997 0.112485945 -0.12458788
0.12630749 -0.09197196 0.014824901 -0.067009225 -0.11482312 0.1388175 0.014086785 -0.056280375
0.2486684 0.1710115 0.16121967 0.14759004 0.04588814 0.13016433 0.15753947 -0.12895396
-0.14210111 0.13550657 0.11293475 0.04792787 0.36933634 -0.14808072 0.6631858 0.48727766
0.030832961 0.14499272 0.10694148 0.10280859 0.66691756 -0.054324362 0.020008676 0.041338604
0.11766134 0.11189297 0.07313666 -0.02120891 -0.036528796 0.37531897 0.1289574 0.028779758
00000000: ec36 423d 66f8 503e 1062 013e fb84 903d
00000010: e365 1bbe 2647 513e b2a0 063e 4324 16be
00000020: 96ab 03bd 846c e63d 9e35 bb3e a7ba 9f3d
00000030: 6b22 df3e df76 0fbe 1a7b 183f cfdf a13e
00000040: 8898 bebd b1fb 6e3e b1b0 913b 9040 4a3e
00000050: e37a 1a3f 688d 5bbd fec1 6a3d 4006 b3bb
00000060: deab 513e 604f 853d 711c abbd 8a33 cd3c
00000070: 1864 35be 676d 353e 7426 963d 6425 8b3d
00000080: d80f cb3d 55e0 e7be 8a80 92be 47c3 193d
00000090: da8c 73be e90e 23be 59ff c6be a877 63bd
000000a0: 34cb 73be 6edd 0d3d f76f 29bd 1c0e 523d
000000b0: 9cbb d2be c56d 7b3d 9076 1abf 0d04 25bf
000000c0: b3a4 25bd 1cee 0dbd 5246 1fbe aaa6 0cbe
000000d0: 8847 48bf 93b4 333d 5876 e13c 421b 3c3d
000000e0: e7f8 05bd 3d87 c23d 7e51 873d b275 0d3e
000000f0: 3fdd e2bd 796b c6be 0338 01bf 4bbc 5cbe
00000100: 2c43 133e 7044 0c3e e808 9cbd 23d7 233d
00000110: 9ba2 c3bd 6818 2dbb 0878 c33d 20ea 47bd
00000120: 9ef6 78bc 54b9 8a3d 1b1e b2bd 2f83 ef3c
00000130: 564d bcbd 7375 6bbd 4160 253d b903 a3bd
00000140: abd8 babd 7d74 fcbd 1af6 593d c2d5 033c
00000150: 603b 973d b9ff 563d 085f e63d ee27 ffbd
00000160: c056 013e cc5b bcbd 24e4 723c 223c 89bd
00000170: 6228 ebbd 2d26 0e3e 42cc 663c 4086 66bd
00000180: eea2 7e3e a31d 2f3e c516 253e d821 173e
00000190: 34f5 3b3d cc49 053e 0752 213e 820c 04be
000001a0: f482 11be 3cc2 0a3e 564a e73d 0450 443d
000001b0: a719 bd3e 79a2 17be 8bc6 293f 757c f93e
000001c0: 6895 fc3c f978 143e 2204 db3d 4f8d d23d
000001d0: 1cbb 2a3f 3983 5ebd 3ce9 a33c ab52 293d
000001e0: 6ef8 f03d 2428 e53d acc8 953d 4fbe adbc
000001f0: 389f 15bd cf29 c03e 690d 043e 87c3 eb3c

bias_hh_l0 f4 [128]
0.003125585 0.21718004 -0.0074400385 0.23204921 -0.007979913 -0.039526854 0.029822545 0.030942138
0.052991528 0.2774073 0.10918887 -0.046835028 0.1975157 0.15416712 0.636192 0.4765815
-0.18003142 0.22594222 -0.09124428 0.15323474 0.75111455 0.12711538 0.08583947 0.058834523
0.10641832 0.049964152 -0.009995785 -0.066533096 -0.25876585 0.16783221 0.14283489 0.11813347
0.010392072 -0.4267933 -0.048447996 -0.16860424 0.0705233 0.0036068498 -0.24772494 -0.20035952
-0.1651941 -0.021587193 -0.022431752 -0.009906019 -0.41436985 -0.11805265 -0.49741682 -0.5944805
-0.17123818 -0.10257487 -0.12718889 -0.31864017 -0.6384341 -0.11892257 -0.19554386 0.017936843
-0.23629011 -0.21364366 -0.1874639 0.077451244 -0.13899465 -0.15362167 -0.37267625 0.08582903
-0.13944802 -0.13179311 0.09389026 -0.01563088 0.16113561 0.029679738 -0.0906987 -0.0019164683
0.12606253 -0.025882194 0.040861692 0.046530776 0.08876905 0.008959219 -0.037330043 0.06666165
0.0017077056 0.11912137 -0.021339787 -0.118535295 -0.08313113 -0.007963014 -0.13110876 0.12349047
-0.11218946 0.013668619 0.017791986 0.047837365 -0.10336841 -0.13982679 -0.010462273 0.047715407
0.13362826 0.3053369 0.005119402 0.3749024 0.14450206 0.033553828 0.35611957 0.18163957
-0.19610249 0.15785712 0.3542028 0.1248195 0.3814977 0.045101438 0.58304036 0.49514154
0.049325675 0.008201102 0.21203731 -0.020680733 0.62996566 0.13677041 0.1717843 0.17392802
0.30549014 0.08754141 0.12505157 -0.015005367 -0.16586892 0.36977708 0.1559755 0.22951828
00000000: 9dd6 4c3b 7264 5e3e 91cb f3bb 4f9e 6d3e
00000010: 2ebe 02bc e9e6 21bd 694e f43c 5e7a fd3c
00000020: a50d 593d 5408 8e3e 6a9e df3d 16d6 3fbd
00000030: 8e41 4a3e fcdd 1d3e 7bdd 223f 7e02 f43e
00000040: 285a 38be 665d 673e 48de babd 91e9 1c3e
00000050: 0b49 403f 892a 023e 9bcc af3d 78fc 703d
00000060: d9f1 d93d 36a7 4c3d 5cc5 23bc 8142 88bd
00000070: f57c 84be 35dc 2b3e 4f43 123e f6ef f13d
00000080: 8243 2a3c a784 dabe 6871 46bd 97a6 2cbe
00000090: 856e 903d e660 6c3b 9bab 7dbe 0c2b 4dbe
000000a0: a428 29be a0d7 b0bc cbc2 b7bc db4c 22bc
000000b0: 4928 d4be 96c5 f1bd 6bad febe e02f 18bf
000000c0: 1059 2fbe c612 d2bd ce3d 02be ce24 a3be
000000d0: 6b70 23bf ad8d f3bd a63c 48be 49f0 923c
000000e0: 09f6 71be 67c5 5abe 89f6 3fbe c29e 9e3d
000000f0: 9d54 0ebe 004f 1dbe 6ccf bebe 21c7 af3d
00000100: 76cb 0ebe c6f4 06be 8949 c03d 550c 80bc
00000110: bc00 253e ec22 f33c 3dc0 b9bd 0132 fbba
00000120: 8916 013e e506 d4bc 975e 273d 0e97 3e3d
00000130: 8ccc b53d b0c9 123c 63e7 18bd e785 883d
00000140: 17d5 df3a e8f5 f33d c7d0 aebc a2c2 f2bd
00000150: a740 aabd 4d77 02bc 6041 06be 92e8 fc3d
00000160: 96c3 e5bd 58f2 5f3c 80c0 913c 1df1 433d
00000170: d1b2 d3bd c12e 0fbe f469 2bbc 3b71 433d
00000180: d9d5 083e 1e55 9c3e a8c0 a73b 35f3 bf3e
00000190: 59f8 133e bd6f 093d 4e55 b63e b9ff 393e
000001a0: 17cf 48be 4ca5 213e 125a b53e 5ea1 ff3d
000001b0: ab53 c33e 49bc 383d 2242 153f 3183 fd3e
000001c0: b809 4a3d ea5d 063c 4f20 593e a46a a9bc
000001d0: 6e45 213f 8b0d 0c3e 39e8 2f3e 301a 323e
000001e0: 3469 9c3e e948 b33d 850d 003e 12d9 75bc
000001f0: 8bd9 29be 6c53 bd3e 0bb8 1f3e d706 6b3e

weight_ih_l0 f4 [128, 2]
-0.18729576 -0.1475484 -0.115527794 0.43460926 -0.12970446 0.022467991 -0.122332916 0.48801354
-0.3959439 -0.34483626 0.02256452 0.16769001 0.029963447 -0.10038884 0.002624405 -0.22742681
-0.014195435 -0.19083934 0.026049346 -0.33675286 0.023030821 0.3144267 -0.46929777 0.116239525
-0.20017284 0.44308606 -0.080148496 -0.055182774 0.12066577 -0.2856753 0.1393227 -0.38359824
-0.25613245 0.13935673 0.27853912 -0.040037267 0.01496088 -0.39281285 0.21812412 0.3471286
-0.23458312 -0.1489158 0.09722442 0.27333036 0.27752212 0.33907062 -0.28591383 -0.23634964
0.11381099 -0.45829302 -0.43810126 0.59781593 0.13554922 -0.074814945 -0.11731264 -0.09863411
-0.38453424 0.40541384 -0.1784102 0.4854373 0.101462044 -0.31637323 -0.07264234 -0.10221217
-0.48519403 -0.29978302 0.17873359 -0.35249656 -0.12748554 -0.15721682 0.04326268 0.6097163
-0.15287569 0.043134455 0.075300515 0.21975173 -0.07329624 0.6903647 0.10174313 -0.054465093
-0.31303987 0.104594804 0.035502203 -0.13571954 0.13391364 -0.04400404 -0.44712648 0.17669211
-0.13332161 0.30415303 -0.45924824 0.2930663 0.38929713 -0.41652367 0.26448068 -0.60359544
0.008588548 -0.12309994 0.15013044 -0.3097314 -0.0049098926 -0.03150309 0.23500106 0.22772744
-0.31838292 -0.16312739 0.34487 0.19991829 0.39418316 0.1971372 -0.25904483 -0.43203938
-0.011622763 -0.68386453 -0.27569434 0.3864299 0.102196515 -0.25677818 0.45560357 -0.34375086
-0.24602936 0.13107733 -0.2950691 0.3581045 0.1452206 -0.2971245 -0.047073275 -0.16588847
-0.16686924 -0.034931026 0.0144298 -0.41592443 0.1765458 -0.40503994 0.01693918 -0.6564465
-0.031377174 0.3097016 0.07947918 -0.3567942 -0.061309736 -0.493072 0.028089773 -0.099499725
-0.06257283 0.032307778 0.09502139 0.40048954 -0.011887844 0.63964623 -0.39461228 0.26113665
0.0025997965 -0.5030326 -0.0019643642 0.16997881 -0.04748875 -0.32652393 -0.2005291 0.59299475
0.18173955 -0.17152624 -0.16448624 0.2529833 0.049115833 0.26572478 -0.10213138 0.3979591
0.20694974 0.04234624 -0.058797423 -0.1054325 -0.006680059 -0.4253398 -0.073335856 -0.1896557
0.2709962 0.0839586 -0.18646424 0.63803995 0.00018139783 0.164313 0.3439238 -0.23496942
0.14181933 0.36062634 0.25071558 0.38406512 0.111212105 -0.51647985 -0.061688684 -0.6321335
-0.50544775 -0.40508124 0.42454025 -0.043271985 -0.18834537 -0.18660462 -0.098432094 0.795576
-0.47489864 -0.46503615 -0.007254095 0.11890588 -0.08483821 0.020700492 -0.09689436 -0.29609072
-0.29222652 0.10992901 -0.17206042 -0.46496806 0.22983027 0.21967132 -0.36333886 0.17794478
0.02401625 0.31979162 -0.21945652 0.21607742 0.24413268 -0.34927443 0.19020884 -0.28503418
-0.1850005 0.05137389 -0.03828037 -0.24650794 -0.11874267 -0.71054024 0.28195602 0.14748006
-0.33939135 -0.17429975 0.1816939 0.24680628 0.41227722 0.42041135 -0.24068484 -0.4587829
0.11700101 -0.095462866 -0.4574105 0.53884983 0.06799883 -0.3467083 0.34604225 -0.105639674
-0.42421 -0.036630727 -0.160838 -0.09420077 -0.08963879 -0.13295631 -0.0064850054 -0.41814715
00000000: 76ca 3fbe ee16 17be d699 ecbd 1b85 de3e
00000010: 3fd1 04be cb0e b83c ae89 fabd e9dc f93e
00000020: 29b9 cabe 618e b0be 3ad9 b83c eeb6 2b3e
00000030: e775 f53c aa98 cdbd 36fe 2b3b 93e2 68be
00000040: f893 68bc 636b 43be 7065 d53c df6a acbe
00000050: 22ab bc3c 89fc a03e cc47 f0be fd0e ee3d
00000060: 1cfa 4cbe 2ddc e23e e524 a4bd 5507 62bd
00000070: 9d1f f73d 0844 92be 9caa 0e3e fd66 c4be
00000080: cb23 83be 88b3 0e3e ae9c 8e3e 1efe 23bd
00000090: 7b1e 753c c41e c9be ee5b 5f3e d7ba b13e
000000a0: 8f36 70be 627d 18be 991d c73d f5f1 8b3e
000000b0: 6117 8e3e aa9a ad3e 4c63 92be a405 72be
000000c0: bc15 e93d 62a5 eabe cf4e e0be 770a 193f
000000d0: 6acd 0a3e 9438 99bd 9c41 f0bd ae00 cabd
000000e0: ace1 c4be 6792 cf3e 2ab1 36be 3d8b f83e
000000f0: 55cb cf3d acfb a1be 82c5 94bd 9d54 d1bd
00000100: 5a6b f8be 297d 99be f005 373e 6e7a b4be
00000110: 928b 02be 72fd 20be 3534 313d 5e16 1c3f
00000120: 728b 1cbe c1ad 303d 2837 9a3d 9906 613e
00000130: 571c 96bd bebb 303f b45e d03d ca16 5fbd
00000140: c346 a0be cd35 d63d c26a 113d 10fa 0abe
00000150: a820 093e 953d 34bd c3ed e4be c7ee 343e
00000160: 7685 08be f2b9 9b3e 9622 ebbe c90c 963e
00000170: f451 c73e 9742 d5be 036a 873e 3b85 1abf
00000180: fbb6 0c3c d21b fcbd cbbb 193e 1d95 9ebe
00000190: 2ae3 a0bb 6209 01bd 1ea4 703e 6231 693e
000001a0: 1603 a3be de0a 27be cd92 b03e 61b7 4c3e
000001b0: 60d2 c93e 56de 493e 86a1 84be 4434 ddbe
000001c0: 676d 3ebc bf11 2fbf cf27 8dbe 24da c53e
000001d0: 684c d13d 6e78 83be df44 e93e 1d00 b0be
000001e0: 1fef 7bbe 2339 063e 4c13 97be 7959 b73e
000001f0: b5b4 143e b420 98be e8cf 40bd abde 29be
00000200: c5df 2abe d613 0fbd f86a 6c3c 0cf4 d4be
00000210: 6cc8 343e 6561 cfbe 09c4 8a3c e10c 28bf
00000220: 5a85 00bd 3591 9e3e fbc5 a23d bbad b6be
00000230: eb1f 7bbd ef73 fcbe 861c e63c 83c6 cbbd
00000240: 2f26 80bd 2955 043d 939a c23d f70c cd3e
00000250: 3bc5 42bc dbbf 233f 9f0a cabe b4b3 853e
00000260: 5961 2a3b bfc6 00bf 90bc 00bb ed0e 2e3e
00000270: 9083 42bd 252e a7be 8057 4dbe 81ce 173f
00000280: ef19 3a3e 93a4 2fbe 156f 28be 0787 813e
00000290: af2d 493d 140d 883e 422a d1bd 4cc1 cb3e
000002a0: a2ea 533e 4073 2d3d 91d5 70bd ffec d7bd
000002b0: 65e4 dabb 23c6 d9be 1c31 96bd 1b35 42be
000002c0: 04c0 8a3e 7df2 ab3d 7bf0 3ebe 9656 233f
000002d0: 9c35 3e39 ab41 283e c816 b03e d39b 70be
000002e0: 1639 113e 04a4 b83e cb5d 803e 2fa4 c43e
000002f0: 2cc3 e33d 0638 04bf 46ad 7cbd 80d3 21bf
00000300: 0665 01bf cf66 cfbe 575d d93e f73d 31bd
00000310: 9cdd 40be 4815 3fbe c496 c9bd deaa 4b3f
00000320: ea25 f3be 3819 eebe c2b3 edbb ed84 f33d
00000330: a8bf adbd 1494 a93c 8d70 c6bd 3499 97be
00000340: b79e 95be 7622 e13d 9b30 30be 4b10 eebe
00000350: a058 6b3e 85f1 603e 8d07 babe 2837 363e
00000360: babd c43c babb a33e 36b9 60be 6643 5d3e
00000370: ebfd 793e 19d4 b2be 1bc6 423e 00f0 91be
00000380: c570 3dbe 6e6d 523d e1cb 1cbd 946c 7cbe
00000390: 5b2f f3bd f7e5 35bf 8a5c 903e 0305 173e
000003a0: b4c4 adbe a27b 32be f70d 3a3e c9ba 7c3e
000003b0: 0016 d33e 2840 d73e 1676 76be 98e5 eabe
000003c0: 3a9e ef3d 0982 c3bd b631 eabe 10f2 093f
000003d0: f842 8b3d c083 b1be 732c b13e 9d59 d8bd
000003e0: 0e32 d9be 1a0a 16bd b7b2 24be 55ec c0bd
000003f0: 8b94 b7bd b325 08be 2b80 d4bb 6217 d6be

weight_hh_l0 f4 [128, 32]
0.07393841 0.0043434943 -0.29068983 -0.11751815 -0.10825511 0.0007226673 -0.004280519 -0.046316586
0.008198179 -0.11594235 0.33180654 0.31611702 0.04725908 0.16399269 -0.009281371 -0.031590592
-0.05410285 -0.17075619 0.25205842 0.2873599 -0.04606418 -0.24871933 -0.15198702 0.0212813
-0.18985228 0.5551845 -0.17092612 0.33225223 0.07311569 -0.4722435 -0.13876012 0.09608826
-0.14892071 -0.17174976 -0.10337872 -0.26068294 0.04852769 -0.06626002 -0.28726926 -0.031224726
0.059471842 0.12186646 0.04242283 0.08133858 -0.11543392 0.47498372 0.06660827 0.017073303
-0.10522712 -0.038267873 0.20831631 0.31803143 0.054474626 -0.2939599 -0.02851492 0.11207621
0.018460196 0.18449795 0.058564093 -0.06508248 0.091732055 -0.0053946916 -0.11247424 -0.2725234
0.073017865 0.008855072 -0.04853979 -0.21398966 -0.17557743 -0.067310095 -0.17635171 0.041104674
-0.026756303 -0.24678154 -0.114071 0.15981069 -0.01463598 0.3779782 0.16359131 -0.059841856
-0.1009484 -0.025546463 -0.6345586 -0.20334668 -0.17555203 -0.087385535 -0.15769342 0.3791527
-0.28601724 0.12009171 -0.11818559 0.10539703 -0.15696965 0.086184025 0.09343732 0.021114118
-0.016791582 -0.008241359 0.18631633 -0.15893897 0.117869206 -0.07355453 0.0232928 -0.0027123122
0.031121358 0.36047295 0.044482626 0.048389293 -0.034251377 -0.13567296 -0.036013685 -0.1660763
-0.18543844 0.055499975 -0.24654986 -0.18293284 0.0911578 0.036171865 -0.13666584 -0.11561027
-0.056932658 0.23720051 0.105243005 0.061927598 -0.12138933 -0.13789272 0.045269888 -0.2259592
0.027413324 0.45224836 0.21696788 -0.047985736 0.11394808 0.14338095 0.13694818 -0.042770848
-0.05593896 0.063573845 -0.15686096 0.09655018 0.20157774 0.034916032 0.2070937 -0.0265839
-0.2726701 0.084017545 -0.11837851 -0.17807451 0.2614132 -0.019510206 0.057085592 -0.025885036
-0.45605808 0.25247943 -0.20016241 0.06883705 -0.33898708 -0.20252977 0.10119135 0.04773373
-0.07910465 -0.0015554689 -0.017357133 -0.29338285 0.021216936 0.12303471 -0.24523528 0.24787931
0.021638876 -0.14820126 0.0777638 0.10417283 0.07656681 -0.005772419 0.07256685 -0.1503114
-0.14307186 0.054465644 0.05281498 0.16534266 -0.0022474728 -0.18581048 -0.23103856 0.060673073
0.1875204 0.32347062 0.10715872 -0.06734253 -0.075910315 -0.24275663 0.121889375 -0.14846857
0.022481166 0.11515927 0.21855249 -0.39249587 0.4282965 -0.24623862 -0.32519075 0.15637203
-0.23589702 -0.01690891 0.19944517 0.18051675 0.18038374 0.18883212 -0.02135318 -0.24841717
-0.07264738 -0.14734878 0.16737738 -0.24452898 0.30946282 -0.048154198 -0.30707368 0.18969777
-0.06504011 0.36962983 -0.12017715 0.35157755 -0.1738412 -0.28293127 -0.16459662 0.041621976
0.18158385 -0.08775995 -0.08902804 0.13341485 -0.0064323805 -0.084917895 0.1876392 0.08633113
0.00059221784 -0.22568658 -0.04547355 0.24711311 0.044985324 0.08412759 0.08967665 -0.02541879
0.004773518 -0.08686312 -0.1544807 0.18773939 -0.1652399 0.001921816 -0.039674208 -0.10764091
0.1683702 -0.13786282 -0.024772756 0.02194952 0.074630514 0.12678173 0.14494285 -0.044167466
00000000: 056d 973d df53 8e3b 4cd5 94be 5bad f0bd
00000010: dbb4 ddbd 6271 3d3a 9943 8cbb 76b6 3dbd
00000020: a851 063c 2f73 edbd 8ce2 a93e 17da a13e
00000030: bd92 413d b3ed 273e e410 18bc 2365 01bd
00000040: f39a 5dbd b6da 2ebe cd0d 813e d620 933e
00000050: cbad 3cbd 48b0 7ebe 7ca2 1bbe 1f56 ae3c
00000060: a368 42be 9220 0e3f 4207 2fbe f71c aa3e
00000070: aebd 953d e6c9 f1be 2217 0ebe ecc9 c43d
00000080: ac7e 18be 2bdf 2fbe 39b8 d3bd 3c78 85be
00000090: f9c4 463d 55b3 87bd f514 93be ffca ffbc
000000a0: bf98 733d 1f95 f93d 90c3 2d3d d794 a63d
000000b0: 9e68 ecbd 1131 f33e eb69 883d 50dd 8b3c
000000c0: 5181 d7bd c6be 1cbd df50 553e 04d5 a23e
000000d0: c920 5f3d e981 96be 1f98 e9bc 3688 e53d
000000e0: d639 973c 08ed 3c3e e7e0 6f3d f749 85bd
000000f0: 04de bb3d f4c5 b0bb e558 e6bd 3088 8bbe
00000100: 648a 953d dd14 113c a9d1 46bd 1b20 5bbe
00000110: 92ca 33be e0d9 89bd 8b95 34be 605d 283d
00000120: 0930 dbbc 4db4 7cbe 0e9e e9bd 6aa5 233e
00000130: c0cb 6fbc 5c86 c13e 7b84 273e bc1c 75bd
00000140: 09be cebd d146 d1bc 6f72 22bf 1d3a 50be
00000150: e9c3 33be 30f7 b2bd 627a 21be 4d20 c23e
00000160: da70 92be a4f2 f53d 490b f2bd 66da d73d
00000170: a7bc 20be 4081 b03d 115c bf3d 84f7 ac3c
00000180: 808e 89bc c406 07bc b5c9 3e3e e6c0 22be
00000190: 6965 f13d c2a3 96bd 8bd0 be3c 0cc1 31bb
000001a0: 38f2 fe3c e98f b83e 6a33 363d da33 463d
000001b0: 2c4b 0cbd daed 0abe 1683 13bd e80f 2abe
000001c0: 93e3 3dbe f153 633d 9177 7cbe bf52 3bbe
000001d0: f1b0 ba3d f328 143d 21f2 0bbe 14c5 ecbd
000001e0: 3832 69bd b1e4 723e a589 d73d cba7 7d3d
000001f0: f89a f8bd c033 0dbe eb6c 393d d961 67be
00000200: e891 e03c 198d e73e d42c 5e3e b18c 44bd
00000210: 9c5d e93d 75d2 123e 253c 0c3e 7c30 2fbd
00000220: 4020 65bd 0133 823d 29a0 20be 1abc c53d
00000230: 656a 4e3e 1d04 0f3d 5f10 543e 7bc6 d9bc
00000240: 6a9b 8bbe 6411 ac3d 6f70 f2bd 2a59 36be
00000250: f3d7 853e ded3 9fbc 95d2 693d db0c d4bc
00000260: 7280 e9be fc44 813e 60f7 4cbe 70fa 8c3d
00000270: b78f adbe f763 4fbe 693d cf3d 7284 433d
00000280: 9e01 a2bd e0e0 cbba 8c30 8ebc 4736 96be
00000290: 24cf ad3c 9ff9 fb3d f51e 7bbe 13d4 7d3e
000002a0: 0344 b13c 12c2 17be a142 9f3d 9158 d53d
000002b0: 0fcf 9c3d 8f26 bdbb ee9d 943d 3beb 19be
000002c0: 6e81 12be 5e17 5f3d 8554 583d 964f 293e
000002d0: 564a 13bb 1a45 3ebe 5f95 6cbe 5484 783d
000002e0: 5905 403e f19d a53e 0876 db3d e1ea 89bd
000002f0: de76 9bbd 3295 78be 23a1 f93d 2508 18be
00000300: 6c2a b83c a0d8 eb3d 39cc 5f3e 38f5 c8be
00000310: ae49 db3e fa25 7cbe 677f a6be fd1f 203e
00000320: fd8e 71be 8e84 8abc 5b3b 4c3e 62d9 383e
00000330: 84b6 383e 355d 413e ddec aebc 1261 7ebe
00000340: 26c8 94bd 99e2 16be fa64 2b3e ce65 7abe
00000350: e971 9e3e 563d 45bd c338 9dbe 2240 423e
00000360: c033 85bd 1f40 bd3e 701f f6bd f901 b43e
00000370: 6d03 32be 5edc 90be 048c 28be ce7b 2a3d
00000380: 1ef1 393e 7dbb b3bd 5554 b6bd e79d 083e
00000390: b8c6 d2bb 6fe9 adbd 7e24 403e 60ce b03d
000003a0: 113f 1b3a 621a 67be 7942 3abd 380b 7d3e
000003b0: 8842 383d 164b ac3d 64a8 b73d 113b d0bc
000003c0: 2c6b 9c3b 4be5 b1bd 3030 1ebe c13e 403e
000003d0: a634 29be 72e5 fb3a 6c81 22bd d672 dcbd
000003e0: 3d69 2c3e e92b 0dbe 3cf0 cabc 7bcf b33c
000003f0: e2d7 983d 12d3 013e e66b 143e f2e8 34bd

bias_ih_l0 f4 [128]
0.055933982 -0.022212131 0.15586399 0.13565582 0.13576017 0.20145603 0.3537984 -0.100191526
0.06601851 0.15702857 -0.043348454 -0.08736518 0.117348656 0.26461825 -0.14355934 0.10487721
0.018380657 0.1944086 0.22190966 0.036340028 0.2490026 -0.06580626 -0.007655146 -0.05967127
0.0549253 0.06171256 0.098873295 0.20043361 0.16083741 0.261805 0.2970867 0.18842371
0.29688066 -0.017520618 -0.07358556 -0.07513153 0.10721598 0.18215026 0.162585 0.1760709
0.24881205 0.29242742 0.10447095 0.23121475 -0.006931329 0.24706021 0.05472208 -0.0017484237
-0.07330795 0.28920427 0.1753521 0.3308137 0.22963272 0.1274017 0.12917303 0.013168376
0.13130432 0.15074943 0.14152062 0.37349638 -0.054091524 0.21897627 0.06845414 0.035063528
-0.060201645 0.061433583 0.10418178 -0.15506871 -0.013406902 0.121457145 0.12459363 0.10875007
0.14645912 -0.13685393 0.09560029 0.06671726 0.022609463 0.033651967 0.09432482 -0.09096302
-0.14566644 -0.08740294 0.14444084 -0.08476966 0.02593045 -0.16408157 -0.10216907 0.15633391
-0.120588034 -0.0565242 0.15156071 0.030789144 0.009129641 -0.07391751 -0.069496594 0.10600643
0.000437546 0.21244943 0.20912881 0.20626749 0.24403374 0.2956471 0.4027037 -0.01019259
0.048306342 0.25448173 0.09118907 -0.017517826 -0.07189929 0.28693348 0.046971805 0.12343864
0.058853302 -0.051166207 0.140026 0.21402794 0.06497546 0.11561423 0.12009979 -0.130853
0.2544793 0.16584711 0.25914237 0.15458864 -0.059494477 0.14650807 0.2464032 0.057340074
00000000: 081b 653d 37f6 b5bc cf9a 1f3e 5ce9 0a3e
00000010: b704 0b3e 7d4a 4e3e 1025 b53e 3731 cdbd
00000020: b634 873d 19cc 203e 268e 31bd 84ec b2bd
00000030: 7e54 f03d 0b7c 873e 3801 13be ddc9 d63d
00000040: 0893 963c 0c13 473e 493c 633e 48d9 143d
00000050: 8afa 7e3e 6fc5 86bd 05d8 fabb dd69 74bd
00000060: 5af9 603d 4fc6 7c3d 157e ca3d 783e 4d3e
00000070: 90b2 243e 4e0b 863e bf1b 983e 25f2 403e
00000080: be00 983e 6687 8fbc 07b4 96bd 8fde 99bd
00000090: 0d94 db3d 9985 3a3e af7c 263e ee4b 343e
000000a0: 96c8 7e3e 0cb9 953e def4 d53d 8fc3 6c3e
000000b0: 3420 e3bb 5afd 7c3e 4224 603d 5d2b e5ba
000000c0: 7a22 96bd 9512 943e 808f 333e 6a60 a93e
000000d0: d724 6b3e 9775 023e ef45 043e 2cc0 573c
000000e0: a474 063e 0f5e 1a3e c8ea 103e eb3a bf3e
000000f0: 138f 5dbd 513b 603e af31 8c3d c69e 0f3d
00000100: 0096 76bd c8a1 7b3d 425d d53d 55ca 1ebe
00000110: 9fa8 5bbc 86be f83d f22a ff3d 5bb8 de3d
00000120: 61f9 153e 7023 0cbe 16ca c33d 0fa3 883d
00000130: 7b37 b93c a5d6 093d 5f2d c13d d24a babd
00000140: 9529 15be 5000 b3bd 4de8 133e b79b adbd
00000150: 186c d43c 0005 28be 043e d1bd ff15 203e
00000160: dcf6 f6bd eb85 67bd bb32 1b3e 8439 fc3c
00000170: 7d94 153c 1062 97bd 3b54 8ebd e619 d93d
00000180: 6e66 e539 588c 593e dd25 563e c937 533e
00000190: fbe3 793e 0f5f 973e 2e2f ce3e d2fe 26bc
000001a0: dfdc 453d 6e4b 823e 56c1 ba3d 8b81 8fbc
000001b0: ef3f 93bd f2e8 923e 8265 403d 66cd fc3d
000001c0: 2910 713d a893 51bd fa62 0f3e 242a 5b3e
000001d0: db11 853d 27c7 ec3d e1f6 f53d 54fe 05be
000001e0: 1c4b 823e d3d3 293e 4fae 843e 7c4c 1e3e
000001f0: 7bb0 73bd 3606 163e 1f51 7c3e 6ddd 6a3d

bias_hh_l0 f4 [128]
0.2849731 0.23727624 0.086051896 -0.033275172 0.22979449 0.28913718 0.10718002 0.0038930457
0.14469546 0.22915955 0.16170852 0.12138899 0.11789018 0.2739037 0.085724846 0.15595214
-0.03266619 0.11528575 0.1316677 -0.008621503 0.25406736 0.043628268 0.2867295 -0.13314785
-0.052072395 -0.021445658 0.06311512 0.10425838 0.18667975 0.28601372 0.15627162 0.21739477
0.1626727 0.20349315 0.050339162 0.029276116 0.11762808 0.015284266 0.039478436 -0.113899544
-0.012831613 0.1137317 0.023139346 0.1254599 0.13761322 0.26015252 -0.10172194 -0.075673975
-0.005841668 0.029107533 0.030348873 0.14362977 0.22203937 0.050523054 0.2740101 -0.13440572
0.15573932 0.19565354 0.05224682 0.15454128 0.14435735 0.02670343 -0.05108245 0.21201576
0.119086675 0.07937583 -0.08453068 -0.12189038 0.060089357 -0.07980509 -0.079605535 0.10808026
-0.114270896 0.08580522 0.020521518 0.1740458 -0.016259165 0.106533945 0.0714257 0.015808934
-0.056766216 0.083772965 -0.13876228 0.013278958 0.07289639 -0.122393146 0.029415432 0.09200674
-0.05643437 0.16601247 -0.05263835 0.04692578 -0.1395945 -0.11257422 0.15553096 -0.07355873
0.264821 0.1884215 0.10853413 -0.060049772 0.0708532 0.30884293 0.32779187 0.06353232
0.091379695 0.26720673 0.036419082 0.003253117 -0.0640181 0.14609158 0.112715274 0.22552001
0.20694618 0.0072192485 -0.081927136 0.19931805 0.047808066 -0.074517176 0.2409632 0.15592615
0.12941465 0.29168057 0.047476836 0.33998746 0.21602206 0.21369925 0.17122452 0.12205008
00000000: ffe7 913e 8bf8 723e fa3b b03d 8c4b 08bd
00000010: 3f4f 6b3e ca09 943e 3381 db3d 7822 7f3b
00000020: 0c2b 143e cda8 6a3e eb96 253e ca9a f83d
00000030: 6870 f13d 1b3d 8c3e 8290 af3d ebb1 1f3e
00000040: fccc 05bd ef1a ec3d e6d3 063e 3441 0dbc
00000050: 1e15 823e 8eb3 323d 36ce 923e e957 08be
00000060: dd49 55bd ceae afbc 8042 813d 6b85 d53d
00000070: fa28 3f3e 6470 923e ab05 203e bc9c 5e3e
00000080: ac93 263e 8260 503e 7030 4e3d 77d4 ef3c
00000090: fee6 f03d dc6a 7a3c 24b4 213d 2a44 e9bd
000000a0: b03b 52bc 2aec e83d ba8e bd3c 8f78 003e
000000b0: 7bea 0c3e b632 853e 9853 d0bd f5fa 9abd
000000c0: 776b bfbb ec72 ee3c 339e f83c af13 133e
000000d0: 4a5e 633e 43f1 4e3d 0d4b 8c3e a7a1 09be
000000e0: 217a 1f3e 6759 483e c300 563d 1240 1e3e
000000f0: 6ad2 133e 27c1 da3c d53b 51bd a91a 593e
00000100: b7e3 f33d cc8f a23d 6c1e adbd aaa1 f9bd
00000110: 4220 763d da70 a3bd 3a08 a3bd 2f59 dd3d
00000120: dc06 eabd a6ba af3d be1c a83c 1039 323e
00000130: f131 85bc 782e da3d a347 923d bd81 813c
00000140: b183 68bd 2991 ab3d b317 0ebe fd8f 593c
00000150: b44a 953d 42a9 fabd a2f8 f03c 086e bc3d
00000160: ba27 67bd 2cff 293e 4f9b 57bd 3f35 403d
00000170: dcf1 0ebe 508d e6bd 8243 1f3e f6a5 96bd
00000180: 9e96 873e 91f1 403e 2447 de3d c0f6 75bd
00000190: 7c1b 913d a920 9e3e 56d4 a73e 3c1d 823d
000001a0: 4725 bb3d 52cf 883e 2d2c 153d 3f32 553b
000001b0: ec1b 83bd 0899 153e 44d7 e63d b8ee 663e
000001c0: b3e9 533e 728f ec3b 6ac9 a7bd 081a 4c3e
000001d0: 64d2 433d 769c 98bd 0fbf 763e 1bab 1f3e
000001e0: 4685 043e 2857 953e 1277 423d d612 ae3e
000001f0: e334 5d3e fad3 5a3e 7b55 2f3e 64f5 f93d

weight_ih_l0_reverse f4 [128, 2]
-0.13670325 -0.32691443 0.06486304 -0.2993482 -0.34350678 -0.20009278 0.100944884 -0.13034587
-0.13919933 -0.043061677 -0.21188705 -0.6556499 -0.058696788 0.0047185672 -0.060318965 -0.06426263
0.041299615 -0.2745066 0.05852267 0.24235186 -0.172066 -0.43092072 0.2576617 -0.6395039
-0.27797353 -0.3457035 -0.09228851 -0.623922 0.03872818 0.8792502 -0.0050691264 -0.2146131
-0.21039474 -0.17766865 -0.13147844 -0.3856081 -0.2090992 -0.08250745 -0.008559001 -0.3216764
-0.25172865 0.25467455 -0.06831718 0.20400482 -0.23065116 0.48060477 0.20551428 -0.18059048
-0.27766538 0.20283163 -0.17513974 -0.37544736 0.07314597 0.24536149 -0.08418179 -0.35795122
0.021476185 0.09993467 0.14674993 -0.09457842 0.25838444 -0.46759304 0.077449866 -0.27189097
-0.26587707 -0.21099415 0.10279186 -0.5789483 -0.28314358 -0.20522201 -0.019565113 -0.13320377
-0.16180286 0.044305015 0.106967025 -0.50272435 -0.14509565 0.1362015 -0.00017684874 0.1718942
0.17712149 -0.22229145 0.18317159 0.024816737 0.19633338 -0.85143596 0.22125322 -0.7768151
-0.24930902 -0.39777362 0.068524145 -0.77083427 0.16374606 0.6516946 -0.011399928 -0.24072811
-0.15257311 -0.2495267 -0.138637 -0.3842762 -0.16031463 -0.016618825 -0.058343228 -0.4546448
-0.030432208 0.3285554 0.020809239 0.06413363 0.02121375 0.16237819 -0.106662944 -0.25840977
-0.24622764 -0.09040367 0.0076728584 -0.63485366 0.10066496 0.23803082 0.13681155 -0.727583
-0.060973052 0.29218125 0.3437698 -0.13241476 0.33631048 -0.30371577 0.20150614 -0.40248853
-0.22612785 -0.32046214 0.2504442 0.4027849 -0.012927145 -0.09282979 -0.062029313 -0.46291453
0.11951558 0.39267525 0.27415562 0.16424593 -0.007815515 0.022327246 -0.22677669 0.18017988
0.06465491 -0.67242545 -0.21884865 0.57419854 0.133262 0.04097615 0.2489886 0.41279617
0.24196571 0.21773136 0.24556616 0.23726302 -0.13389988 0.17976108 -0.051218484 0.016253233
0.060062647 0.34839153 0.1316442 0.40595827 0.22286469 -0.3210491 -0.28824297 -0.09921264
-0.041851252 0.21547104 0.20166549 -0.33564708 -0.09040527 -0.091126926 0.16550866 0.4507359
-0.115507804 -0.3502568 0.08564157 0.27413642 -0.070287034 -0.33112165 0.028378991 -0.31305262
-0.19359933 -0.09981441 0.3402723 0.16770625 0.25872052 -0.22306974 -0.05598382 0.09626157
0.11050483 -0.27873874 0.0631745 -0.47141886 -0.3180498 -0.39421862 -0.28883883 -0.21104138
-0.28133962 -0.012243095 -0.20356478 -0.7609151 -0.21765848 -0.0812783 0.055272724 -0.1962861
-0.15326163 0.05500776 0.06003268 -0.15795594 0.08075196 -0.26277828 0.24436311 -0.8200467
0.04567059 -0.59398454 -0.037717868 -0.24276239 0.061088063 0.4275193 -0.118949525 0.0901415
0.026506303 -0.08280825 -0.10663153 -0.38890198 -0.13477598 -0.779985 -0.13823766 -0.3825355
-0.09217985 -0.07539348 -0.109416395 0.507246 -0.15575406 0.30349633 -0.12494231 -0.30683705
-0.26370114 -0.08468964 0.10601711 -0.55684555 -0.19923773 0.4055441 0.0662425 0.09122254
0.22614147 -0.0325309 0.1269222 -0.21972218 0.051080298 0.16477361 0.055811513 -0.182524
00000000: f0fb 0bbe 5461 a7be ead6 843d 2b44 99be
00000010: 1fe0 afbe 1fe5 4cbe 31bc ce3d 6379 05be
00000020: 458a 0ebe 7161 30bd ebf8 58be acd8 27bf
00000030: 0b6c 70bd 369e 9a3b 0511 77bd 209c 83bd
00000040: c929 293d 218c 8cbe 78b5 6f3d 162b 783e
00000050: 1232 30be a4a1 dcbe 3cec 833e 87b6 23bf
00000060: 8c52 8ebe 0d00 b1be c201 bdbd 5ab9 1fbf
00000070: 71a1 1e3d 8b16 613f ea1a a6bb 89c3 5bbe
00000080: b871 57be c5ee 35be 49a2 06be 6d6e c5be
00000090: 1a1e 56be aaf9 a8bd 0d3b 0cbc c5b2 a4be
000000a0: 94e2 80be b464 823e e1e9 8bbd a4e6 503e
000000b0: d12f 6cbe d411 f63e 5672 523e b6ec 38be
000000c0: 282a 8ebe 18b3 4f3e d557 33be a33a c0be
000000d0: 8ecd 953d 0b40 7b3e 8167 acbd 6245 b7be
000000e0: d3ee af3c 8caa cc3d 9d45 163e 55b2 c1bd
000000f0: f74a 843e 5b68 efbe 099e 9e3d 4b35 8bbe
00000100: 0a21 88be da0e 58be 8a84 d23d f535 14bf
00000110: 32f8 90be b825 52be 0447 a0bc 9266 08be
00000120: a6af 25be 2d79 353d 8711 db3d 8bb2 00bf
00000130: f493 14be 6878 0b3e 7970 39b9 0805 303e
00000140: 565f 353e 5fa0 63be 5591 3b3e 784c cb3c
00000150: 9e0b 493e b5f7 59bf 3490 623e 5bdd 46bf
00000160: dd4a 7fbe fca8 cbbe 6356 8c3d 6555 45bf
00000170: 0cad 273e 75d5 263f c3c6 3abc 6e81 76be
00000180: 203c 1cbe ed83 7fbe dcf6 0dbe dabf c4be
00000190: 8529 24be 3424 88bc 4ff9 6ebd 34c7 e8be
000001a0: f74c f9bc 6a38 a83e 2378 aa3c 7e58 833d
000001b0: 75c8 ad3c 7846 263e 1a72 dabd 494e 84be
000001c0: 1923 7cbe 8f25 b9bd 9a6c fb3b c585 22bf
000001d0: 6e29 ce3d 5abe 733e 5418 0c3e e142 3abf
000001e0: e1be 79bd c898 953e 9802 b03e bc97 07be
000001f0: e330 ac3e a280 9bbe a057 4e3e fa12 cebe
00000200: 0f8e 67be 9d13 a4be 393a 803e d339 ce3e
00000210: 60cc 53bc 8c1d bebd 7312 7ebd 2203 edbe
00000220: 96c4 f43d bb0c c93e 205e 8c3e 1630 283e
00000230: a50c 00bc a1e7 b63c 2638 68be 1381 383e
00000240: cb69 843d 1324 2cbf dc19 60be adfe 123f
00000250: d575 083e 9cd6 273d def6 7e3e 055a d33e
00000260: dcc5 773e f8f4 5e3e b275 7b3e 14f5 723e
00000270: 0d1d 09be 4a13 383e 79ca 51bd 8025 853c
00000280: 4004 763d 6060 b23e bdcd 063e c3d9 cf3e
00000290: a436 643e 8c60 a4be 9594 93be ff2f cbbd
000002a0: 386c 2bbd 71a4 5c3e 6681 4e3e efd9 abbe
000002b0: 6626 b9bd c1a0 babd 1a7b 293e dbc6 e63e
000002c0: 5b8f ecbd dc54 b3be d964 af3d 9c5b 8c3e
000002d0: a6f2 8fbd c788 a9be 0f7b e83c 6f48 a0be
000002e0: e73e 46be 7f6b ccbd 2c38 ae3e 30bb 2b3e
000002f0: 0477 843e 656c 64be 4a4f 65bd c924 c53d
00000300: 5b50 e23d d8b6 8ebe a261 813d d05d f1be
00000310: 6cd7 a2be 06d7 c9be afe2 93be 3b1b 58be
00000320: bf0b 90be 4397 48bc 4973 50be 55cb 42bf
00000330: dde1 5ebe 3d75 a6bd a765 623d 39ff 48be
00000340: 9ef0 1cbe d14f 613d d4e4 753d 34bf 21be
00000350: 4961 a53d e08a 86be 533a 7a3e 95ee 51bf
00000360: 1611 3b3d 5f0f 18bf 0d7e 1abd b496 78be
00000370: 7a37 7a3d cfe3 da3e cf9b f3bd 1b9c b83d
00000380: bf23 d93c 5f97 a9bd a261 dabd 291e c7be
00000390: b702 0abe 19ad 47bf 2c8e 0dbe b1db c3be
000003a0: cac8 bcbd e667 9abd b415 e0bd e0da 013f
000003b0: fe7d 1fbe df63 9b3e c1e1 ffbd bf19 9dbe
000003c0: d603 87be c371 adbd 801f d93d 6e8d 0ebf
000003d0: fa04 4cbe 7aa3 cf3e 26aa 873d e2d2 ba3d
000003e0: a191 673e 1f3f 05bd e5f7 013e dafe 60be
000003f0: 9339 513d 6aba 283e 9d9a 643d 92e7 3abe

weight_hh_l0_reverse f4 [128, 32]
0.04595221 0.021808157 0.03703198 0.062482182 0.08511005 0.030487517 -0.10992782 0.028785335
-0.0439284 0.11456349 -0.05455832 -0.18496905 -0.16525188 0.005507099 -0.14225644 0.0066174828
0.04114703 0.063064024 -0.025608342 -0.02372854 -0.09599126 0.16793792 0.003278251 -0.07781716
-0.19042364 0.092861176 -0.25947645 -0.11813001 0.030762883 0.08548144 -0.10164222 -0.038273986
0.015370385 0.08397077 0.043194074 0.2794765 -0.15596503 -0.11487505 0.03663838 -0.16510433
0.098669425 0.006043619 -0.010564715 -0.16447581 -0.06733406 -0.13971919 0.006664251 0.08734992
-0.26247305 -0.14719757 0.08314919 -0.049441706 -0.14398453 0.15321182 -0.09969925 -0.13595581
-0.047712207 -0.11502397 -0.16455716 -0.0034275516 -0.039924223 -0.04635964 0.14565538 0.005128738
0.12719746 -0.20058626 -0.085483976 -0.097002104 0.14805533 0.08101847 -0.005219927 -0.18040156
-0.09115343 0.08895987 -0.027578093 0.10752056 0.053851254 -0.07410379 0.064627014 0.024034353
-0.11994065 -0.03660259 -0.11582871 0.025370212 -0.08422136 -0.045064818 -0.010336052 -0.22643122
-0.22487909 0.2046046 -0.10906629 -0.046276484 0.060373537 0.120254315 -0.043408014 -0.32058308
-0.022193842 -0.078804135 -0.16355261 -0.05478971 -0.047398586 0.0022438644 0.07798689 -0.04988495
-0.15997173 -0.030214418 -0.00082944793 0.28176224 0.06884728 0.030490821 0.10113044 0.22587062
0.06617967 0.16587707 -0.07945972 -0.12045521 -0.11689389 0.20493323 -0.39791766 0.121664956
-0.213095 0.112522565 -0.22840196 -0.021309627 -0.1131413 0.06380094 0.11965445 -0.18038394
0.21804814 -0.16224302 -0.12710628 0.119497955 -0.21843001 -0.013563694 0.050063454 -0.21055683
0.053622004 -0.10753865 -0.06550865 0.04451721 -0.19834994 0.059581935 0.016744 0.12178833
-0.043803018 0.016935589 0.051055916 -0.06283691 -0.10869077 0.13920455 -0.24316631 0.09508553
-0.19218221 0.15096518 -0.2896339 0.2239865 -0.09656415 0.19072299 0.0122590205 -0.27873072
0.07699235 -0.17015979 0.12973382 0.04586115 0.0920511 0.10767536 -0.21571304 -0.18794961
-0.09415264 -0.14083678 0.02171996 -0.2208997 -0.24610849 0.044747837 -0.04983759 0.010514442
-0.02640117 -0.25014824 -0.22334757 -0.09903401 0.025294749 0.10789062 -0.235739 0.027766151
0.05584572 -0.14712176 -0.15235364 -0.027546551 -0.20844057 0.04540558 0.20063262 -0.15856498
0.27485886 0.036126908 0.11089169 -0.108401045 -0.06324525 -0.25689673 -0.010596534 -0.06268406
-0.0800677 -0.084276244 -0.015560637 0.21943614 -0.15962407 -0.078117214 -0.11367379 0.078461595
-0.09914813 0.019813288 -0.0867981 0.14348055 -0.04473254 0.23654684 0.09598951 -0.10987215
-0.24664347 0.03886129 -0.014238082 -0.07857098 -0.1025424 -0.21923855 -0.043127686 0.025260339
0.04191422 -0.047617152 0.045793623 -0.33122557 0.38409144 0.14582087 0.0035592502 -0.24000724
-0.24262384 -0.03726112 0.2028421 0.06129476 0.032117818 0.16525611 0.3539083 -0.059180424
0.4441341 0.27573407 -0.13560274 -0.24692631 0.030594539 -0.03378142 -0.029363586 0.2119759
0.10715461 0.3216359 0.07026733 -0.16538003 -0.109367095 0.09454612 0.02025253 -0.065871954
00000000: 6238 3c3d 05a7 b23c d8ae 173d 51ed 7f3d
00000010: 2e4e ae3d f5c0 f93c d621 e1bd 39cf eb3c
00000020: 44ee 33bd 43a0 ea3d 8c78 5fbd 8768 3dbe
00000030: ca37 29be e574 b43b acab 11be 78d7 d83b
00000040: ca89 283d b627 813d 96c8 d1bc 5b62 c2bc
00000050: 1197 c4bd ebf7 2b3e edd7 563b 9a5e 9fbd
00000060: 6afe 42be 002e be3d 19da 84be 26ee f1bd
00000070: 7102 fc3c e510 af3d cc29 d0bd 2fc5 1cbd
00000080: 11d4 7b3c def8 ab3d 45ec 303d 8b17 8f3e
00000090: 4cb5 1fbe 9c43 ebbd 2012 163d 1c11 29be
000000a0: 3213 ca3d 8d09 c63b a017 2dbc 596c 28be
000000b0: 71e6 89bd 8c12 0fbe ca5f da3b 84e4 b23d
000000c0: de62 86be f6ba 16be 1f4a aa3d 6383 4abd
000000d0: ae70 13be 8fe3 1c3e 1f2f ccbd 0038 0bbe
000000e0: e06d 43bd b091 ebbd ac81 28be c6a0 60bb
000000f0: 9587 23bd 9be3 3dbd af26 153e f90e a83b
00000100: 0d40 023e 7c66 4dbe 3912 afbd 0aa9 c6bd
00000110: d19b 173e 03ed a53d ec0b abbb 30bb 38be
00000120: a6ae babd 9830 b63d 74eb e1bc bd33 dc3d
00000130: 2293 5c3d bac3 97bd 2b5b 843d b1e3 c43c
00000140: 72a3 f5bd 99ec 15bd 9a37 edbd 31d5 cf3c
00000150: 407c acbd e395 38bd 8b58 29bc 96dd 67be
00000160: b446 66be de83 513e 265e dfbd 698c 3dbd
00000170: 3e4a 773d e547 f63d 9acc 31bd 7723 a4be
00000180: dccf b5bc 1064 a1bd 567a 27be 2d6b 60bd
00000190: 0525 42bd cc0d 133b 97b7 9f3d 2954 4cbd
000001a0: a1cf 23be 3a84 f7bc 4f6f 59ba 2443 903e
000001b0: ceff 8c3d e3c7 f93c 7a1d cf3d a14a 673e
000001c0: 3589 873d aedb 293e c7bb a2bd 39b1 f6bd
000001d0: 1066 efbd 04da 513e ddbb cbbe 7a2b f93d
000001e0: 9335 5abe 3b72 e63d 34e2 69be 8791 aebc
000001f0: a0b6 e7bd 11aa 823d 640d f53d 91b6 38be
00000200: 0348 5f3e 0923 26be 2628 02be 58bb f43d
00000210: 1eac 5fbe 423a 5ebc 560f 4d3d 369c 57be
00000220: bfa2 5b3d 393d dcbd 6629 86bd ae57 363d
00000230: 3f1c 4bbe 300c 743d b72a 893c 296c f93d
00000240: cb6a 33bd 81bc 8a3c 0220 513d a3b0 80bd
00000250: 4499 debd a38b 0e3e 9700 79be 34bc c23d
00000260: 6acb 44be 9e96 1a3e e54a 94be b85c 653e
00000270: 6dc3 c5bd e34c 433e 0fda 483c cbb5 8ebe
00000280: 2aae 9d3d 5e3e 2ebe f1d8 043e e7d8 3b3d
00000290: 4a85 bc3d e684 dc3d e1e3 5cbe dd75 40be
000002a0: 19d3 c0bd 8437 10be 0fee b13c 8833 62be
000002b0: dd03 7cbe 8249 373d 8022 4cbd c444 2c3c
000002c0: 4447 d8bc 6e13 80be 3ab5 64be 58d2 cabd
000002d0: ef36 cf3c c2f5 dc3d 9065 71be d775 e33c
000002e0: 7bbe 643d 16a7 16be 9802 1cbe 4ea9 e1bc
000002f0: 7271 55be 34fb 393d a372 4d3e dc5e 22be
00000300: 4dba 8c3e cff9 133d 2f1b e33d 5e01 debd
00000310: ba86 81bd f887 83be 169d 2dbc 8060 80bd
00000320: 89fa a3bd 0699 acbd 0bf2 7ebc deb3 603e
00000330: 7e74 23be ebfb 9fbd cecd e8bd 79b0 a03d
00000340: 2d0e cbbd 7a4f a23c 34c3 b1bd 91ec 123e
00000350: 7839 37bd 5639 723e 2696 c43d a604 e1bd
00000360: 1b90 7cbe 042d 1f3d d846 69bc d2e9 a0bd
00000370: c001 d2bd 1280 60be a8a6 30bd c5ee ce3c
00000380: 3fae 2b3d 340a 43bd 1892 3b3d 6696 a9be
00000390: a2a7 c43e 1152 153e 4f42 693b 75c4 75be
000003a0: 6272 78be 1e9f 18bd d7b5 4f3e 3710 7b3d
000003b0: f98d 033d e638 293e 7833 b53e 2c67 72bd
000003c0: 8b65 e33e 042d 8d3e 72db 0abe 40da 7cbe
000003d0: 66a1 fa3c 635e 0abd e78b f0bc 3610 593e
000003e0: e073 db3d 76ad a43e 51e8 8f3d 6259 29be
000003f0: dbfb dfbd 65a1 c13d a2e8 a53c e0e7 86bd
