experiments/pedestrians/models/zara1_vel/model_registrar-100.pt (torch_old, 545346 bytes, 43 tensors)

weight_ih_l0 f4 [128, 6]
0.05383573 0.061269473 -0.073826164 -0.07755826 -0.23322165 0.10002363 -0.17088625 -0.19506711
-0.19245875 0.13034068 -0.083186 -0.070929185 0.11169801 -0.06332082 -0.068696395 -0.093722075
-0.5155208 -0.2361214 0.13759948 0.03286918 -0.07790588 -0.030434398 -0.19855106 0.4147437
0.060662426 0.00967036 -0.2511554 -0.026594987 0.3797018 -2.2396543 -0.040561896 0.34577304
0.50859284 -0.39487505 0.079890974 -0.32383287 -0.25121984 0.10919778 0.019600654 -0.20123392
-0.092763595 -0.18632108 -0.30258378 0.17114706 0.32588953 -0.0037781599 0.021793814 -0.022775177
0.3319084 -0.13133737 0.2482757 -0.1912854 0.73095495 -0.038424913 -0.41711128 -0.54377156
0.50560284 0.52862024 0.33827254 0.40914166 0.33374768 -0.40019292 -0.7643167 0.66408205
0.18492074 0.2717364 -0.33807853 -0.17353162 -0.12870312 0.051392242 0.03794722 0.06569284
0.037112076 -0.22074695 -0.1286197 0.1620491 1.923793 -0.4879606 -0.07460434 0.021398112
0.41756713 0.43252385 0.36705914 1.1327187 -0.24950051 0.0648843 -0.56838465 0.13264929
-0.2361738 -0.05981053 -0.27799094 0.23425613 0.26709935 0.088704675 0.020332295 0.12394262
0.12352592 -0.0056097056 -0.36113346 0.4927367 -0.023397341 -0.8716316 0.19402869 -0.19939524
0.08250891 0.010776695 -0.39504322 0.008256125 0.03764323 -0.004521498 0.10388032 0.35807088
-0.08784238 0.22038533 -0.1308078 -0.19804649 -0.012426896 0.19557858 -0.19986573 -0.04057951
-0.25434586 0.27323872 0.18794556 -0.44556677 0.13739756 -0.0055586305 0.4670755 0.6179088
-0.41162845 -0.67246205 0.16903776 0.2211416 0.0327439 -0.09082702 0.053440064 -0.038681418
0.06433804 0.07463484 -0.0546368 0.024219949 0.15496549 -0.20616882 0.2033428 -0.25440964
0.046556786 -0.085862905 -0.16986069 0.0071302154 -0.78141284 0.030336635 -0.14894392 -0.055736706
0.05616678 0.12872368 0.120610386 0.14097849 -0.15661679 -0.04118512 -0.28698552 -0.33429614
-0.2536708 0.580006 -0.020399952 0.1593344 0.48522687 0.5053015 0.12677631 0.55430555
-0.08768353 0.24454384 -0.42696482 0.09211211 0.020211775 0.10198435 -0.3753175 0.044611827
-0.0064921984 -0.25204316 0.2566953 0.28364265 0.04959301 0.03648443 0.06541989 0.045652974
-0.2050129 -0.12995838 0.047859754 0.02580212 -0.1212022 0.18386468 -0.18792675 0.11345629
0.28639504 0.18163812 -0.16839746 -0.22185671 -0.13233985 -0.07797126 0.0066296654 -0.023640918
0.0172508 -0.0571117 0.13251182 -0.044097837 -0.3021164 -0.06081962 -0.020028515 0.008258393
0.024313299 -0.041442513 -0.06283569 0.034884788 0.21578147 -0.05593754 0.088032514 -0.1494213
0.26450586 -0.054525413 0.124677144 -0.039467763 -0.35271525 0.05477549 0.26965252 0.10378774
0.22741775 -0.40953624 -0.34304956 -0.16846421 -0.07926217 0.21085323 0.1906304 -0.3440002
0.007761555 -0.0077488003 -0.058550436 -0.049154907 0.29513574 -0.16601968 -0.0024891177 -0.068417855
0.28108606 -0.06873123 0.20671496 -0.3249354 -0.5073142 0.22561304 -0.0059905667 -0.1286609
0.20981443 0.26678264 0.23362064 0.099355526 0.11886488 -0.34851894 -0.40446457 0.42928472
00000000: db82 5c3d b3f5 7a3d 2c32 97bd ddd6 9ebd
00000010: a8d1 6ebe 30d9 cc3d cefc 2ebe acbf 47be
00000020: e813 45be 0778 053e 6c5d aabd 5243 91bd
00000030: edc1 e43d 59ae 81bd b2b0 8cbd 5cf1 bfbd
00000040: 2cf9 03bf cfc9 71be e1e6 0c3e d5a1 063d
00000050: 1e8d 9fbd 8f51 f9bc f850 4bbe 4959 d43e
00000060: 2a79 783d 6e70 1e3c 7197 80be bbdd d9bc
00000070: 4668 c23e 7f56 0fc0 3b24 26bd 2a09 b13e
00000080: 2433 023f 102d cabe e19d a33d 6ccd a5be
00000090: e39f 80be 16a3 df3d 8d91 a03c 4410 4ebe
000000a0: d7fa bdbd f4ca 3ebe 43ec 9abe 2d41 2f3e
000000b0: feda a63e 019b 77bb f188 b23c 0293 babc
000000c0: e6ef a93e 4e7d 06be fc3b 7e3e 52e0 43be
000000d0: dd1f 3b3f 7163 1dbd 9c8f d5be 9d34 0bbf
000000e0: 306f 013f a853 073f 0f32 ad3e 047b d13e
000000f0: fae0 aa3e 16e6 ccbe 42aa 43bf 4801 2a3f
00000100: dd5b 3d3e 0921 8b3e a118 adbe 46b2 31be
00000110: c0ca 03be ac80 523d 8b6e 1b3d f889 863d
00000120: d502 183d 7d0b 62be e2b4 03be 33f0 253e
00000130: d93e f63f f9d5 f9be 29ca 98bd 184b af3c
00000140: 5ccb d53e c473 dd3e 2def bb3e edfc 903f
00000150: 107d 7fbe 0fe2 843d a881 11bf 37d5 073e
00000160: 8bd7 71be e3fb 74bd d454 8ebe d7e0 6f3e
00000170: 3fc1 883e ccaa b53d ea8f a63c a1d5 fd3d
00000180: 28fb fc3d 9fd1 b7bb 7ce6 b8be fc47 fc3e
00000190: c8ab bfbc 4023 5fbf 75af 463e 442e 4cbe
000001a0: 6efa a83d bc90 303c 1b43 cabe b344 073c
000001b0: ca2f 1a3d 1329 94bb 35bf d43d 1155 b73e
000001c0: b5e6 b3bd b1ac 613e 7bf2 05be b3cc 4abe
000001d0: 2e9a 4bbc c045 483e 9aa9 4cbe b336 26bd
000001e0: 9f39 82be f2e5 8b3e cd74 403e 5421 e4be
000001f0: f2b1 0c3e 2c25 b6bb 8524 ef3e 452f 1e3f
00000200: f7c0 d2be 7926 2cbf 3c18 2d3e f272 623e
00000210: 781e 063d 8403 babd f8e3 5a3d 6870 1ebd
00000220: aac3 833d 27da 983d d6ca 5fbd ea68 c63c
00000230: 46af 1e3e eb1d 53be 1839 503e fb41 82be
00000240: 54b2 3e3d e4d8 afbd f6ef 2dbe 95a4 e93b
00000250: ac0a 48bf 8984 f83c c184 18be 2c4c 64bd
00000260: 230f 663d 24d0 033e 9402 f73d aa5c 103e
00000270: 2760 20be bab1 28bd c4ef 92be dd28 abbe
00000280: 24e1 81be 467b 143f cd1d a7bc 8f28 233e
00000290: a86f f83e 705b 013f a6d1 013e f8e6 0d3f
000002a0: 6c93 b3bd b369 7a3e 229b dabe 46a5 bc3d
000002b0: 2a93 a53c 2cdd d03d 9e29 c0be e4ba 363d
000002c0: 82bc d4bb cd0b 81be 916d 833e 9c39 913e
000002d0: 0a22 4b3d b370 153d ddfa 853d 9dfe 3a3d
000002e0: e7ee 51be cf13 05be 9708 443d f85e d33c
000002f0: dc38 f8bd 0647 3c3e df6f 40be c55b e83d
00000300: 5fa2 923e 58ff 393e 6270 2cbe 682e 63be
00000310: 1984 07be 65af 9fbd aa3d d93b 99aa c1bc
00000320: 8d51 8d3c f5ed 69bd 2eb1 073e ef9f 34bd
00000330: 00af 9abe fe1d 79bd d712 a4bc 364e 073c
00000340: af2c c73c a0bf 29bd 00b0 80bd 5ae3 0e3d
00000350: d1f5 5c3e c31e 65bd 644a b43d e601 19be
00000360: 506d 873e 0a56 5fbd bb56 ff3d f3a8 21bd
00000370: 1897 b4be 445c 603d e50f 8a3e ab8e d43d
00000380: 33e0 683e bcae d1be 31a4 afbe e281 2cbe
00000390: 3454 a2bd e9e9 573e 9e34 433e cb20 b0be
000003a0: a454 fe3b a6e9 fdbb 95d2 6fbd a856 49bd
000003b0: 081c 973e 1001 2abe 7720 23bb a91e 8cbd
000003c0: 83ea 8f3e f6c2 8cbd 16ad 533e ef5d a6be
000003d0: 58df 01bf 1b07 673e 844c c4bb afbf 03be
000003e0: 98d9 563e bc97 883e 403a 6f3e e97a cb3d
000003f0: 6e6f f33d 1371 b2be fb15 cfbe 35cb db3e

weight_hh_l0 f4 [128, 32]
0.042182237 -0.13125548 0.24220568 0.08349575 0.040908933 -0.22439077 -0.050439555 -0.4164224
0.13457151 0.40414953 -0.4493167 0.4976572 0.122215174 0.26719725 -0.1620864 -0.3076691
-0.005163721 -0.0811553 0.21665002 -0.4993141 -0.08222146 0.23646893 -0.117773436 -0.3808235
-0.04615668 -0.25292447 -0.01216126 0.15399976 -0.21252623 0.21461777 0.081961095 -0.29946086
0.19237399 -0.5382676 0.00805268 -0.34754354 0.2710184 -0.03173079 0.024890186 -0.25870097
-0.03202896 0.1801246 -0.32430723 0.26833305 -0.33455852 0.31931248 -0.21134928 -0.41994533
-0.21558143 0.10988541 0.1779338 -0.39894497 -0.056899607 0.16853683 -0.38630283 -0.23264006
0.0502587 -0.14333317 -0.26859888 -0.26473057 -0.5460328 -0.1774941 0.42516482 0.012792698
0.046829194 -0.053541776 -0.021753812 0.042673312 0.12757254 0.13131972 -0.39203644 -0.30510813
0.07044452 0.472225 -0.5799497 0.36279833 -0.113135666 -0.003128115 -0.07910883 -0.37908265
0.030581528 -0.1485634 0.19484058 -0.4693336 0.19936833 0.13881542 0.05016388 0.13927998
0.23949842 -0.0091639245 0.2580565 -0.04408553 -0.13996866 0.3726701 -0.07329306 -0.11939419
-0.1420661 0.07740388 0.08285508 0.17138958 0.092894815 -0.119539194 -0.24921535 -0.21900895
0.17717625 0.09204778 -0.570909 0.06273394 -0.5720937 0.09499246 -0.38563454 -0.4125991
-0.35684487 0.107657656 0.31587788 -0.5022229 -0.12325173 0.4772202 -0.025257057 -0.15604143
-0.116912946 -0.30615297 -0.14644434 -0.2548822 -0.46779945 0.25213814 0.23204847 -0.1763409
-0.08661823 0.45009717 0.30549008 0.1903373 0.50298446 -0.26805303 0.706581 -0.5983183
0.18410856 -0.008495502 -0.17822883 0.19058889 -0.3444071 -0.16888061 -0.07287113 -0.48301625
-0.5113757 -0.082580894 0.022020416 -0.3460077 -0.6929527 0.6361914 0.5454455 -0.30631372
0.041576758 -0.32421753 0.177838 -0.5220225 -0.22102559 -0.11094455 -0.3059298 -0.06820946
0.04730652 -0.31089592 0.20979184 -0.024470046 -0.09130188 -0.1689211 0.09777833 -0.38649216
-0.06647794 0.10699231 0.24801761 0.023147509 -0.18329388 0.009005554 -0.13489124 -0.088068046
-0.17355841 0.3241884 -0.108282745 0.041394018 -0.042519636 0.17276514 0.028731458 -0.27113223
-0.049808927 -0.04772126 0.33551398 0.037426904 -0.100625135 -0.11525259 0.1368056 0.20316298
0.15359472 -0.13091934 -0.23491937 -0.039891273 0.31932423 -0.14649576 -0.20092912 -0.2972197
-0.054294158 -0.035026357 -0.26539963 0.18187602 -0.06528894 0.4516714 -0.20720029 -0.23045707
-0.21487635 -0.18615933 0.3087707 -0.51432335 0.1585127 0.42686707 0.19464456 -0.13996051
-0.35779768 -0.20706992 0.14500658 -0.30467913 -0.53279155 0.08089866 -0.06590923 0.052841447
0.035887096 -0.16481094 -0.016608818 0.004037034 0.084737524 0.12656625 0.020302162 0.20356113
0.1555578 -0.1465904 0.027596707 0.07170016 -0.30999017 -0.04300738 -0.08455381 -0.020380104
-0.114333026 -0.08187659 0.13869533 -0.27634948 -0.16482365 0.22334115 0.13633499 -0.19980855
0.080653675 -0.03677768 -0.059763525 -0.25078014 -0.13936691 0.3418033 -0.059574995 0.13393755
00000000: 48c7 2c3d d667 06be c404 783e d2ff aa3d
00000010: 2090 273d b2c6 65be b599 4ebd 5135 d5be
00000020: 1dcd 093e b0ec ce3e d70c e6be edcc fe3e
00000030: f34b fa3d 14ce 883e faf9 25be ce86 9dbe
00000040: 6e34 a9bb c034 a6bd 81d9 5d3e 19a6 ffbe
00000050: ba63 a8bd e924 723e 3333 f1bd 4cfb c2be
00000060: c90e 3dbd 517f 81be 0540 47bc 1db2 1d3e
00000070: 7aa0 59be c3c4 5b3e 38db a73d ef52 99be
00000080: b0fd 443e e8cb 09bf 63ef 033c 3af1 b1be
00000090: ecc2 8a3e 25f8 01bd 81e6 cb3c 7474 84be
000000a0: cc30 03bd 9572 383e 990b a6be f362 893e
000000b0: 414b abbe ed7c a33e f26b 58be 1303 d7be
000000c0: 61c1 5cbe 9a0b e13d 4734 363e 8442 ccbe
000000d0: 900f 69bd eb94 2c3e 7cc9 c5be 3239 6ebe
000000e0: 11dc 4d3d eec5 12be cb85 89be c48a 87be
000000f0: cec8 0bbf 03c1 35be 34af d93e 7798 513c
00000100: f8cf 3f3d 9f4e 5bbd 0d35 b2bc 36ca 2e3d
00000110: 60a2 023e ad78 063e 00b9 c8be 2237 9cbe
00000120: 3745 903d 7ac7 f13e 9577 14bf b4c0 b93e
00000130: acb3 e7bd 1001 4dbb cf03 a2bd 1f17 c2be
00000140: 1d86 fa3c 0121 18be 4a84 473e 7e4c f0be
00000150: 3627 4c3e a125 0e3e a478 4d3d 699f 0e3e
00000160: 133f 753e 4924 16bc fb1f 843e 0793 34bd
00000170: f253 0fbe 9ece be3e ac1a 96bd f184 f4bd
00000180: c779 11be ed85 9e3d edaf a93d c080 2f3e
00000190: a33f be3d f7d0 f4bd 4f32 7fbe e243 60be
000001a0: b16d 353e 8c83 bc3d 1827 12bf a77a 803d
000001b0: bc74 12bf 688b c23d e471 c5be 3040 d3be
000001c0: 5fb4 b6be 9e7b dc3d bfba a13e ae91 00bf
000001d0: 676b fcbd 3556 f43e e3e7 cebc 53c9 1fbe
000001e0: 0e70 efbd 15c0 9cbe 81f5 15be eb7f 82be
000001f0: 6983 efbe 4018 813e 1d9e 6d3e b592 34be
00000200: e664 b1bd 2373 e63e 3269 9c3e c8e7 423e
00000210: 97c3 003f 3f3e 89be 7ee2 343f 632b 19bf
00000220: f486 3c3e b830 0bbc 9e81 36be bc29 433e
00000230: 2156 b0be 0aef 2cbe 763d 95bd e84d f7be
00000240: 85e9 02bf 2c20 a9bd 2964 b43c ec27 b1be
00000250: 5965 31bf 71dd 223f 51a2 0b3f 27d5 9cbe
00000260: 644c 2a3d d7ff a5be 2a1b 363e 44a3 05bf
00000270: 8854 62be e536 e3bd d5a2 9cbe 67b1 8bbd
00000280: 7bc4 413d c02d 9fbe acd3 563e 6875 c8bc
00000290: 7bfc babd a7f9 2cbe 0140 c83d 4de2 c5be
000002a0: 9625 88bd c91e db3d 54f8 7d3e d89f bd3c
000002b0: 64b1 3bbe 088c 133c ee20 0abe 055d b4bd
000002c0: 4cb9 31be 06fc a53e 58c3 ddbd c68c 293d
000002d0: 1229 2ebd 58e9 303e 3c5e eb3c d8d1 8abe
000002e0: 7204 4cbd 5e77 43bd 7dc8 ab3e f44c 193d
000002f0: 8d14 cebd 8d09 ecbd c416 0c3e f509 503e
00000300: ef47 1d3e b80f 06be b48e 70be 0865 23bd
00000310: 777e a33e fc02 16be 5dc0 4dbe 2e2d 98be
00000320: 8d63 5ebd cc77 0fbd 76e2 87be b53d 3a3e
00000330: 35b6 85bd 7941 e73e 502c 54be f0fc 6bbe
00000340: 8c08 5cbe 8da0 3ebe 3117 9e3e b2aa 03bf
00000350: 2751 223e 528e da3e e750 473e cf51 0fbe
00000360: 4231 b7be 230a 54be 9b7c 143e e7fe 9bbe
00000370: 0765 08bf 32ae a53d 6bfb 86bd 4670 583d
00000380: 59fe 123d 33c4 28be 370f 88bc 1949 843b
00000390: de8a ad3d 959a 013e b850 a63c 5472 503e
000003a0: 8b4a 1f3e cb1b 16be 7d12 e23c 89d7 923d
000003b0: 08b7 9ebe 8228 30bd 8c2a adbd 2df4 a6bc
000003c0: 6f27 eabd eaae a7bd 2606 0e3e ae7d 8dbe
000003d0: 88c7 28be 8bb3 643e 669b 0b3e 9d9a 4cbe
000003e0: c12d a53d 31a4 16bd 99ca 74bd 4166 80be
000003f0: 33b6 0ebe d800 af3e e904 74bd ed26 093e

bias_ih_l0 f4 [128]
0.11822981 0.39289975 0.14126441 0.38506478 0.069603324 0.39342266 0.353177 0.2836705
0.2565573 0.11305318 0.57502985 0.2246767 0.047222488 0.17426583 0.18994434 -0.03614144
-0.061786886 0.3414088 0.019977473 0.20226263 0.6111537 0.33847418 0.54927194 0.010789169
0.53424954 0.12920502 -0.10292411 0.087880105 0.05576879 0.4695972 0.48214465 0.29030162
-0.049270015 -0.5236859 -0.3147205 -0.43293548 -0.17967513 -0.22966895 -0.62228763 -0.39904368
-0.277439 -0.088225715 -0.3790932 0.0020039 0.14326614 0.018465048 -0.11841179 -0.17473853
0.05613956 -0.16949642 -0.0836347 0.08478674 -0.76231414 -0.0839267 -0.2969058 0.014614005
-0.47819775 0.14902431 0.13066243 0.13502337 0.023995124 -0.7434325 -0.69777966 -0.39849064
0.15150781 0.122993015 -0.031297665 0.03982623 -0.05808542 -0.025571901 0.09571613 -0.057264417
-0.02992056 0.09433617 -0.12411886 0.05638864 -0.13374682 -0.00093403837 -0.04862413 -0.21289611
-0.11722322 -0.12389717 0.121913135 -0.106323995 0.057474952 0.11407754 0.11481522 -0.14785764
0.12070472 -0.1579289 0.031234445 -0.16910933 -0.1553799 0.13107455 0.017528178 -0.07630217
0.31412855 0.34258193 0.20208582 0.45390686 0.2637872 0.33153337 0.3843713 0.32792628
0.12047964 0.16962083 0.35152027 0.16940027 0.25958395 0.2359559 0.21009521 0.12060731
0.09793168 0.29402453 0.10384894 0.086485215 0.66705084 0.3960718 0.5206363 0.0701764
0.30400023 0.16625899 0.09451223 0.031945236 0.19391641 0.597353 0.5280446 0.19225828
00000000: 7822 f23d 282a c93e 9ea7 103e 3627 c53e
00000010: 308c 8e3d b26e c93e 9ed3 b43e 433d 913e
00000020: 7a5b 833e 6d88 e73d 2835 133f a611 663e
00000030: 5e6c 413d be72 323e c580 423e 0c09 14bd
00000040: 3f14 7dbd 22cd ae3e cca7 a33c ef1d 4f3e
00000050: 9274 1c3f 7d4c ad3e 169d 0c3f 0ec5 303c
00000060: 94c4 083f 524e 043e e0c9 d2bd 7cfa b33d
00000070: d16d 643d 0b6f f03e aadb f63e 6aa2 943e
00000080: 5bcf 49bd 4710 06bf 0c23 a1be b8a9 ddbe
00000090: c2fc 37be 562e 6bbe 3e4e 1fbf 744f ccbe
000000a0: 7c0c 8ebe afaf b4bd 8118 c2be dd53 033b
000000b0: 5cb4 123e 0344 973c e181 f2bd a8ee 32be
000000c0: 98f2 653d 7890 2dbe ab48 abbd aca4 ad3d
000000d0: 0527 43bf c3e1 abbd 0904 98be 946f 6f3c
000000e0: 56d6 f4be d499 183e 5fcc 053e 9143 0a3e
000000f0: 6c91 c43c 9851 3ebf b0a1 32bf f706 ccbe
00000100: dd24 1b3e c3e3 fb3d fb31 00bd d420 233d
00000110: faea 6dbd 2a7c d1bc d206 c43d 188e 6abd
00000120: f61b f5bc 5233 c13d 0732 febd c6f7 663d
00000130: edf4 08be 41da 74ba 192a 47bd 7001 5abe
00000140: ba12 f0bd cdbd fdbd 98ad f93d 65c0 d9bd
00000150: db6a 6b3d 7ca1 e93d 3e24 eb3d fe67 17be
00000160: 0934 f73d 1db8 21be 61df ff3c ff2a 2dbe
00000170: e91b 1fbe 6838 063e 4197 8f3c 5044 9cbd
00000180: 75d5 a03e e666 af3e 96ef 4e3e 7b66 e83e
00000190: 1e0f 873e bebe a93e 51cc c43e f4e5 a73e
000001a0: 08be f63d 15b1 2d3e 77fa b33e 4477 2d3e
000001b0: 30e8 843e 6c9e 713e 3323 573e f700 f73d
000001c0: 6890 c83d 628a 963e c1ae d43d 291f b13d
000001d0: d8c3 2a3f ecc9 ca3e 6c48 053f a5b8 8f3d
000001e0: eba5 9b3e cc3f 2a3e a18f c13d 02d9 023d
000001f0: 0692 463e 20ec 183f ee2d 073f 5bdf 443e

bias_hh_l0 f4 [128]
0.073939644 0.40600744 0.007473926 0.5465499 0.21337871 0.14952293 0.25152695 0.4612339
0.3416967 0.27794784 0.31857696 0.09984999 -0.19107173 0.4685341 0.23050828 0.12427908
-0.14875394 0.3339688 -0.075713076 0.15798548 0.75883317 0.51919204 0.5777971 0.075086825
0.4359112 0.114076585 -0.029369539 -0.0037019458 -0.02585729 0.46025455 0.55166346 0.34049293
-0.13802849 -0.49759609 -0.07703213 -0.6390768 0.12868968 -0.06682453 -0.48134443 -0.5438719
-0.20455341 -0.14444862 -0.3601584 -0.059185334 0.14048395 -0.16097204 -0.012456928 -0.124625936
-0.07465913 -0.23742011 -0.055281684 -0.09649908 -0.6184069 -0.24672362 -0.51997274 -0.013373544
-0.6817779 -0.15960427 -0.12287422 0.07433053 -0.00422596 -0.50951594 -0.56569517 -0.097101696
-0.13175116 -0.1457801 0.13878065 -0.01580492 0.1985749 0.006749233 -0.09042635 -0.010373794
0.111337446 0.0007173955 0.003714057 0.07368145 0.04696647 0.06551044 -0.12632944 -0.06663774
-0.024282267 0.11849339 0.04736015 -0.2329047 -0.099499874 0.05362487 -0.12878071 0.10021946
-0.117792666 -0.0522892 0.0342015 -0.054263365 -0.1439247 -0.14756973 -0.007020948 0.027693903
0.19908792 0.47690693 0.045985546 0.6812197 0.36240062 0.23492151 0.5829505 0.6385188
0.06647843 0.19197091 0.5927874 0.2462927 0.27174473 0.4291391 0.12994875 0.12847096
0.11642384 0.15723294 0.208944 -0.037004393 0.6300982 0.58716565 0.67241246 0.20276555
0.49182627 0.14190769 0.14642619 0.03814876 0.0645762 0.5918111 0.55506295 0.39299554
00000000: ab6d 973d 35e0 cf3e d6e7 f43b b2ea 0b3f
00000010: f37f 5a3e 8a1c 193e 24c8 803e da26 ec3e
00000020: dff2 ae3e 2e4f 8e3e 851c a33e 277e cc3d
00000030: 4fa8 43be b4e3 ef3e 5d0a 6c3e 0886 fe3d
00000040: f452 18be f5fd aa3e 750f 9bbd f2c6 213e
00000050: e442 423f c5e9 043f 83ea 133f 1fc7 993d
00000060: c12f df3e fca0 e93d 6398 f0bc 589c 72bb
00000070: abd2 d3bc 7ca6 eb3e d139 0d3f 1755 ae3e
00000080: 5757 0dbe eac4 febe 05c3 9dbd 8a9a 23bf
00000090: 3ac7 033e 4ddb 88bd c772 f6be 303b 0bbf
000000a0: 7376 51be 57ea 13be af66 b8be 526c 72bd
000000b0: 06db 0f3e dbd5 24be 2518 4cbc e23b ffbd
000000c0: e3e6 98bd 421e 73be 0c6f 62bd 4fa1 c5bd
000000d0: ea4f 1ebf 1ea5 7cbe ef1c 05bf b61c 5bbc
000000e0: ff88 2ebf 4d6f 23be 7ba5 fbbd 9b3a 983d
000000f0: ec79 8abb a36f 02bf 66d1 10bf 41dd c6bd
00000100: c7e9 06be 6147 15be 841c 0e3e 5279 81bc
00000110: 3857 4b3e ac28 dd3b 7331 b9bd d8f6 29bc
00000120: e304 e43d 990f 3c3a 8967 733b 4de6 963d
00000130: ea5f 403d 562a 863d 815c 01be 5e79 88bd
00000140: 9beb c6bc aaac f23d b7fc 413d 927e 6ebe
00000150: 97c6 cbbd c0a5 5b3d 17df 03be dc3f cd3d
00000160: 483d f1bd 332d 56bd df16 0c3d 4343 5ebd
00000170: ff60 13be 851c 17be fb0f e6bb 53de e23c
00000180: b4dd 4b3e 252d f43e 575b 3c3d 6a64 2e3f
00000190: 938c b93e 448f 703e 3e3c 153f f875 233f
000001a0: d825 883d 0694 443e eac0 173f 2734 7c3e
000001b0: 2022 8b3e 1fb8 db3e 4911 053e e48d 033e
000001c0: 9f6f ee3d ac01 213e 6af5 553e eb91 17bd
000001d0: 1e4e 213f 7d50 163f 3923 2c3f c6a1 4f3e
000001e0: a7d0 fb3e 4050 113e bff0 153e e041 1c3d
000001f0: 8740 843d ef80 173f 9b18 0e3f b636 c93e

weight_ih_l0 f4 [128, 2]
0.35609722 -0.16853368 -0.1287469 0.062015753 0.36562267 -0.05230959 -0.19159436 -0.16503271
-0.25980678 -0.2614468 0.18731019 0.10559995 0.08546075 0.23329842 -0.20901197 -0.14968407
0.40616307 0.028099589 -0.32843578 0.094902225 -0.07650879 -0.23609799 0.22251958 -0.012386936
-0.26724166 -0.1447391 -0.16944356 -0.2058475 -0.20210603 0.03631292 -0.32296488 -0.009954315
-0.22803955 0.2874685 -0.25571105 0.3952282 0.060772967 0.09998409 0.0024560192 0.094308876
0.09421508 0.019098448 0.2590491 0.2820035 -0.17888474 0.13599032 -0.31070945 0.0033801645
0.015037294 -0.0093447445 -0.09399848 -0.06904264 0.3157758 0.010149893 -0.1711784 0.2720681
-0.031186024 -0.22105771 -0.046057247 0.18854974 0.48263764 0.1715014 -0.018684497 -0.4796174
0.25953516 -0.21239415 -0.4150546 -0.4968188 -0.057691243 -0.09590588 0.28292292 0.15506515
0.15336949 -0.037584126 -0.5387358 0.20053707 -0.14540732 -0.028185783 0.5257789 -0.010572053
-0.02612152 0.030852621 0.44379923 -0.35398898 -0.074394435 -0.43330544 -0.25068322 0.10019116
-0.53191644 0.06702322 0.543666 0.43055034 0.074987896 -0.26081288 0.12573838 -0.097351514
0.13637884 -0.2301883 -0.11238913 -0.3439033 0.050597917 0.4837364 -0.33451322 0.20588878
-1.1057414 -0.6368215 0.2317802 0.055102795 -0.022749854 -0.41015396 0.17736316 -0.7582055
-0.18080927 -0.10029815 -0.03059277 0.12046986 0.37271816 -0.21906362 0.024325905 0.6273762
0.09580312 -0.1909255 -0.5572515 0.46713609 0.44977254 0.20026913 -0.14599271 0.6339221
0.030033952 0.28162247 -0.18387316 -0.31494218 -0.18468083 -0.39047003 -0.033583287 -0.3249888
-0.26357833 0.15475105 0.261778 -0.45571747 -0.25193536 -0.47247404 0.32758886 -0.20936489
0.6673647 0.32154757 -0.083154894 0.92578715 0.36521494 0.5775739 -0.5962297 0.30787677
-0.4202338 -0.09021026 0.32574785 0.22066665 -0.1809666 -0.4567307 -0.43920994 0.2510783
-0.05533126 0.17039311 -0.30319184 0.45043412 -0.087416634 0.3998874 0.2342398 -0.22961742
-0.21649809 -0.01918173 -0.4848656 0.043813005 -0.2233901 -0.43099448 0.038765967 -0.006741278
0.41727582 0.11214269 -0.06176354 0.26312625 -0.6761686 0.3645434 0.3858652 0.031611707
0.45669279 0.25093555 0.22349924 0.18742095 0.1870987 0.17844285 -0.035726674 -0.30748218
0.04818249 -0.17040175 0.0204683 -0.03850005 0.2818187 -0.10269299 0.18961622 -0.07249487
-0.14758839 -0.30911943 -0.2997309 0.17940426 -0.08260413 -0.23025233 0.050523438 -0.031493217
0.03598897 0.27088892 -0.0154636 -0.32028505 0.0035376018 -0.45302576 0.281578 -0.09398947
0.13537891 0.382257 0.17364933 0.16899915 -0.050878085 -0.097847275 -0.33821237 -0.09389182
-0.1349202 0.088446006 -0.21123925 -0.037050568 -0.016187336 -0.07496422 0.41288424 0.28988045
-0.170583 -0.31592992 0.059786297 0.4220239 -0.14825505 -0.1814339 0.048540268 -0.4922695
0.30863717 0.03243196 0.03300372 -0.19099699 0.3926993 -0.3056318 -0.18749121 0.5072056
0.24581903 0.058177713 -0.19519056 0.16909707 0.24014726 0.1057895 0.1534577 -0.21435544
00000000: 6052 b63e 1894 2cbe 3ad6 03be 3b04 7e3d
00000010: e532 bb3e 9542 56bd 5031 44be 56fe 28be
00000020: 6505 85be 5bdc 85be 3ece 3f3e c944 d83d
00000030: 0c06 af3d c8e5 6e3e 3c07 56be c846 19be
00000040: 9bf4 cf3e 1c31 e63c bc28 a8be 195c c23d
00000050: a4b0 9cbd acc3 71be 2cdc 633e 93f2 4abc
00000060: e6d3 88be 7d36 14be 9d82 2dbe b0c9 52be
00000070: e2f4 4ebe dbbc 143d a75b a5be 6c17 23bc
00000080: 3383 69be 122f 933e 8fec 82be 5a5b ca3e
00000090: 13ed 783d 75c4 cc3d 2af5 203b 0325 c13d
000000a0: d6f3 c03d 5974 9c3c 15a2 843e c362 903e
000000b0: 902d 37be 0c41 0b3e 4f15 9fbe c085 5d3b
000000c0: fb5e 763c b31a 19bc 4682 c0bd 3a66 8dbd
000000d0: 5ead a13e bd4b 263c 6449 2fbe 834c 8b3e
000000e0: d579 ffbc f45c 62be 86a6 3cbd 2f13 413e
000000f0: 481c f73e 109e 2f3e 3b10 99bc 6990 f5be
00000100: cbe1 843e da7d 59be 0982 d4be 095f febe
00000110: a74d 6cbd 4d6a c4bd 46db 903e 66c9 1e3e
00000120: e40c 1d3e d0f1 19bd 97ea 09bf 9759 4d3e
00000130: a8e5 14be dfe5 e6bc 7299 063f 6736 2dbc
00000140: ccfc d5bc a3be fc3c a739 e33e 0b3e b5be
00000150: 1c5c 98bd 36da ddbe 8d59 80be 0631 cd3d
00000160: ad2b 08bf 7843 893d b22d 0b3f 1871 dc3e
00000170: 4193 993d 4489 85be 90c1 003e 3b60 c7bd
00000180: e5a6 0b3e 7bb6 6bbe 462c e6bd 1814 b0be
00000190: c33f 4f3d 4cac f73e 5145 abbe 82d4 523e
000001a0: ef88 8dbf bc06 23bf ca57 6d3e 78b3 613d
000001b0: e75d babc b3ff d1be b09e 353e c119 42bf
000001c0: 1126 39be 1e69 cdbd b09d fabc e7b8 f63d
000001d0: ead4 be3e 3752 60be 1f47 c73c ba9b 203f
000001e0: 6d34 c43d f981 43be 09a8 0ebf 762c ef3e
000001f0: 9648 e63e 5a13 4d3e 1d7f 15be b848 223f
00000200: c309 f63c d230 903e 3f49 3cbe 1a40 a1be
00000210: f91c 3dbe b0eb c7be a18e 09bd ef64 a6be
00000220: bdf3 86be 0f77 1e3e c407 863e cd53 e9be
00000230: acfd 80be 1ee8 f1be bab9 a73e c063 56be
00000240: 6ad8 2a3f e2a1 a43e 1d4d aabd 6300 6d3f
00000250: 74fd ba3e e2db 133f 82a2 18bf 06a2 9d3e
00000260: e228 d7be 28c0 b8bd 6cc8 a63e 70f6 613e
00000270: 4f4f 39be 9bd8 e9be 20e0 e0be 568d 803e
00000280: 08a3 62bd 887b 2e3e f63b 9bbe 4d9f e63e
00000290: 7e07 b3bd 0bbe cc3e 8fdc 6f3e d420 6bbe
000002a0: adb1 5dbe 0123 9dbc 4e40 f8be 4475 333d
000002b0: 60c0 64be 4fab dcbe 10c9 1e3d f0e5 dcbb
000002c0: 2da5 d53e 11ab e53d c4fb 7cbd 7cb8 863e
000002d0: 6319 2dbf 6fa5 ba3e 2090 c53e 477b 013d
000002e0: a3d3 e93e a07a 803e fcdc 643e 47eb 3f3e
000002f0: cd96 3f3e b9b9 363e 2256 12bd 4e6e 9dbe
00000300: 015b 453d cc7d 2ebe 23ad a73c 3ab2 1dbd
00000310: 8a4a 903e b450 d2bd c12a 423e 3178 94bd
00000320: 6921 17be e744 9ebe 5476 99be c0b5 373e
00000330: 5b2c a9bd 44c7 6bbe aaf1 4e3d 08ff 00bd
00000340: 2c69 133d f4b1 8a3e 0a5b 7dbc 67fc a3be
00000350: 1cd7 673b fef2 e7be fe2a 903e 8d7d c0bd
00000360: c5a0 0a3e 31b7 c33e 21d1 313e 1d0e 2d3e
00000370: 8a65 50bd 2764 c8bd 2c2a adbe 5b4a c0bd
00000380: 8528 0abe 2e23 b53d 1a4f 58be 56c2 17bd
00000390: 4e9b 84bc d786 99bd 9065 d33e 366b 943e
000003a0: 4fad 2ebe 91c1 a1be 7ae2 743d 8413 d83e
000003b0: 2cd0 17be cfc9 39be 29d2 463d bf0a fcbe
000003c0: b105 9e3e 60d7 043d e92e 073d b794 43be
000003d0: e20f c93e c57b 9cbe b2fd 3fbe 3ad8 013f
000003e0: fcb7 7b3e c14b 6e3d 09e0 47be c827 2d3e
000003f0: 2ae9 753e 2aa8 d83d 0424 1d3e fe7f 5bbe

weight_hh_l0 f4 [128, 32]
-0.17547652 0.15796007 0.08155404 0.25248 -0.20136155 0.22000414 0.11010316 0.15236935
-0.29159644 -0.3298883 -0.25658265 0.13676985 0.40201354 0.15800504 0.04211871 -0.23734933
-0.09423828 -0.24939804 -0.07089183 0.02716936 0.17290623 -0.24588989 0.33331066 0.18837546
-0.24087214 0.1801902 -0.40151516 0.25277457 0.0439337 -0.29648188 -0.0024051259 0.386513
0.045340996 -0.121797234 -0.3324985 -0.10809842 0.08951941 -0.037404142 -0.3460172 -0.05523938
0.27760687 0.24919757 0.37231106 0.054686505 -0.11610809 0.4039216 0.009193817 -0.11854684
0.09555112 0.27051485 0.27233422 0.04479088 0.21155892 -0.30656776 -0.018803123 0.18496317
0.088261895 -0.00062452484 -0.19972907 0.09369314 0.15389638 -0.013865985 -0.016646134 -0.25284252
-0.014556931 0.26290977 0.18617971 -0.054574255 -0.20919661 -0.17837895 -0.31312245 0.08501404
0.10474163 -0.31592458 -0.071100526 -0.055068173 0.16164918 0.46803156 0.19298942 -0.11322591
0.19739193 -0.09035561 -0.025568828 -0.2808924 0.113145456 -0.27330068 0.16573803 0.2700585
-0.17761333 0.08776823 -0.177051 0.14110002 -0.19047385 -0.039289773 0.20079735 -0.674708
0.27510485 -0.04477623 -0.035430487 -0.17316432 0.3511231 0.091340825 0.1745658 0.16714394
0.41702455 0.004657082 0.06101636 0.030260375 0.20757315 -0.025840713 -0.043264724 -0.07467546
-0.070943706 -0.3367733 0.013705231 -0.12157874 -0.10821774 0.18586557 0.013501875 0.029518157
0.0066751544 0.22750983 -0.08209365 0.10779849 0.08286269 -0.06902869 0.24547149 -0.22884116
-0.108723976 0.09431246 0.01515265 0.1817159 0.08370367 0.61889905 0.29367 0.11512723
0.6795846 -0.1020456 -0.182096 -0.08511087 -0.14614381 0.20456731 0.16901693 0.03302037
-0.26537898 -0.41116005 -0.14662218 0.12771176 0.09642291 0.15411507 0.32285285 -0.06949425
-0.1746822 0.055206895 -0.6712578 0.08737849 0.078624755 0.13919723 0.25251904 0.13083443
0.13198043 -0.082272895 -0.3646822 -0.3091262 0.20956163 0.1504338 -0.29879826 0.32146493
0.52947235 -0.36507368 0.054907657 0.31799152 0.011289253 0.073467135 0.19867104 -0.22010282
-0.16488294 -0.22105487 -0.017476935 0.07554267 -0.03475956 -0.2221899 -0.07079888 0.22395141
0.14549719 0.3278503 -0.034178134 0.33750752 0.045614816 -0.36016974 0.43074763 -0.16174874
0.12827198 0.037678875 0.049311765 0.108728506 0.20776516 -0.23242755 -0.21117473 -0.058831193
-0.23323478 0.09729535 0.101507425 0.23342143 -0.14106475 0.09570948 -0.042454824 -0.24009465
-0.18772219 0.13652252 0.06583418 -0.26488295 0.30313107 -0.019601692 -0.1512853 0.078172356
-0.11595405 0.08512359 0.17358355 -0.08066346 0.020906445 -0.019535035 -0.39908835 -0.15963627
0.33738136 0.19704588 0.07990984 -0.046017412 0.24594793 -0.21189885 0.08114069 0.07590071
-0.8974554 -0.24942307 -0.3210534 0.32802755 0.67962456 -0.025882924 0.10582394 0.1378629
0.05533945 0.06385742 -0.094181284 -0.04499095 0.02814891 0.11424555 -0.15489496 -0.00368534
-0.07990872 -0.013576798 0.5047 0.139561 -0.15893106 0.06607433 0.0043222844 0.0854709
00000000: 1eb0 33be 49c0 213e ce05 a73d 0f45 813e
00000010: b931 4ebe c448 613e c47d e13d b606 1c3e
00000020: 214c 95be 1fe7 a8be cd5e 83be 650d 0c3e
00000030: b8d4 cd3e 13cc 213e ab84 2c3d b40b 73be
00000040: 0000 c1bd 3362 7fbe bc2f 91bd 4792 de3c
00000050: 550e 313e 8fca 7bbe b2a7 aa3e 7fe5 403e
00000060: 30a7 76be c883 383e 6593 cdbe ab6b 813e
00000070: d3f3 333d 79cc 97be 519f 1dbb 08e5 c53e
00000080: 7bb7 393d d470 f9bd 3e3d aabe b462 ddbd
00000090: f455 b73d 1635 19bd 2b29 b1be b042 62bd
000000a0: 7d22 8e3e a62d 7f3e 8e9f be3e f5fe 5f3d
000000b0: 14ca edbd d0ce ce3e aaa1 163c b0c8 f2bd
000000c0: 4eb0 c33d ec80 8a3e 646f 8b3e a476 373d
000000d0: e7a2 583e 73f6 9cbe 0209 9abc fc66 3d3e
000000e0: a7c2 b43d 27b7 23ba c785 4cbe 30e2 bf3d
000000f0: 0397 1d3e 282e 63bc 795d 88bc 9374 81be
00000100: 3280 6ebc 1c9c 863e e5a5 3e3e 4189 5fbd
00000110: a337 56be f9a8 36be 9651 a0be d71b ae3d
00000120: c882 d63d dec0 a1be 279d 91bd 2a8f 61bd
00000130: 5d87 253e d5a1 ef3e 059f 453e fce2 e7bd
00000140: 1c21 4a3e 5d0c b9bd b875 d1bc 21d1 8fbe
00000150: ceb8 e73d 11ee 8bbe 3bb7 293e 1c45 8a3e
00000160: 45e0 35be d4bf b33d db4c 35be 867c 103e
00000170: 940b 43be 50ee 20bd d29d 4d3e aab9 2cbf
00000180: 8bda 8c3e 4867 37bd 8f1f 11bd fd51 31be
00000190: 68c6 b33e e610 bb3d 61c1 323e c827 2b3e
000001a0: 3e84 d53e 6f9a 983b 4aec 793d 9be4 f73c
000001b0: 0e8e 543e e7af d3bc 5a36 31bd 73ef 98bd
000001c0: ef4a 91bd 8d6d acbe e88b 603c 46fe f8bd
000001d0: 43a1 ddbd 8b53 3e3e f836 5d3c 10d0 f13c
000001e0: 41bb da3b 56f8 683e b720 a8bd 74c5 dc3d
000001f0: eab3 a93d ea5e 8dbd e15c 7b3e 5655 6abe
00000200: adaa debd e426 c13d d242 783c bc13 3a3e
00000210: d46c ab3d 2b70 1e3f ea5b 963e d3c7 eb3d
00000220: 42f9 2d3f 49fd d0bd 6077 3abe 9c4e aebd
00000230: b9a6 15be 187a 513e c612 2d3e 5e40 073d
00000240: c1df 87be 9283 d2be 2024 16be dfc6 023e
00000250: 6079 c53d 57d0 1d3e f84c a53e 0053 8ebd
00000260: e4df 32be a020 623d 8dd7 2bbf 7ef3 b23d
00000270: 0406 a13d b889 0e3e 2d4a 813e 76f9 053e
00000280: e125 073e b17e a8bd a0b7 babe ca45 9ebe
00000290: 5397 563e 510b 1a3e 16fc 98be 0d97 a43e
000002a0: 808b 073f f0ea babe dae6 603d c9cf a23e
000002b0: 8ff6 383c f075 963d 6c70 4b3e a262 61be
000002c0: 13d7 28be 355c 62be ca2b 8fbc 1eb6 9a3d
000002d0: 0a60 0ebd c085 63be 01ff 90bd 8553 653e
000002e0: 37fd 143e ffdb a73e 5ffe 0bbd c9cd ac3e
000002f0: 9ad6 3a3d 2b68 b8be f48a dc3e 76a1 25be
00000300: bb59 033e 2a55 1a3d 22fb 493d 0dad de3d
00000310: 64c0 543e 7d01 6ebe 303e 58be faf8 70bd
00000320: 19d5 6ebe c942 c73d 20e3 cf3d 0706 6f3e
00000330: 4773 10be 5503 c43d 1ce5 2dbd 5fdb 75be
00000340: 3f3a 40be 8fcc 0b3e 12d4 863d bd9e 87be
00000350: ff33 9b3e ba93 a0bc 89ea 1abe d418 a03d
00000360: 5179 edbd 4755 ae3d e3bf 313e e232 a5bd
00000370: fe43 ab3c f007 a0bc 4f55 ccbe b177 23be
00000380: 40bd ac3e 65c6 493e c5a7 a33d c17c 3cbd
00000390: c6d9 7b3e 03fc 58be 172d a63d d571 9b3d
000003a0: a3bf 65bf c368 7fbe 1c61 a4be 3af3 a73e
000003b0: e0fb 2d3f 6d08 d4bc 39ba d83d ef2b 0d3e
000003c0: 9eab 623d aec7 823d 1ee2 c0bd 6e48 38bd
000003d0: 8b98 e63c 92f9 e93d c99c 1ebe bf85 71bb
000003e0: 2fa7 a3bd 3871 5ebc 0534 013f 14e9 0e3e
000003f0: d3be 22be fa51 873d f3a1 8d3b 5e0b af3d

bias_ih_l0 f4 [128]
-0.018409625 -0.090888776 0.08805034 0.06519183 -0.021251172 0.12878765 0.24120015 -0.09171703
0.027447775 0.08062978 -0.063342966 -0.0839233 0.07986062 0.14715156 -0.17613423 0.058068696
-0.01883227 0.17368746 0.22931883 -0.053912185 0.17352617 -0.051836763 -0.16063984 -0.102727935
-0.00905492 -0.017267276 0.094533496 0.087046824 0.11736404 0.13942543 0.31122857 0.03842372
0.15716496 -0.16894671 -0.1134493 -0.103587426 -0.023020571 0.10732473 0.12064012 0.2109834
0.18220717 0.29335555 0.0897109 0.23194613 -0.06574415 0.17271876 -0.026256211 -0.029958032
-0.007424047 0.20585935 0.30588898 0.22324957 0.15025412 0.16313718 -0.098311156 0.015196405
0.011633855 0.09711682 0.07659256 0.2588402 -0.17311388 0.17745253 0.014612236 -0.014092155
-0.1378709 0.16002573 0.35229108 -0.20307225 0.08493677 0.061352264 -0.14002655 0.063912995
0.02010174 -0.18735448 0.27869293 0.08961771 -0.047849864 0.2308125 0.014102907 -0.24708755
-0.33023173 -0.4962733 0.39107195 -0.15100655 0.1908334 -0.22794914 -0.38348767 0.21267548
-0.18721661 0.049109895 0.21153899 0.121998906 -0.49432406 -0.1793237 -0.13644993 -0.3561624
0.055751514 0.1508858 0.18152654 0.11498687 0.124908604 0.23348206 0.27812913 0.08739247
0.05237843 0.3361747 0.06997217 -0.10009276 -8.21188e-05 0.25028202 0.036011066 0.07608161
0.110258736 -0.031323746 0.24557066 0.1228049 -0.010087521 0.15611391 0.09067655 -0.08662029
0.22474615 0.074466236 0.32616395 0.10948374 -0.089735575 0.07514233 0.27130032 0.0044158613
00000000: c8cf 96bc e523 babd bd53 b43d 4b83 853d
00000010: f016 aebc e9e0 033e 2cfd 763e 23d6 bbbd
00000020: 28da e03c 3a21 a53d f5b9 81bd fbdf abbd
00000030: f78d a33d e6ae 163e 885c 34be 71d9 6d3d
00000040: 2246 9abc 20db 313e 8ed2 6a3e 06d3 5cbd
00000050: d8b0 313e c952 54bd c57e 24be 0663 d2bd
00000060: 165b 14bc 1a74 8dbc c79a c13d 9b45 b23d
00000070: 8f5c f03d 8ac5 0e3e 5a59 9f3e 3162 1d3d
00000080: daef 203e 5e00 2dbe 1b58 e8bd a525 d4bd
00000090: a395 bcbc 11cd db3d 2b12 f73d 080c 583e
000000a0: 8494 3a3e b332 963e 59ba b73d 4983 6d3e
000000b0: dea4 86bd 30dd 303e 4417 d7bc 8c6a f5bc
000000c0: 6c45 f3bb cbcc 523e 7b9d 9c3e 899b 643e
000000d0: 37dc 193e 6f0d 273e 5c57 c9bd 58fa 783c
000000e0: ed9b 3e3c 2fe5 c63d 8fdc 9c3d b486 843e
000000f0: c444 31be 1eb6 353e 2968 6f3c c8e2 66bc
00000100: 072e 0dbe c9dd 233e 7f5f b43e 2cf2 4fbe
00000110: 54f3 ad3d 834c 7b3d 1f63 0fbe d1e4 823d
00000120: 67ac a43c dad9 3fbe d7b0 8e3e 7d89 b73d
00000130: 38fe 43bd 1d5a 6c3e e10f 673c 8504 7dbe
00000140: 2214 a9be 8917 febe 953a c83e 76a1 1abe
00000150: d569 433e 806b 69be 7f58 c4be 9ac7 593e
00000160: b6b5 3fbe 7527 493d ad9d 583e 90da f93d
00000170: 0b18 fdbe a2a0 37be 88b9 0bbe eb5a b6be
00000180: b35b 643d cf81 1a3e 18e2 393e 3c7e eb3d
00000190: 15d0 ff3d ec15 6f3e f166 8e3e d3fa b23d
000001a0: c48a 563d 171f ac3e 924d 8f3d 6ffd ccbd
000001b0: 3237 acb8 f724 803e 5780 133d add0 9b3d
000001c0: 55cf e13d 544d 00bd e076 7b3e 2381 fb3d
000001d0: 2146 25bc 53dc 1f3e a1b4 b93d fb65 b1bd
000001e0: db23 663e c181 983d f6fe a63e 0339 e03d
000001f0: 49c7 b7bd 39e4 993d e0e7 8a3e eeb2 903b

bias_hh_l0 f4 [128]
0.21062976 0.16859937 0.018238412 -0.10373911 0.07278276 0.21646686 -0.005418885 0.01236778
0.106125 0.15276033 0.14171544 0.1248316 0.08040214 0.15643701 0.05315034 0.10914359
-0.06987963 0.09456384 0.13907668 -0.0988738 0.17859086 0.057597958 0.1337443 -0.17620328
-0.11605258 -0.10042561 0.05877562 -0.0091280285 0.14320627 0.16363434 0.17041299 0.0673951
0.022956928 0.05206793 0.010475072 0.00082018 -0.012608547 -0.059541717 -0.0024665506 -0.07898628
-0.079436615 0.11465882 0.008379699 0.12619177 0.07879989 0.18581122 -0.18270113 -0.10388374
0.060042012 -0.054238286 0.16088453 0.036065366 0.14266062 0.08625857 0.046525385 -0.13237832
0.036068905 0.14202045 -0.012680885 0.03988508 0.02533494 -0.014820554 -0.104924046 0.16285855
0.041417327 0.17796825 0.16357695 -0.16989407 0.15843281 -0.13990952 -0.3442255 0.06324313
-0.24062747 0.035304114 0.20361364 0.19694681 -0.08671809 0.30369547 -0.008795584 -0.14031614
-0.24133036 -0.32509726 0.107869454 -0.05295795 0.2377992 -0.1862608 -0.251903 0.1483483
-0.12306319 0.27164584 0.007339671 0.13813594 -0.6430446 -0.21798034 0.08857751 -0.53572804
0.3201346 0.1268579 0.080931716 -0.1513296 -0.048271995 0.246678 0.20321925 0.16111729
0.095451474 0.34890014 0.015202804 -0.07932183 0.007799009 0.109440394 0.10175461 0.17816277
0.25835174 0.027061678 0.023617648 0.10809487 -0.027255021 -0.03401729 0.21153952 0.2001593
0.09968133 0.2002985 0.11449887 0.29488358 0.18578121 0.14233392 0.19612257 0.0691259
00000000: 54af 573e 50a5 2c3e b968 953c 2c75 d4bd
00000010: 210f 953d 7da9 5d3e e790 b1bb 3ba2 4a3c
00000020: 1058 d93d 346d 1c3e da1d 113e b6a7 ff3d
00000030: e1a9 a43d 0631 203e 2cb4 593d ad86 df3d
00000040: 0d1d 8fbd b0aa c13d 1e6a 0e3e 597e cabd
00000050: 86e0 363e d6eb 6b3d 44f4 083e a26e 34be
00000060: faac edbd f1ab cdbd b4be 703d ba8d 15bc
00000070: aaa4 123e c38f 273e be80 2e3e 7106 8a3d
00000080: 2b10 bc3c 2f45 553d a39f 2b3c 5901 573a
00000090: 1494 4ebc 04e2 73bd daa5 21bb 8fc3 a1bd
000000a0: aaaf a2bd 3ed2 ea3d 014b 093c 6a38 013e
000000b0: d661 a13d 4c45 3e3e 0116 3bbe 00c1 d4bd
000000c0: 9dee 753d f728 5ebd eabe 243e 47b9 133d
000000d0: a015 123e 55a8 b03d 6791 3e3d 2f8e 07be
000000e0: fdbc 133d cf6d 113e 7dc3 4fbc 8a5e 233d
000000f0: 388b cf3c e9d1 72bc 6be2 d6bd 64c4 263e
00000100: 37a5 293d 4f3d 363e b780 273e b6f8 2dbe
00000110: 363c 223e 7144 0fbe 533e b0be 9d85 813d
00000120: 0c67 76be 0c9b 103d 1880 503e 6dac 493e
00000130: 4199 b1bd f97d 9b3e 5a1b 10bc 09af 0fbe
00000140: 4e1f 77be 2673 a6be a9ea dc3d 6fea 58bd
00000150: a281 733e 27bb 3ebe 6ef9 80be 9ee8 173e
00000160: 8e08 fcbd 2a15 8b3e 9f81 f03b 8273 0d3e
00000170: 929e 24bf 3d36 5fbe 2068 b53d 7925 09bf
00000180: afe8 a33e 0ae7 013e 87bf a53d 26f6 1abe
00000190: dbb8 45bd 2899 7c3e b518 503e eefb 243e
000001a0: 107c c33d 0aa3 b23e 2e15 793c 7c73 a2bd
000001b0: d48e ff3b 4922 e03d b964 d03d 4d70 363e
000001c0: ae46 843e 74b0 dd3c cc79 c13c d860 dd3d
000001d0: ec45 dfbc b755 0bbd d19d 583e 8ff6 4c3e
000001e0: ba25 cc3d 0d1b 4d3e 627e ea3d fbfa 963e
000001f0: 6e3d 3e3e fcbf 113e 5bd4 483e e191 8d3d

weight_ih_l0_reverse f4 [128, 2]
-0.111936904 -0.27361733 0.1763907 -0.3042725 0.3137284 0.18088807 -0.0068936846 -0.008887923
0.057486296 0.1128695 0.161276 -0.17253236 0.03279958 -0.29077974 0.47249502 -0.5559003
0.6770145 -1.1516632 -0.10860225 -0.0086287465 -0.65740836 0.4930295 0.46243122 -0.052485723
-0.5028307 -0.26613876 -0.32827324 -0.26840046 0.568498 -0.21179049 0.26739618 0.14319268
0.05522363 -0.27519906 0.07479539 0.42334428 -0.4784244 0.3481453 -0.239466 0.20731772
0.030184628 0.5592012 -0.08372001 0.15815781 0.03822933 0.25626165 -0.26415196 -0.66398114
-1.0215884 0.028606268 -0.77050304 -0.56533694 0.023941293 0.068707205 -0.41855228 -0.05027571
0.4227578 -0.14639708 -0.21062337 -0.0529164 0.20538487 -0.35104623 -0.1685203 0.19971523
-0.20044343 0.0078119305 0.19772236 -0.32724512 0.33441964 0.28959453 -0.17597955 0.04143657
0.029721433 0.16748157 0.7454546 -0.15413715 -0.0800574 -0.18631682 0.51510113 -0.28699574
0.33111054 -0.32431716 0.0003373195 -0.09680901 -0.12740192 0.16062099 0.37516224 -0.090976514
-0.49895856 -0.23066725 -0.06835071 -0.13262923 0.31153077 -0.29546764 0.44176137 0.22275724
0.13109545 -0.22651654 0.08193291 0.35466215 -0.42948893 0.30761412 -0.350798 0.091878474
0.21492317 0.70781416 -0.16327508 -0.14531088 0.108376175 0.15187857 -0.9117855 -0.6629171
-0.3410311 0.07903101 -0.3358811 -0.51347125 0.050326142 -0.01081278 -0.27141362 -0.28529254
0.15236013 0.075413525 -0.21923557 -0.2643242 0.23326395 -0.27953717 0.019485118 0.14071593
-0.24289879 -0.101385325 0.1598543 0.3964743 0.1319118 0.07741247 -0.31876764 -0.21159762
0.36975577 0.509586 0.2930006 0.07122266 -0.0940756 -0.5854979 -0.48222587 0.22768208
0.15667087 -0.91477644 -0.14885251 0.48987496 0.46750346 -0.28937107 0.63200533 -0.035890408
0.27999055 -2.0122123e-05 0.47757176 0.014414007 0.07615264 -0.32645422 0.37856328 0.11208753
0.08004216 0.7705845 0.308231 1.0091584 0.12929459 -0.41733837 -0.74090236 0.35131493
-0.28919736 -0.10321677 -0.50144196 -0.031023245 -0.3651737 0.23475799 0.09874839 0.30877522
-0.42208087 0.23795246 0.53518474 0.43201858 -0.21098614 -0.22675528 -0.15102564 -0.22501124
-0.422714 0.26646322 0.31219605 -0.046531145 0.14304537 -0.12279749 0.1256972 -0.16383764
-0.0048187496 -0.20491341 0.1382929 -0.29622677 0.353512 0.005490263 -0.49995312 -0.19455297
-0.19590278 0.17978473 0.26650274 0.0975266 -0.116730265 -0.34395173 0.71142614 -0.5919911
0.40778595 -0.8572696 0.0513625 -0.2410809 -0.37313437 0.31713358 0.48057136 -0.08745713
-0.44291347 -0.42847547 -0.19768046 -0.009737563 0.803539 -0.32974485 0.06885545 -0.1640759
0.26893842 -0.08780242 -0.048364576 0.14759006 -0.28433836 0.28272283 -0.33048257 0.4482509
0.3000335 0.3279784 -0.10108798 0.21769871 0.094138764 0.221907 -0.6435322 -0.6541601
-0.35590687 0.14892718 -0.16400142 -0.40463343 -0.2649542 0.069103375 -0.22945078 -0.04260783
0.7960145 -0.25922057 -0.29332846 -0.34971848 0.28129217 -0.31878218 -0.15573652 0.1534367
00000000: 2d3f e5bd 9217 8cbe c39f 343e 9bc9 9bbe
00000010: 02a1 a03e b93a 393e 6be4 e1bb a79e 11bc
00000020: c076 6b3d 2028 e73d 8925 253e 53ac 30be
00000030: da58 063d 15e1 94be deea f13e 7b4f 0ebf
00000040: d350 2d3f b369 93bf db6a debd 965f 0dbc
00000050: ea4b 28bf 5d6e fc3e c9c3 ec3e 45fb 56bd
00000060: 83b9 00bf 5743 88be 6e13 a8be c96b 89be
00000070: 1689 113f 9bdf 58be 27e8 883e 1aa1 123e
00000080: 2c32 623d e4e6 8cbe 532e 993d 95c0 d83e
00000090: 0bf4 f4be 1a40 b23e 9336 75be 194b 543e
000000a0: c145 f73c cf27 0f3f 6675 abbd 1ff4 213e
000000b0: 5c96 1c3d ba34 833e ed3e 87be abfa 29bf
000000c0: 69c3 82bf b157 ea3c b03f 45bf ecb9 10bf
000000d0: 8820 c43c 5db6 8c3d 7c4c d6be e7ed 4dbd
000000e0: b673 d83e 1ee9 15be a7ad 57be debe 58bd
000000f0: 6950 523e 55bc b3be 9690 2cbe 2682 4c3e
00000100: 0b41 4dbe 39fb ff3b bb77 4a3e ac8c a7be
00000110: 0d39 ab3e bc45 943e fc33 34be 65b9 293d
00000120: 5d7a f33c 4a80 2b3e 1dd6 3e3f 21d6 1dbe
00000130: 22f5 a3bd d6c9 3ebe abdd 033f 1bf1 92be
00000140: 5287 a93e e60c a6be 42da b039 cd43 c6bd
00000150: a675 02be d479 243e 4415 c03e e551 babd
00000160: 7f77 ffbe 0934 6cbe 75fb 8bbd f5cf 07be
00000170: f680 9f3e 8947 97be 8c2e e23e 791a 643e
00000180: e33d 063e f4f3 67be 71cc a73d 4796 b53e
00000190: f9e5 dbbe 997f 9d3e cc9b b3be c82a bc3d
000001a0: d214 5c3e 4f33 353f 9531 27be 60cc 14be
000001b0: 54f4 dd3d 0e86 1b3e c66a 69bf efb4 29bf
000001c0: a19b aebe 03db a13d 9cf8 abbe da72 03bf
000001d0: c922 4e3d 1628 31bc baf6 8abe dd11 92be
000001e0: 4b04 1c3e 6872 9a3d 4a7f 60be 8055 87be
000001f0: bfdc 6e3e 7f1f 8fbe 419f 9f3c d617 103e
00000200: 76ba 78be 1ca3 cfbd d8b0 233e aefe ca3e
00000210: e313 073e 6e8a 9e3d 8335 a3be 0cad 58be
00000220: a150 bd3e 3a74 023f 2d04 963e 30dd 913d
00000230: b5aa c0bd 31e3 15bf 4fe6 f6be 7e25 693e
00000240: 546e 203e ca2e 6abf cb6c 18be e4d0 fa3e
00000250: 9d5c ef3e 7228 94be 1acb 213f d201 13bd
00000260: ec5a 8f3e eecb a8b7 4984 f43e ba28 6c3c
00000270: eaf5 9b3d 0225 a7be 0cd3 c13e 268e e53d
00000280: 25ed a33d 0745 453f 74d0 9d3e 1a2c 813f
00000290: cd65 043e 60ad d5be c7ab 3dbf 8ddf b33e
000002a0: ad11 94be 5063 d3bd 805e 00bf 7624 febc
000002b0: 0cf8 babe 6664 703e 993c ca3d c917 9e3e
000002c0: fc1a d8be cfa9 733e de01 093f 8a31 dd3e
000002d0: c00c 58be 8932 68be 77a6 1abe 5969 66be
000002e0: f86d d8be de6d 883e 29d8 9f3e 7197 3ebd
000002f0: 7c7a 123e 407d fbbd c4b6 003e 0ec5 27be
00000300: 9ae6 9dbb d2d4 51be a79c 0d3e 09ab 97be
00000310: 86ff b43e aae7 b33b dbf9 ffbe e538 47be
00000320: bd9a 48be 7d19 383e 0c73 883e 07bc c73d
00000330: 4710 efbd 711a b0be 0620 363f bb8c 17bf
00000340: 52c9 d03e 0576 5bbf 7c61 523d e9dd 76be
00000350: 780b bfbe 555f a23e 730d f63e b91c b3bd
00000360: 8ec5 e2be 2361 dbbe bf6c 4abe 4d8a 1fbc
00000370: bbb4 4d3f 51d4 a8be 1604 8d3d 8303 28be
00000380: 4cb2 893e c1d1 b3bd ef19 46bd d921 173e
00000390: cc94 91be 0cc1 903e 0335 a9be 2481 e53e
000003a0: fe9d 993e c9ec a73e 3707 cfbd 69ec 5e3e
000003b0: d3cb c03d 973b 633e 87be 24bf 0977 27bf
000003c0: 6d39 b6be 5e80 183e fdef 27be 1d2c cfbe
000003d0: 14a8 87be 1286 8d3d 25f5 6abe 8c85 2ebd
000003e0: 9bc7 4b3f 8fb8 84be 262f 96be 4d0e b3be
000003f0: 8705 903e 6b37 a3be 6579 1fbe 831e 1d3e

weight_hh_l0_reverse f4 [128, 32]
-0.04110166 0.08237087 -0.06767654 0.03826871 -0.072544634 0.0051024025 0.14264186 0.033920053
0.16466407 0.12405341 -0.094879024 -0.18909064 -0.016987998 0.04906242 -0.01805379 0.032697946
-0.020614294 0.16721311 0.1404645 -0.04272432 0.00028234083 0.07838625 0.15500098 0.1158517
-0.0036060654 -0.08269978 -0.15651888 -0.1584565 0.11623481 0.13912104 -0.17154235 0.110410765
-0.107931666 0.1318663 -0.06614149 0.23999202 -0.170515 -0.119723886 0.07901337 -0.09176041
-0.122394584 0.15072143 -0.008129183 -0.18777487 0.004814325 -0.09657922 0.00834978 -0.03643654
-0.047639042 -0.12914248 0.12920775 -0.047578603 -0.110067606 0.058929365 0.033803765 -0.04911938
-0.01236321 -0.14453124 -0.003183136 -0.10638851 0.0800395 -0.110190906 0.05248096 0.14539264
-0.051689804 -0.09623217 -0.098939 -0.21491471 0.28117308 0.2616164 -0.023981867 -0.18632989
-0.0225504 0.052711666 0.32752162 0.22235475 0.36962363 0.14817995 0.10710159 0.15702082
-0.13982147 0.039252542 -0.044759672 -0.19318141 0.003299935 -0.20000248 0.018025782 0.07475608
-0.12865868 0.47732794 -0.028923815 -0.14725545 -0.005772736 0.46088174 -0.07781947 -0.14329782
-0.021501822 -0.13518551 0.0784557 -0.22132035 0.25652277 -0.2705904 -0.24552964 0.34065375
-0.19481194 -0.1366034 0.03408012 0.24852774 0.31706837 0.19160064 -0.15188675 0.1163715
0.08212822 0.21589795 -0.062209237 0.015222762 0.02652314 0.117851965 -0.32528803 0.43986672
-0.2795784 0.32108888 -0.1637557 0.009006565 0.03518676 0.104359455 -0.006579189 0.16478026
0.14569604 -0.08499456 -0.13149104 0.054588433 -0.06798394 -0.12033817 -0.24237534 0.11093029
-0.18368787 -0.12496807 0.1820561 0.03785931 -0.10441547 0.35427284 -0.16974176 -0.11852931
-0.13116255 -0.25516775 0.070203535 -0.03110719 -0.026042586 0.26059827 -0.13649046 0.3533669
-0.42489558 0.42761824 -0.24131304 0.17154266 -0.029150784 0.19614725 -0.09168496 -0.13913375
-0.043472737 -0.14146991 0.042649563 0.084619805 0.082510926 0.43419707 -0.09933321 -0.38721162
-0.13516161 -0.05084761 -0.04678145 0.02657014 -0.14602049 0.29223934 0.117375866 0.19206955
-0.08384283 -0.1642822 -0.14039922 -0.056216612 -0.06920331 0.037736453 -0.24846281 0.15880503
-0.022882923 -0.06605006 -0.16009451 -0.16212498 -0.30320206 0.029681938 0.15252301 -0.18319845
0.27923444 -0.046884667 -0.15423915 0.08702253 -0.23454916 -0.30370516 0.31296962 -0.09609096
-0.1311359 -0.24889328 0.22002262 0.029205972 -0.40600583 0.057233263 -0.050487537 -0.12342517
-0.10402517 -0.4242652 0.05406308 0.18783611 0.41080475 0.47113308 0.17078993 -0.43334743
-0.11032839 0.033597402 0.21578625 0.026562564 -0.04831179 -0.46092352 0.008745209 0.13212657
0.1459549 -0.27043033 0.15190478 -0.14838691 -0.0810102 0.26665807 -0.25084814 -0.30375406
-0.16844131 -0.12936658 0.6122064 0.126889 0.07241657 0.4317616 0.024357224 -0.06591671
-0.08709889 -0.35595396 -0.007555562 -0.38657755 -0.029573921 -0.091429986 -0.14269114 0.2962929
-0.088908516 0.2570537 0.057996307 -0.017248692 -0.20420232 0.049893036 0.080489494 0.052682754
00000000: 375a 28bd 0fb2 a83d ff99 8abd a7bf 1c3d
00000010: 4892 94bd 0e32 a73b b510 123e c1ef 0a3d
00000020: b39d 283e b70f fe3d ef4f c2bd faa0 41be
00000030: 6a2a 8bbc adf5 483d 8be5 93bc 48ee 053d
00000040: 4fdf a8bc ea39 2b3e edd5 0f3e b2ff 2ebd
00000050: 2507 9439 f888 a03d 94b8 1e3e a843 ed3d
00000060: bd53 6cbb 815e a9bd 7c46 20be 6c42 22be
00000070: 840c ee3d bf75 0e3e cca8 2fbe 0a1f e23d
00000080: 470b ddbd f607 073e 3175 87bd 78c0 753e
00000090: 7c9b 2ebe cc31 f5bd c3d1 a13d e2ec bbbd
000000a0: 03aa fabd b856 1a3e 4430 05bc 0e48 40be
000000b0: 7cc1 9d3b 53cb c5bd 84cd 083c 7b3e 15bd
000000c0: 2821 43bd ed3d 04be 094f 043e c8e1 42bd
000000d0: 206b e1bd eb5f 713d d175 0a3d 6731 49bd
000000e0: 108f 4abc ffff 13be 299c 50bb 38e2 d9bd
000000f0: c0eb a33d c5ab e1bd 46f6 563d cfe1 143e
00000100: b0b8 53bd 5f15 c5bd 88a0 cabd 9a12 5cbe
00000110: ebf5 8f3e 96f2 853e 9f75 c4bc 43cd 3ebe
00000120: 9ebb b8bc 30e8 573d eab0 a73e f7b0 633e
00000130: 4f3f bd3e 7cbc 173e 1458 db3d 11ca 203e
00000140: 5c2d 0fbe 46c7 203d eb55 37bd 59d1 45be
00000150: b943 583b 73cd 4cbe ceaa 933c b719 993d
00000160: 1abf 03be 5464 f43e a3f1 ecbc 22ca 16be
00000170: 3829 bdbb b1f8 eb3e d05f 9fbd aabc 12be
00000180: 9724 b0bc 126e 0abe 62ad a03d cda1 62be
00000190: f456 833e d38a 8abe 1f6c 7bbe 2b6a ae3e
000001a0: c87c 47be c3e1 0bbe 9997 0b3d 0e7e 7e3e
000001b0: c956 a23e f532 443e 3388 1bbe 2e54 ee3d
000001c0: d732 a83d 5a14 5d3e 1dcf 7ebd e468 793c
000001d0: 0e47 d93c 5f5c f13d 278c a6be 3636 e13e
000001e0: e624 8fbe c365 a43e 93af 27be 4690 133c
000001f0: fe1f 103d 69ba d53d 3d96 d7bb 28bc 283e
00000200: 5831 153e a111 aebd 96a5 06be 1f98 5f3d
00000210: 2a3b 8bbd dc73 f6bd 3e31 78be 6b2f e33d
00000220: ac18 3cbe 42ef ffbd ea6c 3a3e 5d12 1b3d
00000230: c7d7 d5bd 4063 b53e c9d0 2dbe 7fbf f2bd
00000240: 7a4f 06be 59a5 82be dfc6 8f3d 81d4 febc
00000250: 4357 d5bc 236d 853e 28c4 0bbe 82ec b43e
00000260: ea8b d9be c7f0 da3e c41a 77be e1a8 2f3e
00000270: a0cd eebc d3da 483e 53c5 bbbd 1479 0ebe
00000280: 7810 32bd 7ddd 10be 4fb1 2e3d 264d ad3d
00000290: 7dfb a83d 144f de3e 366f cbbd 9a40 c6be
000002a0: ce67 0abe 9545 50bd e89d 3fbd 9fa9 d93c
000002b0: 6586 15be 65a0 953e c262 f03d e1ad 443e
000002c0: cab5 abbd 9839 28be d0c4 0fbe 6443 66bd
000002d0: 77ba 8dbd 8a91 1a3d 096d 7ebe c99d 223e
000002e0: f874 bbbc 4145 87bd d1ef 23be 1704 26be
000002f0: 4d3d 9bbe 8927 f33c fe2e 1c3e 6098 3bbe
00000300: d1f7 8e3e 230a 40bd def0 1dbe de38 b23d
00000310: a82d 70be 3e7f 9bbe 8e3d a03e 56cb c4bd
00000320: 7d48 06be e1dd 7ebe 9c4d 613e 5d41 ef3c
00000330: ffdf cfbe 6d6d 6a3d 05cc 4ebd 56c6 fcbd
00000340: 260b d5bd 4a39 d9be 4071 5d3d 1c58 403e
00000350: 0055 d23e 5b38 f13e 8ee3 2e3e b7df ddbe
00000360: daf3 e1bd 6e9d 093d 12f7 5c3e bc99 d93c
00000370: 95e2 45bd 2bfe ebbe 1148 0f3c 304c 073e
00000380: 3475 153e d875 8abe ed8c 1b3e bdf2 17be
00000390: ade8 a5bd 6887 883e 2b6f 80be a785 9bbe
000003a0: e17b 2cbe ac78 04be 8fb9 1c3f 31ef 013e
000003b0: 234f 943d db0f dd3e cd88 c73c 57ff 86bd
000003c0: e760 b2bd 993f b6be a694 f7bb 7eed c5be
000003d0: 0245 f2bc a53f bbbd a01d 12be b4b3 973e
000003e0: ab15 b6bd 8b9c 833e 898d 6d3d 214d 8dbc
000003f0: 6a1a 51be a45c 4c3d add7 a43d dfc9 573d
