experiments/pedestrians/models/hotel_attention_radius_3/model_registrar-100.pt (torch_old, 545361 bytes, 43 tensors)

weight_ih_l0 f4 [128, 6]
0.070505895 0.073688835 -0.20394926 -0.17683932 -0.046646263 -0.018023608 -0.1695236 -0.2104607
-0.03420068 0.120483205 -0.11765553 0.1656353 0.30400544 0.22209318 -0.36001801 -0.30358753
-0.0038510973 0.28257856 0.008771477 0.13166113 0.18728928 0.074732214 -0.1284865 0.078666255
0.083957165 -0.13281384 -0.24727146 0.41723457 -0.10811131 -0.22175752 0.28294954 -0.12476999
-0.017671293 0.13034889 0.017685525 -0.024805516 -0.15852617 -0.1213934 -0.053068276 0.09200141
-0.16643204 -0.27919826 -0.017381715 0.16590096 0.13589874 -0.023134746 -0.15484284 0.17913423
0.31477132 -0.10050772 0.30040157 0.030133005 -0.5026101 -0.033538442 -0.4004012 -0.40302262
0.24229924 0.44446006 0.08784367 -0.21388346 0.37180647 -0.13550533 -0.4786689 0.27081862
-0.17080812 0.18435854 -0.24310972 -0.16779779 0.116472624 0.2074787 0.08719413 0.1280927
-0.19008073 -0.35009298 0.06976877 0.060459476 0.12406546 -0.23402044 -0.0059525743 -0.0061691254
0.13394102 0.22023532 0.10688202 0.260125 -0.30197036 0.13089296 -0.26620904 0.05587283
0.81233615 -0.076736785 -0.2193759 0.28223422 0.42157578 -0.09305578 -0.12171879 0.14093119
-0.11513951 0.34063485 0.4315519 -0.08721256 -0.44543874 -0.82416403 0.041260596 -0.17286591
0.091078326 0.043297168 0.07611349 0.040593002 -0.06379441 0.05941082 0.1586166 -0.13572109
0.35018787 0.38396913 -0.113887794 -0.10579809 -0.026458494 0.17429182 0.10020961 0.094864614
-0.23861125 0.21689093 0.09936006 -0.27801314 0.010923201 0.014184997 0.19329642 0.41015252
-0.39271995 -0.17919828 0.13742784 0.13572465 -0.051460896 -0.18102759 0.025958413 0.1471601
-0.08701858 -0.015307356 0.04061534 0.0038338145 0.070896074 -0.14406478 0.04869025 -0.116027534
0.036193386 -0.11157025 -0.16049165 0.020824172 -0.7600537 -0.051712293 0.10240853 0.12529653
-0.15402114 -0.0090230275 -0.20246989 0.020989962 0.11294665 -0.23329002 -0.37671745 0.2538927
0.20023686 0.13551153 0.12040998 0.2667486 0.5124025 0.34835228 -0.19058934 0.080283694
-0.08687066 0.15690097 -0.12808849 0.09979968 0.24581194 -0.07361464 -0.19881108 -0.09092929
-0.1515812 -0.09986125 0.13864547 0.15533783 -0.057618603 -0.086307585 0.17330311 0.05323587
-0.18324283 -0.16185755 -0.018798463 0.20836082 0.25103182 -0.101567835 -0.36889103 -0.021865705
0.28811616 0.12810099 -0.23269041 -0.22510685 -0.12573385 -0.13020432 0.13630527 -0.09869385
-0.08272502 0.14152549 0.05854306 -0.16806643 -0.23894258 0.086321495 0.011871442 0.013997174
-0.053464435 -0.46103877 -0.057668064 0.039311223 0.12824471 -0.050613184 -0.11704406 -0.2246242
0.13290374 -0.1993413 0.022031365 0.38953632 -0.22985849 -0.105980925 0.12481942 -0.16180484
0.043962244 -0.074363776 -0.17819183 -0.028915161 0.055556376 0.10266318 -0.031079449 -0.013481618
0.0028321354 -0.012229647 0.009204694 -0.062730186 0.2097222 -0.060778633 -0.043532755 -0.014648506
0.25719216 -0.073699236 0.22027053 -0.0505503 -0.686217 0.14817551 -0.23538537 -0.18743737
0.13369712 0.28255677 0.33628806 -0.10609245 0.19646674 -0.01738283 -0.1224749 0.12348174
00000000: 6565 903d 2cea 963d 13d8 50be 5e15 35be
00000010: 2710 3fbd 3fa6 93bc 9897 2dbe 0283 57be
00000020: 0316 0cbd e6bf f63d 62f5 f0bd 4d9c 293e
00000030: 9aa6 9b3e 656c 633e 4854 b8be d36f 9bbe
00000040: b162 7cbb 23ae 903e 3eb6 0f3c 2dd2 063e
00000050: c3c8 3f3e 340d 993d f791 03be c61b a13d
00000060: bcf1 ab3d 5a00 08be bb34 7dbe c59f d53e
00000070: 7669 ddbd 6714 63be c3de 903e 6987 ffbd
00000080: 63c3 90bc 2e7a 053e 3ce1 903c f034 cbbc
00000090: af54 22be 1a9d f8bd 1f5e 59bd 3c6b bc3d
000000a0: 296d 2abe 13f3 8ebe 1964 8ebc f1e1 293e
000000b0: 0a29 0b3e 1485 bdbc 1f8f 1ebe f76e 373e
000000c0: b529 a13e fed6 cdbd 3cce 993e 7ed9 f63c
000000d0: 0eab 00bf 9b5f 09bd 6301 cdbe fb58 cebe
000000e0: 4b1d 783e 4590 e33e 62e7 b33d 4404 5bbe
000000f0: 6b5d be3e e9c1 0abe 1714 f5be bda8 8a3e
00000100: 53e8 2ebe 7cc8 3c3e c1f1 78be 2fd3 2bbe
00000110: 3389 ee3d 4c75 543e d692 b23d bc2a 033e
00000120: 86a4 42be 633f b3be eee2 8e3d 5ba4 773d
00000130: 0816 fe3d 0ea3 6fbe d00d c3bb 6026 cabb
00000140: d627 093e 5e85 613e f6e4 da3d 1b2f 853e
00000150: dc9b 9abe ce08 063e 8d4c 88be e9da 643d
00000160: 43f5 4f3f 2d28 9dbd 13a4 60be 0181 903e
00000170: c8d8 d73e 0794 bebd b347 f9bd 4450 103e
00000180: 43ce ebbd b167 ae3e 5ff4 dc3e 809c b2bd
00000190: 8c10 e4be 6afc 52bf df00 293d c303 31be
000001a0: 4687 ba3d 5f58 313d 64e1 9b3d d944 263d
000001b0: a5a6 82bd c358 733d 646c 223e 78fa 0abe
000001c0: d34b b33e 9a97 c43e 013e e9bd abac d8bd
000001d0: 7cbf d8bc 8e79 323e b23a cd3d 6148 c23d
000001e0: 8256 74be a818 5e3e 4a7d cb3d bd57 8ebe
000001f0: 3af7 323c 3168 683c 7fef 453e 83ff d13e
00000200: 9712 c9be c17f 37be e2b9 0c3e 67fb 0a3e
00000210: a9c8 52bd 4c5f 39be bda6 d43c 23b1 163e
00000220: cc36 b2bd b4cb 7abc 455c 263d bc40 7b3b
00000230: f631 913d b885 13be 6d6f 473d d89f edbd
00000240: 843f 143d f17e e4bd ec57 24be 7497 aa3c
00000250: e192 42bf 45d0 53bd 90bb d13d bc4d 003e
00000260: b8b7 1dbe 52d5 13bc 4454 4fbe 24f3 ab3c
00000270: 9350 e73d 94e3 6ebe 1ce1 c0be 39fe 813e
00000280: e40a 4d3e 89c3 0a3e 8299 f63d 4693 883e
00000290: cf2c 033f 3b5b b23e da29 43be c76b a43d
000002a0: 3fe9 b1bd a6aa 203e a129 03be c663 cc3d
000002b0: 20b6 7b3e 46c3 96bd 2295 4bbe 2339 babd
000002c0: 1a38 1bbe 0e84 ccbd 14f9 0d3e e110 1f3e
000002d0: 7c01 6cbd 08c2 b0bd 5f76 313e db0d 5a3d
000002e0: 02a4 3bbe fcbd 25be 3cff 99bc 8a5c 553e
000002f0: 3e87 803e cc02 d0bd 49df bcbe b51f b3bc
00000300: f683 933e e82c 033e 6546 6ebe 6982 66be
00000310: 60c0 00be 4854 05be 9c93 0b3e 0020 cabd
00000320: bc6b a9bd 0fec 103e d9ca 6f3d 9b19 2cbe
00000330: 5dad 74be 53c9 b03d 7080 423c 6754 653c
00000340: 86fd 5abd 460d ecbe 5935 6cbd ce04 213d
00000350: 9552 033e c54f 4fbd ccb4 efbd e303 66be
00000360: eb17 083e 2020 4cbe 1f7b b43c 4e71 c73e
00000370: 0660 6bbe 870c d9bd 53a1 ff3d 2bb0 25be
00000380: c111 343d 094c 98bd eb77 36be 7ddf ecbc
00000390: 158f 633d 1341 d23d 549a febc 01e2 5cbc
000003a0: 599b 393b db5e 48bc 49cf 163c af78 80bd
000003b0: 6bc1 563e 04f3 78bd 674f 32bd 4a00 70bc
000003c0: b1ae 833e a0ef 96bd 998e 613e d50d 4fbd
000003d0: ebab 2fbf 52bb 173e dd08 71be 95ef 3fbe
000003e0: e6e7 083e 48ab 903e f32d ac3e 0047 d9bd
000003f0: 942e 493e 7066 8ebc 1fd4 fabd ffe3 fc3d

weight_hh_l0 f4 [128, 32]
0.11300675 -0.153979 0.6661944 0.05885159 0.05341775 0.28241166 -0.06523643 -0.14092262
0.51246303 0.49104717 -0.5859421 0.35136887 -0.22606286 0.2027773 -0.2547156 -0.043699555
-0.33548692 -0.0913187 0.2716091 -0.55401874 -0.33535844 0.22937761 -0.14333841 -0.4596089
0.0149030965 -0.2961526 0.42930385 0.014330215 -0.20371637 0.20206702 0.09771521 -0.009954371
0.20709935 -0.40536433 0.3183726 -0.069115244 0.2702462 0.2250895 0.05001259 -0.114528604
0.33177453 0.025111465 -0.17401901 -0.06510922 -0.25707495 0.25918603 0.07974545 -0.088111
-0.17953953 0.087551296 0.18281883 -0.23950396 -0.1011773 0.15422074 -0.27733493 -0.31827742
0.08140483 -0.21402298 -0.030290509 -0.27392197 -0.3313307 0.06481975 0.102860525 0.05248545
0.081121415 -0.1744664 -0.004741765 0.30080345 0.051132146 -0.028877258 -0.32471174 -0.14088392
-0.045433957 0.014314252 -0.2960373 0.019489454 -0.10768239 -0.261649 0.1626947 -0.103203714
-0.122722015 0.0012598396 0.23745942 -0.012077222 -0.046590652 0.06227595 0.288498 0.10668864
0.27236322 -0.07139347 0.0447563 0.06635319 0.19924966 0.27786055 -0.27340764 0.17839135
0.020178678 -0.03807253 0.3051431 0.099890694 -0.09092968 -0.060472112 -0.16740224 -0.03473397
0.29017475 0.3110646 -0.23611064 0.022218453 -0.38683915 -0.14758925 -0.48377112 -0.23306389
-0.28677568 0.16335176 0.33801812 -0.46231002 -0.18880938 0.25651586 0.10276327 -0.2898307
0.019263832 -0.029913824 -0.008961162 -0.27840337 -0.37759373 0.1537227 0.11697003 0.12884258
-0.048135694 -0.2851697 0.7118417 -0.2736397 0.3302646 0.1850954 0.08567527 -0.12104209
1.0037506 -0.12516664 -0.2819323 -0.110264674 -0.08311799 0.056918178 -0.8367995 -0.08896584
-0.36254287 -0.12991093 0.8964289 -1.2139856 -0.03644696 0.63878334 0.04493962 -0.42964008
-0.22429463 -0.36843792 0.2653406 -0.9742567 -0.9837722 -0.035865348 0.09899756 0.3193139
-0.042438917 -0.14154811 0.08465366 -0.34019157 0.13553824 0.17603071 0.067090094 -0.15282086
0.15006638 0.34902847 -0.032458585 0.06301602 -0.20271412 0.18708473 -0.09552262 -0.21225247
0.062012684 0.13452351 -0.27626908 -0.018421803 0.067367226 0.13893172 -0.2456917 -0.04951312
-0.06830794 -0.2687763 0.34704775 0.107317604 -0.064164475 0.15870544 0.32467943 -0.18180531
0.17387958 0.09980518 -0.07055603 0.088397495 0.018424986 -0.0059690736 0.001627901 -0.18178417
-0.071158186 0.2348925 -0.19229336 0.058237586 -0.022175966 0.26617962 0.020205788 0.03355268
-0.11534982 -0.084818535 0.11958945 -0.20187601 -0.06155143 0.26604357 0.2118853 -0.15777776
-0.013986053 0.008021205 0.22273457 0.030159563 -0.29210004 0.25283152 -0.25922456 0.10557994
0.117156796 -0.38172475 -0.015719693 0.09422523 0.169081 0.16714817 -0.034149144 0.33028588
0.2672901 -0.29860958 -0.074246414 -0.42805243 0.338955 0.09104657 0.29400176 0.28618538
0.018392568 -0.16170873 0.09633683 -0.19417237 -0.12896065 0.3036166 -0.12595423 -0.26124993
0.0728366 0.039994545 0.19715169 -0.0022869678 -0.0408439 0.32314113 0.04039621 0.12399467
00000000: 1570 e73d acac 1dbe b78b 2a3f 5d0e 713d
00000010: 92cc 5a3d 4398 903e ad9a 85bd 054e 10be
00000020: c730 033f 896a fb3e 4d00 16bf 9fe6 b33e
00000030: 067d 67be daa4 4f3e 156a 82be 4efe 32bd
00000040: f1c4 abbe 4c05 bbbd 5910 8b3e 2cd4 0dbf
00000050: 1ab4 abbe f7e1 6a3e 4ec7 12be dc51 ebbe
00000060: 1e2c 743c 50a1 97be b7cd db3e 47c9 6a3c
00000070: 069b 50be a8ea 4e3e e91e c83d a817 23bc
00000080: da11 543e ea8b cfbe bc01 a33e 4b8c 8dbd
00000090: b65d 8a3e dd7d 663e 00da 4c3d f98d eabd
000000a0: 5ade a93e 8fb6 cd3c 0a32 32be fc57 85bd
000000b0: 549f 83be 08b4 843e 9551 a33d 8a73 b4bd
000000c0: 36d9 37be 184e b33d dc34 3b3e 8740 75be
000000d0: 0b36 cfbd 0bec 1d3e d8fe 8dbe 42f5 a2be
000000e0: 93b7 a63d d728 5bbe cd23 f8bc 803f 8cbe
000000f0: 2da4 a9be 38c0 843d 8aa8 d23d fcfa 563d
00000100: fc22 a63d 52a7 32be cf60 9bbb e902 9a3e
00000110: f16f 513d 0090 ecbc 9e40 a6be e043 10be
00000120: f518 3abd 5386 6a3c 3392 97be 59a8 9f3c
00000130: 9688 dcbd dcf6 85be 7099 263e 785c d3bd
00000140: ae55 fbbd 3421 a53a 9028 733e 8adf 45bc
00000150: d7d5 3ebd 1115 7f3d 03b6 933e 937f da3d
00000160: 3173 8b3e bd36 92bd 6252 373d 2ee4 873d
00000170: 1a08 4c3e bd43 8e3e 16fc 8bbe 39ac 363e
00000180: c14d a53c f1f1 1bbd b73b 9c3e 7e93 cc3d
00000190: 5739 babd 9bb1 77bd 7e6b 2bbe 3545 0ebd
000001a0: c991 943e dc43 9f3e fdc6 71be 7903 b63c
000001b0: c80f c6be a321 17be d9b0 f7be 4da8 6ebe
000001c0: 43d4 92be af45 273e b610 ad3e e6b3 ecbe
000001d0: 3f57 41be 0c56 833e 8d75 d23d b164 94be
000001e0: 2fcf 9d3c d60d f5bc d6d1 12bc e38a 8ebe
000001f0: f753 c1be 7c69 1d3e fc8d ef3d 4fef 033e
00000200: ef29 45bd c301 92be 423b 363f 811a 8cbe
00000210: 7118 a93e a689 3d3e 8476 af3d eae4 f7bd
00000220: e67a 803f af2b 00be 6e59 90be 72d2 e1bd
00000230: c439 aabd 0923 693d 7e38 56bf b933 b6bd
00000240: 389f b9be 5f07 05be 5d7c 653f e163 9bbf
00000250: 6849 15bd 4e87 233f 9b12 383d c9f9 dbbe
00000260: 7ead 65be e5a3 bcbe b9da 873e e368 79bf
00000270: 7fd8 7bbf 8be7 12bd 3cbf ca3d 1d7d a33e
00000280: 6ed4 2dbd fdf1 10be e65e ad3d 972d aebe
00000290: 89ca 0a3e 6541 343e 8866 893d 127d 1cbe
000002a0: 00ab 193e dcb3 b23e 4bf3 04bd 8b0e 813d
000002b0: 4a94 4fbe 2493 3f3e 5da1 c3bd b658 59be
000002c0: 0301 7e3d 88c0 093e 2473 8dbe 52e9 96bc
000002d0: d4f7 893d 1e44 0e3e 9b96 7bbe 45ce 4abd
000002e0: 09e5 8bbd 0c9d 89be 3eb0 b13e 55c9 db3d
000002f0: aa68 83bd ae83 223e 623c a63e 2c2b 3abe
00000300: 7d0d 323e a966 cc3d ae7f 90bd bf09 b53d
00000310: ffef 963c 3898 c3bb 4b5f d53a a125 3abe
00000320: 62bb 91bd a987 703e 8de8 44be 898a 6e3d
00000330: 5faa b5bc b248 883e 9c86 a53c 896e 093d
00000340: 873c ecbd 57b5 adbd 50eb f43d 96b8 4ebe
00000350: 5a1d 7cbd dd36 883e 76f8 583e 7e90 21be
00000360: c225 65bc 5f6b 033c 8814 643e 3011 f73c
00000370: 238e 95be 2273 813e 15b9 84be 4c3a d83d
00000380: e7ef ef3d 6d71 c3be 96c6 80bc 28f9 c03d
00000390: 9223 2d3e e428 2b3e f9df 0bbd 3b1b a93e
000003a0: 3fda 883e 5be3 98be 810e 98bd b029 dbbe
000003b0: 828b ad3e a076 ba3d 6687 963e e486 923e
000003c0: 03ac 963c f996 25be 3e4c c53d 1fd5 46be
000003d0: 430e 04be a373 9b3e 25fa 00be 8dc2 85be
000003e0: 5b2b 953d 52d1 233d 22e2 493e f4e0 15bb
000003f0: ef4b 27bd c172 a53e 7f76 253d ebf0 fd3d

bias_ih_l0 f4 [128]
0.07566898 0.36265305 0.25358278 0.12626734 0.3864235 0.30709657 0.3115063 0.2034929
0.1356187 0.18794829 0.47603294 0.41988584 0.6124484 0.28869572 0.14837459 0.43150216
0.065231 0.3476489 0.036835942 0.18869887 0.64315766 0.31744045 0.57765514 0.068255946
0.2963581 0.10293697 0.048037585 -0.003766595 0.024289785 0.37468946 0.38490608 0.19335662
-0.0048866617 -0.6126371 -0.42026764 0.016859608 -0.68230313 -0.14675449 -0.58521485 -0.44359642
-0.11068695 -0.09096238 -0.18854481 -0.20946474 -0.36586964 -0.15561642 -0.05356474 -0.7405871
0.048611887 -0.2161038 -0.034367308 0.117949866 -0.6772977 -0.2539295 -0.3634506 -0.0492442
-0.0890219 0.07765225 0.08492552 0.06747357 -0.036589827 -0.6608775 -0.555333 -0.25264037
0.15054101 0.13530397 -0.024289414 0.015588199 -0.09725336 0.010237718 0.109902486 -0.04694142
0.07781242 0.062593006 -0.08317782 0.0034852491 -0.119862035 -0.030306643 -0.037633073 -0.09258292
-0.09451385 -0.124960296 0.14810786 -0.105896205 0.068307914 0.07812686 0.09876814 -0.15551943
0.12346314 -0.08366407 0.029424082 -0.18243162 -0.1114965 0.1385985 0.020833267 -0.046219464
0.27547595 0.32866693 0.29448643 0.19726916 0.4420451 0.2547479 0.35454383 0.24359931
0.01913484 0.2524381 0.2621209 0.35015327 0.47934714 0.2681361 0.16052003 0.57488745
0.24414182 0.2680888 0.1313953 0.067802474 0.73484164 0.297329 0.5381289 0.11556173
0.088195056 0.17561954 0.2479341 -0.059760954 0.16133824 0.5696961 0.427633 0.13928677
00000000: 57f8 9a3d a9ad b93e 9ad5 813e 3a4c 013e
00000010: 4dd9 c53e c33b 9d3e c17d 9f3e 7160 503e
00000020: a1df 0a3e 8475 403e 97ba f33e 47fb d63e
00000030: 6bc9 1c3f edcf 933e 82ef 173e daed dc3e
00000040: d597 853d 09ff b13e 49e1 163d 473a 413e
00000050: fba5 243f 8e87 a23e 35e1 133f c6c9 8b3d
00000060: 40bc 973e 9ed0 d23d 0fc3 443d fad8 76bb
00000070: 5ffb c63c 4cd7 bf3e 6912 c53e 47ff 453e
00000080: 4a20 a0bb c9d5 1cbf 522d d7be 291d 8a3c
00000090: 6bab 2ebf cf46 16be a4d0 15bf 121f e3be
000000a0: d7af e2bd 7c4a babd e411 41be ed7d 56be
000000b0: 4453 bbbe e959 1fbe b366 5bbd 1e97 3dbf
000000c0: 421d 473d 514a 5dbe bcc4 0cbd b38f f13d
000000d0: 6263 2dbf 0c03 82be 3216 babe 49b4 49bd
000000e0: 1d51 b6bd 2508 9f3d 6eed ad3d 952f 8a3d
000000f0: 37df 15bd 452f 29bf 4e2a 0ebf 145a 81be
00000100: 6c27 1a3e 208d 0a3e 98fa c6bc a565 7f3c
00000110: c52c c7bd 1abc 273c 8e14 e13d a545 40bd
00000120: 1e5c 9f3d c330 803d 2259 aabd c768 643b
00000130: 3a7a f5bd a345 f8bc 2325 1abd 1d9c bdbd
00000140: 7a90 c1bd 2feb ffbd 96a9 173e 1ce0 d8bd
00000150: 05e5 8b3d fa00 a03d f346 ca3d 7c40 1fbe
00000160: 3eda fc3d 1158 abbd c60a f13c 5bcf 3abe
00000170: 4758 e4bd c4ec 0d3e 87aa aa3c 9f50 3dbd
00000180: 2f0b 8d3e 0847 a83e edc6 963e ed00 4a3e
00000190: bc53 e23e 516e 823e c586 b53e 1972 793e
000001a0: abc0 9c3c 913f 813e b634 863e 4a47 b33e
000001b0: fd6c f53e 2349 893e 5d5f 243e d32b 133f
000001c0: 5000 7a3e ef42 893e 7d8c 063e 06dc 8a3d
000001d0: 951e 3c3f 823b 983e d1c2 093f a1ab ec3d
000001e0: 9c9f b43d 9cd5 333e 70e2 7d3e e7c7 74bd
000001f0: da35 253e 9bd7 113f b6f2 da3e 31a1 0e3e

bias_hh_l0 f4 [128]
0.0313792 0.37576064 0.11979259 0.2877497 0.5301984 0.06319603 0.209855 0.38105625
0.22075666 0.35284218 0.21957785 0.29505774 0.37415183 0.58296525 0.18893808 0.59192353
-0.021735748 0.34020886 -0.05885477 0.14442171 0.79083604 0.498158 0.6061803 0.13255398
0.1980195 0.08780879 0.12159241 -0.09534817 -0.0573369 0.36534643 0.4544257 0.24354763
-0.09364554 -0.58654755 -0.18258011 -0.18928474 -0.37393677 0.01609009 -0.4442716 -0.5884214
-0.037800957 -0.14718473 -0.16960977 -0.27065447 -0.36865193 -0.3350521 0.052390162 -0.69047487
-0.08218634 -0.28402722 -0.0060143196 -0.063336045 -0.5333891 -0.41672817 -0.58651614 -0.077231795
-0.2926023 -0.23097603 -0.1686123 0.0067810896 -0.06481137 -0.42695886 -0.42324758 0.048750535
-0.13271797 -0.13346899 0.14579023 -0.040042717 0.15940732 0.04255892 -0.076239996 -5.0729246e-05
0.21907051 -0.03102513 0.044655558 0.020778751 0.060851205 0.036137518 -0.115337744 0.053675003
-0.0015725716 0.11742897 0.073554605 -0.23247889 -0.08866722 0.017673757 -0.14482678 0.09255804
-0.11503395 0.021977054 0.0323911 -0.06758447 -0.10004195 -0.14004578 -0.0037158425 0.057776373
0.1604343 0.4629931 0.13838628 0.4245825 0.54065984 0.15813737 0.55312216 0.5541928
-0.034866508 0.2747888 0.5033873 0.42704558 0.4915087 0.46131694 0.080374 0.5827513
0.26263362 0.13129726 0.23649208 -0.055687107 0.6978901 0.48842284 0.68990326 0.24815106
0.27602378 0.15126812 0.29984897 -0.053557485 0.031998444 0.5641545 0.4546511 0.34002694
00000000: 7a87 003d b363 c03e d155 f53d ee53 933e
00000010: 15bb 073f ec6c 813d 3be4 563e ce19 c33e
00000020: 090e 623e bba7 b43e 04d9 603e cf11 973e
00000030: d490 bf3e 363d 153f fc78 413e 4d88 173f
00000040: 2b0f b2bc db2f ae3e b311 71bd 49e3 133e
00000050: 3b74 4a3f 910e ff3e a22e 1b3f 3bbc 073e
00000060: a0c5 4a3e 18d5 b33d 7105 f93d e745 c3bd
00000070: 19da 6abd b00e bb3e 7caa e83e 8d64 793e
00000080: 3cc9 bfbd fb27 16bf 48f6 3abe dcd3 41be
00000090: a474 bfbe 5dcf 833c 9177 e3be c9a2 16bf
000000a0: 2dd5 1abd 98b7 16be 2fae 2dbe 3993 8abe
000000b0: f2bf bcbe f38b abbe 1197 563d f6c2 30bf
000000c0: 5051 a8bd 046c 91be c513 c5bb 54b6 81bd
000000d0: 308c 08bf 655d d5be ec25 16bf b42b 9ebd
000000e0: f8cf 95be fb84 6cbe b4a8 2cbe e733 de3b
000000f0: d3bb 84bd 5a9a dabe e8b3 d8be a4ae 473d
00000100: 38e7 07be 18ac 08be 094a 153e d503 24bd
00000110: ac3b 233e 4352 2e3d b723 9cbd 1dc6 54b8
00000120: 0554 603e 6a28 febc bfe8 363d 3338 aa3c
00000130: 1d3f 793d ef04 143d 3236 ecbd 52da 5b3d
00000140: bf1e ceba 9a7e f03d cca3 963d f20e 6ebe
00000150: 2997 b5bd 8ec8 903c 794d 14be 128f bd3d
00000160: eb96 ebbd 3909 b43c 88ac 043d ba69 8abd
00000170: cbe2 ccbd 2968 0fbe 7e85 73bb eba6 6c3d
00000180: e448 243e 6e0d ed3e 22b5 0d3e e162 d93e
00000190: af68 0a3f c3ee 213e 6a99 0d3f 94df 0d3f
000001a0: 2fd0 0ebd 1eb1 8c3e fddd 003f b8a5 da3e
000001b0: 07a7 fb3e bc31 ec3e 209b a43d 302f 153f
000001c0: ea77 863e ca72 063e fb2a 723e 2a18 64bd
000001d0: eda8 323f 8f12 fa3e 809d 303f 501b 7e3e
000001e0: fd52 8d3e 08e6 1a3e ce85 993e 185f 5bbd
000001f0: cd10 033d 6e6c 103f 07c8 e83e 0318 ae3e

weight_ih_l0 f4 [128, 2]
0.34358406 0.16729265 -0.064977825 0.049809363 0.11426562 -0.027880749 0.015411733 0.01171546
-0.042277895 -0.042248953 -0.01038691 0.18799172 0.0842712 -0.0082206195 -0.14050673 -0.08768496
-0.06897447 -0.07194847 0.016687894 -0.036548547 -0.017676815 0.060291376 -0.041585926 -0.07790188
-0.019913713 0.08061836 0.02649689 -0.11512667 -0.18762952 -0.009750369 0.011081787 0.0823971
-0.0037069044 0.10762019 -0.036206506 0.04008329 0.12887196 -0.0028227554 -0.027884291 0.04362546
0.07529107 0.032744315 0.024546392 0.15641811 0.08807014 0.08357259 -0.33171287 -0.05985719
0.09112067 0.0076818755 -0.06813308 0.015847765 0.07308491 0.03809227 -0.07413754 0.060959574
-0.01990561 0.20332743 -0.06449176 0.035674658 0.21556254 0.012521687 -0.025909537 -0.088442996
-0.068928264 -0.19688854 -0.08493676 -0.07966674 0.21993029 -0.14387514 0.21139418 0.113003604
0.30183125 -0.106363095 -0.08362758 -0.02166485 0.05973506 0.2218231 0.14170207 0.02068858
-0.22122157 -0.18789722 0.183501 -0.06432423 0.09854154 0.09183492 -0.27360016 0.123785585
-0.019865148 0.18865484 -0.1366577 0.035423286 -0.14456254 -0.0034060597 0.27730677 0.016164823
0.08155304 0.12049427 -0.25974697 -0.15392815 0.05381055 0.18316723 -0.26748177 -0.08056312
-0.20002112 -0.07671398 0.12830448 -0.07437117 0.14321877 0.0920911 -0.14494641 -0.037965912
-0.087173775 -0.012285836 0.050360493 0.054885667 -0.0755295 0.01762246 0.023812007 -0.106759995
0.2452717 -0.05058718 -0.07227484 0.15566906 0.29611388 0.0739995 -0.081438616 -0.23100245
0.27935424 0.15744956 -0.014730125 -0.13122936 -0.09446969 -0.13398528 -0.14532286 -0.13316114
-0.101383224 0.0632881 0.37348986 -0.011980743 0.15959102 -0.052588698 0.3939298 0.029931985
0.41811365 0.1719423 -0.17724346 0.24993573 0.09570954 0.15186097 -0.10267099 0.10152143
-0.20610419 -0.13156314 0.56793255 0.17241372 -0.0709411 -0.15381645 -0.025635498 0.1770916
0.1569671 -0.013510789 -0.173001 0.04975886 0.19692422 0.19504732 0.17078926 0.0956689
-0.045439646 -0.02566447 -0.12068038 0.06350576 -0.017203057 -0.18698904 0.2689937 0.11833754
0.31067947 0.08592015 0.05754951 0.17203507 -0.24624181 0.025173167 0.13843583 -0.105984695
0.41978803 0.1340861 0.09982062 0.18742943 0.3312221 0.032119296 -0.0042185243 -0.11200293
-0.08041466 -0.06280071 0.0056297793 0.11585432 0.23537643 -0.2303653 0.08488874 0.0052123363
0.03040058 -0.25765797 -0.00067256135 -0.03669516 0.015485952 0.04228147 -0.07454814 -0.04713905
-0.17829825 -0.058156855 0.08155487 -0.23053867 0.09181979 0.11852075 -0.044436615 -0.1075334
0.20046341 0.14099772 -0.22640826 0.055957362 -0.012119094 0.16863267 0.0893164 0.13801765
-0.08905451 0.09235779 -0.53766304 -0.17845912 -0.14133695 -0.07574774 -0.06595459 0.024066132
-0.095732704 -0.083689064 -0.044473585 -0.019840814 0.13487214 0.039004274 -0.2859573 -0.14908892
0.32539544 0.1779971 -0.22244476 -0.16236523 -0.02178007 -0.032325536 -0.008273646 0.014431994
0.09346243 0.085193165 -0.035389647 -0.016539177 0.21324684 0.1587015 -0.08176833 -0.29480293
00000000: 40ea af3e c44e 2b3e 1813 85bd e704 4c3d
00000010: 1804 ea3d 2b66 e4bc 7e81 7c3c 33f2 3f3c
00000020: 962b 2dbd 3d0d 2dbd dc2d 2abc e780 403e
00000030: 6196 ac3d c7af 06bc ffe0 0fbe 2c94 b3bd
00000040: 7d42 8dbd b859 93bd 0db5 883c eeb3 15bd
00000050: f8ce 90bc 17f4 763d 0156 2abd 058b 9fbd
00000060: 1522 a3bc 3d1b a53d 0110 d93c 88c7 ebbd
00000070: f421 40be 03c0 1fbc 6290 353c d0bf a83d
00000080: 89ef 72bb f967 dc3d 464d 14bd 602e 243d
00000090: 03f7 033e fafd 38bb 996d e4bc 9cb0 323d
000000a0: 3432 9a3d e71e 063d 8415 c93c 122c 203e
000000b0: 1e5e b43d 1b28 ab3d 45d6 a9be d02c 75bd
000000c0: 799d ba3d 3eb8 fb3b 5b89 8bbd 2cd3 813c
000000d0: 8bad 953d a406 1c3d 6cd5 97bd bfb0 793d
000000e0: 1711 a3bc 1135 503e 4214 84bd 971f 123d
000000f0: 6dbc 5c3e c327 4d3c 3d40 d4bc 9a21 b5bd
00000100: 432a 8dbd 269d 49be 53f3 adbd 5128 a3bd
00000110: 6835 613e 0154 13be b777 583e 6f6e e73d
00000120: a089 9a3e e5d4 d9bd f044 abbd 7c7a b1bc
00000130: c0ac 743d 9825 633e 591a 113e 197b a93c
00000140: e887 62be 2168 40be b0e7 3b3e 6cbc 83bd
00000150: 26d0 c93d f213 bc3d 5215 8cbe 4c83 fd3d
00000160: 3cbc a2bc bc2e 413e ffef 0bbe 0218 113d
00000170: 3408 14be 3338 5fbb 27fb 8d3e 176c 843c
00000180: 4805 a73d b3c5 f63d 8efd 84be 579f 1dbe
00000190: 7468 5c3d 3190 3b3e 5ff3 88be 47fe a4bd
000001a0: 56d2 4cbe 381c 9dbd 4062 033e e94f 98bd
000001b0: f1a7 123e 429a bc3d d56c 14be 2582 1bbd
000001c0: 2a88 b2bd 884a 49bc ce46 4e3d cbcf 603d
000001d0: 36af 9abd fa5c 903c 6611 c33c fca4 dabd
000001e0: 8128 7b3e 8134 4fbd d504 94bd b667 1f3e
000001f0: 3d9c 973e 0d8d 973d 4ac9 a6bd e88b 6cbe
00000200: 8507 8f3e 753a 213e 9f56 71bc fd60 06be
00000210: 5379 c1bd 7033 09be 84cf 14be 655b 08be
00000220: 02a2 cfbd 319d 813d 103a bf3e e14a 44bc
00000230: d46b 233e 3f67 57bd 2bb1 c93e ec33 f53c
00000240: fe12 d63e a411 303e 4f7f 35be 27ef 7f3e
00000250: 5d03 c43d 7181 1b3e 2b45 d2bd 78ea cf3d
00000260: fa0c 53be 7db8 06be 0764 113f 398d 303e
00000270: 9149 91bd 0f82 1dbe 8901 d2bc 8057 353e
00000280: fcbb 203e 5b5c 5dbc 2d27 31be f2cf 4b3d
00000290: 81a6 493e 7cba 473e 61e3 2e3e 0eee c33d
000002a0: ec1e 3abd 4b3e d2bc 4627 f7bd 4f0f 823d
000002b0: 6ded 8cbc 0e7a 3fbe 8bb9 893e f45a f23d
000002c0: 6111 9f3e e7f6 af3d 09b9 6b3d f629 303e
000002d0: d026 7cbe f537 ce3c 1fc2 0d3e 810e d9bd
000002e0: 75ee d63e de4d 093e c16e cc3d 80ed 3f3e
000002f0: f195 a93e 868f 033d 8c3b 8abb cb61 e5bd
00000300: 71b0 a4bd a99d 80bd 037a b83b 0845 ed3d
00000310: 8506 713e e2e4 6bbe 26da ad3d 3fcc aa3b
00000320: a30a f93c bfeb 83be d44e 30ba aa4d 16bd
00000330: cab8 7d3c 562f 2d3d b2ac 98bd e014 41bd
00000340: d193 36be e235 6ebd 3d06 a73d 5412 6cbe
00000350: 040c bc3d 02bb f23d 2b03 36bd 793a dcbd
00000360: 4846 4d3e b561 103e 91d7 67be 8c33 653d
00000370: 2a8f 46bc 0bae 2c3e 84eb b63d 8054 0d3e
00000380: 3662 b6bd 1526 bd3d 49a4 09bf fdbd 36be
00000390: a2ba 10be a221 9bbd 3313 87bd 5626 c53c
000003a0: 820f c4bd 2c65 abbd ef29 36bd 3489 a2bc
000003b0: ec1b 0a3e f2c2 1f3d ff68 92be c4aa 18be
000003c0: 3b9a a63e df44 363e 8fc8 63be 1243 26be
000003d0: 1e6c b2bc c867 04bd 308e 07bc 2c74 6c3c
000003e0: 3b69 bf3d c179 ae3d bcf4 10bd 2b7d 87bc
000003f0: 615d 5a3e a582 223e 2776 a7bd 69f0 96be

weight_hh_l0 f4 [128, 32]
-0.07383849 -0.07569794 -0.455916 0.2817563 0.06044404 0.4207578 0.12716267 0.037451096
0.09813754 -0.11271234 0.1511236 -0.06944153 0.16762587 0.13621904 -0.44665995 0.2698965
0.25404337 -0.27474147 0.13282785 0.21053833 -0.061192356 0.118502766 -0.0803205 -0.097847775
0.54393095 -0.18691835 -0.07222652 0.12620676 0.37586385 -0.0871754 -0.109372385 0.38596433
-0.12411953 -0.16226341 0.16787738 -0.008104218 -0.19103621 -0.00389367 -0.24408618 0.13272783
0.0054000188 0.0070345686 -0.0070055425 -0.16870846 0.06078144 0.19244862 0.06734006 0.22983491
0.03173099 -0.032215472 0.129756 0.31971732 0.22343628 -0.03026347 0.030699397 0.22437139
0.083417416 -0.23108442 -0.053056795 -0.20713264 0.05763714 0.110118456 0.12628524 0.2187087
0.02269448 -0.10123566 0.06622455 -0.012976908 -0.24198684 -0.014638317 0.04163167 -0.0013371608
-0.015810557 -0.3149277 -0.057209563 -0.24689192 -0.050928555 0.3155889 -0.10913783 0.08791691
0.05527418 -0.13581881 -0.010791488 -0.1210165 -0.11832809 0.034732778 -0.17149137 0.09362312
-0.0071576196 -0.18558167 -0.05394109 -0.055524737 -0.16077662 0.07608181 0.074785165 0.05318234
0.25519425 -0.072839126 0.23066124 -0.03099073 -0.13962457 -0.05676371 -0.01061627 -0.19502977
0.06459451 -0.0021532946 -0.07881547 -0.19324856 -0.14097872 -0.24743554 -0.27426824 -0.19932848
-0.16936363 -0.07141589 -0.23425362 -0.04748529 0.12942348 0.10731112 0.0015958174 -0.3550389
0.04637505 -0.054333642 0.0039641396 0.12128209 -0.10736354 0.035575688 0.10345351 0.12738506
0.036738668 -0.12783557 0.16667438 -0.011025438 -0.024048764 0.02622374 0.0036088903 -0.21359487
0.06501992 0.07847228 -0.072198555 0.023907427 -0.0151585415 0.12520012 -0.0051819384 -0.038967896
-0.4877766 0.1179576 0.037349343 -0.031524822 0.034676947 0.19201072 0.1773938 -0.14124331
-0.20662306 0.1484997 -0.1633302 0.07382289 -0.18840913 0.26349783 0.09486053 -0.06794063
-0.101988845 -0.18825157 -0.09810219 -0.11696943 -0.17319126 0.12639987 -0.124518335 0.34376976
0.37225986 -0.16780585 -0.0986462 0.018707959 -0.09377939 0.25332958 -0.041226692 -0.13056466
-0.14212394 0.0479681 0.110383 0.022711588 -0.1628669 0.004976016 -0.24909727 0.12798303
0.12572663 0.1445026 0.1825072 -0.040462304 0.33073053 -0.27717045 0.29917723 0.20448701
0.0668103 -0.20757265 0.12773702 -0.14838147 -0.0410162 -0.11920401 -0.10821331 -0.023494052
0.07581773 -0.27946946 0.008588703 -0.15359658 -0.22548603 0.26731858 -0.31384513 -0.2567716
0.04788878 -0.1592031 0.14159481 -0.0014670187 0.38369706 0.0683988 -0.2539641 -0.017619774
0.13867556 -0.22582021 -0.09474895 0.07352418 0.23177399 -0.100914516 -0.23426364 0.23542112
0.003993401 0.11446232 0.039959982 -0.011624292 0.10982105 -0.32494885 0.026081735 -0.019176865
-0.03225288 -0.13283964 -0.23129287 0.2690826 0.12512778 -0.06632311 0.19753188 -0.022211613
-0.08755117 -0.11630013 -0.10577344 -0.14252286 -0.13197426 0.007025386 0.028709864 -0.030443043
-0.1749606 0.113203526 0.13315238 0.12469548 -0.28455982 -0.124019824 -0.043093774 0.28159055
00000000: a238 97bd 8607 9bbd d26d e9be 5d42 903e
00000010: 2b94 773d 916d d73e ee36 023e 5266 193d
00000020: 56fc c83d bad5 e6bd 25c0 1a3e 5c37 8ebd
00000030: 1ea6 2b3e 017d 0b3e 9db0 e4be e02f 8a3e
00000040: f911 823e eaaa 8cbe 0604 083e 5c97 573e
00000050: d6a4 7abd 94b1 f23d 137f a4bd 6a64 c8bd
00000060: 0f3f 0b3f 8667 3fbe 7feb 93bd 583c 013e
00000070: 3a71 c03e 0489 b2bd a1fe dfbd 1e9d c53e
00000080: 6132 febd 6128 26be 0ce8 2b3e 8ec7 04bc
00000090: ff9e 43be f12c 7fbb baf1 79be cee9 073e
000000a0: a4f2 b03b 3d82 e63b c08e e5bb e9c1 2cbe
000000b0: f6f5 783d 4011 453e 96e9 893d d859 6b3e
000000c0: 5bf8 013d 5ff4 03bd c2de 043e fdb1 a33e
000000d0: 7bcc 643e 19eb f7bc 4d7d fb3c 9dc1 653e
000000e0: c0d6 aa3d 65a1 6cbe 1552 59bd 941a 54be
000000f0: ec14 6c3d c985 e13d eb50 013e 2cf5 5f3e
00000100: c6e9 b93c a454 cfbd bda0 873d 199d 54bc
00000110: 66cb 77be 8dd5 6fbc f885 2a3d ac43 afba
00000120: 2485 81bc 343e a1be 9354 6abd 3cd1 7cbe
00000130: 769a 50bd de94 a13e a883 dfbd c80d b43d
00000140: 2e67 623d 1614 0bbe c8ce 30bc 80d7 f7bd
00000150: ff55 f2bd f543 0e3d 6f9b 2fbe 7abd bf3d
00000160: 778a eabb 1f09 3ebe 55f1 5cbd e86d 63bd
00000170: a0a2 24be c8d0 9b3d f728 993d bad5 593d
00000180: d2a8 823e ae2c 95bd 7632 6c3e 45e0 fdbc
00000190: bef9 0ebe 1081 68bd ddef 2dbc e2b5 47be
000001a0: 204a 843d 4a1e 0dbb 016a a1bd f3e2 45be
000001b0: ba5c 10be be5f 7dbe e36c 8cbe c41c 4cbe
000001c0: a96d 2dbe 7e42 92bd 2ee0 6fbe ef7f 42bd
000001d0: 9787 043e efc5 db3d bf2a d13a a9c7 b5be
000001e0: c4f3 3d3d f48c 5ebd 9de5 813b bf62 f83d
000001f0: 6ae1 dbbd d0b7 113d 6fdf d33d 3b71 023e
00000200: 497b 163d 54e7 02be b0ac 2a3e 0aa4 34bc
00000210: ea01 c5bc 2bd3 d63c 2283 6c3b 9db8 5abe
00000220: 2a29 853d 13b6 a03d d6dc 93bd 82d9 c33c
00000230: 885b 78bc 7634 003e 40cd a9bb cd9c 1fbd
00000240: dbbd f9be c193 f13d a0fb 183d 2c20 01bd
00000250: 6a09 0e3d 759e 443e b8a6 353e 16a2 10be
00000260: ff94 53be 4e10 183e 0840 27be 7530 973d
00000270: 53ee 40be 30e9 863e 3d46 c23d 7524 8bbd
00000280: 87df d0bd 05c5 40be cde9 c8bd ab8d efbd
00000290: 0d59 31be f86e 013e 7803 ffbd 9702 b03e
000002a0: d898 be3e 4cd5 2bbe 0507 cabd 6f41 993c
000002b0: 690f c0bd 6ab4 813e 52dd 28bd beb2 05be
000002c0: f088 11be 337a 443d 7b10 e23d a70d ba3c
000002d0: 95c6 26be d90d a33b 5b13 7fbe fc0d 033e
000002e0: 7bbe 003e 7df8 133e 2be3 3a3e cdbb 25bd
000002f0: 8355 a93e 49e9 8dbe c22d 993e 0b65 513e
00000300: d7d3 883d ed8d 54be 7ecd 023e 50f1 17be
00000310: 9a00 28bd 3b21 f4bd f19e ddbd 9976 c0bc
00000320: 5346 9b3d 9f16 8fbe a2b7 0c3c 6c48 1dbe
00000330: cfe5 66be fbdd 883e 4fb0 a0be 9177 83be
00000340: 0627 443d 2306 23be 3bfe 103e fb48 c0ba
00000350: f173 c43e ac14 8c3d 9507 82be 5857 90bc
00000360: f700 0e3e 6a3d 67be bd0b c2bd d893 963d
00000370: 2956 6d3e 45ac cebd cfe2 6fbe 3c12 713e
00000380: 13db 823b 396b ea3d 14ad 233d d073 3ebc
00000390: dce9 e03d b25f a6be 5da9 d53c cd18 9dbc
000003a0: 991b 04bd 1d07 08be 0ad8 6cbe 32c5 893e
000003b0: 7f21 003e 69d4 87bd cc45 4a3e 21f5 b5bc
000003c0: 074e b3bd c32e eebd bf9f d8bd 83f1 11be
000003d0: 4324 07be 3635 e63b f330 eb3c b063 f9bc
000003e0: df28 33be 40d7 e73d 1959 083e 5860 ff3d
000003f0: d3b1 91be 1bfe fdbd 1983 30bd a32c 903e

bias_ih_l0 f4 [128]
-0.12421258 -0.12438165 -0.014270757 0.027698657 -0.028753841 0.0614642 0.052397773 -0.09269207
-0.042782098 0.03351221 -0.1867648 -0.17324516 -0.04186541 0.15282431 -0.16774103 -0.06065132
0.027483746 0.12143813 0.052222837 -0.1813654 0.11700216 -0.06681301 -0.19014458 -0.04957186
0.02912735 0.022063298 0.02133651 -0.020167014 0.13280769 0.060373224 0.07957029 -0.13185033
0.12065767 -0.13066259 -0.116186015 -0.07426053 -0.018149203 0.09993179 0.04654341 0.24963653
0.21391508 0.15631229 0.07950861 0.16299026 -0.08363612 0.23195155 -0.03097689 -0.06748555
-0.07908346 0.17762135 0.23006086 0.19578452 0.048434686 0.20118739 -0.1573246 0.07343045
-0.02332227 0.08217392 0.014271209 0.2527731 -0.10847969 0.028768754 -0.03292259 -0.078300714
-0.2744226 0.0797652 0.27248397 -0.14662623 0.04706803 0.0694119 0.1043942 -0.0460626
0.27915937 0.003265296 0.079099186 0.021307481 -0.04225232 0.01951162 0.047879808 -0.16604908
-0.11926896 -0.06425505 0.21049419 -0.20258197 -0.0013073838 -0.20628463 -0.094057366 0.25339717
-0.21659818 -0.06411392 0.052515503 0.008745563 -0.3387723 -0.08090843 -0.14717525 0.14970613
-0.028306184 0.22321104 0.12647955 0.12185278 0.18655501 0.24243058 0.28086498 0.09143705
0.018650847 0.2240868 0.012055606 -0.09099168 -0.047460288 0.24372406 0.109508164 0.10164337
0.116895065 -0.09940854 0.17777744 0.14223175 0.023298962 0.23641175 -0.043494854 0.00042296064
0.22124831 0.013804556 0.2399552 0.018672183 -0.03016038 0.015646528 0.15893894 -0.00059564866
00000000: 2a63 febd cebb febd e5cf 69bc 4be8 e23c
00000010: 2d8d ebbc e3c1 7b3d 0c9f 563d 57d5 bdbd
00000020: 483c 2fbd 1944 093d 463f 3fbe 2e67 31be
00000030: 107b 2bbd fa7d 1c3e 4ec4 2bbe 856d 78bd
00000040: 9825 e13c 8eb4 f83d 9de7 553d dab7 39be
00000050: d49e ef3d 42d5 88bd 43b5 42be dd0b 4bbd
00000060: 7b9c ee3c 17be b43c e8c9 ae3c 4b35 a5bc
00000070: bdfe 073e ea49 773d c0f5 a23d c603 07be
00000080: 5e1b f73d 6acc 05be eff2 edbd e815 98bd
00000090: a3ad 94bc 0aa9 cc3d 4da4 3e3d b8a0 7f3e
000000a0: 8e0c 5b3e 5410 203e 69d5 a23d ebe6 263e
000000b0: 6a49 abbd b584 6d3e 3fc3 fdbc dd35 8abd
000000c0: 82f6 a1bd 5fe2 353e 1395 6b3e bd7b 483e
000000d0: 7363 463d 1104 4e3e b319 21be b462 963d
000000e0: 580e bfbc cd4a a83d cad1 693c 7a6b 813e
000000f0: 9a2a debd 73ac eb3c d6d9 06bd 205c a0bd
00000100: 1e81 8cbe f05b a33d 0583 8b3e 3025 16be
00000110: 68ca 403d d427 8e3d a0cc d53d 23ac 3cbd
00000120: faed 8e3e 94fe 553b c1fe a13d 078d ae3c
00000130: c510 2dbd d5d6 9f3c 9e1d 443d c508 2abe
00000140: 4943 f4bd 2798 83bd ca8b 573e a671 4fbe
00000150: 855c abba 473c 53be 26a1 c0bd 46bd 813e
00000160: eacb 5dbe 294e 83bd 7f1a 573d 8d49 0f3c
00000170: 9073 adbe 52b3 a5bd 1cb5 16be 904c 193e
00000180: 5fe2 e7bc 6f91 643e db83 013e f38d f93d
00000190: 4708 3f3e b93f 783e 89cd 8f3e 5943 bb3d
000001a0: a9c9 983c 0377 653e e084 453c d959 babd
000001b0: b865 42bd cd92 793e d145 e03d 662a d03d
000001c0: ae66 ef3d b496 cbbd 4a0b 363e 33a5 113e
000001d0: 77dd be3c ec15 723e a927 32bd d1c0 dd39
000001e0: eb8e 623e 812c 623c d1b6 753e 68f6 983c
000001f0: e712 f7bc 262d 803c e4c0 223e 4e25 1cba

bias_hh_l0 f4 [128]
0.10482658 0.13510679 -0.08408321 -0.14123216 0.06528071 0.14914489 -0.19422086 0.011392294
0.035895485 0.10564306 0.01829264 0.035508737 -0.041323896 0.16210976 0.06154315 -0.009576673
-0.02356319 0.042315185 -0.038019095 -0.22632718 0.12206664 0.042621214 0.1042399 -0.12304899
-0.07786978 -0.061094653 -0.014421741 -0.11634237 0.15865013 0.08458195 -0.061244443 -0.102879405
-0.013550708 0.09035061 0.0077385 0.030146563 -0.0077369213 -0.06693414 -0.07656261 -0.04033382
-0.04772821 -0.022383079 -0.0018232932 0.05723579 0.06090861 0.24504334 -0.18742037 -0.14141102
-0.011617179 -0.08247481 0.085057996 0.008600418 0.040841118 0.12430927 -0.012487731 -0.0741434
0.0011128569 0.1270785 -0.075002715 0.033817474 0.08996939 -0.16350424 -0.15245973 0.098651245
-0.09513346 0.09770721 0.08377192 -0.113447934 0.12056421 -0.13184997 -0.09980455 -0.046732407
0.018428918 0.22592534 0.0040204176 0.12863684 -0.081120916 0.09239338 0.024980655 -0.05927728
-0.03036833 0.10692078 -0.07270919 -0.10453306 0.045658614 -0.16459624 0.037526578 0.18907101
-0.15244474 0.15842274 -0.15168345 0.024882311 -0.48749575 -0.119565174 0.07785195 -0.029858623
0.23607646 0.19918315 0.025885466 -0.14446506 0.01337411 0.25562593 0.205952 0.16516192
0.06172448 0.23681216 -0.04271407 -0.07022072 -0.03957904 0.10288116 0.17525116 0.2037243
0.26498792 -0.041023053 -0.044176515 0.12752162 0.006131141 0.046279456 0.07736814 0.2872018
0.09618221 0.13963678 0.028289128 0.20407136 0.24535644 0.082837924 0.08375986 0.0641147
00000000: 51af d63d 6f59 0a3e d133 acbd 2a9f 10be
00000010: e5b1 853d 70b9 183e d5e1 46be bfa6 3a3c
00000020: 2507 133d 635b d83d 72da 953c 9c71 113d
00000030: 3f43 29bd 1a00 263e ac14 7c3d 7ae7 1cbc
00000040: 9707 c1bc b052 2d3d e9b9 1bbd 50c2 67be
00000050: 13fe f93d 9593 2e3d bb7b d53d 1c01 fcbd
00000060: 317a 9fbd 633e 7abd 2a49 6cbc e944 eebd
00000070: 2e75 223e 4d39 ad3d 74db 7abd 70b2 d2bd
00000080: ca03 5ebc be09 b93d 3e93 fd3b edf5 f63c
00000090: 0086 fdbb c414 89bd dccc 9cbd 1335 25bd
000000a0: a87e 43bd b85c b7bc 91fb eeba 1370 6a3d
000000b0: 4e7b 793d a4ec 7a3e 20eb 3fbe 0dce 10be
000000c0: fb55 3ebc 8ee8 a8bd e332 ae3d c5e8 0c3c
000000d0: 0449 273d dc95 fe3d 5799 4cbc 7fd8 97bd
000000e0: 48dd 913a de20 023e 069b 99bd 3184 0a3d
000000f0: df41 b83d a86d 27be 671e 1cbe aa09 ca3d
00000100: 55d5 c2bd b81a c83d 9d90 ab3d 6457 e8bd
00000110: 5eea f63d ae03 07be 5466 ccbd 7b6a 3fbd
00000120: 3ef8 963c f958 673e b5bd 833b 60b9 033e
00000130: b922 a6bd be38 bd3d 3ba4 cc3c bccc 72bd
00000140: 01c7 f8bc 48f9 da3d 8ee8 94bd 6e15 d6bd
00000150: 8704 3b3d eb8b 28be 78b5 193d d59b 413e
00000160: 791a 1cbe 9239 223e e852 1bbe fdd5 cb3c
00000170: 0b99 f9be 96de f4bd d870 9f3d 129a f4bc
00000180: 07be 713e abf6 4b3e c20d d43c a6ee 13be
00000190: 151f 5b3c 67e1 823e 15e5 523e 3520 293e
000001a0: cfd2 7c3d e37e 723e f3f4 2ebd e1cf 8fbd
000001b0: a21d 22bd 5cb3 d23d 0a75 333e 1a9d 503e
000001c0: 7fac 873e ca07 28bd 6ff2 34bd 0795 023e
000001d0: bde7 c83b 878f 3d3d 3073 9e3d 1d0c 933e
000001e0: 2efb c43d f2fc 0e3e 9abe e73c 15f8 503e
000001f0: b83e 7b3e eea6 a93d 4a8a ab3d 914e 833d

weight_ih_l0_reverse f4 [128, 2]
0.08736837 -0.12436984 0.32412714 -0.4639043 -0.35580182 -0.2325041 0.06223039 -0.54859775
-0.36920023 -0.53842837 0.2577952 -0.5282165 0.064530246 0.6911497 0.20196791 -0.50436014
-0.2575674 -0.5507872 -0.09094162 0.41262084 -0.5162673 0.38535216 0.648805 0.09660407
-0.42698038 0.3724327 -0.35192296 -0.30019227 0.1625111 -0.17395481 0.43445164 -0.23293419
-0.12031413 0.048244886 -0.06674616 0.0702669 -0.23788576 -0.28873122 -0.033387 0.21848278
-0.34143913 0.25184923 -0.074112855 0.80366284 -0.6853186 0.8991012 0.17434053 -0.15503018
-0.271728 0.34785357 -0.91466486 -0.35187697 0.13202845 0.29956967 -0.37039256 0.08162212
0.15443367 -0.15622163 -0.052501235 0.22008224 -0.14568505 0.13482104 0.21169563 -0.33446628
0.09839828 -0.07331955 0.31946424 -0.32965484 -0.14013533 -0.11152544 -0.085445866 -0.38089082
-0.13092746 -0.12945668 0.36258417 -0.28866288 -0.14261642 0.35283053 0.22450496 -0.24557568
-0.07552169 -0.21340682 0.17237003 -0.19696584 -0.06315775 0.1122341 0.22586621 0.012594937
-0.26084685 0.29694 -0.01833978 -0.0029606393 0.16705512 -0.19194809 0.47162753 0.019729754
0.08361305 -0.011395972 -0.032050405 0.21941693 -0.14677973 -0.057118464 -0.15812026 0.22499819
-0.117564104 0.13190085 -0.14815679 0.422192 0.010097779 0.039897066 -0.17136672 -0.20207809
-0.03261181 0.09346361 -0.37959212 -0.26200563 0.10734528 0.23340519 -0.14791432 0.16322532
-0.06729281 -0.08116382 0.113233864 0.0755 -0.05960159 0.18669717 0.1526022 -0.28627136
-0.22910744 -0.5560366 -0.03751458 0.5220954 0.1855227 0.25485724 -0.16759628 -0.30346695
0.44176355 0.41049388 0.14397293 -0.12402013 -0.04780196 -0.7677298 -0.78542244 0.7619684
-0.105667606 -0.18180525 -0.42389393 0.90162504 0.2239253 0.0052976077 0.7956242 0.087585054
0.31516558 -0.33600718 0.14321496 0.23740797 0.058047812 -0.25868708 0.41331857 0.05860525
0.39055577 0.05582137 0.17361279 0.15956539 -0.02630449 -0.45335075 -0.13036266 0.0962509
-0.20252687 0.071072794 0.17056674 -0.36202213 -0.7005498 0.63005316 -0.0071959803 0.21869594
-0.11645383 0.29637048 0.7606548 0.3664127 -0.075500175 -0.4414001 0.005637402 -0.07500079
-0.6550555 0.39814302 0.4515416 -0.2024181 0.056708366 -0.19026348 0.2844325 -0.18027776
0.200504 -0.06720949 0.28538373 -0.3918225 -0.33023182 -0.36027765 -0.2870887 -0.21280533
-0.31965518 -0.12318568 0.2299623 -0.23133387 -0.08293795 0.7148657 0.25974005 -0.4523332
-0.29124594 -0.3024278 0.15574047 -0.025638094 0.057182524 0.014463038 0.64688194 0.1903428
-0.12200097 0.332327 -0.42093006 0.26531407 0.12794766 -0.26602775 0.1772129 0.009651249
0.33543882 0.06188901 0.19774398 -0.8014276 -0.19993794 -0.3730259 -0.122370705 0.47795895
-0.28680813 0.18569796 0.038216095 1.0602913 -0.7326253 0.47985548 -0.13398173 -0.067818455
-0.09492938 0.1340171 -0.31885475 -0.58181614 -0.008510728 0.63084126 -0.13718548 0.0014849637
0.33108038 -0.23258755 -0.15875837 -0.26313013 -0.15791655 0.17908056 0.4489349 -0.39385253
00000000: 30ee b23d 9db5 febd fef3 a53e dd84 edbe
00000010: a82b b6be 8e15 6ebe 4be5 7e3d e770 0cbf
00000020: d007 bdbe 71d6 09bf bcfd 833e 3239 07bf
00000030: 6f28 843d 30ef 303f add0 4e3e bf1d 01bf
00000040: e0df 83be 6400 0dbf 9a3f babd 0a43 d33e
00000050: 182a 04bf e14c c53e 1618 263f 5bd8 c53d
00000060: 2c9d dabe 80af be3e 3f2f b4be cdb2 99be
00000070: 4f69 263e 3621 32be 7270 de3e 4d86 6ebe
00000080: 4167 f6bd 6e9c 453d 36b2 88bd 18e8 8f3d
00000090: 5398 73be 94d4 93be cfc0 08bd f3b9 5f3e
000000a0: 1cd1 aebe 62f2 803e 7bc8 97bd d9bc 4d3f
000000b0: 0a71 2fbf 7f2b 663f 5386 323e 3bc0 1ebe
000000c0: ef1f 8bbe dd19 b23e 7a27 6abf 3829 b4be
000000d0: 7732 073e 3261 993e 18a4 bdbe 8029 a73d
000000e0: dc23 1e3e 90f8 1fbe 890b 57bd 3d5d 613e
000000f0: 762e 15be 870e 0a3e bdc6 583e 2a3f abbe
00000100: 0a85 c93d 8f28 96bd d190 a33e 85c8 a8be
00000110: a37f 0fbe 7367 e4bd 3efe aebd 1f04 c3be
00000120: d911 06be 4b90 04be a2a4 b93e 9fcb 93be
00000130: 0a0a 12be 34a6 b43e a1e4 653e 3178 7bbe
00000140: 1eab 9abd 5187 5abe c581 303e 6ab1 49be
00000150: da58 81bd feda e53d 7949 673e ff5a 4e3c
00000160: b88d 85be 8508 983e 4e3d 96bc 4907 42bb
00000170: 7f10 2b3e 0a8e 44be 2a79 f13e 4ba0 a13c
00000180: 523d ab3d 2cb6 3abc 4947 03bd d5ae 603e
00000190: 6d4d 16be 0df5 69bd 47ea 21be ed65 663e
000001a0: 73c5 f0bd 0411 073e 6ab6 17be 8d29 d83e
000001b0: 2871 253c 1b6b 233d c27a 2fbe 8fed 4ebe
000001c0: f693 05bd d969 bf3d e659 c2be 9a25 86be
000001d0: d8d7 db3d c501 6f3e da76 17be 8a24 273e
000001e0: d0d0 89bd 3839 a6bd 28e7 e73d be9f 9a3d
000001f0: cc20 74bd 8b2d 3f3e c043 1c3e 2992 92be
00000200: 249b 6abe 6a58 0ebf e3a8 19bd 0ba8 053f
00000210: aaf9 3d3e a67c 823e 5c9e 2bbe 0560 9bbe
00000220: d52e e23e 412c d23e a46d 133e 44fe fdbd
00000230: fdcb 43bd f189 44bf 7211 49bf 5c10 433f
00000240: 4268 d8bd 282b 3abe a008 d9be e6d0 663f
00000250: ad4c 653e 8e97 ad3b 07ae 4b3f cb5f b33d
00000260: 625d a13e 2209 acbe f1a6 123e 131b 733e
00000270: 8bc3 6d3d a272 84be 7e9e d33e 0f0c 703d
00000280: edf6 c73e f3a4 643d 8dc7 313e 1c65 233e
00000290: 847c d7bc 971d e8be ca7d 05be 311f c53d
000002a0: 3463 4fbe 9d8e 913d 0ca9 2e3e f75a b9be
000002b0: 3b57 33bf 2a4b 213f 42cc ebbb d4f1 5f3e
000002c0: 587f eebd dfbd 973e 46ba 423f 729a bb3e
000002d0: d69f 9abd 32ff e1be f5b9 b83b 049a 99bd
000002e0: b8b1 27bf 67d9 cb3e 7630 e73e b146 4fbe
000002f0: 0847 683d 6ed4 42be 23a1 913e bc9a 38be
00000300: ec50 4d3e 21a5 89bd d11d 923e f59c c8be
00000310: 2514 a9be 5076 b8be 4afd 92be a4e9 59be
00000320: d8a9 a3be c648 fcbd 3d7b 6b3e c9e2 6cbe
00000330: 5fdb a9bd 7001 373f a6fc 843e 3898 e7be
00000340: 301e 95be d1d7 9abe 6e7a 1f3e fb06 d2bc
00000350: 3938 6a3d 61f6 6c3c 0e9a 253f 39e9 423e
00000360: a5db f9bd c426 aa3e 2584 d7be 3fd7 873e
00000370: b604 033e ca34 88be 4c77 353e 4620 1e3c
00000380: a3be ab3e 557f 7d3d 667d 4a3e 5c2a 4dbf
00000390: 88bc 4cbe 40fd bebe 7e9d fabd 09b7 f43e
000003a0: 84d8 92be 9b27 3e3e 7b88 1c3d a0b7 873f
000003b0: 558d 3bbf 9eaf f53e 8232 09be 67e4 8abd
000003c0: 566a c2bd c73b 093e ee40 a3be e7f1 14bf
000003d0: 9570 0bbc d07e 213f 5a7a 0cbe 1da3 c23a
000003e0: 5e83 a93e 6e2b 6ebe 8e91 22be feb8 86be
000003f0: e0b4 21be e560 373e ccda e53e 0aa7 c9be

weight_hh_l0_reverse f4 [128, 32]
0.16360703 -0.20852497 0.11909931 0.36790434 -0.13685675 0.5318849 0.05838189 -0.20333889
0.231772 -0.118184045 0.0325182 -0.24324992 -0.29447693 0.71627563 -0.17686248 0.32798538
-0.30502692 -0.07732636 0.22178146 0.3545309 -0.26657993 0.36632928 -0.10417851 -0.10525034
-0.34419245 0.0376439 -0.6393476 0.0480315 0.37363744 -0.2259443 0.0061775898 -0.35406858
-0.18791138 -0.10621041 -0.030668821 0.2711305 -0.014076475 0.22865471 0.4486702 -0.3259029
0.054456074 -0.11088871 0.11900692 -0.020853775 0.43029088 -0.02771626 0.31098327 0.0833199
-0.19622247 -0.24449866 0.29373667 0.1319482 0.031034965 0.25480378 -0.3549617 -0.31069875
-0.14373805 0.089875616 0.10266623 -0.081420496 -0.4012776 0.05565796 0.069529384 0.14008768
0.16690502 -0.04206276 -0.07665261 -0.025993198 0.15266658 0.023437234 0.17320019 0.14455418
0.03846794 0.25118488 -0.018930398 -0.018867886 0.08907422 -0.19586973 0.050679512 -0.07526968
-0.50362253 -0.25226635 -0.08530207 0.0035136598 -0.06478898 -0.024741592 0.04955075 -0.08434997
-0.23854423 0.21066262 -0.024745084 0.099111326 0.42257747 0.06235742 -0.035675492 -0.34104106
0.27162448 -0.31628302 -0.19834635 0.08974245 -0.04706117 -0.0649069 0.5367315 -0.055664454
0.017997248 -0.25788474 -0.15179244 -0.05773867 0.13220654 -0.16355756 0.39434022 -0.035316855
-0.2746846 -0.06769362 0.11664796 0.13581781 0.028647482 0.16374007 -0.18948554 -0.18914656
-0.18341592 0.08763153 0.577307 0.11162793 0.03786828 -0.09648648 -0.10868556 0.003265305
0.38109678 -0.1463518 -0.12846124 0.26019582 -0.2397146 -0.049329057 0.53831625 0.06994733
0.24628209 -0.1131884 -0.2225746 -0.392206 -0.15277481 -0.19005533 0.10455914 -0.41844517
-0.4985774 -0.13779071 0.077082016 0.16177887 -0.03558238 0.2718086 -0.11824274 -0.006791495
-0.23560743 0.13556845 0.3557093 0.26966673 0.38471663 -0.059445117 -0.124849714 -0.23520146
0.15220633 -0.2142123 0.09999625 0.01757151 0.22582501 0.2686458 -0.0039248415 -0.44423968
-0.13264842 -0.5760512 0.050674926 -0.16981423 0.16651213 0.056320854 0.011337133 0.13722302
-0.08700806 -0.07659971 -0.17456439 -0.16448084 0.056615736 0.21604411 -0.5369267 -0.027112965
0.15600157 0.11059172 -0.014114446 -0.05154533 -0.44377497 0.29601508 0.17675738 0.09912459
-0.31475198 0.5229335 0.19557156 -0.57600796 0.37795755 -0.55125463 -0.09236692 0.31942543
-0.3397988 0.31255594 0.027123604 0.06009018 -0.28036457 -0.111373514 -0.08399216 -0.14656508
0.50945747 0.48829642 -0.27786615 0.2402715 0.067458674 0.11295882 0.0681326 -0.019496653
0.036125135 0.50936925 -0.05172527 -0.18951087 -0.10895894 0.070204414 -0.0935329 -0.12782942
0.17269632 -0.29308408 0.560608 -0.05398797 0.2003343 0.022474203 0.15063655 -0.41027576
-0.030581456 -0.17928347 0.4311276 -0.018112345 -0.1612773 0.18800288 -0.22523217 -0.09674252
0.054282594 -0.29398566 -0.29523745 -0.12758262 -0.40901446 0.3021955 -0.32254195 0.05522182
-0.4064204 0.3194305 -0.017347997 0.27758372 -0.17880948 -0.23221995 0.44454688 -0.522724
00000000: 9a88 273e 9287 55be 57ea f33d f55d bc3e
00000010: 2d24 0cbe 9c29 083f d921 6f3d 1238 50be
00000020: a455 6d3e 7a0a f2bd ce31 053d 8216 79be
00000030: aec5 96be d75d 373f 701b 35be b3ed a73e
00000040: 7d2c 9cbe 485d 9ebd ae1a 633e 1385 b53e
00000050: 2a7d 88be 838f bb3e 8b5b d5bd 7e8d d7bd
00000060: fe39 b0be 7d30 1a3d 49ac 23bf aebc 443d
00000070: 684d bf3e f15d 67be 616d ca3b 7a48 b5be
00000080: d76b 40be d884 d9bd 2e3d fbbc 9ed1 8a3e
00000090: 04a1 66bc 7624 6a3e 1ab8 e53e bfdc a6be
000000a0: 550d 5f3d 9f19 e3bd e6b9 f33d 89d5 aabc
000000b0: 164f dc3e 360d e3bc 3339 9f3e a0a3 aa3d
000000c0: 8bee 48be db5d 7abe a764 963e 6e1d 073e
000000d0: 0a3d fe3c a475 823e 8abd b5be e813 9fbe
000000e0: 1130 13be b510 b83d ac42 d23d cabf a6bd
000000f0: 4274 cdbe 9af9 633d 6c65 8e3d 2573 0f3e
00000100: 26e9 2a3e 004a 2cbd 0bfc 9cbd b0ef d4bc
00000110: a154 1c3e 71ff bf3c 645b 313e 0306 143e
00000120: 8f90 1d3d 4e9b 803e ec13 9bbc d390 9abc
00000130: 8b6c b63d 1392 48be 5295 4f3d fd26 9abd
00000140: 68ed 00bf 0e29 81be dab2 aebd 6e45 663b
00000150: 16b0 84bd e1ae cabc baf5 4a3d adbf acbd
00000160: f044 74be f1b7 573e 34b6 cabc e1fa ca3d
00000170: 135c d83e 7e6a 7f3d 7720 12bd ef9c aebe
00000180: 5d12 8b3e d9ef a1be 4e1b 4bbe e4ca b73d
00000190: 37c3 40bd e9ed 84bd 3c67 093f 6900 64bd
000001a0: f76e 933c 7809 84be 7a6f 1bbe 627f 6cbd
000001b0: 2761 073e a27b 27be f6e6 c93e 68a8 10bd
000001c0: 76a3 8cbe f4a2 8abd 20e5 ee3d d313 0b3e
000001d0: 20ae ea3c 7aab 273e 7f08 42be a3af 41be
000001e0: 62d1 3bbe 2978 b33d 64ca 133f 2f9d e43d
000001f0: c51b 1b3d b49a c5bd 8996 debd bafe 553b
00000200: 1e1f c33e 3fdd 15be 588b 03be 6338 853e
00000210: be77 75be 440d 4abd 18cf 093f 8c40 8f3d
00000220: 5f31 7c3e 52cf e7bd 99ea 63be 3acf c8be
00000230: 0071 1cbe dd9d 42be 1a23 d63d 723e d6be
00000240: 8945 ffbe 0219 0dbe 2ddd 9d3d 5ca9 253e
00000250: d4be 11bd 7f2a 8b3e 4029 f2bd 308b debb
00000260: 1343 71be 75d2 0a3e 881f b63e c211 8a3e
00000270: 94f9 c43e b97c 73bd 35b1 ffbd a7d8 70be
00000280: fadb 1b3e 785a 5bbe d5ca cc3d 21f2 8f3c
00000290: ac3e 673e f18b 893e f59b 80bb 6273 e3be
000002a0: fdd4 07be 1778 13bf 8390 4f3d c8e3 2dbe
000002b0: 2882 2a3e b2b0 663d 62bf 393c 3184 0c3e
000002c0: 4831 b2bd 4fe0 9cbd 02c1 32be aa6d 28be
000002d0: e7e5 673d ab3a 5d3e 0774 09bf 021c debc
000002e0: e0be 1f3e e97d e23d 4740 67bc 3221 53bd
000002f0: 7936 e3be 4a8f 973e e3ff 343e d501 cb3d
00000300: 2c27 a1be f8de 053f e943 483e 4275 13bf
00000310: a783 c13e 061f 0dbf de2a bdbd bb8b a33e
00000320: 1cfa adbe 5507 a03e 5232 de3c 1f21 763d
00000330: f28b 8fbe cc17 e4bd 1504 acbd 2815 16be
00000340: ce6b 023f fd01 fa3e 7944 8ebe bb09 763e
00000350: c627 8a3d f456 e73d 1b89 8b3d 72b7 9fbc
00000360: f3f7 133d 0666 023f e0dd 53bd 230f 42be
00000370: dd25 dfbd 55c7 8f3d 2d8e bfbd b7e5 02be
00000380: 4ed7 303e 1e0f 96be 0284 0f3f 7d22 5dbd
00000390: 6f24 4d3e d21b b83c 7840 1a3e aa0f d2be
000003a0: f685 fabc 1696 37be c2bc dc3e 5760 94bc
000003b0: e025 25be d483 403e 43a3 66be f120 c6bd
000003c0: 6d57 5e3d 4a85 96be 5d29 97be 05a5 02be
000003d0: 586a d1be 5eb9 9a3e 3824 a5be 4630 623d
000003e0: 5616 d0be 658c a33e 631d 8ebc 741f 8e3e
000003f0: d519 37be 11cb 6dbe a69b e33e 3dd1 05bf
