experiments/pedestrians/models/univ_vel/model_registrar-100.pt (torch_old, 545346 bytes, 43 tensors)

weight_ih_l0 f4 [128, 6]
0	0x3e82c7d7	0.2554309
1	0x3d1059f8	0.03524205
2	0xbdf3638e	-0.11884223
3	0xbd10e830	-0.03537768
4	0xbe89dd69	-0.26926735
5	0xbdba4d1a	-0.09096737
6	0xbe24d1a9	-0.16095604
7	0xbe5d8310	-0.21632028
8	0xbe1ee461	-0.15516807
9	0x3dc7b519	0.097513385
10	0xbc6396c4	-0.013890926
11	0xbd4ba7c0	-0.049720526
12	0x3d84332a	0.06455071
13	0xbd890b39	-0.06691594
14	0xbe61c485	-0.22047623
15	0xbe6b2e8f	-0.2296698
16	0xbecc52df	-0.39906976
17	0xbd2631d4	-0.040574864
18	0x3be1b27e	0.006887733
19	0xbd126870	-0.03574413
20	0xbc28a0a5	-0.010292207
21	0x3ccf09ba	0.025273193
22	0xbe28cca5	-0.16484316
23	0x3f02f106	0.5114902
24	0xbde95251	-0.11392654
25	0xbe1e1cfb	-0.15440743
26	0xbde2d16c	-0.110751
27	0x3e62e327	0.22156964
28	0xbd85688a	-0.0651408
29	0xbf1b1df4	-0.6059258
30	0x3d9c158b	0.076212965
31	0x3e93c542	0.28861433
32	0x3eaf5935	0.34247747
33	0xbe03e9cf	-0.1288216
34	0x3d8a277f	0.067458145
35	0xbe7e1021	-0.2481084
36	0xbe9cdd1b	-0.3063744
37	0x3e563709	0.20919432
38	0x3dfb2d9c	0.12264559
39	0xbe435ac3	-0.19077592
40	0xbe5ac51e	-0.21364257
41	0xbdfc438e	-0.123175725
42	0xbe64153a	-0.22273722
43	0x3d9237f5	0.07139579
44	0x3e965362	0.2936049
45	0xbd56a5e4	-0.0524043
46	0x3d74630b	0.059664767
47	0xbd15c406	-0.036563896
48	0x3df2404b	0.11828669
49	0x3e12cb5e	0.14335391
50	0x3efa054c	0.48832166
51	0xbec6846c	-0.38772905
52	0x3e92dfa0	0.28686237
53	0xbe16ee44	-0.14739329
54	0xbe4d43dc	-0.20045418
55	0xbecc2caa	-0.39877826
56	0x3db87877	0.09007352
57	0x3e8b96f8	0.27263618
58	0x3d6036e8	0.054739863
59	0x3db98f43	0.09060528
60	0x3e5497f0	0.20761085
61	0xbe8255c3	-0.25456056
62	0xbea5c430	-0.32376242
63	0x3e676735	0.22597964
64	0xbe28b2b6	-0.16474423
65	0x3e781e4a	0.24230304
66	0xbd9b8ef0	-0.075956225
67	0x3d3595b0	0.044332206
68	0xbe6a8abb	-0.22904484
69	0xbd1d2452	-0.038364716
70	0x3df04b2d	0.11733089
71	0x3e2406b0	0.16018176
72	0x3d93a3dc	0.07208988
73	0xbe1cc8fc	-0.15311044
74	0xbdbefd5e	-0.0932567
75	0x3c7b22d5	0.015328129
76	0x3ec50b5d	0.38485232
77	0xbd8a090f	-0.06740009
78	0xbd173893	-0.036919188
79	0x3de033ef	0.109474055
80	0x3e916ed3	0.28404865
81	0x3e337897	0.1752647
82	0x3ee530d1	0.44763806
83	0x3f2ce9cf	0.67544264
84	0xbdb0c1a7	-0.08630686
85	0xbd555e7c	-0.05209206
86	0xbf027fda	-0.50976336
87	0x3dbc0586	0.09180741
88	0xbcef8084	-0.029236086
89	0x3d4cf67e	0.05003976
90	0xbe2a04c7	-0.16603385
91	0x3dd443bd	0.103644826
92	0x3e7d18bd	0.24716468
93	0x3e345af7	0.17612825
94	0xbdc376cf	-0.09544145
95	0x3e33a0c8	0.17541802
96	0x3df7f51b	0.12107297
97	0xbb88cdae	-0.0041749096
98	0xbe8057e6	-0.2506706
99	0x3ed53418	0.41641307
100	0x3d852108	0.06500441
101	0xbee9b0f5	-0.4564282
102	0x3e48eea0	0.19622278
103	0xbe832cad	-0.25620022
104	0xbdc7ce69	-0.097561665
105	0x3dd9086a	0.10597308
106	0x3d15a54f	0.036534604
107	0x3de90e50	0.11379683
108	0x3d992683	0.07478049
109	0xbce8738e	-0.028375413
110	0xbd8d31de	-0.06894277
111	0x3eac22fa	0.33620435
112	0x3e9afa3d	0.30269042
113	0x3e53fffe	0.20703122
114	0xbe980976	-0.29694718
115	0xbd8db9de	-0.06920217
116	0xbe3d241b	-0.18470804
117	0x3de954b8	0.11393112
118	0x3df106bb	0.11768862
119	0x3e38fcf7	0.18065248
120	0xbee07698	-0.4384048
121	0xbd7cc74c	-0.0617135
122	0x3e601839	0.2188424
123	0xbdb5b3c7	-0.088721804
124	0x3dc8672a	0.09785302
125	0xbd4a3d14	-0.049374655
126	0x3e79b59a	0.24385682
127	0x3eae9c4a	0.34103614
128	0x3e2864d2	0.1644471
129	0xbe02ff0e	-0.12792608
130	0xbd43cdbc	-0.047803625
131	0x3d712d33	0.058880996
132	0x3cbdab26	0.023152899
133	0xbe3b9025	-0.18316706
134	0x3d86caaf	0.065816276
135	0x3dd452a3	0.10367324
136	0x3e19ce35	0.15020068
137	0x3d1c6fb3	0.038192462
138	0xbd96862a	-0.073498085
139	0x3dc710b8	0.09719986
140	0x3e5b8b82	0.21439937
141	0xbe4090c8	-0.1880523
142	0x3dd31892	0.10307421
143	0xbdd0b838	-0.10191387
144	0x3e532424	0.20619255
145	0x3b8fd610	0.004389532
146	0xbdebc7ec	-0.115127414
147	0xbe087201	-0.13324739
148	0xbf2b5ba1	-0.6693669
149	0x3e0a7aec	0.13523453
150	0xbe493cb2	-0.1965206
151	0xbded7d81	-0.115962036
152	0x3e5af2c0	0.21381664
153	0x3e4a6ecf	0.19768833
154	0xbd856261	-0.06512905
155	0xbd6e6e54	-0.058210686
156	0xbdaee7f7	-0.085403375
157	0xbd384f89	-0.044997726
158	0xbefcc3b5	-0.49368063
159	0xbea7340b	-0.32656893
160	0xbe74f45e	-0.23921344
161	0x3ebba7c0	0.3665142
162	0xbda1e575	-0.079050936
163	0x3e4133e3	0.1886745
164	0x3f0f8976	0.56069124
165	0x3ef3467b	0.4751471
166	0xbdfc6cc9	-0.123254366
167	0x3de63339	0.11240239
168	0x3d54fb21	0.051997308
169	0x3dab4953	0.08363595
170	0xbe6e2832	-0.23257521
171	0x3d9bba55	0.076038994
172	0x3e0c3c06	0.13694772
173	0x3e6618a9	0.22470345
174	0xbe956a85	-0.2918283
175	0xbdddf5ea	-0.1083792
176	0x3d8b7e6d	0.06811223
177	0xbdc4e12d	-0.09613261
178	0x3d4d98a6	0.050194405
179	0x3e11b89a	0.14230576
180	0xbe7c99ff	-0.2466812
181	0xbe423e6e	-0.18969128
182	0x3ea105ed	0.31449834
183	0x3deaf8ae	0.11473213
184	0xbe37a0a5	-0.17932375
185	0xbe163f77	-0.14672647
186	0xbde6f692	-0.11277498
187	0xbcfb3d96	-0.030669015
188	0x3d83d92a	0.06437905
189	0x3d3a1123	0.0454265
190	0xbe19ec95	-0.15031655
191	0x3e280dd2	0.16411522
192	0x3ecd9e2e	0.40159744
193	0x3e093aaa	0.13401285
194	0xbe3c87d7	-0.18411194
195	0xbe276119	-0.16345634
196	0xbd261399	-0.040546034
197	0xbe8b4a2c	-0.27205026
198	0x3e8db8cf	0.2768006
199	0xbe2f1a02	-0.17099765
200	0xbdfc8f06	-0.12331967
201	0x3df53a4b	0.11974009
202	0xbcc7b33d	-0.02437746
203	0xbd8805c3	-0.06641724
204	0xbddf0462	-0.10889508
205	0xbd7238c3	-0.059136163
206	0xbcfae257	-0.030625505
207	0xbd71a3c0	-0.058994055
208	0xbda19a9f	-0.0789082
209	0xbdec9672	-0.11552133
210	0xbd620622	-0.05518163
211	0xbe0ee08a	-0.13952842
212	0x3dd2131e	0.102575526
213	0xbe4415c5	-0.1914893
214	0xbcb779ea	-0.022397
215	0xbe0436ef	-0.1291158
216	0x3dfd7f81	0.12377835
217	0xbe81da6a	-0.2536195
218	0x3d13603b	0.035980444
219	0x3d7e229e	0.062044732
220	0xbe731f04	-0.237423
221	0x3e7b1894	0.24521095
222	0x3e5c020a	0.21485153
223	0x3dbaacb0	0.09114969
224	0x3e045cf7	0.12926088
225	0xbe7f5c09	-0.24937452
226	0xbe855903	-0.26044473
227	0xbd9dfd29	-0.07714302
228	0xbd59aff6	-0.053146325
229	0x3c8aa2fa	0.016923416
230	0x3e3da727	0.18520795
231	0xbdd25748	-0.10270554
232	0xbe3e1342	-0.18562034
233	0xbde4cd40	-0.11171961
234	0xbde60382	-0.11231138
235	0xbe7f0310	-0.24903512
236	0x3e23ee32	0.16008833
237	0xbde45dea	-0.11150725
238	0x3bf8d1f2	0.007593387
239	0x3c94d2f9	0.018167006
240	0x3e30e548	0.17274964
241	0xbe5544de	-0.20827052
242	0xbc8613e7	-0.016366912
243	0xbd436335	-0.047702033
244	0xbe2171a0	-0.15766001
245	0x3e332b59	0.17497005
246	0xbe422c99	-0.18962325
247	0xbdc84f15	-0.09780709
248	0x3e97f414	0.29678404
249	0x3e172d17	0.14763294
250	0x3e594e79	0.21221341
251	0x3e1a4c77	0.15068232
252	0x3dfc3097	0.12313955
253	0xbe168699	-0.14699782
254	0xbdadeb38	-0.0849213
255	0x3e0cc270	0.13746047

weight_hh_l0 f4 [128, 32]
0	0xbd4f1ef5	-0.050566632
1	0xbd8247a8	-0.063613236
2	0x3e4b3542	0.19844535
3	0x3e171195	0.14752801
4	0x3e2b0e61	0.16704704
5	0xbdfa931c	-0.1223509
6	0x3e00fa29	0.12595429
7	0xbe07db25	-0.13267191
8	0x3caf77a6	0.021419358
9	0x3eb586ef	0.3545451
10	0xbead6140	-0.33863258
11	0x3dfb58fc	0.12272832
12	0xbdf7a23d	-0.12091491
13	0x3e2ec18d	0.17066021
14	0x3e39030f	0.18067573
15	0xbe124e57	-0.14287697
16	0x3def4e10	0.11684811
17	0xbdf4f112	-0.11960043
18	0x3d0f0182	0.034913547
19	0xbde2b021	-0.1106875
20	0xbe519b64	-0.20469433
21	0x3da4e583	0.080515884
22	0xbe2d5be9	-0.16929592
23	0xbec78958	-0.38971972
24	0x3e280582	0.16408351
25	0x3c88b7bd	0.016689176
26	0xbd92e024	-0.07171658
27	0x3eb61af9	0.35567454
28	0x3db97f17	0.090574436
29	0x3e19875b	0.1499304
30	0x3e746e00	0.23870087
31	0xbe98e251	-0.29860166
32	0xbd2f237a	-0.042758442
33	0xbde84bca	-0.113425806
34	0x3e2304d1	0.15919806
35	0xbe1a6388	-0.1507703
36	0x3ece3a82	0.40279013
37	0xbeba3237	-0.36366436
38	0x3ea94f6e	0.33068413
39	0xbcb6f5fe	-0.022334095
40	0x3f0d41b8	0.55178404
41	0x3b93b80e	0.004508025
42	0xbe9fc116	-0.31202
43	0xbea9052e	-0.33011764
44	0xbed3d712	-0.41375023
45	0x3cf7d0d8	0.030250952
46	0x3e78aedc	0.24285454
47	0xbeec5bad	-0.46163693
48	0xbf005311	-0.5012675
49	0xbd3145c6	-0.04327943
50	0x3f13e731	0.57774645
51	0xbf0dfd66	-0.5546478
52	0xbe211b91	-0.15733172
53	0x3eb2c765	0.3491775
54	0xbbc6cbb7	-0.006066765
55	0xbef71158	-0.4825542
56	0xbee815bd	-0.45329085
57	0xbf3dae72	-0.7409431
58	0x3e66d24b	0.22541158
59	0xbefc04ae	-0.4922232
60	0xbf3d6d55	-0.7399495
61	0x3e44f313	0.1923335
62	0x3e4b7abf	0.19871043
63	0xbcd0a9d4	-0.025471605
64	0x3e72961a	0.23690072
65	0xbdfc2757	-0.12312191
66	0xbccd965c	-0.025096111
67	0x3e0d2625	0.13784082
68	0x3e1b57b4	0.15170175
69	0x3e18febf	0.14940928
70	0xbd74fece	-0.059813313
71	0xbe658713	-0.22414808
72	0xbd875a19	-0.06608982
73	0x3e907c1b	0.28219685
74	0xbea82354	-0.32839453
75	0x3e1c4d39	0.15263833
76	0xbd931bda	-0.07183047
77	0xbd7f4209	-0.062318835
78	0x3d934647	0.07191139
79	0xbe6ba7ff	-0.23013304
80	0x3df8c5c0	0.12147093
81	0x3b1a6784	0.0023560235
82	0x3d5f68a9	0.05454317
83	0xbe171b5e	-0.14756534
84	0x3e2acddd	0.16680093
85	0x3db96080	0.09051609
86	0x3c938b5d	0.01801079
87	0x3e07f9f7	0.13278948
88	0x3e7b390b	0.24533479
89	0x3e482f27	0.19549237
90	0x3d855a03	0.06511309
91	0x3e80bb99	0.25143126
92	0x3e126c1d	0.14299054
93	0x3dc8b9b9	0.09801049
94	0xbce92742	-0.028461102
95	0x3cfb8f8b	0.030708095
96	0xbd281de4	-0.04104413
97	0x3e20e16c	0.15710992
98	0x3e47f6fd	0.19527812
99	0x3d4ca323	0.049960267
100	0x3d9e4665	0.077282704
101	0xbd939b8a	-0.07207401
102	0x3da5a5a1	0.08088232
103	0xbd5ad625	-0.05342688
104	0x3e3375cd	0.17525406
105	0x3e165354	0.14680225
106	0xbeddaafb	-0.4329451
107	0xbe395ef2	-0.18102625
108	0xbe5a69ab	-0.21329372
109	0xbe24acd9	-0.16081561
110	0xbdfa0090	-0.122071385
111	0xbe879d2c	-0.264871
112	0xbe1f2d18	-0.15544546
113	0x3c796ba6	0.015223419
114	0x3dbd9148	0.09256226
115	0xbeab6af2	-0.3348003
116	0xbd656f87	-0.056014564
117	0x3e9113b7	0.28335354
118	0x3d3f8023	0.04675306
119	0xbe2f2438	-0.1710366
120	0xbe953438	-0.29141402
121	0xbe880f23	-0.26574048
122	0x3b9ec813	0.004845628
123	0x3d2acb22	0.04169763
124	0xbec7cb47	-0.39022276
125	0x3e423c13	0.18968229
126	0x3e96b488	0.2943461
127	0xbe1254d9	-0.1429018
128	0xbe504f9c	-0.20342869
129	0xbc2c77f1	-0.010526643
130	0x3ea14b40	0.31502724
131	0xbe040b04	-0.12894827
132	0x3e8105d0	0.25199747
133	0xbdf91e79	-0.12164015
134	0x3dc1f931	0.094713576
135	0xbd9ffbad	-0.07811675
136	0xba9188ac	-0.0011103353
137	0xbccaa19d	-0.024735266
138	0xbe8543ce	-0.26028293
139	0xbdf72757	-0.1206805
140	0xbd7178ca	-0.058953084
141	0x3d8cdae2	0.06877686
142	0x3e25c7f1	0.16189553
143	0xbe69c5d2	-0.22829369
144	0xbdf4db4c	-0.1195589
145	0xbd8f875a	-0.07008238
146	0xbdcbe879	-0.0995645
147	0x3c58f2a3	0.013241443
148	0x3c8a9fe6	0.016921949
149	0x3eba0b37	0.3633668
150	0xbcb47e49	-0.022032874
151	0xbe7ab447	-0.24482833
152	0xbca03e02	-0.019560818
153	0xbdffced1	-0.12490619
154	0xbe0b3a3e	-0.13596436
155	0xbd0f1e46	-0.03494098
156	0xb97a7736	-0.00023886267
157	0x3d8fb4ea	0.070169285
158	0x3e784f35	0.24248965
159	0xbe4ea6a1	-0.20180751
160	0x3dbec909	0.09315688
161	0xbe90b7a3	-0.28265104
162	0x3da05d7a	0.07830329
163	0xbe34152b	-0.175862
164	0x3ca0ae80	0.019614458
165	0xbdede139	-0.116152234
166	0x3e9752e7	0.29555437
167	0xbe86d3a4	-0.26333344
168	0xbe44a3bd	-0.19203086
169	0x3d95aafb	0.073080026
170	0x3d84da91	0.06487001
171	0xbdc8f563	-0.09812429
172	0xbe75d11f	-0.24005555
173	0x3e4b5727	0.19857465
174	0xbd132ff8	-0.03593442
175	0xbe1b5182	-0.15167812
176	0x3ce22ab4	0.027608253
177	0x3e21504e	0.1575329
178	0xbe5e6fca	-0.21722332
179	0x3d9e9f96	0.07745282
180	0xbe18d0e3	-0.14923434
181	0x3c8734c1	0.016504647
182	0xbd46cbb9	-0.04853413
183	0xbe3f99ec	-0.1871106
184	0xbc7fe682	-0.015618922
185	0xbd489cd1	-0.048977677
186	0x3e267ad8	0.16257799
187	0x3e1a38a1	0.15060665
188	0x3d2a2005	0.041534442
189	0xbd4c15be	-0.049825422
190	0x3e54a4fa	0.20766059
191	0x3e209e5f	0.15685414
192	0x3e471f57	0.19445549
193	0x3d0c18eb	0.03420345
194	0xbdc0bc0b	-0.09410866
195	0x3d79e1cc	0.061006352
196	0x3e66e9ce	0.22550127
197	0xbe223495	-0.15840371
198	0x3e86d437	0.26333782
199	0xbead2adb	-0.3382176
200	0xbe851d7d	-0.2599906
201	0x3e202561	0.15639259
202	0xbe265983	-0.16245084
203	0xbd3a1cfb	-0.045437794
204	0xbcbc2472	-0.022966597
205	0x3eb947ac	0.36187494
206	0x3d9239e4	0.07139948
207	0xbce3b847	-0.027797831
208	0x3e0fb5ad	0.14034148
209	0xbd8f8b48	-0.07008988
210	0xbdb512ca	-0.08841474
211	0xbe204f80	-0.15655327
212	0xbcecbfc3	-0.028900033
213	0x3e8c6e22	0.27427775
214	0x3e200dee	0.15630314
215	0xbe39a47a	-0.18129149
216	0xbe3b4d32	-0.18291166
217	0x3e2b9a34	0.16758043
218	0x3d1e9e86	0.0387254
219	0x3e1f3d67	0.15550767
220	0xbe1b3cdf	-0.15159939
221	0x3ddd7cb5	0.108148016
222	0xbd188992	-0.037240572
223	0x3e025310	0.12726998
224	0x3da2deb2	0.07952632
225	0xbe160288	-0.14649403
226	0x3d628e1f	0.05531132
227	0x3d318409	0.04333881
228	0x3df5a72a	0.11994775
229	0xbd717fba	-0.0589597
230	0x3e6dba07	0.23215495
231	0xbde49da7	-0.11162882
232	0x3c4b47fa	0.012407297
233	0xbd3b3272	-0.045702405
234	0xbdfea68e	-0.124341115
235	0xbe54d7b3	-0.20785408
236	0x3d8bb0bb	0.06820818
237	0x3b70bd7d	0.0036734038
238	0x3e885d0a	0.26633483
239	0x3cb02d44	0.02150596
240	0x3dda9665	0.10673217
241	0xbdc3cfea	-0.09561141
242	0xbdec1c9a	-0.11528893
243	0xbc5ce39a	-0.013481999
244	0xbeab28d8	-0.334296
245	0x3e2b95a4	0.16756302
246	0xbdba811c	-0.09106657
247	0xbea1fbc7	-0.31637403
248	0x3c1cc091	0.009567396
249	0x3de1dfdb	0.11029025
250	0xbcdd40b1	-0.027008386
251	0x3d9d2a5b	0.07674094
252	0x3db773a9	0.08957607
253	0x3dce6788	0.10078341
254	0x3ddfcc25	0.10927609
255	0x3e2c2a97	0.16813122

bias_ih_l0 f4 [128]
0	0x3ded7b67	0.11595803
1	0x3f1af2b5	0.6052659
2	0x3de38ea4	0.11111191
3	0x3e9b3c82	0.303196
4	0x3e0bf749	0.1366855
5	0x3e6f1c08	0.23350537
6	0x3e5b4495	0.2141288
7	0x3e2a0998	0.16605222
8	0x3d2eb4fb	0.042653065
9	0x3d93acfd	0.07210729
10	0x3ecaac6c	0.39584672
11	0x3e61aec9	0.22039331
12	0x3f0330d1	0.5124636
13	0x3cafe41d	0.021471078
14	0x3e73b434	0.23799211
15	0x3e661a4e	0.22470972
16	0x3c684443	0.014176431
17	0x3e7e8a51	0.24857451
18	0x3b8a0889	0.0042124433
19	0x3e496b50	0.19669843
20	0x3f2d9699	0.6780792
21	0x3dcb18d7	0.09916847
22	0x3ec41172	0.3829456
23	0x3d939028	0.0720523
24	0x3e9893b0	0.29800177
25	0x3e0ebe61	0.13939811
26	0xbc7ce3a5	-0.015435134
27	0x3d286297	0.041109648
28	0x3c6e0465	0.014527415
29	0x3ecb8b02	0.39754492
30	0x3e186036	0.14880452
31	0x3e0a7f44	0.1352511
32	0xbb6fc4aa	-0.0036585727
33	0xbf2986c2	-0.6622125
34	0xbe99e277	-0.3005559
35	0xbe6ff282	-0.23432353
36	0xbe9c131b	-0.30483326
37	0xbe062f8c	-0.13104075
38	0xbebfdd1c	-0.3747338
39	0xbeded7d5	-0.43524042
40	0xbe2fab16	-0.17155108
41	0xbd0d8ab1	-0.034556095
42	0xbe1d10cc	-0.15338439
43	0x3c943e33	0.018096065
44	0xbec0bcdb	-0.37644085
45	0x3e04abc7	0.12956153
46	0xbdb5e530	-0.08881605
47	0xbec2d752	-0.380549
48	0x3dc09f62	0.094054
49	0xbd63b3ce	-0.055591397
50	0xbdb6dde0	-0.08929038
51	0x3dc0e350	0.094183564
52	0xbf3c04e1	-0.73444945
53	0xbbf1e290	-0.0073817447
54	0xbea7d196	-0.3277709
55	0xbd849836	-0.064743444
56	0xbdfb8aeb	-0.12282356
57	0x3e2a8e8e	0.16655943
58	0x3dd0a01e	0.1018679
59	0x3dc2c7ae	0.09510742
60	0xbd0aaecc	-0.033858106
61	0xbf3854d6	-0.7200445
62	0xbec130aa	-0.3773244
63	0xbe87d060	-0.26526165
64	0x3e10d4df	0.14143704
65	0x3e0d0638	0.13771904
66	0xbd4f0af6	-0.050547563
67	0x3c77280c	0.0150852315
68	0xbd6e6b81	-0.058207992
69	0xbbef9742	-0.0073117325
70	0x3dec5021	0.11538721
71	0xbd5cc3a8	-0.05389753
72	0x3bd6846d	0.006546548
73	0x3d9898ee	0.07451044
74	0xbdc7dd32	-0.097589865
75	0x3a93265f	0.0011226645
76	0xbdc1cc03	-0.0946274
77	0xbd164e29	-0.036695633
78	0x3cd06f48	0.025443688
79	0xbdde0e0c	-0.10842523
80	0xbdea149c	-0.11429712
81	0xbe036654	-0.12832004
82	0x3e1af22e	0.15131447
83	0xbd2b5379	-0.041827653
84	0x3d6d12b9	0.057879183
85	0x3db65e7c	0.0890474
86	0x3de062e0	0.10956359
87	0xbe13e79c	-0.1444382
88	0x3dc511ac	0.09622511
89	0xbe21e667	-0.15810548
90	0x3d6b860e	0.05750089
91	0xbe0c31bf	-0.13690852
92	0xbe1c0842	-0.15237525
93	0x3e089044	0.13336283
94	0x3cc98a00	0.024601936
95	0xbd64c7de	-0.05585467
96	0x3e9ebb1e	0.31002134
97	0x3f06f23d	0.52713376
98	0x3e2349bb	0.15946095
99	0x3eb0ccd4	0.3453127
100	0x3ea551c9	0.3228896
101	0x3e31118e	0.17291853
102	0x3e6d71c3	0.23187928
103	0x3e553650	0.208215
104	0xbd94f02f	-0.07272374
105	0x3e0792b1	0.13239552
106	0x3e34cd0c	0.17656344
107	0x3e2be458	0.16786325
108	0x3ef1272c	0.47100198
109	0x3c467cc7	0.01211471
110	0x3e9a8f0c	0.3018726
111	0x3ec3ce05	0.38243118
112	0x3e0d58cf	0.13803409
113	0x3e2a387e	0.16623113
114	0x3dae539a	0.085120395
115	0x3db409a7	0.087909035
116	0x3f412dea	0.75460684
117	0x3e07d774	0.13265783
118	0x3eb70754	0.35747778
119	0x3dfa789c	0.12230036
120	0x3db3458a	0.08753498
121	0x3e2add28	0.16685927
122	0x3e148f72	0.14507845
123	0xbccd821a	-0.025086451
124	0x3e197eea	0.1498982
125	0x3f0c68b3	0.5484726
126	0x3e660b40	0.22465229
127	0x3dd0776b	0.10179027

bias_hh_l0 f4 [128]
0	0x3d92c6a9	0.07166798
1	0x3f1e4db8	0.6183734
2	0xbcb9c858	-0.02267854
3	0x3eedea7c	0.4646796
4	0x3e8f9896	0.280461
5	0xbc2a4e16	-0.010394594
6	0x3de65b45	0.11247877
7	0x3eafee93	0.34361705
8	0x3e02dba0	0.12779093
9	0x3e72b097	0.23700176
10	0x3e0ebd25	0.1393934
11	0x3dc3b847	0.095566325
12	0x3e8c601f	0.27417085
13	0x3ea1a8b1	0.31574014
14	0x3e8e9ec4	0.27855504
15	0x3ec52fe0	0.38513088
16	0xbd951303	-0.07279017
17	0x3e76ec06	0.24113473
18	0xbdbb58d8	-0.09147805
19	0x3e1c1449	0.15242113
20	0x3f5364cd	0.82575685
21	0x3e8f4d18	0.27988505
22	0x3ed2ac59	0.41147116
23	0x3e0b9f6d	0.13635035
24	0x3e4c7488	0.19966328
25	0x3dfe812a	0.1242698
26	0x3d6e0ed9	0.05811963
27	0xbd4ebc25	-0.050472397
28	0xbd896b04	-0.06709865
29	0x3ec6c268	0.38820195
30	0x3e5f902c	0.21832341
31	0x3e3de485	0.18544205
32	0xbdbd45b8	-0.092418134
33	0xbf22d8ef	-0.63612264
34	0xbd80c07a	-0.06286712
35	0xbee184f9	-0.44046763
36	0x3b67830d	0.0035325915
37	0x3d024412	0.0318032
38	0xbe6f671e	-0.2337918
39	0xbf147f3d	-0.5800665
40	0xbdca1152	-0.09866585
41	0xbdb9e9f5	-0.09077827
42	0xbe09ad07	-0.13444911
43	0xbd308223	-0.043092858
44	0xbec22989	-0.37922314
45	0xbd4c49ce	-0.049875073
46	0x3c8c66e1	0.0171389
47	0xbea92f0a	-0.330437
48	0xbd1680c6	-0.0367439
49	0xbdfcf58c	-0.12351522
50	0xbd7999c7	-0.06093767
51	0xbdb262a8	-0.087102234
52	0xbf172dc4	-0.5905421
53	0xbe2e431c	-0.17017788
54	0xbf0d03c1	-0.55083853
55	0xbdbde9b9	-0.09273095
56	0xbea71ebf	-0.32640645
57	0xbe117a89	-0.142069
58	0xbe1b4f27	-0.15166913
59	0x3d0cf65a	0.034414627
60	0xbd7e46e4	-0.062079325
61	0xbef8e5bb	-0.4861277
62	0xbe7b1ff1	-0.24523903
63	0x3d13fd07	0.036129978
64	0xbe1139c5	-0.14182194
65	0xbe0632fb	-0.13105385
66	0x3df4cd01	0.11953164
67	0xbd261356	-0.040545784
68	0x3e4b372e	0.19845268
69	0x3ccce08b	0.025009414
70	0xbd90e824	-0.07075527
71	0xbbe5983f	-0.0070066745
72	0x3e175a31	0.14780499
73	0xbc9c8856	-0.019107979
74	0x3cf7c08d	0.030243183
75	0x3c96dda3	0.018416231
76	0x3db04dcc	0.086085886
77	0x3cf3b35c	0.029748611
78	0xbd560ff2	-0.0522613
79	0x3d1af77a	0.03783367
80	0xbcaef1ea	-0.021355588
81	0x3de99db7	0.11407035
82	0x3d9d351f	0.07676148
83	0xbe2c7373	-0.16840915
84	0xbdcaf2c2	-0.09909584
85	0x3cea3f4a	0.028594632
86	0xbe093fa9	-0.1340319
87	0x3dd440b2	0.10363902
88	0xbe11afac	-0.1422717
89	0xbd56e5da	-0.052465297
90	0x3d77ad49	0.060467992
91	0xbcb4bcea	-0.022062737
92	0xbe104d7d	-0.1409206
93	0xbe14c4a6	-0.1452814
94	0x385e0c2f	5.294027e-05
95	0x3d452f40	0.048140764
96	0x3e47a959	0.19498195
97	0x3f295568	0.66145945
98	0x3b5c4525	0.003361055
99	0x3f1297c4	0.57262826
100	0x3ed7cf54	0.42150366
101	0x3d9c4724	0.076307565
102	0x3edc6519	0.4304588
103	0x3f04d0a6	0.5188087
104	0xbe01c41d	-0.12672468
105	0x3e1e75b8	0.15474594
106	0x3ed5ee03	0.4178315
107	0x3e7aa135	0.24475558
108	0x3ef76136	0.48316354
109	0x3e523957	0.20529686
110	0x3e630c72	0.22172716
111	0x3ec7d4c0	0.39029503
112	0x3e20488b	0.15652673
113	0x3cf12b4d	0.029439593
114	0x3e42c7f6	0.19021592
115	0xbd11bce7	-0.035580542
116	0x3f37b83a	0.7176548
117	0x3ea5c2d2	0.323752
118	0x3f025e78	0.509254
119	0x3e8280fb	0.2548903
120	0x3e8cfc6b	0.2753633
121	0x3e11ed8a	0.1425077
122	0x3e49b892	0.19699314
123	0xbc9ab05e	-0.018882927
124	0x3ca86954	0.020558037
125	0x3f0afd82	0.5429307
126	0x3e80daf2	0.25167042
127	0x3e9ae4f3	0.302528

weight_ih_l0 f4 [128, 2]
0	0xbb8f02c8	-0.004364345
1	0x3c038a94	0.008028645
2	0xbeade18c	-0.3396114
3	0xbd9c24b4	-0.07624188
4	0xbe4cb808	-0.19992077
5	0xbe6e4ec5	-0.23272236
6	0xbe10d109	-0.1414224
7	0xbdf0ef79	-0.11764426
8	0xbe170228	-0.14746916
9	0xbe660940	-0.22464466
10	0xbd4317dc	-0.047630176
11	0x3e7a858a	0.24465004
12	0xbe513fda	-0.20434514
13	0x3de00eaa	0.10940297
14	0xbe7bea79	-0.24601163
15	0xbd151c47	-0.03640392
16	0x3df5308c	0.1197215
17	0xbe5c05ba	-0.2148656
18	0xbe2c9e0d	-0.16857167
19	0x3e26bbeb	0.16282623
20	0x3d38633e	0.04501652
21	0x3e3be190	0.18347764
22	0xbdf39b19	-0.11894817
23	0xbd9db342	-0.07700206
24	0xbe109631	-0.14119793
25	0xbbe6cfab	-0.007043799
26	0xbd820cf9	-0.063501306
27	0xbd741a50	-0.059595406
28	0x3e1605aa	0.14650598
29	0xbc2f3106	-0.01069284
30	0xbea5502a	-0.32287723
31	0x3df900c0	0.12158346
32	0xbe5623c4	-0.20912081
33	0x3df2288b	0.11824139
34	0x3cafd2ce	0.021462824
35	0x3e12171e	0.14266631
36	0xbc22b22f	-0.009930178
37	0xbc971e57	-0.018447084
38	0xbd6db611	-0.05803496
39	0x3dd11ac8	0.10210186
40	0x3d900797	0.07032698
41	0xbddef9ab	-0.10887464
42	0x3e0caca6	0.13737735
43	0x3e67bbee	0.22630283
44	0x3e1081e6	0.14112052
45	0x3e6f3097	0.2335838
46	0xbecb1d80	-0.39670944
47	0x3d3d91a8	0.046281487
48	0x3e048f16	0.12945208
49	0x3e03a312	0.12855175
50	0x3d8b2fb8	0.06796211
51	0x3e401788	0.18758976
52	0x3e162478	0.14662349
53	0x3e1f1f5d	0.15539308
54	0xbe642d0c	-0.22282809
55	0x3f0b96e7	0.54527134
56	0xbddefe52	-0.108883515
57	0x3e4e08c3	0.2012053
58	0x3de1646d	0.11005483
59	0x3ea98801	0.33111575
60	0x3e99ae3e	0.3001575
61	0xbdba0649	-0.0908323
62	0xbe902a92	-0.2815748
63	0xbe67fc6d	-0.22654887
64	0xbd634c76	-0.05549284
65	0xbe473175	-0.1945246
66	0xbe8cf1a5	-0.2752811
67	0xbed73e6f	-0.4203982
68	0xbe5f3745	-0.21798427
69	0xbe06afca	-0.13152996
70	0x3e7eb526	0.2487379
71	0x3dc84828	0.09779388
72	0x3e43d72b	0.19125049
73	0xbe9ceed0	-0.3065095
74	0xbd92deb3	-0.07171383
75	0x3dd34b0f	0.10317051
76	0xbd6f00fe	-0.058350556
77	0x3d80a022	0.06280543
78	0x3e33d591	0.17561938
79	0x3e0c8c5d	0.1372542
80	0xbe85b1e3	-0.2611228
81	0xbe578950	-0.21048474
82	0xbd9f2daf	-0.07772385
83	0xbdb9cd60	-0.09072375
84	0x3d30a821	0.04312909
85	0xbd8d411e	-0.06897186
86	0xbe6886e1	-0.22707702
87	0x3e62720f	0.22113822
88	0xbe6fce3a	-0.23418513
89	0xbd67c0e4	-0.05658044
90	0x3eb4a9d5	0.35285822
91	0x3e959f49	0.29223087
92	0x3e8f52cb	0.27992854
93	0xbd8f2cb6	-0.0699095
94	0x3da873e4	0.082252294
95	0x3da2c1e6	0.079471394
96	0x3da874e2	0.082254186
97	0x3dbf03d1	0.093269
98	0xbe7cf667	-0.2470337
99	0xbe867af4	-0.2626568
100	0xbdc341bf	-0.095340244
101	0x3da9d28f	0.08292114
102	0xbe976131	-0.2956634
103	0x3daabac4	0.08336404
104	0xbf1abb4a	-0.6044203
105	0xbeae0971	-0.33991578
106	0x3eb1421f	0.3462076
107	0x3c4cdce2	0.012503834
108	0x3d728be6	0.05921545
109	0xbdd14879	-0.10218901
110	0xbeea1564	-0.45719445
111	0xbedd6509	-0.43241146
112	0xbcd3d4b6	-0.025858264
113	0x3d83a85a	0.06428595
114	0x3e756234	0.23963243
115	0x3e0e95e3	0.13924365
116	0x3d85b3d5	0.06528441
117	0x3cf6fe83	0.030150658
118	0x3e35727a	0.1771945
119	0x3ec3e5ef	0.38261363
120	0x3d3f7783	0.046744835
121	0xbe062239	-0.13098992
122	0xbea11dc4	-0.31468022
123	0x3e3fea73	0.18741779
124	0x3e127243	0.143014
125	0xbaf076d6	-0.0018345963
126	0x3dc220f5	0.09478942
127	0x3ddea325	0.10870961
128	0xbdd871a9	-0.10568554
129	0x3e736c26	0.23771724
130	0xbe34abd0	-0.17643666
131	0xbe6279ea	-0.22116819
132	0xbe6e8a2e	-0.23294899
133	0xbe76cb75	-0.2410105
134	0xbe5c00bd	-0.21484657
135	0xbe7ef5cd	-0.24898453
136	0xbe2bdefd	-0.16784282
137	0x3e34d7da	0.17660466
138	0x3e11d389	0.1424085
139	0xbe8b3cbd	-0.27194777
140	0xbe28adfe	-0.16472623
141	0xbeca9e19	-0.39573744
142	0x3e9e153f	0.30875584
143	0xbe277510	-0.1635325
144	0x3f054e51	0.52072626
145	0x3e734d8b	0.23760049
146	0x3d331a2d	0.043726135
147	0x3f0afe9a	0.5429474
148	0x3eaedd44	0.34153187
149	0x3edf1517	0.43570778
150	0xbe9ef4f4	-0.3104626
151	0x3eda7138	0.42664504
152	0xbe9a7167	-0.30164644
153	0xbe5ccfae	-0.21563599
154	0x3ec4f537	0.38468334
155	0x3e87b304	0.26503766
156	0xbc2fa1a0	-0.010719687
157	0xbec73c47	-0.38913175
158	0xbef3f037	-0.47644207
159	0x3e88c205	0.26710525
160	0xbc513c2b	-0.012770693
161	0xbd368f7f	-0.044570442
162	0xbe479012	-0.19488552
163	0x3e14d157	0.14532982
164	0x3e00347e	0.12520024
165	0x3e9f4f87	0.31115362
166	0x3e5e7d25	0.21727426
167	0x3d131dcd	0.035917092
168	0xbe8d0068	-0.27539372
169	0x3bb68d8f	0.0055710743
170	0xbe813ee7	-0.25243303
171	0xbdae9e44	-0.085262805
172	0xbe550603	-0.20803075
173	0xbea8fd42	-0.3300572
174	0x3d7056c7	0.058676507
175	0x3dc4c978	0.096087396
176	0x3e86302f	0.26208636
177	0x3d753ba9	0.05987135
178	0xbda7020b	-0.081546865
179	0x3eb10ba5	0.34579197
180	0xbe77bb46	-0.24192533
181	0x3dc5fa11	0.09666837
182	0x3eb9393a	0.36176473
183	0x3d03e24d	0.03219824
184	0x3eb42638	0.3518541
185	0x3e81024b	0.25197062
186	0x3e92ca71	0.28670076
187	0x3e07c2b9	0.13257875
188	0x3e6b9f60	0.23010015
189	0x3e84286e	0.25812095
190	0xbe9444c1	-0.28958705
191	0xbe8e37ef	-0.2777705
192	0xbe45e925	-0.19327219
193	0xbe5bc16d	-0.21460505
194	0xbdf964c9	-0.12177426
195	0xbded574d	-0.11588917
196	0xbe2513f1	-0.16120888
197	0xbe3533e8	-0.17695582
198	0x3e344b70	0.17606902
199	0xbb40b5ca	-0.002940523
200	0xbdba9838	-0.09111065
201	0xbebd8850	-0.3701806
202	0xbe390b43	-0.18070702
203	0x3e1d2309	0.15345396
204	0xbdacce6f	-0.084378116
205	0xbe6ef3b7	-0.23335157
206	0xbe0fa5ad	-0.14028044
207	0x3c6695cd	0.014073801
208	0xbe2f033a	-0.17091075
209	0x3c844fdf	0.016151367
210	0xbe9c93bf	-0.3058147
211	0xbe8884fc	-0.2666396
212	0x3e357076	0.17718682
213	0x3cf4706a	0.02983876
214	0xbd85594d	-0.065111734
215	0xbd223bf0	-0.039607942
216	0x3de814bf	0.11332082
217	0xbdf0b1f3	-0.11752691
218	0x3e5b1b05	0.21397026
219	0x3eb0a6f8	0.34502387
220	0x3e579913	0.21054487
221	0xbd4a269e	-0.049353234
222	0xbe9f49b1	-0.3111091
223	0x3d5d2a9d	0.053995717
224	0xbd249d63	-0.04018916
225	0x3e05d8b7	0.13070951
226	0xbe70a7ec	-0.23501557
227	0xbe344c83	-0.17607312
228	0xbe37d6cb	-0.17953031
229	0xbe38cf3e	-0.18047807
230	0x3d1c686d	0.038185526
231	0x3e681900	0.22665787
232	0xbe1efb2c	-0.15525502
233	0xbe49d359	-0.19709529
234	0xbc83b462	-0.016077224
235	0x3eab6e55	0.33482614
236	0x3e25315c	0.1613211
237	0x3d977a0c	0.073963255
238	0xbecdba15	-0.40181032
239	0xbeabd087	-0.3355753
240	0x3e9187e0	0.28423977
241	0x3e20ded4	0.15710002
242	0x3de1970e	0.110151395
243	0x3cdf0d54	0.027228035
244	0x3da4bfc2	0.080443874
245	0xbdc49e21	-0.09600473
246	0x3e2089e2	0.15677598
247	0x3f13926a	0.57645285
248	0xbe70efcb	-0.23528974
249	0x3d3f4861	0.046699885
250	0xbdb1b010	-0.086761594
251	0x3d23d94f	0.040002163
252	0x3e767cc6	0.24071035
253	0x3e00e3e7	0.12586938
254	0x3dd423f7	0.10358422
255	0xbdb3865c	-0.087658614

weight_hh_l0 f4 [128, 32]
0	0xbdfe297f	-0.124102585
1	0x3dca0800	0.09864807
2	0xbe769e63	-0.24083857
3	0x3e6d83a1	0.23194744
4	0x3d50b8c0	0.05095744
5	0x3ce89ac9	0.02839412
6	0x3e22604e	0.1585705
7	0x3c140f6c	0.00903688
8	0xbda4ccb5	-0.08046857
9	0x3cefae14	0.029257812
10	0x3dc87c49	0.097893305
11	0x3e74356d	0.23848505
12	0x3e73c0b9	0.23803987
13	0x3ed949c8	0.42439103
14	0xbd84eb03	-0.064901374
15	0xbdf804e0	-0.12110305
16	0x3d068a4c	0.032846734
17	0x3bfcb473	0.007711941
18	0x3dcf966c	0.101361126
19	0xbd275d69	-0.040860567
20	0x3dee0cd5	0.11623541
21	0xbd276f35	-0.04087754
22	0x3d04fd7e	0.03246831
23	0x3d770866	0.060310744
24	0xbe87edc4	-0.26548588
25	0x3dfeaa0b	0.12434777
26	0xbda22a75	-0.07918254
27	0x3e70ffe8	0.2353512
28	0x3d890fb9	0.06692452
29	0xbeee6cc5	-0.4656736
30	0xbdbd0b8f	-0.0923072
31	0xbe5f1324	-0.21784645
32	0xbd82aaa0	-0.063802004
33	0xbdc43fff	-0.09582519
34	0xbe3d46c2	-0.18484023
35	0xbd9403b8	-0.07227272
36	0x3e3d5865	0.18490751
37	0x3e0f75bc	0.14009756
38	0xbe25c304	-0.16187674
39	0x3cdcdd08	0.026960865
40	0xbc2e3d13	-0.010634678
41	0x3e126228	0.14295256
42	0xbd173044	-0.036911264
43	0x3ce96ea1	0.028495135
44	0x3cc171cb	0.023613831
45	0x3f0c57ff	0.5482177
46	0x3db14cd3	0.08657231
47	0xbdd41d66	-0.1035717
48	0xbdbb57df	-0.091476195
49	0xbbeb954c	-0.0071894284
50	0x3e526b95	0.20548852
51	0x3d8eaf19	0.06966991
52	0x3e2564e0	0.16151762
53	0xbe29239a	-0.16517487
54	0x3def483f	0.11683702
55	0x3e110d3c	0.14165205
56	0xbc8357a0	-0.016032994
57	0x3ceb0b7c	0.028692
58	0x3d3a8ec1	0.045546297
59	0x3d34309a	0.043991663
60	0xbd0f80cf	-0.03503495
61	0xbe2a5194	-0.16632682
62	0x3cbd04e2	0.023073617
63	0xbea60601	-0.32426456
64	0xbdc8d63a	-0.098064855
65	0x3e4713fc	0.19441217
66	0x3e2e3d72	0.17015627
67	0xbc072171	-0.008247719
68	0xbe193761	-0.14962532
69	0xbdbf12eb	-0.0932978
70	0x3d2eccf3	0.042675924
71	0x3df48e2e	0.11941181
72	0xbea2d824	-0.31805527
73	0xbe856182	-0.26050955
74	0xbe340de4	-0.17583424
75	0xbd13aa04	-0.03605081
76	0x3dc89827	0.09794646
77	0x3ec43f98	0.38329768
78	0x3e2198d7	0.1578096
79	0xbe43e2d4	-0.19129497
80	0x3d9cb33f	0.07651376
81	0x3de17bcb	0.1100994
82	0xbdccab4e	-0.09993611
83	0xbeee7dcb	-0.46580347
84	0x3df3b8d5	0.11900488
85	0xbe1e88c3	-0.15481858
86	0xbb9a954c	-0.0047175046
87	0x3e3b652c	0.18300313
88	0xbec3d4e9	-0.38248375
89	0x3c44d6ef	0.012014135
90	0xbdd6e842	-0.104935184
91	0x3cdf831f	0.027284203
92	0xbea4aeb9	-0.32164553
93	0xbe9ca487	-0.30594274
94	0x3c8311bd	0.01599967
95	0xbec0b68a	-0.37639266
96	0x3e2a3d7e	0.1662502
97	0x3d9a8b65	0.07546119
98	0x3dcd5979	0.10026831
99	0xbe1e1a24	-0.1543966
100	0x3e16d01a	0.14727822
101	0x3d87e5ff	0.06635665
102	0x3e22d3ea	0.15901151
103	0x3e1ab964	0.15109783
104	0x3e8b44eb	0.27201018
105	0x3e803068	0.2503693
106	0x3d66d6f2	0.05635733
107	0xbe08fe67	-0.13378297
108	0x3e460321	0.19337131
109	0x3d2be3da	0.041965343
110	0xbcee64e7	-0.029100848
111	0xbdfaa21e	-0.12237953
112	0x3cd0740f	0.025445966
113	0xbdcbb2c8	-0.09946209
114	0x3cf6422b	0.030060848
115	0xbde5c220	-0.11218667
116	0xbd9d1af6	-0.07671158
117	0x3e2c4612	0.16823605
118	0x3d38be85	0.04510357
119	0xbe02fb6b	-0.12791221
120	0xbc9f5248	-0.019448414
121	0x3e7649de	0.24051616
122	0xbaf72321	-0.0018855074
123	0x3db7b7dd	0.08970616
124	0xbe53e003	-0.20690922
125	0xbd1b5e3f	-0.037931677
126	0x3e1e15ff	0.15438078
127	0xbe821ad8	-0.25411105
128	0xbcea76fb	-0.028621187
129	0x3e67ed7f	0.22649191
130	0x3e8ec412	0.27883965
131	0x3dbb533f	0.09146737
132	0x3c9314c1	0.017954232
133	0x3e3df0cf	0.18548892
134	0x3ea228ed	0.3167185
135	0xbd6f25c6	-0.058385633
136	0xbcb049f2	-0.021519635
137	0x3e1e5b28	0.15464461
138	0xbe22d60c	-0.15901965
139	0xbde98251	-0.11401809
140	0x3d867f6d	0.06567273
141	0x3de91d36	0.11382525
142	0x3e42d149	0.19025148
143	0x3db35426	0.087562844
144	0xbc96392b	-0.018337807
145	0x3cb8c881	0.022556545
146	0x3c965090	0.018348962
147	0xbe094f83	-0.13409238
148	0x3e301125	0.1719404
149	0xbc6f5b45	-0.014609163
150	0x3dcab748	0.098982394
151	0xbe17dd3a	-0.14830485
152	0xbe88bf4f	-0.26708457
153	0x3d792333	0.060824584
154	0xbe4d1653	-0.20028047
155	0xbddd0e9b	-0.107938014
156	0xbde7a320	-0.113104105
157	0x3e0e4102	0.13891986
158	0x3e1cf638	0.153283
159	0x3d26ebdb	0.040752273
160	0x3be81cd1	0.0070835133
161	0xbe08719a	-0.13324586
162	0xbe9e9047	-0.3096945
163	0xbe87c962	-0.2652083
164	0x3c6f7ef0	0.014617667
165	0x3da076fb	0.07835194
166	0xbec31441	-0.3810139
167	0x3e7c9894	0.24667579
168	0x3e065217	0.13117252
169	0xbccf1e62	-0.025283042
170	0xbc8fba62	-0.017544929
171	0x3e4a5265	0.19757994
172	0x3cbe0c83	0.023199325
173	0x3e00a84a	0.12564197
174	0x3de53ac7	0.111928515
175	0xbe28083c	-0.16409391
176	0xbe5c1bb4	-0.21494943
177	0x3e2e2190	0.1700499
178	0x3c829b78	0.015943274
179	0x3d96229f	0.07330822
180	0xbda145a9	-0.07874615
181	0xbe4b9e05	-0.19884498
182	0xbe9228c9	-0.28546742
183	0x3e063763	0.13107066
184	0x3da604ab	0.08106359
185	0x3e6bef43	0.2304049
186	0x3e090b74	0.13383275
187	0x3ddb2d68	0.1070202
188	0x3d1568c4	0.036476865
189	0xbeb68455	-0.35647836
190	0x3e5649a0	0.20926523
191	0xbe73eff7	-0.23822008
192	0x3d0795db	0.033101898
193	0x3d1d6ac5	0.0384319
194	0xbe1cdabd	-0.15317817
195	0xbe8991f5	-0.2686917
196	0x3f22fbef	0.6366567
197	0xbe401b0c	-0.18760318
198	0xbe84d23d	-0.2594165
199	0x3e9ff80f	0.3124394
200	0x3d105896	0.035240732
201	0xbd77ea1d	-0.060526002
202	0x3e885a5b	0.26631436
203	0x3e6b953d	0.23006149
204	0x3e33dab2	0.17563894
205	0x3f499175	0.78737575
206	0xbdf1cfd5	-0.11807219
207	0xbe711caa	-0.2354609
208	0x3bab63a5	0.0052303844
209	0x3dad733e	0.08469246
210	0x3ec462b1	0.38356546
211	0xbce28845	-0.027652869
212	0x3e1d7da2	0.15379956
213	0x3e5063bc	0.20350546
214	0xbd6a4453	-0.057194065
215	0x3e8edfa9	0.27905014
216	0xbdb750db	-0.08950969
217	0x3ee3aa9f	0.4446611
218	0x3d7bb589	0.061452422
219	0x3ee03a10	0.43794298
220	0x3d4cee99	0.050032232
221	0xbefdd009	-0.4957278
222	0x3de277a9	0.110579796
223	0xbee5c0d0	-0.44873667
224	0x3e3f8ab4	0.18705255
225	0x3e57b01c	0.21063274
226	0x3de00ce8	0.10939962
227	0x3d73caf4	0.059519723
228	0x3e0e0a28	0.13871062
229	0xbe8c597a	-0.27412015
230	0x3e787cb6	0.24266323
231	0x3e070761	0.13186409
232	0xbe9d4279	-0.30714777
233	0xbe344a6a	-0.17606512
234	0xbe8f19df	-0.27949426
235	0x3e9e8af2	0.30965382
236	0x3eed7746	0.4638006
237	0xbc9d44bb	-0.019197812
238	0x3de96b95	0.11397473
239	0xbc15b2e6	-0.009136891
240	0x3d9e5d52	0.07732643
241	0xbd7b857a	-0.06140659
242	0xbe760480	-0.24025154
243	0xbe09c675	-0.13454612
244	0x3e611201	0.21979524
245	0xbd0f3441	-0.034961943
246	0x3e8205aa	0.25394946
247	0xbdd5fef6	-0.104490206
248	0xbdccd042	-0.100006595
249	0xbc9f32c4	-0.019433387
250	0x3da2c1dd	0.07947133
251	0x3e3dffb8	0.1855458
252	0xbe37c16a	-0.17944875
253	0xbc5a0614	-0.013307113
254	0xbb4ecc4a	-0.0031554871
255	0xbc86ebeb	-0.016469916

bias_ih_l0 f4 [128]
0	0xbdba1e59	-0.090878196
1	0xbd9f3ac9	-0.07774884
2	0x3e0db0f2	0.1383703
3	0x3dea2485	0.11432747
4	0x3d593a65	0.053034205
5	0x3df72ad9	0.120687194
6	0x3e54237b	0.2071666
7	0xbd4d3ee5	-0.05010881
8	0x3d8d3e96	0.06896703
9	0x3dc7e653	0.09760728
10	0xbcaef396	-0.021356385
11	0xbdfb7fae	-0.12280212
12	0x3c820e18	0.015875861
13	0x3e60218e	0.218878
14	0xbe161fd3	-0.14660577
15	0x3d86132d	0.06546626
16	0xbd6862ee	-0.05673497
17	0x3e352790	0.17690873
18	0x3e819cbb	0.25314888
19	0x3d330087	0.043701675
20	0x3e536d86	0.20647249
21	0xbe0b60a9	-0.13611092
22	0xbdb40022	-0.08789088
23	0xbdc7582d	-0.09733615
24	0xbcd26348	-0.025682107
25	0xbbf9beb7	-0.007621612
26	0x3da75a79	0.08171553
27	0x3d601b83	0.054713737
28	0x3dcbdb25	0.09953908
29	0x3db3f215	0.08786408
30	0x3e44c4f9	0.19215764
31	0x3dcf2883	0.10115149
32	0x3dcfdba6	0.101493165
33	0xbe15fb93	-0.14646749
34	0xbd81aab2	-0.06331386
35	0xbd9bce2b	-0.07607683
36	0x3d17fe45	0.037107725
37	0x3db8759c	0.09006807
38	0x3cbbd7f4	0.022930123
39	0x3e491cba	0.19639865
40	0x3e43a719	0.19106711
41	0x3eae1551	0.34000638
42	0x3ddc3a28	0.1075328
43	0x3e499aef	0.19688009
44	0xbe036da4	-0.12834793
45	0x3e2d5dbb	0.16930287
46	0x3cfce09e	0.030868825
47	0xbd157953	-0.036492657
48	0xbdfa6b37	-0.12227481
49	0x3e9271c7	0.2860243
50	0x3e94e11d	0.29077998
51	0x3e8f6aa1	0.2801104
52	0x3e4c81a8	0.19971335
53	0x3e0ff271	0.14057328
54	0xbda0b10a	-0.078462675
55	0x3d822a3d	0.063557126
56	0xbbf8de1a	-0.007594836
57	0x3e178e67	0.14800416
58	0x3dd31c15	0.103080906
59	0x3e7ae59d	0.24501653
60	0xbe28a1e4	-0.16468006
61	0x3dc2b62b	0.09507402
62	0xbc979290	-0.018502504
63	0x3d1e6bc8	0.038677007
64	0xbe257b43	-0.16160302
65	0x3d149f60	0.036284804
66	0x3b9530d2	0.004552939
67	0xbdda3834	-0.10655251
68	0x3dfae000	0.12249756
69	0x3b27f1d6	0.0025626323
70	0x3e043f9a	0.12914887
71	0x3e089438	0.13337791
72	0x3cd7fc3e	0.026365396
73	0xbe11e940	-0.14249134
74	0x3db10be6	0.086448476
75	0x3c6d45fb	0.014482017
76	0x3e0639c0	0.13107967
77	0x3e87f722	0.26555735
78	0x3df12383	0.117743514
79	0xbeb42029	-0.35180786
80	0xbee1d350	-0.4410653
81	0xbe482a3b	-0.1954736
82	0x3dfc1dc1	0.123103626
83	0xbe913c14	-0.28366148
84	0x3e458afb	0.19291298
85	0xbe02d23f	-0.12775515
86	0x3def4f49	0.11685044
87	0x3e61783a	0.22018519
88	0xbe129602	-0.14315036
89	0xbd9ca243	-0.076481365
90	0x3da79641	0.081829555
91	0xbd94243a	-0.07233472
92	0xbe0ebc7f	-0.13939093
93	0xbe883798	-0.26604915
94	0xbe181c86	-0.14854631
95	0xbece9a1e	-0.40351957
96	0xbd85756f	-0.06516539
97	0x3e32b837	0.17453085
98	0x3e871a4f	0.2638726
99	0x3e22d1fc	0.15900415
100	0x3e1edd2e	0.15514061
101	0x3e5b41cf	0.21411823
102	0x3e43a9ba	0.19107714
103	0x3d7efc62	0.06225241
104	0x3da4f58a	0.08054645
105	0x3ea78e9e	0.32725996
106	0x3df36704	0.11884883
107	0xbdbe76fe	-0.0930004
108	0xbdb1267c	-0.086499184
109	0x3e831eed	0.25609532
110	0x3daf8005	0.0856934
111	0x3d5ce7de	0.053932063
112	0x3cccd35e	0.025003131
113	0xbd1fd43a	-0.039020754
114	0x3e8cdd87	0.27512762
115	0x3e89ec17	0.26937935
116	0x3d543e7b	0.0518174
117	0x3db7b50f	0.08970081
118	0x3d8e6907	0.06953626
119	0xbdd05643	-0.10172703
120	0x3e5aa921	0.2135358
121	0x3ded1984	0.11577132
122	0x3e94401e	0.28955168
123	0xbd1356e2	-0.03597153
124	0xbd90c16c	-0.07068142
125	0x3d151920	0.036400914
126	0x3e2e42fc	0.1701774
127	0x3dd8824f	0.105717294

bias_hh_l0 f4 [128]
0	0x3e0d7a39	0.13816155
1	0x3e3a19ca	0.181739
2	0x3d8c680a	0.068557814
3	0xbd5fa803	-0.054603588
4	0x3e169938	0.14706886
5	0x3e555e4b	0.20836751
6	0xbd219864	-0.03945197
7	0x3d5d15bc	0.053975806
8	0x3e173015	0.14764436
9	0x3e2dcff4	0.16973859
10	0x3e3c1bf2	0.18370035
11	0x3db0077e	0.08595179
12	0x3c867db3	0.01641736
13	0x3e69a3ae	0.22816345
14	0x3da95344	0.08267835
15	0x3deead35	0.1165413
16	0xbddcbcc9	-0.107781954
17	0x3dc843dc	0.09778568
18	0x3e26d124	0.16290718
19	0xbaa52a5a	-0.0012601123
20	0x3e589d34	0.21153718
21	0xbcda88ad	-0.0266765
22	0x3e5372d2	0.20649269
23	0xbe2ee987	-0.17081271
24	0xbe07dd3b	-0.13267986
25	0xbdb9eac6	-0.090779826
26	0x3d3c3dcb	0.045957368
27	0xbd29d35f	-0.041461345
28	0x3e00640b	0.12538163
29	0x3de586a2	0.1120732
30	0x3d524ccd	0.051342774
31	0x3e053ee1	0.13012268
32	0xbd05ffd9	-0.0327147
33	0x3d98abdb	0.07454654
34	0x3d7842d6	0.060610615
35	0x3ce8156e	0.028330531
36	0x3d42a440	0.047519922
37	0xbd9d4831	-0.07679785
38	0xbdcd2966	-0.10017662
39	0xbdbfa28c	-0.09357175
40	0xbd908aa7	-0.07057696
41	0x3e252ec4	0.16131121
42	0x3cd6a359	0.026200937
43	0x3dbaa000	0.09112549
44	0x3c84ae69	0.016196446
45	0x3e3ac5da	0.18239537
46	0xbe0096ae	-0.1255748
47	0xbde222e9	-0.11041815
48	0xbd607f44	-0.05480887
49	0x3cd46722	0.025928084
50	0x3e15465a	0.14577618
51	0x3dbe5049	0.09292657
52	0x3e44bb11	0.19211985
53	0x3d827248	0.06369454
54	0x3d87ef41	0.06637431
55	0xbdac1111	-0.08401693
56	0x3c89f481	0.016840221
57	0x3e4589c2	0.19290832
58	0x3c623762	0.01380715
59	0x3cd57daf	0.026060907
60	0x3d0a515e	0.033769004
61	0xbdc71006	-0.09719853
62	0xbe0d5a3e	-0.13803956
63	0x3e5ccdb5	0.21562846
64	0x3c90e06a	0.017685134
65	0x3d5e1d01	0.05422688
66	0xbe3c9460	-0.18415976
67	0xbd964554	-0.07337442
68	0x3e48b299	0.1959938
69	0xbe4b7803	-0.1987
70	0xbd99b3e9	-0.07505018
71	0x3e07e4a0	0.13270807
72	0xbe6ffd43	-0.23436455
73	0x3da42f37	0.08016818
74	0x3c3a470d	0.011369479
75	0x3df977bb	0.1218104
76	0x3dbcd90f	0.09221088
77	0x3ead47f0	0.33843946
78	0x3dc23dc1	0.09484435
79	0xbe7aeaad	-0.24503584
80	0xbeb44f04	-0.35216534
81	0xbcc70b94	-0.024297513
82	0xbe23f12f	-0.16009973
83	0xbe3e1159	-0.18561305
84	0x3e75a2e1	0.23987915
85	0xbdb04374	-0.08606616
86	0x3e7e65ce	0.24843523
87	0x3e1f994b	0.1558582
88	0xbda1c926	-0.07899694
89	0x3e158f96	0.14605555
90	0xbdfa9ce8	-0.12236959
91	0xbd662fbf	-0.056197878
92	0xbe9383b9	-0.28811434
93	0xbe9c0257	-0.30470535
94	0x3d9ca22a	0.07648118
95	0xbf154517	-0.5830855
96	0x3e4bffdb	0.1992182
97	0x3e1a1d72	0.15050295
98	0x3e27325f	0.16327809
99	0xbddbc6ef	-0.10731303
100	0xbc93c8c1	-0.018040063
101	0x3e68c511	0.22731425
102	0x3dede852	0.11616577
103	0x3e0b3da0	0.13597727
104	0x3dfd2c60	0.123619795
105	0x3eae128f	0.33998534
106	0x3d833c02	0.0640793
107	0xbd93ed1b	-0.07222959
108	0xbda1027b	-0.07861801
109	0x3dec09e1	0.11525322
110	0x3e1b1263	0.15143733
111	0x3e1fc1eb	0.15601318
112	0x3e31400c	0.17309588
113	0x3c9ea29a	0.019364644
114	0x3d59cdc7	0.05317476
115	0x3e8263fe	0.25466913
116	0x3d0ded27	0.034649994
117	0xbdcdaea2	-0.10043074
118	0x3e42f810	0.19039941
119	0x3e3d7e45	0.18505199
120	0x3db53065	0.08847121
121	0x3e776728	0.24160445
122	0x3d9f82b5	0.07788602
123	0x3e190363	0.14942698
124	0x3e51c012	0.20483425
125	0x3dd4282b	0.10359224
126	0x3dc28e9c	0.09499857
127	0x3e2e846e	0.17042705

weight_ih_l0_reverse f4 [128, 2]
0	0xbc51d68e	-0.0128075015
1	0xbe4d3d8c	-0.2004301
2	0x3e6c926c	0.2310273
3	0xbe68054d	-0.22658272
4	0x3d5311ab	0.05153052
5	0x3989e6fd	0.00026302776
6	0x3eacfabf	0.33785054
7	0xbe5ea4c0	-0.21742535
8	0x3ca5da7c	0.020245783
9	0xbd984884	-0.07435706
10	0x3d084172	0.03326554
11	0xbe52c05b	-0.2058119
12	0x3e244952	0.16043594
13	0xbe860b17	-0.26180336
14	0x3df9f07e	0.12204073
15	0xbeb05d0a	-0.34445983
16	0x3e790906	0.24319848
17	0xbee99587	-0.45621893
18	0xbe1ffefd	-0.15624614
19	0x3e826764	0.25469506
20	0xbe90be73	-0.282703
21	0x3eb5e778	0.3552816
22	0x3ef640cd	0.48096314
23	0xbdb098b6	-0.08622877
24	0xbe3fa1dd	-0.1871409
25	0x3de2bbf1	0.11071003
26	0xbe822a49	-0.25422886
27	0xbda89e47	-0.08233314
28	0x3e9d3cdb	0.30710492
29	0x3cbc0f02	0.022956375
30	0x3e6ad953	0.22934465
31	0x3eabdf2b	0.335687
32	0x3e1e9bd4	0.15489131
33	0xbe9540d0	-0.2915101
34	0xbdc0fed6	-0.09423606
35	0xbe66f0df	-0.22552823
36	0xbe3c2c06	-0.18376169
37	0x3e01f157	0.1268972
38	0x3d9ab38a	0.075537756
39	0x3dd67096	0.10470693
40	0xbe03cd2c	-0.12871236
41	0x3e11c68b	0.14235894
42	0x3e24be33	0.1608818
43	0x3f244cb7	0.6417956
44	0xbeee495d	-0.46540347
45	0x3dd9b20a	0.106296614
46	0x3da1358f	0.078715436
47	0xbe0e3101	-0.13885881
48	0xbf53edc2	-0.82784665
49	0x3ca55354	0.020181336
50	0xbe9ebdcd	-0.31004182
51	0xbe808f2c	-0.2510923
52	0x3d880a55	0.06642596
53	0x3e916690	0.2839856
54	0xbde48e47	-0.1115995
55	0xbd4f8386	-0.05066254
56	0xbd515217	-0.051103678
57	0x3cb140f9	0.021637427
58	0xbe189e15	-0.14904054
59	0xbe28ea22	-0.16495565
60	0xbcd082c3	-0.025452977
61	0xbc1136ab	-0.0088631315
62	0xbdab14de	-0.083535895
63	0x3d04d950	0.032433808
64	0xbe31a1b2	-0.17346838
65	0x3e2c52c8	0.16828454
66	0x3e84c2f6	0.25929993
67	0xbea31573	-0.31852302
68	0x3de02986	0.1094542
69	0x3d845ac4	0.06462625
70	0x3e5c14ef	0.2149236
71	0xbe7e7f00	-0.24853134
72	0xbb4a1862	-0.0030837287
73	0x3ddc388c	0.10752973
74	0x3ec0b296	0.3763625
75	0x3ceba2d9	0.028764175
76	0xbad7a1d5	-0.0016451428
77	0xbdb4b953	-0.0882441
78	0x3e35b991	0.17746569
79	0xbe025080	-0.12726021
80	0x3e58b935	0.21164401
81	0xbe1f3f2f	-0.15551446
82	0xbd0de04f	-0.034637745
83	0x3e009544	0.1255694
84	0x3e1ee438	0.15516746
85	0x3dd1d721	0.10246111
86	0x3edcd042	0.43127638
87	0x3b9a357a	0.004706082
88	0xbe1463ae	-0.1449115
89	0x3e8dee72	0.27720982
90	0x3d0af2f6	0.03392311
91	0xbd792fd1	-0.060836617
92	0x3e91edc2	0.28501707
93	0xbe110212	-0.14160946
94	0x3e501f62	0.20324472
95	0x3eb50ccd	0.3536133
96	0x3e61b968	0.22043383
97	0xbe83e114	-0.25757658
98	0xbe12e10d	-0.14343663
99	0x3d12cd0c	0.03584008
100	0xbe02e914	-0.12784225
101	0x3e7f3159	0.24921168
102	0x3d1c30e8	0.038132578
103	0x3e197abe	0.14988229
104	0x3de9bc8b	0.11412915
105	0x3e359824	0.17733818
106	0x3d06f577	0.032948937
107	0xbe62338c	-0.22089976
108	0xbe7d881f	-0.24758957
109	0xbe72ad0f	-0.23698829
110	0xbe38daba	-0.18052188
111	0xbe10e5ab	-0.14150111
112	0xbf0017e6	-0.50036466
113	0xbce20a9c	-0.02759295
114	0xbd6457cb	-0.05574779
115	0xbea2bb24	-0.31783402
116	0x3e2ab791	0.16671588
117	0x3e9f226a	0.31080943
118	0x3d37fad3	0.04491694
119	0xbe6b704b	-0.22992055
120	0xbe8ac437	-0.27102825
121	0x3e639cc4	0.2222777
122	0x3d47f2eb	0.04881565
123	0xbe3e2fcf	-0.18572925
124	0x3ce43c0f	0.02786067
125	0x3db06639	0.086132474
126	0x3dc252f6	0.0948848
127	0xbc3bd92f	-0.011465355
128	0xbe33a7ea	-0.17544523
129	0xbeacaaaa	-0.33723956
130	0x3d6dcc50	0.058056176
131	0x3ed939a5	0.42426792
132	0x3e0a03fc	0.13478082
133	0x3e9aeeb2	0.30260235
134	0xbe02c4e7	-0.12770425
135	0xbe6f6c53	-0.23381166
136	0x3dc2bd48	0.09508759
137	0x3ed53c1b	0.4164742
138	0x3e9297b8	0.28631377
139	0x3d9ba115	0.07599083
140	0xbde11149	-0.10989625
141	0xbeef40e1	-0.46729186
142	0xbeb60809	-0.35553005
143	0x3e9dc6d5	0.3081576
144	0xbd2c1a07	-0.04201701
145	0xbf04dd33	-0.51900023
146	0xbe8d9db2	-0.27659374
147	0x3f0a34e8	0.5398698
148	0x3ea9b87b	0.3314856
149	0x3d82b55d	0.063822486
150	0x3f09579f	0.53649324
151	0x3dd5b093	0.104340695
152	0x3e5fbc74	0.21849233
153	0x3ec5feea	0.38671046
154	0x3ecdf560	0.4022627
155	0x3e8651c9	0.26234272
156	0xbe0e40d7	-0.13891922
157	0xbebe304a	-0.37146217
158	0x3e8a28ed	0.2698435
159	0x3ebbf7f5	0.36712614
160	0xbe0c4078	-0.13696468
161	0x3e960bba	0.29305822
162	0xbc1d8709	-0.009614714
163	0x3f03a4a0	0.5142307
164	0x3d920c69	0.07131273
165	0xbee7571a	-0.4518364
166	0xbed1605e	-0.40893835
167	0x3dfd58a6	0.12370424
168	0xbecad6c6	-0.39616984
169	0xbe127edb	-0.14306204
170	0x3dc9e9e9	0.09859068
171	0xbef63328	-0.48085904
172	0xbee179be	-0.44038194
173	0x3c93db26	0.018048834
174	0x3e14ec5b	0.14543287
175	0x3eb6336f	0.35586116
176	0xbf164a36	-0.58706987
177	0x3e715ba7	0.23570119
178	0x3e6a5ed6	0.2288774
179	0x3ed9d37b	0.4254416
180	0xbe64000d	-0.22265644
181	0xbec1e90c	-0.37873113
182	0xbbbc2e9e	-0.005742862
183	0xbed30859	-0.41217306
184	0xbf09292b	-0.5357844
185	0x3e5252f6	0.2053946
186	0x3e9dd0d0	0.30823374
187	0x3e138e14	0.14409667
188	0x3f05ecb3	0.523143
189	0xbe268027	-0.16259824
190	0x3eaec4c3	0.34134492
191	0x3d615f24	0.055022374
192	0x3df1bcb2	0.11803569
193	0xbe3375dc	-0.17525429
194	0x3e4352ae	0.19074509
195	0xbe95cb52	-0.29256684
196	0x3df3f22b	0.11911424
197	0xbc8fc5b8	-0.017550334
198	0xbda2fb64	-0.07958105
199	0xbea6c2b9	-0.32570437
200	0xbe3a4dd2	-0.18193749
201	0x3db48722	0.08814837
202	0x3d5a92a4	0.053362504
203	0x3d2db916	0.04241284
204	0xbe3eb362	-0.18623117
205	0xbf18da4c	-0.59708095
206	0x3e7d2b74	0.24723607
207	0xbed8c136	-0.42334908
208	0x3d83c680	0.06434345
209	0xbee0f092	-0.4393354
210	0xbc521d7a	-0.012824411
211	0xbdc496b2	-0.09599055
212	0x3cfb7ee3	0.030700153
213	0x3d80a98d	0.06282339
214	0x3ecb6afa	0.39730054
215	0x3da19b1b	0.07890912
216	0x3d0a2269	0.033724222
217	0xbe0c445e	-0.13697955
218	0xbe05b4c7	-0.13057242
219	0x3e078836	0.13235554
220	0x3eafeec0	0.3436184
221	0xbe42c3ef	-0.19020055
222	0x3debc966	0.11513023
223	0x3e078287	0.13233386
224	0x3ed57cbf	0.41696736
225	0xbe5c191e	-0.21493956
226	0xbdb7fcf5	-0.089837946
227	0xbe83dc0b	-0.25753817
228	0xbdc3d363	-0.09561803
229	0x3ddb15b0	0.10697496
230	0xbdd6544b	-0.10465296
231	0x3eac02aa	0.33595783
232	0x3de09d61	0.10967518
233	0xbd46e454	-0.048557594
234	0xbd85b3f6	-0.065284654
235	0x3f10e210	0.56594944
236	0xbe5167ad	-0.20449705
237	0x3c8fad11	0.01753858
238	0xbe72e228	-0.23719084
239	0xbe34035c	-0.17579406
240	0xbeae9ea5	-0.3410541
241	0x3e00421b	0.12525217
242	0x3dad5a73	0.084645174
243	0xbec2feb6	-0.38084954
244	0xbe7438ca	-0.23849788
245	0x3e820a5e	0.25398535
246	0x3db169a3	0.08662727
247	0x38c96634	9.603464e-05
248	0x3ec09a30	0.37617636
249	0xbd991e87	-0.07476526
250	0xbddfe71f	-0.10932755
251	0xbec07ec3	-0.37596712
252	0x3d24aa61	0.04020155
253	0x3de4bb54	0.111685425
254	0x3d0843b2	0.033267684
255	0xbc7236a8	-0.014783539
