experiments/pedestrians/models/eth_vel/model_registrar-100.pt (torch_old, 545346 bytes, 43 tensors)

weight_ih_l0 f4 [128, 6]
0	0x3da0395b	0.0782344
1	0x3e62e458	0.22157419
2	0xbdf5a0cb	-0.119935594
3	0xbe4bfe6f	-0.19921277
4	0xbe7892e2	-0.24274781
5	0x3dade0d8	0.08490151
6	0xbda9e5ed	-0.08295808
7	0xbe8460d5	-0.25855127
8	0xbda30297	-0.07959478
9	0x3e10ec92	0.14152744
10	0xbb7cd961	-0.0038581716
11	0x3c3b443c	0.011429843
12	0x3dbbf2e0	0.09177184
13	0xbb427990	-0.0029674508
14	0xbe8a114c	-0.2696632
15	0xbe49dbc6	-0.19712743
16	0xbeb61fe6	-0.35571212
17	0xbe7c5b33	-0.24644165
18	0x3ce106ca	0.027469058
19	0x3d749ed3	0.05972178
20	0xbe0dd9e8	-0.13852656
21	0xbd39548c	-0.045246646
22	0xbe1206b3	-0.14260368
23	0x3eaba90d	0.33527413
24	0x3e0ce01c	0.13757366
25	0xbe655556	-0.22395834
26	0xbdca6f32	-0.0988449
27	0xbe6ede83	-0.23327069
28	0x3e51fa85	0.20505722
29	0xbf9e04d3	-1.2345222
30	0xbc493edf	-0.012283056
31	0x3e82f550	0.25577784
32	0x3ef426e2	0.47685915
33	0xbeb1ce31	-0.34727624
34	0x3e6361f3	0.22205333
35	0xbe3aa304	-0.18226248
36	0xbe96d174	-0.29456675
37	0x3d15c012	0.036560126
38	0xbce9e635	-0.028552154
39	0xbda7d71f	-0.08195328
40	0xbe897b49	-0.26851872
41	0xbd3ec8c6	-0.04657819
42	0xbef67412	-0.4813543
43	0xbd17db8d	-0.037074614
44	0x3ed1b11f	0.40955445
45	0x3cb8a794	0.022540845
46	0x3c0ef933	0.008726406
47	0x3dddcc3c	0.1082997
48	0x3e5fa5c3	0.21840577
49	0x3c94e985	0.018177757
50	0x3eaff6e2	0.34368044
51	0xbe1b908b	-0.15191858
52	0x3be2744c	0.0069108363
53	0x3d7681ad	0.060182262
54	0xbeceead3	-0.40413532
55	0xbf03e131	-0.5151549
56	0x3ef35092	0.47522408
57	0x3e832565	0.25614467
58	0xbcb3c104	-0.021942623
59	0x3e9c1f7a	0.30492765
60	0x3ea14f5d	0.31505862
61	0xbe9e9f5b	-0.30980954
62	0xbf126704	-0.5718844
63	0x3eb34d0c	0.3501972
64	0xbdf9ea82	-0.12202932
65	0x3f1966c4	0.5992243
66	0xbde69582	-0.11258985
67	0xbd8f1e8b	-0.069882475
68	0x3d88ebda	0.0668561
69	0x3e692171	0.22766663
70	0x3e8feed3	0.28111896
71	0xbdbee082	-0.09320165
72	0xbdd5f180	-0.10446453
73	0xbe1b2860	-0.1515212
74	0xbe1f8132	-0.15576628
75	0x3e229376	0.15876564
76	0x3eb20353	0.3476816
77	0x3e977d2d	0.2958769
78	0xbe368710	-0.1782496
79	0xbd06433f	-0.032778975
80	0x3e6d59ad	0.2317874
81	0x3eaa5f55	0.33275858
82	0xbd43cc78	-0.04780242
83	0x3e3af72f	0.18258356
84	0xbe03b4a5	-0.12861879
85	0xbdeacc05	-0.11464695
86	0xbf285c63	-0.6576597
87	0x3db21722	0.086958185
88	0x3b947cca	0.0045314776
89	0x3e9fe8e4	0.3123237
90	0xbe50a5d2	-0.20375755
91	0x3eb56d51	0.35434964
92	0x3e4e4b66	0.2014595
93	0x3da868bc	0.082231015
94	0xbdcc83e2	-0.09986092
95	0x3e06dbdd	0.13169809
96	0x3d771fcc	0.06033306
97	0x3d84fbff	0.06493377
98	0xbe89e17b	-0.2692984
99	0x3ed6ee42	0.4197865
100	0x3e346007	0.17614757
101	0xbf30044c	-0.68756557
102	0x3e17547e	0.14778325
103	0xbe7e8101	-0.24853899
104	0x3ba63339	0.005072024
105	0x3e507eab	0.2036082
106	0xbe3f6651	-0.18691374
107	0x3d016a19	0.031595323
108	0xbc5ff6f2	-0.013669716
109	0x3dce4516	0.10071771
110	0x3e3a17c8	0.18173134
111	0x3e01c3e3	0.12672381
112	0xbc30d785	-0.010793571
113	0x3e17e752	0.14834335
114	0xbde37392	-0.11106028
115	0xbe062fd7	-0.13104187
116	0xbdd3d379	-0.103430696
117	0x3ccd3bee	0.02505299
118	0x3bc70949	0.006074105
119	0xbdd0ca82	-0.10194875
120	0xbe164a61	-0.14676811
121	0x3e327b67	0.17429887
122	0xb9f19d5d	-0.00046084347
123	0xbe0fcca3	-0.14042906
124	0xbd5f4337	-0.05450746
125	0xbe2328a8	-0.15933478
126	0x3f04c3c1	0.51861197
127	0x3f468ac1	0.7755547
128	0xbf13f874	-0.57800984
129	0xbf3071cb	-0.68923634
130	0x3e62aeb2	0.22136953
131	0x3efcee1e	0.4940042
132	0x3d948782	0.072524086
133	0xbe1617e5	-0.14657553
134	0xbcc541bf	-0.024079202
135	0x3ccd043a	0.02502643
136	0x3e15062c	0.14553136
137	0xbc2540de	-0.010086266
138	0xbe5b5ec9	-0.21422876
139	0x3dcc5398	0.09976882
140	0x3eb0b049	0.34509495
141	0xbe8fe519	-0.28104475
142	0x3ee8e5e8	0.45487905
143	0xbf01f36e	-0.5076207
144	0x3d84e090	0.064881444
145	0xbe63bb3c	-0.22239393
146	0xbe972828	-0.29522824
147	0x3de29d6a	0.110651806
148	0xbf0c4b70	-0.5480261
149	0xbe3ae3fe	-0.18251035
150	0xbe710bdb	-0.23539679
151	0x3d6909b1	0.056894008
152	0xbcd9949b	-0.026560118
153	0x3e04f9e9	0.12985958
154	0x3e853b96	0.26022023
155	0x3d7f5f74	0.06234689
156	0xbe4db6f3	-0.20089321
157	0x3d1a49f4	0.037668183
158	0xbd93d3bc	-0.072181195
159	0xbd40688a	-0.046974696
160	0xbe0615f2	-0.13094309
161	0x3ea94699	0.33061674
162	0xbd99e98f	-0.07515251
163	0x3e67ad89	0.22624792
164	0x3f35dc85	0.7103961
165	0x3f2f7afa	0.6854702
166	0x3e4fe29b	0.20301287
167	0x3e2f041e	0.17091414
168	0xbe24da2e	-0.16098854
169	0x3e2506d7	0.1611589
170	0xbe9c41e0	-0.3051901
171	0x3de245b0	0.11048448
172	0xbacf926b	-0.0015836483
173	0x3dab8204	0.08374408
174	0xbeda9259	-0.4268978
175	0xbccd7b0d	-0.02508309
176	0x3d2945b2	0.041326232
177	0xbd8ba48f	-0.068184964
178	0x3d805c2b	0.0626758
179	0x3dd8625d	0.10565636
180	0xbd5ffcbe	-0.054684393
181	0xbdc68ada	-0.096944526
182	0x3d598447	0.053104665
183	0x3cc73d42	0.024321202
184	0xbe568c8c	-0.20952052
185	0xbe30bbbc	-0.17259115
186	0xbe49c664	-0.19704586
187	0x3eb0b127	0.34510157
188	0x3ea664c1	0.32498744
189	0xbe498f2d	-0.19683523
190	0xbef8e970	-0.486156
191	0x3d30e41e	0.0431863
192	0x3ea6c896	0.3257491
193	0x3e3ea0fa	0.18616095
194	0xbe9a5538	-0.30143142
195	0xbea2ff35	-0.31835333
196	0xbbd9aff5	-0.00664329
197	0x3cd6eb3a	0.026235212
198	0x3c1aad08	0.009440668
199	0xbd28002e	-0.041015796
200	0x3cc36c81	0.02385545
201	0x3d9a9a0e	0.07548915
202	0x3c3d1edf	0.011543005
203	0xbdad9884	-0.08476356
204	0xbd0d966b	-0.034567278
205	0x3bbe8d69	0.0058151972
206	0xbe9c7d4b	-0.3056434
207	0xbda21deb	-0.07915863
208	0x3c8c2fe4	0.01711268
209	0xbdaddeb5	-0.084897436
210	0xbd9e3d39	-0.07726521
211	0xbc36fb0f	-0.0111682555
212	0x3e543229	0.2072226
213	0xbe913ba6	-0.2836582
214	0xbd950753	-0.072767876
215	0xbdfbe840	-0.123001575
216	0x3ed6f683	0.4198495
217	0xbecf4211	-0.40480092
218	0x3e15ad1a	0.14616814
219	0xbe3e6ca4	-0.1859613
220	0xbe7f75f7	-0.24947344
221	0xbb53ca73	-0.0032316714
222	0x3e337bb2	0.17527655
223	0x3cabc5d4	0.020968355
224	0x3e6736cd	0.22579499
225	0xbeb32415	-0.34988466
226	0xbebc7ebf	-0.3681545
227	0xbe65bde0	-0.22435713
228	0xbcacfb3b	-0.02111589
229	0x3dba4b8c	0.09096441
230	0x3d8fea19	0.070270725
231	0xbe252b2a	-0.16129747
232	0x3dc84209	0.0977822
233	0xbddac7b2	-0.1068262
234	0xbdd36596	-0.1032211
235	0xbe306722	-0.17226842
236	0x3e7b5925	0.24545725
237	0xbe179ec0	-0.14806652
238	0xbde1343a	-0.109962896
239	0xbc9893d1	-0.018625172
240	0x3e05b692	0.13057926
241	0xbe635cd2	-0.22203377
242	0x3eae96a2	0.340993
243	0xbe3a2010	-0.18176293
244	0xbed0efac	-0.40807855
245	0x3de0d558	0.10978192
246	0x3d635aad	0.055506397
247	0xbd43bf32	-0.04778976
248	0x3d8a020e	0.06738673
249	0x3e4a5b58	0.19761407
250	0x3ec38b32	0.38192135
251	0x3e2cd257	0.16877113
252	0x3e8e2aef	0.2776713
253	0xbee7d872	-0.45282322
254	0xbe2a9378	-0.16657817
255	0x3ee93e86	0.45555514

weight_hh_l0 f4 [128, 32]
0	0x3ee43384	0.44570553
1	0xbdd9ef81	-0.10641385
2	0x3f16ae78	0.5885997
3	0x3e082c3b	0.13298123
4	0x3e0c71a5	0.13715227
5	0xbe8cde4b	-0.27513346
6	0xbdbfe3a9	-0.093695946
7	0xbea1f527	-0.3163235
8	0x3dd41beb	0.103568874
9	0x3ed95e2e	0.42454666
10	0xbf247bb7	-0.64251274
11	0x3ed357bf	0.41277882
12	0x3c743b9d	0.014906791
13	0x3e1335cd	0.14375992
14	0xbd2af7d4	-0.041740254
15	0xbe9f9add	-0.3117284
16	0xbe769b50	-0.24082685
17	0xbe567efc	-0.20946878
18	0x3e47d554	0.19514972
19	0xbece679e	-0.4031343
20	0xbdf7b182	-0.12094404
21	0x3e969476	0.29410142
22	0xbd9dea41	-0.07710696
23	0xbf11736a	-0.5681673
24	0xbc95a53f	-0.018267272
25	0xbe86790e	-0.26264232
26	0x3e14feca	0.1455032
27	0x3eb3608c	0.35034597
28	0xbe64a60c	-0.22328967
29	0x3e554ac5	0.20829304
30	0xbdcfddbd	-0.10149715
31	0xbd5139d0	-0.051080525
32	0x3e09471d	0.13406034
33	0xbeac5b2a	-0.33663303
34	0x3e93e43e	0.28885072
35	0xbe33184c	-0.17489737
36	0x3e8d6acc	0.27620542
37	0xbd9c2707	-0.076246314
38	0x3df51a0e	0.1196786
39	0xbe77842b	-0.24171512
40	0x3e657345	0.22407253
41	0x3e1b315e	0.15155551
42	0xbeb27a5b	-0.34858975
43	0x3d83e328	0.06439811
44	0xbf0643f5	-0.52447444
45	0x3e61c638	0.2204827
46	0xbdbd4231	-0.09241141
47	0xbef06683	-0.4695321
48	0xbea438f6	-0.32074708
49	0x3db87177	0.09006017
50	0x3defd5ff	0.117107384
51	0xbeda51aa	-0.4264043
52	0xbe5afbe4	-0.21385151
53	0x3efa8c29	0.4893506
54	0xbe81b8fd	-0.25336447
55	0xbece1d65	-0.402568
56	0xbd826120	-0.063661814
57	0xbe5d2ec4	-0.21599871
58	0xbe8d8397	-0.27639458
59	0xbecd7e48	-0.40135407
60	0xbf2630eb	-0.6491839
61	0x3dc5626a	0.096379116
62	0x3e2e4bf3	0.1702116
63	0x3cad2c4a	0.021139283
64	0x3eb3328e	0.34999508
65	0xbcc2944b	-0.023752352
66	0x3e10d7e1	0.14144851
67	0x3e3f5c9f	0.18687676
68	0x3e009a4f	0.12558864
69	0x3c36bc45	0.011153285
70	0xbe323cac	-0.17405957
71	0xbdf0344e	-0.11728726
72	0x3e3bee96	0.18352732
73	0x3e870bfa	0.26376325
74	0xbf184fe8	-0.5949693
75	0x3de1ff74	0.11035052
76	0xbe50574a	-0.20345798
77	0xbe85ecb8	-0.26157165
78	0xbdbf551b	-0.093424045
79	0xbea378d7	-0.3192813
80	0xbe280ff1	-0.16412331
81	0xbe3dfaa9	-0.1855265
82	0x3e8d1b32	0.2755981
83	0xbedd80a3	-0.43262205
84	0x3d77eb29	0.060527
85	0x3e928a4c	0.28621137
86	0x3d443ac6	0.047907613
87	0x3d0fa27c	0.035067067
88	0x3e1fe352	0.1561406
89	0xbdeee949	-0.11665589
90	0x3d94646f	0.07245719
91	0xbbf1c3bf	-0.007378071
92	0xbe604988	-0.2190305
93	0x3e607ecb	0.21923368
94	0xbe6acfd7	-0.22930847
95	0xbbcbb3cf	-0.006216503
96	0x3d409ca8	0.0470244
97	0x3d91ecd2	0.07125248
98	0x3e10b76c	0.1413247
99	0x3d070b33	0.032969665
100	0x3e5fec75	0.21867545
101	0xbd6fd123	-0.058549058
102	0xbe963621	-0.29338172
103	0xbcc9c1f2	-0.024628613
104	0x3ec71d73	0.38889655
105	0x3e52740d	0.20552082
106	0xbf0dde0b	-0.55416936
107	0xbda120c3	-0.07867577
108	0xbea8c04a	-0.32959205
109	0x3dfd5469	0.123696156
110	0xbf10b70f	-0.56529325
111	0xbec3c9a3	-0.38239774
112	0xbf1b280d	-0.6060799
113	0xbdd23e3b	-0.10265776
114	0x3ecc3b4d	0.39888993
115	0xbf16a155	-0.58839923
116	0xbd617e45	-0.05505206
117	0x3f02aef5	0.51048213
118	0xbb4a197a	-0.003083794
119	0xbed5d462	-0.41763598
120	0xbe6b683a	-0.22988978
121	0xbe57e510	-0.21083474
122	0xbe55a202	-0.20862582
123	0xbe167012	-0.14691189
124	0xbf2c6263	-0.67337626
125	0x3e9f8fb0	0.31164312
126	0x3e2d46ab	0.16921489
127	0x3c9d7581	0.01922107
128	0xbe4cd8e8	-0.20004618
129	0x3ebe399e	0.37153333
130	0x3e61b028	0.22039855
131	0x3e4f2ca0	0.20231867
132	0x3e596bb2	0.21232489
133	0xbe715a38	-0.23569572
134	0x3f428e9f	0.7599887
135	0xbe8a16d2	-0.26970536
136	0xbd21d8db	-0.03951345
137	0x3df06024	0.11737087
138	0xbd1a4df4	-0.037672
139	0x3db5d69e	0.088788256
140	0xbe0ef128	-0.13959181
141	0xbe88acec	-0.2669443
142	0xbd1a7ef7	-0.03771874
143	0xbe7c69a8	-0.2464968
144	0xbe28ac75	-0.16472037
145	0xbe27f1e0	-0.16400862
146	0xbdcfc145	-0.10144285
147	0xbe065878	-0.13119686
148	0xbea7fc85	-0.32809845
149	0x3f1f0af1	0.6212607
150	0x3f09b673	0.5379402
151	0xbec550c7	-0.3853819
152	0x3e68178c	0.22665232
153	0xbe501047	-0.2031871
154	0xbd821fd4	-0.06353727
155	0xbead7b8d	-0.33883324
156	0x3d95bd73	0.07311525
157	0xbe8d81d8	-0.27638125
158	0xbe592f85	-0.21209534
159	0x3e3b47b4	0.18289071
160	0x3e0f0b24	0.13969094
161	0xbe93334a	-0.28750068
162	0x3e36c06e	0.17846844
163	0xbd801fac	-0.06256041
164	0xbe8e8c84	-0.2784158
165	0xbe3a2403	-0.181778
166	0x3e8d7d99	0.27634886
167	0xbebd0fcd	-0.36926118
168	0xbd107950	-0.035271943
169	0x3d28aa9c	0.04117833
170	0x3ea9718d	0.33094445
171	0xbdbef3e4	-0.09323862
172	0xbe8899e7	-0.26679918
173	0x3e2843c1	0.16432096
174	0xbe15e926	-0.1463972
175	0xbe28a0b1	-0.16467549
176	0xbe567ff6	-0.2094725
177	0x3ee26f93	0.4422575
178	0x3b387a7d	0.002814918
179	0xbd1f1aaf	-0.038843807
180	0xbe60cbe9	-0.21952786
181	0x3e44dd1d	0.19224973
182	0x3cb8fb05	0.022580633
183	0xbeb3b50c	-0.35099065
184	0xbdb5c1d3	-0.0887486
185	0xbd6d0004	-0.057861343
186	0x3d8524d4	0.06501165
187	0xbd57751c	-0.05260192
188	0xbe2d5927	-0.1692854
189	0xbdc4015e	-0.09570573
190	0x3d67fb77	0.0566363
191	0x3ec5ee16	0.38658208
192	0x3e19fa96	0.15036997
193	0xbdcb37e1	-0.099227674
194	0xbe452ef0	-0.19256186
195	0xbd096d79	-0.033551667
196	0x3e832b7f	0.25619122
197	0xbe3a24b7	-0.18178068
198	0xbd8ec1a9	-0.069705315
199	0xbeb4880e	-0.3526005
200	0xbca2385d	-0.019802267
201	0x3e020680	0.12697792
202	0xbea22ed5	-0.31676355
203	0x3dd722d5	0.105046906
204	0x3db5872e	0.08863674
205	0x3ea06aa6	0.31331366
206	0xbe86f615	-0.2635962
207	0xbe7a570a	-0.24447265
208	0xbe888a8f	-0.26668212
209	0xbe327384	-0.17426878
210	0x3e9c8e55	0.3057734
211	0xbf091659	-0.53549725
212	0x3dd02f06	0.10165219
213	0x3f156e9c	0.583719
214	0x3deb07de	0.1147611
215	0xbe425585	-0.18977936
216	0xbe80dd25	-0.2516872
217	0xbcc48f4a	-0.023994107
218	0x3cb2e48f	0.0218375
219	0xbe8ef5ea	-0.27921993
220	0xbf15a8d5	-0.5846074
221	0x3e32c311	0.17457224
222	0x3ced2d5e	0.028952297
223	0x3e196d08	0.14982998
224	0x3e8db538	0.2767732
225	0xbdc66cb0	-0.09688699
226	0x3e22f6a7	0.15914403
227	0x3dafe79c	0.08589098
228	0x3e651d32	0.22374418
229	0xbd452bee	-0.048137598
230	0x3e768d50	0.24077344
231	0xbe44019f	-0.19141243
232	0xbd5f764f	-0.054556187
233	0xbd59cb21	-0.053172234
234	0xbdab53e0	-0.08365607
235	0x3c0b28e3	0.008493635
236	0x3e756e98	0.2396797
237	0xbcb55b87	-0.02213837
238	0xbe929a63	-0.28633413
239	0xbe64a0fe	-0.22327039
240	0xbe37121f	-0.17878006
241	0xbe3cd0ba	-0.18438998
242	0x3e298d0b	0.1655771
243	0xbea70596	-0.3262145
244	0xbefa6886	-0.4890787
245	0x3ebb78a7	0.36615488
246	0x3df2ece5	0.1186159
247	0xbe85abdc	-0.2610768
248	0x3d8258e8	0.06364614
249	0xbd3eaeca	-0.04655341
250	0xbe2a8a88	-0.16654408
251	0xbe6c7dde	-0.2309489
252	0xbe8522a2	-0.26002985
253	0xbc99e78e	-0.018787172
254	0x3b46f150	0.0030356236
255	0x3e41b294	0.18915778

bias_ih_l0 f4 [128]
0	0x3dafa002	0.08575441
1	0x3f0b5c76	0.5443796
2	0x3e00cf7e	0.12579152
3	0x3eb46325	0.3523189
4	0x3df6ef69	0.120573826
5	0x3e99b5c6	0.30021495
6	0x3ea65171	0.3248401
7	0x3e6a459d	0.22878118
8	0x3e4f2e1e	0.20232436
9	0x3e8a1005	0.26965347
10	0x3ed81262	0.42201525
11	0x3e53e07c	0.20691103
12	0x3e79e92c	0.24405354
13	0x3ecf0503	0.4043351
14	0x3e60db5e	0.21958682
15	0x3c5e195a	0.013555849
16	0x3cbb5ffd	0.02287292
17	0x3ec29422	0.3800364
18	0x3d3f58e8	0.046715647
19	0x3e4361a3	0.19080214
20	0x3f257e4a	0.64645827
21	0x3e9f03b3	0.3105751
22	0x3f088fb8	0.533443
23	0xbceb7ad3	-0.02874509
24	0x3f0bb544	0.54573464
25	0x3ddabe3a	0.10680814
26	0x3d861521	0.06546999
27	0x3e3ba034	0.18322831
28	0x3d9c0b9e	0.07619403
29	0x3ed81e87	0.4221079
30	0x3e954da7	0.29160807
31	0x3e8fce27	0.2808697
32	0x3ca07bf3	0.019590354
33	0xbf1b1d2a	-0.60591376
34	0xbeb18d94	-0.34678328
35	0xbe412373	-0.18861179
36	0xbe4bbc0b	-0.19895951
37	0xbe3183c5	-0.17335422
38	0xbf21fdf1	-0.6327811
39	0xbeaa7019	-0.3328865
40	0xbe45dff7	-0.19323717
41	0xbe4707fc	-0.1943664
42	0xbddf13a8	-0.10892421
43	0x3d480414	0.048832014
44	0xbe279c62	-0.16368249
45	0xbed025f9	-0.4065397
46	0xbd93bb92	-0.072135106
47	0xbe1f1529	-0.15535416
48	0x3cffdb8f	0.031232623
49	0xbe2746e5	-0.16335638
50	0xbde04faf	-0.109526984
51	0x3db4437e	0.088019356
52	0xbf2d67c2	-0.67736447
53	0xbde95fce	-0.113952264
54	0xbeab235e	-0.3342542
55	0xbd101e6a	-0.035185255
56	0xbf10d8a1	-0.5658055
57	0x3e2fc195	0.1716369
58	0xbcd6be92	-0.026213918
59	0x3de62766	0.112379834
60	0x3c8ca9b5	0.017170766
61	0xbf3b7efd	-0.73240644
62	0xbf068a2f	-0.525546
63	0xbf00951e	-0.50227535
64	0x3e1a6a0d	0.15079518
65	0x3e018eb7	0.12652098
66	0xbd1c328e	-0.03813415
67	0x3c839e52	0.016066704
68	0xbdaa26d8	-0.0830819
69	0xbc822c44	-0.015890248
70	0x3dc4c44f	0.096077554
71	0xbcf9a5d4	-0.03047458
72	0xbca72626	-0.020403933
73	0x3e0045e3	0.1252666
74	0xbe1065a1	-0.14101268
75	0x3d03798e	0.032098345
76	0xbdb7f0cd	-0.08981476
77	0xbc832fcf	-0.016014008
78	0xbd5b03d2	-0.05347044
79	0xbe34d864	-0.17660671
80	0xbe377df1	-0.17919137
81	0xbe13ee4c	-0.14446372
82	0x3e068cb8	0.13139617
83	0xbdd3499d	-0.10316775
84	0x3d9ac5fb	0.07557293
85	0x3df81682	0.12113668
86	0x3dcb34a3	0.09922149
87	0xbe26d12e	-0.16290733
88	0x3de8a50c	0.11359605
89	0xbde28957	-0.11061352
90	0x3bf1ce0b	0.0073792986
91	0xbda72436	-0.081612036
92	0xbe24de82	-0.16100505
93	0x3e12795c	0.14304107
94	0x3ca20699	0.019778537
95	0xbd558397	-0.052127447
96	0x3e8c351f	0.27384278
97	0x3efb56cb	0.49089655
98	0x3e39b295	0.1813453
99	0x3ecb29f6	0.3968045
100	0x3e97efb0	0.29675055
101	0x3e75b64c	0.23995322
102	0x3eb4d31b	0.3531731
103	0x3e83e993	0.2576414
104	0x3d8830d2	0.06649937
105	0x3ea6b29a	0.32558137
106	0x3e5c4e08	0.21514142
107	0x3e2139d3	0.15744714
108	0x3e54ba3d	0.2077417
109	0x3ebdff9f	0.37109086
110	0x3e5c4b42	0.21513084
111	0x3e2d1b06	0.1690484
112	0x3e370e83	0.1787663
113	0x3ea6239a	0.32449037
114	0x3e039028	0.1284796
115	0x3d9d6672	0.076855555
116	0x3f30e9ec	0.69106936
117	0x3eb94b25	0.36190143
118	0x3efd09ca	0.4942153
119	0x3cf0279a	0.029315758
120	0x3eaaeb02	0.33382422
121	0x3e13d134	0.14435273
122	0x3e6e5b92	0.23277119
123	0x3dab2edd	0.08358548
124	0x3e5cd475	0.21565421
125	0x3f0d8403	0.5527956
126	0x3eb2dbe0	0.34933376
127	0x3e8664de	0.2624883

bias_hh_l0 f4 [128]
0	0x3d29d634	0.041464046
1	0x3f0eb76e	0.5574864
2	0xbc030ed4	-0.007999141
3	0x3f038874	0.51380086
4	0x3e8758d2	0.26434952
5	0x3d66a871	0.056312982
6	0x3e648c60	0.22319174
7	0x3ed00c89	0.40634564
8	0x3e932e28	0.28746152
9	0x3ede7d66	0.43455046
10	0x3e29881e	0.16555831
11	0x3da81b26	0.08208303
12	0x3bbcbcaa	0.005759795
13	0x3f32d7ed	0.69860727
14	0x3e853276	0.2601506
15	0x3e3226fe	0.17397687
16	0xbd83437b	-0.06409355
17	0x3ebec4fd	0.37259665
18	0xbd4899cd	-0.0489748
19	0x3e160aa0	0.1465249
20	0x3f4b4c6f	0.79413503
21	0x3efb8ab4	0.4912926
22	0x3f0fdd1a	0.5619675
23	0x3d119fd0	0.0355528
24	0x3ee510c2	0.44739348
25	0x3dbbc277	0.091679506
26	0x3e0e5c74	0.13902456
27	0x3dbbb0af	0.09164559
28	0xbbb1ffcf	-0.005432106
29	0x3ed355d8	0.4127643
30	0x3eb8e5b5	0.36112753
31	0x3ea980d5	0.33106104
32	0xbd8da847	-0.06916862
33	0xbf146f55	-0.5798238
34	0xbddf6cee	-0.109094486
35	0xbeca1d6e	-0.39475578
36	0x3de01039	0.10940594
37	0xbc2c335a	-0.01051029
38	0xbefbd1f0	-0.49183607
39	0xbef496aa	-0.47771198
40	0xbdf67ac3	-0.12035134
41	0xbe804d14	-0.25058806
42	0xbdb84c43	-0.08998921
43	0xbc4a750f	-0.0123570105
44	0xbe2a75b5	-0.16646464
45	0xbf1602a0	-0.58597755
46	0x3d0a8692	0.033819743
47	0xbdd7890a	-0.10524185
48	0xbdcbe906	-0.09956555
49	0xbe6cd4d3	-0.23128061
50	0xbda63e6d	-0.081173755
51	0xbdbf0280	-0.09326649
52	0xbf0890ad	-0.5334576
53	0xbe8db229	-0.27674988
54	0xbf0eac51	-0.55731684
55	0xbd8160bd	-0.063172795
56	0xbf44f693	-0.7693874
57	0xbe0c4789	-0.13699163
58	0xbe8f3b7f	-0.2797508
59	0x3d53b52d	0.051686455
60	0xbc350c32	-0.011050271
61	0xbeff3a47	-0.4984915
62	0xbec973cf	-0.39346167
63	0xbe4db4d0	-0.20088506
64	0xbe07a497	-0.1324638
65	0xbe11aa94	-0.14225227
66	0x3e071cb3	0.13194542
67	0xbd220e32	-0.03956432
68	0x3e31be85	0.17357834
69	0x3c8699f7	0.016430838
70	0xbdb873f6	-0.09006493
71	0x3c867b33	0.016416168
72	0x3df7828c	0.12085447
73	0x3d01a1b9	0.03164837
74	0xbc57ed80	-0.013179183
75	0x3d4a4ef6	0.04939171
76	0x3dba290c	0.0908986
77	0x3d4e9002	0.050430305
78	0xbe0652f2	-0.13117579
79	0xbcf89bae	-0.030347671
80	0xbdb0a3ce	-0.08624993
81	0x3dc88dc3	0.09792664
82	0x3d68d37c	0.056842312
83	0xbe6b433f	-0.22974871
84	0xbda6b650	-0.08140242
85	0x3d788fa0	0.060683846
86	0xbe13d6bb	-0.14437382
87	0x3dae6e27	0.08517104
88	0xbdffcbd4	-0.12490049
89	0xbba2f1a8	-0.0049726553
90	0x3c298377	0.010346285
91	0x3d0820c7	0.033234384
92	0xbe1923d5	-0.14955075
93	0xbe0adb75	-0.13560279
94	0xbb9c539d	-0.0047707097
95	0x3d5473d7	0.051868286
96	0x3e229d3f	0.15880297
97	0x3f200e7d	0.6252211
98	0x3ccece13	0.025244748
99	0x3f1fc64a	0.6241194
100	0x3eca6d54	0.39536536
101	0x3e12c891	0.14334323
102	0x3f0d3fa4	0.5517523
103	0x3f1177b4	0.5682328
104	0x3c4cc3f7	0.012497894
105	0x3eb22414	0.3479315
106	0x3ee9aead	0.4564108
107	0x3e6ff67b	0.23433869
108	0x3e612e4b	0.21990316
109	0x3f10744b	0.5642745
110	0x3e0a3975	0.1349848
111	0x3e352868	0.17691195
112	0x3e49fe12	0.19725826
113	0x3e4033fa	0.18769827
114	0x3e6f2e28	0.23357451
115	0xbd3f02be	-0.046633475
116	0x3f27743c	0.65411735
117	0x3f0d9112	0.55299485
118	0x3f255f7d	0.6459883
119	0x3e25ca54	0.16190463
120	0x3f058afd	0.52165204
121	0x3df5c2fa	0.120000795
122	0x3e91c255	0.28468576
123	0x3db7e34f	0.089789025
124	0x3db0c542	0.08631374
125	0x3f0c18d2	0.5472537
126	0x3ec0b12f	0.3763518
127	0x3eed2c0a	0.46322662

weight_ih_l0 f4 [128, 2]
0	0x3e5cbf29	0.21557297
1	0xbd5f5635	-0.054525573
2	0x3d41a0b5	0.047272403
3	0x3cf2df15	0.02964739
4	0x3edec734	0.43511355
5	0x3e0b03fd	0.1357574
6	0xbe81eceb	-0.25376067
7	0x3ca670c1	0.020317437
8	0xbe73290a	-0.23746124
9	0xbea352d4	-0.3189913
10	0x3eb25360	0.34829235
11	0x3dc705e0	0.097179174
12	0x3e697d32	0.22801664
13	0x3decfce8	0.115716755
14	0xbea4350b	-0.3207172
15	0xbd19f403	-0.037586223
16	0x3e28d108	0.16485989
17	0xbe35ccc6	-0.17753896
18	0xbd3f3049	-0.046676908
19	0x3d19b071	0.037521783
20	0x3c19b4da	0.009381497
21	0x3ce7c2c7	0.02829112
22	0x3e4bbd03	0.19896321
23	0x3cbb4b36	0.022863012
24	0x3dbbca5d	0.09169457
25	0xbe864c5d	-0.26230136
26	0xbea93be6	-0.3305351
27	0xbe1e63ac	-0.1546771
28	0xbe70e25c	-0.23523849
29	0x3d9d0983	0.0766783
30	0xbd61c2be	-0.05511736
31	0x3e1628cb	0.14663999
32	0xbd440e8e	-0.047865443
33	0x3e3bf217	0.18354069
34	0xbe23a085	-0.15979202
35	0x3e6607ba	0.22463885
36	0x3d0ae21b	0.033907037
37	0x3e2e75b6	0.1703709
38	0x3ecd5be4	0.4010917
39	0xbe5fe2e7	-0.218639
40	0x3e9f0a13	0.31062374
41	0x3bb8c935	0.00563922
42	0x3e346752	0.17617539
43	0x3f0e8246	0.5566753
44	0x3d3fd942	0.046838053
45	0x3e82a5e9	0.25517204
46	0xbebeb953	-0.37250766
47	0x3de45a61	0.11150051
48	0xbce6cb56	-0.02817313
49	0x3db158e6	0.08659534
50	0xbecfe86b	-0.40607008
51	0xbd271a9e	-0.04079687
52	0x3ea706fb	0.32622513
53	0x3e2b1e4e	0.16710779
54	0xbeff2424	-0.4983226
55	0x3ef03ae0	0.46919918
56	0x3e0a1363	0.13483958
57	0x3c312aef	0.010813459
58	0xbedb9204	-0.4288484
59	0x3ead077e	0.3379478
60	0xbceb4510	-0.028719455
61	0x3d64e996	0.055886827
62	0xbe79164d	-0.24324913
63	0xbf0b4368	-0.5439973
64	0x3d441714	0.04787357
65	0xbeccd21c	-0.4000405
66	0xbe2a93d6	-0.16657957
67	0xbe994a2a	-0.29939395
68	0x3ea9bc95	0.3315169
69	0x3eae4b91	0.34042028
70	0x3ed0bf2d	0.40770856
71	0x3e6f2479	0.23353757
72	0x3dd856c4	0.10563424
73	0xbe2bb0fc	-0.16766733
74	0xbec5c8a7	-0.38629648
75	0x3e2831a4	0.16425186
76	0xbea0f4f0	-0.31436872
77	0x3e15be12	0.14623287
78	0x3e9b0e20	0.30284214
79	0x3e221b01	0.15830614
80	0xbd95ff7e	-0.07324122
81	0xbe2a26e5	-0.166164
82	0x3e9a3991	0.30122045
83	0xbe828a72	-0.2549625
84	0xbebfada2	-0.3743716
85	0xbe7dc53f	-0.24782275
86	0xbebedb0f	-0.37276503
87	0x3d97b0e2	0.074067846
88	0xbefba1ba	-0.49146825
89	0x3e060982	0.13089564
90	0x3f3caeef	0.7370443
91	0x3f02982d	0.5101345
92	0xbea0c1d9	-0.31397894
93	0xbecd8e03	-0.4014741
94	0x3db233db	0.08701297
95	0x3d9e4119	0.0772726
96	0x3e2182fe	0.15772626
97	0xbe2b3a71	-0.16721512
98	0xbe7f15e8	-0.249107
99	0xbe6b22f9	-0.2296256
100	0x3e948eed	0.29015294
101	0x3f0d8742	0.5528451
102	0xbe600b71	-0.21879365
103	0x3dbc0d78	0.091822565
104	0xbf1ed5a9	-0.6204477
105	0xbedd0054	-0.43164313
106	0xbd4e14ef	-0.050312933
107	0xbe349609	-0.17635359
108	0x3e989e3f	0.29808232
109	0x3de49fd0	0.11163294
110	0x3d54d07e	0.051956646
111	0xbf093562	-0.5359708
112	0xbe8bfb1a	-0.27340013
113	0xbe1072b5	-0.14106257
114	0xbd678516	-0.056523405
115	0xbb97999c	-0.004626466
116	0x3e5943ea	0.21217313
117	0xbe07cfe1	-0.13262893
118	0x3c17ee4d	0.009273124
119	0x3ef674e6	0.4813606
120	0x3dcbf0ee	0.09958063
121	0xbe920de5	-0.28526226
122	0xbeb43bbf	-0.35201833
123	0x3ee77ddf	0.4521322
124	0x3e6d8283	0.23194318
125	0xbe5acdbc	-0.21367544
126	0xbd99c94f	-0.075091
127	0x3ed3c010	0.4135747
128	0xbc894975	-0.01675866
129	0x3e900b66	0.28133696
130	0xbe6ddfe6	-0.23229942
131	0xbedcf1a8	-0.4315312
132	0xbe5e0124	-0.21680123
133	0xbebc452e	-0.3677153
134	0x3a0639ab	0.00051202875
135	0xbea4a473	-0.32156715
136	0xbed64d89	-0.4185603
137	0x3e1b9bfd	0.15196224
138	0x3e092d45	0.13396175
139	0xbeb5e86e	-0.35528892
140	0xbe05cb34	-0.13065797
141	0xbee3c695	-0.44487444
142	0x3ef21f01	0.4728928
143	0xbe45149c	-0.19246143
144	0x3f0be0d8	0.5463996
145	0x3ea31bdd	0.31857195
146	0xbc99438b	-0.018708965
147	0x3f6258b1	0.8841658
148	0x3ecd2953	0.4007059
149	0x3efd5b1f	0.49483582
150	0xbf292bea	-0.6608263
151	0x3ddf1437	0.108925276
152	0xbee03c3d	-0.43795958
153	0xbd4c27b8	-0.049842566
154	0x3e90935a	0.2823742
155	0x3e43792f	0.19089197
156	0xbeb1b09d	-0.34705058
157	0xbf3f0b31	-0.7462645
158	0xbec0e3bd	-0.3767375
159	0x3e472c62	0.19450524
160	0xbe4044f2	-0.187763
161	0x3e2a7cdf	0.16649197
162	0xbf21ef2a	-0.6325556
163	0x3f01a9b9	0.506496
164	0x3e5bb9da	0.21457615
165	0x3f002d2c	0.50068927
166	0x3ec75cdc	0.38938034
167	0xbea948c4	-0.33063328
168	0xbe708290	-0.23487306
169	0x3c959e70	0.018264025
170	0xbee1ad74	-0.44077647
171	0x3e6bf554	0.23042804
172	0xbe1c908e	-0.15289518
173	0xbed74014	-0.42041075
174	0x3e61ff3f	0.22070025
175	0xbd855163	-0.06509664
176	0x3e8fc2b9	0.2807825
177	0x3e7ba10d	0.24573155
178	0x3e2b6230	0.16736674
179	0x3e69cd76	0.22832283
180	0xbf30cb18	-0.69059896
181	0x3f039c24	0.51410127
182	0x3ea81790	0.32830477
183	0x3dfbb8fe	0.12291144
184	0x3f03c387	0.51470226
185	0x3eb1de49	0.34739903
186	0x3d7574e1	0.059925918
187	0x3d9e48e2	0.07728745
188	0x3ebe3034	0.3714615
189	0x3e71ab0a	0.23600402
190	0xbe52b067	-0.20575105
191	0xbf0c2004	-0.5473635
192	0xbdec93ab	-0.11551603
193	0xbec8cfb2	-0.3922096
194	0x3dd8bfb0	0.105834365
195	0x3bbfb153	0.005849996
196	0x3eccbbe0	0.39987087
197	0x3e2c55cd	0.16829605
198	0x3e4f4453	0.20240907
199	0x3e0e303a	0.13885584
200	0xbe2c737f	-0.16840933
201	0xbeb0ce44	-0.34532368
202	0xbd948f3e	-0.07253884
203	0x3e23c51b	0.15993159
204	0xbcb965e5	-0.022631595
205	0xbe8a489e	-0.27008528
206	0xbde13b3e	-0.10997628
207	0xbdf1fb99	-0.118155666
208	0xbdb67000	-0.08908081
209	0x3db9ab9a	0.090659335
210	0xbcb365a5	-0.021899054
211	0xbeb9efa0	-0.36315632
212	0x3da70cda	0.08156748
213	0xbdf9c69b	-0.12196084
214	0x3d9771f5	0.073947825
215	0x3dea8684	0.11451438
216	0x3edf16a5	0.43571964
217	0x3e143648	0.14473832
218	0x3dc04acc	0.09389266
219	0x3e803d63	0.25046834
220	0xbe5fac69	-0.21843113
221	0x3e419741	0.18905355
222	0x3de33a23	0.11095073
223	0x3d1acf77	0.03779551
224	0xbd0a7ae8	-0.03380862
225	0x3cc5cc5a	0.024145294
226	0xbe8b3958	-0.27192187
227	0xbc650bae	-0.013979835
228	0x3c820db3	0.015875673
229	0xbd5df05f	-0.054184314
230	0x3f24e1f3	0.6440727
231	0xbd4db6d8	-0.0502232
232	0xbbabe106	-0.0052453307
233	0xbe455c55	-0.19273503
234	0xbe313975	-0.17307074
235	0x3ec6a2ea	0.3879617
236	0x3daf1a38	0.08549923
237	0xbb5fa8bf	-0.003412768
238	0xbe44f308	-0.19233334
239	0xbe877163	-0.26453695
240	0x3e4691b1	0.19391514
241	0x3db7d918	0.08976954
242	0xbd9a6cbf	-0.07540273
243	0xbe8653d1	-0.26235822
244	0x3d6a92a2	0.057268746
245	0xbe6c0f1f	-0.23052643
246	0xbdab5c69	-0.08367235
247	0x3f0883e3	0.53326243
248	0x3dcaab44	0.098959476
249	0xbda98dd9	-0.082790084
250	0xbee18a18	-0.4405067
251	0x3e6b9304	0.23005301
252	0x3dae92cc	0.08524093
253	0xbd76f36c	-0.06029074
254	0xbcc6804a	-0.024231095
255	0xbed15108	-0.40882134

weight_hh_l0 f4 [128, 32]
0	0xbcaddbf8	-0.021223053
1	0x3cef425e	0.029206451
2	0xbe4b59f4	-0.19858533
3	0x3dd6c6b3	0.104871176
4	0x3d7e70b8	0.062119216
5	0xbe004f89	-0.1253034
6	0x3c05f9c5	0.0081772255
7	0xbd16ceae	-0.0368182
8	0xbeeeb6ce	-0.46623844
9	0xbcd7d51d	-0.026346738
10	0x3de9d957	0.114184074
11	0x3e34a4f4	0.1764105
12	0x3e6c21e8	0.23059809
13	0x3e1811ef	0.14850591
14	0xbe54f793	-0.20797567
15	0xbe04ab04	-0.12955862
16	0x3d8e713b	0.06955191
17	0x3ecba02a	0.39770633
18	0x3ea9730d	0.3309559
19	0xbc8b8940	-0.01703322
20	0x3df45f93	0.11932292
21	0xbe9856b3	-0.29753646
22	0xbe844178	-0.258312
23	0x3dcd84e3	0.10035112
24	0xbe34c020	-0.17651415
25	0x3dfb1cd5	0.12261359
26	0xbe143999	-0.14475097
27	0x3e0cfbc4	0.13767916
28	0x3e0f5959	0.13998927
29	0xbe9807e0	-0.29693508
30	0xbe5a2f7c	-0.21307176
31	0xbdf4b6da	-0.11948939
32	0x3ce646bc	0.0281099
33	0xbe2d9ded	-0.16954775
34	0xbec3ffbe	-0.38281053
35	0xbe159b68	-0.14610064
36	0x3d1cb929	0.03826252
37	0xbcd57e01	-0.02606106
38	0xbe88697f	-0.26642987
39	0xbd7ebee0	-0.06219375
40	0x3e87e39a	0.26540834
41	0x3ea515b5	0.32243124
42	0x3e946b00	0.28987885
43	0xbcd51642	-0.02601159
44	0xbda55081	-0.080719955
45	0x3ec8eb28	0.3924191
46	0xbdcbd69a	-0.099530414
47	0xbe520a2b	-0.20511691
48	0x3c40fa34	0.011778403
49	0x3e6a4e09	0.2288133
50	0x3e87f80e	0.26556438
51	0x3dece770	0.11567581
52	0x3e1fa63f	0.15590762
53	0xbe70dc4c	-0.23521537
54	0xbe596519	-0.21229972
55	0x3e266992	0.1625121
56	0x3e07e9e5	0.13272817
57	0x3c24aa2b	0.010050337
58	0xbe55f322	-0.20893529
59	0xbb3515b9	-0.0027631356
60	0x3dbc96fb	0.09208485
61	0xbdb1265e	-0.08649896
62	0x3dfc7134	0.12326279
63	0xbecf5976	-0.4049794
64	0x3c07c390	0.008286372
65	0x3e83ef69	0.25768593
66	0x3da853d1	0.08219112
67	0xbd8079ee	-0.06273256
68	0xbe60d833	-0.21957473
69	0xbe547524	-0.2074781
70	0xbe9398b8	-0.28827453
71	0x3d7db36a	0.06193868
72	0xbdeeca85	-0.11659721
73	0xbe6eba07	-0.23313151
74	0xbe4d3309	-0.20039
75	0xbcf81ece	-0.030288126
76	0x3e36ff3c	0.17870802
77	0x3ef7b60e	0.48381084
78	0x3e68dbad	0.2274005
79	0x3c7adad6	0.015310964
80	0x3dd29ae4	0.10283449
81	0x3e4eb43f	0.20185946
82	0x3c869197	0.016426845
83	0xbe7e1fde	-0.24816844
84	0x3db7e343	0.089788936
85	0xbe0783bd	-0.13233848
86	0xbe00a17b	-0.125616
87	0x3e6157f5	0.22006209
88	0xbe48f44a	-0.19624439
89	0x3d752373	0.05984826
90	0xbb84b854	-0.004050294
91	0x3e8022d5	0.25026575
92	0xbed0816a	-0.40723735
93	0xbe4f35ef	-0.20235418
94	0x3ed89396	0.423001
95	0xbf18ee6e	-0.59738815
96	0x3e4e3df5	0.20140822
97	0xbd8e727d	-0.06955431
98	0x3d7c7572	0.061635442
99	0xbe3f5acb	-0.18686979
100	0x3ed250b9	0.41077211
101	0x3d61f581	0.05516577
102	0x3e117fd9	0.14208926
103	0x3e4518e3	0.19247775
104	0x3eb94279	0.36183527
105	0x3df30537	0.11866229
106	0xbd149222	-0.036272176
107	0x3d008b17	0.031382646
108	0x3e3e982f	0.18612741
109	0xbcf6b70c	-0.03011658
110	0xbdac215d	-0.08404801
111	0xbcc3af16	-0.023887198
112	0xbde27cd6	-0.11058967
113	0xbe65bc1c	-0.2243504
114	0x3d9c06a5	0.07618455
115	0xbe80d9a9	-0.25166062
116	0xbdbbbf75	-0.09167377
117	0x3e54b8f4	0.20773679
118	0x3d115f83	0.035491478
119	0xbba3fb8f	-0.0050043534
120	0x3c36ac28	0.011149444
121	0x3e2e3200	0.17011261
122	0xbd9369c4	-0.071979076
123	0x3e724d62	0.23662332
124	0xbcaa3763	-0.020778364
125	0x3d8b20f9	0.067933984
126	0x3e38d24f	0.18048976
127	0xbdd1e171	-0.10248078
128	0xbe91ad10	-0.2845235
129	0x3d42c7e1	0.0475539
130	0x3e1dae17	0.15398441
131	0x3dfe84e0	0.12427688
132	0x3e10772a	0.14107957
133	0x3e94c720	0.2905817
134	0x3e894435	0.2680985
135	0x3e3ccd22	0.18437627
136	0x3edaf4cc	0.4276489
137	0x3d2a2700	0.0415411
138	0xbdae2952	-0.08503975
139	0xbd3b6d5e	-0.045758598
140	0xbdb4877a	-0.088149026
141	0x3de47f91	0.11157144
142	0x3e0f77a5	0.14010485
143	0xbdcc5b63	-0.09978368
144	0xbe907003	-0.28210458
145	0xbecd6156	-0.40113324
146	0xbce25dc2	-0.027632598
147	0xbdb8a51b	-0.09015866
148	0x3c46ccbe	0.012133775
149	0x3e0e6c3d	0.13908477
150	0x3e6521c8	0.22376168
151	0xbe1ad002	-0.15118411
152	0xbe539156	-0.2066091
153	0x3e122c36	0.14274678
154	0xbf2e2a1f	-0.6803302
155	0xbd14a642	-0.03629137
156	0x3db735b7	0.08945792
157	0x3e9676aa	0.29387408
158	0x3d9baf9b	0.076018535
159	0x3d63fe8e	0.055662684
160	0xbe030a78	-0.12796962
161	0xbe01044c	-0.12599295
162	0xbeaee64a	-0.34160072
163	0xbe5c8867	-0.21536408
164	0x3b60ee04	0.0034321556
165	0x3dfd8988	0.12379748
166	0xbe93ef25	-0.2889339
167	0x3e9228d7	0.28546783
168	0x3f0941f4	0.5361626
169	0xbedef621	-0.43547156
170	0xbddf246e	-0.1089562
171	0x3e61a466	0.2203537
172	0x3e14dbca	0.14536968
173	0x3c3ac8ed	0.0114004435
174	0x3e2cdd96	0.16881403
175	0xbe084d98	-0.1331085
176	0xbe9732f9	-0.29531077
177	0xbe82ef79	-0.25573328
178	0xbd9af962	-0.07567097
179	0x3d8b855a	0.06812544
180	0xbde880db	-0.11352702
181	0xbe8232d9	-0.2542942
182	0xbd94056a	-0.07227595
183	0x3e79628c	0.24353999
184	0x3e2dcfc9	0.16973795
185	0x3e8bb988	0.27289987
186	0xbdd83a8f	-0.10558044
187	0x3eda9ff7	0.42700168
188	0x3d054a7c	0.032541737
189	0xbf206733	-0.6265747
190	0x3f07a739	0.52989537
191	0xbde49edd	-0.11163113
192	0x3d9454f5	0.07242767
193	0x3adb4cd2	0.0016731268
194	0x3e4dc4f1	0.20094658
195	0x3e22d80d	0.1590273
196	0x3d28d5df	0.04121959
197	0x3d1c042d	0.03808992
198	0xbe6ba5f5	-0.23012526
199	0x3d7fda83	0.06246425
200	0xbe345ca2	-0.17613462
201	0xbd1e9be9	-0.038722906
202	0xbe40d40a	-0.18830886
203	0x3dc2812d	0.094972946
204	0xbdb368de	-0.08760236
205	0x3de9fd3c	0.11425254
206	0xbca9029e	-0.02063113
207	0xbeb041d9	-0.34425238
208	0xbeabe0fd	-0.3357009
209	0xbed776c2	-0.42082793
210	0xbe94cfe9	-0.29064873
211	0xbe164ded	-0.14678164
212	0x3e666f9f	0.22503518
213	0x3d224d19	0.039624307
214	0x3da9869f	0.0827763
215	0x3e514407	0.20436107
216	0xbdcad4fe	-0.09903906
217	0x3d3ad09e	0.04560911
218	0xbe344ff5	-0.17608626
219	0x3dad43dd	0.084602095
220	0xbdb66ede	-0.08907865
221	0x3d9bfefa	0.07616992
222	0xbeab9163	-0.3350936
223	0x3d938458	0.07202977
224	0x3e8c6876	0.27423447
225	0x3da56fed	0.08077989
226	0x3ebfc749	0.3745673
227	0xbd5b35d4	-0.05351813
228	0x3ec80e53	0.3907343
229	0xbe9d9d82	-0.3078423
230	0x3ca0dab8	0.019635543
231	0x3ca0741d	0.019586617
232	0xbf4b8496	-0.79499185
233	0xbe6944dd	-0.22780176
234	0xbec915cb	-0.3927444
235	0x3e8a1025	0.26965442
236	0x3ef507f4	0.4785763
237	0xbe03c834	-0.1286934
238	0x3daa062f	0.08301961
239	0x3ec8c76f	0.39214656
240	0x3e4c4abc	0.19950384
241	0x3e8e1bbc	0.27755535
242	0x3d214153	0.03936894
243	0x3c5c3d8e	0.01344241
244	0xbd49e68e	-0.04929214
245	0x3e328f13	0.17437391
246	0xbe1b37bf	-0.15157984
247	0xbe1278c8	-0.14303887
248	0x3d6c2fc0	0.057662725
249	0xbe2fb452	-0.1715863
250	0x3f07614b	0.5288283
251	0x3e4a47d9	0.1975397
252	0xbdbec812	-0.09315504
253	0x3e711cb8	0.23546112
254	0xbda42aa9	-0.08015949
255	0x3dc66be1	0.09688545

bias_ih_l0 f4 [128]
0	0xbd95ed9d	-0.07320712
1	0xbd867220	-0.06564736
2	0x3db64f37	0.08901828
3	0x3da12244	0.07867864
4	0x3c22c1a7	0.009933866
5	0x3df4078d	0.11915503
6	0x3e5a82d7	0.21338974
7	0xbe0e820e	-0.139168
8	0x3d2aec94	0.041729525
9	0x3e0d44f3	0.13795833
10	0xbd3e5f98	-0.046477884
11	0xbdec398a	-0.11534412
12	0x3dbb9737	0.09159701
13	0x3e1a0b03	0.15043263
14	0xbe20811e	-0.15674254
15	0x3d65a019	0.056060884
16	0x3c58a369	0.013222554
17	0x3e2af3a0	0.16694498
18	0x3e7612a1	0.24030544
19	0xbd706082	-0.058685787
20	0x3e526454	0.20546085
21	0xbd5a73f2	-0.05333323
22	0xbda68c72	-0.081322566
23	0xbd9e1e6a	-0.07720645
24	0xbcc86b92	-0.024465356
25	0x3c2e0021	0.010620148
26	0x3d4e6357	0.050387707
27	0xbd550310	-0.052004874
28	0x3e0c6fcb	0.1371452
29	0x3e02d219	0.12775458
30	0x3e926996	0.2859618
31	0x3d80928f	0.06277954
32	0x3e0905ea	0.13381162
33	0xbe09dba0	-0.13462687
34	0xbdf1c7cc	-0.11805686
35	0xbd4b2a33	-0.04960079
36	0x3c0049df	0.007830112
37	0x3e013103	0.12616353
38	0x3dc87d77	0.097895555
39	0x3e8685fc	0.26274097
40	0x3e2dd0a0	0.16974115
41	0x3ebeefd9	0.37292364
42	0x3db386a4	0.08765915
43	0x3e429274	0.1900118
44	0xbd689d36	-0.056790553
45	0x3de82301	0.113348015
46	0xbd1f4b5c	-0.038890228
47	0xbd822901	-0.06355477
48	0xbd52e07e	-0.051483624
49	0x3e54fde6	0.2079998
50	0x3e9e952f	0.30973193
51	0x3e59b17d	0.21259113
52	0x3e363bb9	0.1779622
53	0x3e1c55d4	0.15267116
54	0xbd87902d	-0.06619296
55	0x3d764436	0.060123645
56	0xbcb9d4e9	-0.022684531
57	0x3de1c25c	0.11023399
58	0x3e15a5e2	0.1461406
59	0x3e3593fe	0.17732236
60	0xbe2e1175	-0.16998847
61	0x3e5134fc	0.20430368
62	0x3d255f5d	0.04037415
63	0xbd15d9f7	-0.03658482
64	0xbe279c02	-0.16368106
65	0x3e500caf	0.20317338
66	0x3e7fc326	0.24976787
67	0xbdecf858	-0.11570805
68	0x3ebbe185	0.36695495
69	0xbda377f6	-0.07981865
70	0xbdaca554	-0.08429971
71	0x3db46328	0.08807975
72	0x3dd1445f	0.10218119
73	0xbd9c3e33	-0.07629051
74	0x3ea70878	0.3262365
75	0x3d8967c7	0.06709247
76	0x3e51d6d9	0.20492114
77	0x3ea3f532	0.32023007
78	0x3e0f7d98	0.14012754
79	0xbef30405	-0.47464004
80	0xbeb1005e	-0.34570593
81	0xbe407fa6	-0.18798694
82	0x3eaeca0f	0.34138533
83	0xbe335192	-0.17511585
84	0x3e00b226	0.12567958
85	0xbec38570	-0.38187742
86	0xbda89c48	-0.08232933
87	0x3e536158	0.20642602
88	0xbe8cb7eb	-0.27484068
89	0x3dd356ca	0.10319288
90	0x3e040a8c	0.12894648
91	0xbdcbaa86	-0.09944634
92	0xbf087cce	-0.53315437
93	0x3d94c4f9	0.07264132
94	0xbe4b92a7	-0.19880162
95	0xbf56f3dd	-0.83965856
96	0xbd41a17b	-0.04727314
97	0x3e2e129d	0.16999288
98	0x3e73d0b5	0.23810084
99	0x3e32e21d	0.17469068
100	0x3e4c12fc	0.19929117
101	0x3e80fd71	0.2519336
102	0x3e78f6c9	0.24312891
103	0x3df39df2	0.1189536
104	0x3d8e9add	0.069631316
105	0x3ec5d8a0	0.38641834
106	0x3dce787b	0.100815736
107	0xbddc47d9	-0.10755891
108	0x3ce1bb0a	0.027555007
109	0x3e57a574	0.21059209
110	0x3d41de43	0.047331106
111	0x3e13261a	0.14370003
112	0x3dcec679	0.100964494
113	0xbc977592	-0.01848868
114	0x3e809bfe	0.25119013
115	0x3e1ee79f	0.15518044
116	0x3d2ad164	0.041703597
117	0x3e1da12c	0.15393513
118	0x3db740ee	0.08947931
119	0xbd97cd99	-0.074122615
120	0x3e572869	0.21011509
121	0x3de5cf04	0.11221126
122	0x3ea88db9	0.32920626
123	0xbd0d8e90	-0.034559786
124	0xbd9f85e4	-0.077892095
125	0x3dd124c9	0.10212094
126	0x3e7c6844	0.24649149
127	0x3cac5e49	0.021041052

bias_hh_l0 f4 [128]
0	0x3e1f928d	0.15583248
1	0x3e467e48	0.1938411
2	0x3c9d55f5	0.019206027
3	0xbdb8d635	-0.09025232
4	0x3dd4ed2e	0.10396801
5	0x3e53cc99	0.20683517
6	0xbd081b67	-0.033229258
7	0xbd0fb42f	-0.035083946
8	0x3df6979c	0.12040636
9	0x3e5721aa	0.21008936
10	0x3e226285	0.15857895
11	0x3dbf4dd9	0.0934102
12	0x3dbcb31f	0.09213852
13	0x3e238d23	0.15971808
14	0x3d949074	0.07254115
15	0x3ddb69ee	0.10713564
16	0xbd1aedf8	-0.0378246
17	0x3db3dbeb	0.087821804
18	0x3e19aa46	0.1500636
19	0xbdd44539	-0.10364766
20	0x3e579402	0.21052554
21	0x3d65ca69	0.056101236
22	0x3e5a2cd1	0.21306159
23	0xbe1a4c9f	-0.15068291
24	0xbe069e48	-0.13146317
25	0xbd948eb5	-0.07253782
26	0x3c6fb141	0.014629663
27	0xbe17bcbc	-0.1481809
28	0x3e26e63c	0.16298765
29	0x3e1b9c50	0.15196347
30	0x3e14a1b1	0.14514805
31	0x3dbbe7c8	0.09175068
32	0xb9d0016a	-0.00039673905
33	0x3db0eb64	0.08638647
34	0x3bc04231	0.0058672656
35	0x3d607d30	0.054806888
36	0x3c957028	0.018241957
37	0xbd26b732	-0.040702052
38	0xbcce854d	-0.025210047
39	0xbcdf0c02	-0.027227405
40	0xbdbc3748	-0.091902316
41	0x3e46e3e7	0.19422875
42	0x3bcf5441	0.0063271825
43	0x3dac8f3d	0.08425758
44	0x3db3b86f	0.08775412
45	0x3e0179a0	0.12644053
46	0xbe48057a	-0.19533339
47	0xbe0cc7bc	-0.13748068
48	0x3c82ef41	0.015983226
49	0xbd556316	-0.05209645
50	0x3e28ae9b	0.16472857
51	0x3cd027a6	0.02540953
52	0x3e2e753a	0.17036906
53	0x3d9b3883	0.07579138
54	0x3da11001	0.07864381
55	0xbdb31954	-0.08745065
56	0x3ae5747d	0.001750603
57	0x3e1edca5	0.15513857
58	0x3d68ed33	0.056866836
59	0xbd2a8726	-0.041632794
60	0x3ce925a0	0.028460324
61	0x3c451c0e	0.012030615
62	0xbda21fff	-0.07916259
63	0x3e0fbc54	0.14036685
64	0x3c7fb188	0.015606292
65	0x3e626c21	0.2211156
66	0x3d7a15a7	0.061055806
67	0xbda90562	-0.0825298
68	0x3ee182c4	0.4404508
69	0xbe8fe9ce	-0.28108066
70	0xbe93b61e	-0.28849882
71	0x3db303f5	0.08740989
72	0xbe225aa0	-0.15854883
73	0x3e15e1b9	0.14636888
74	0x3e809796	0.2511565
75	0x3e329b75	0.17442115
76	0x3e2a09b3	0.16605262
77	0x3ec945ff	0.39311215
78	0x3df01574	0.11722842
79	0xbebc594b	-0.36786875
80	0xbe837c0d	-0.2568058
81	0xbc89b7d3	-0.016811287
82	0x3d6e507c	0.058182225
83	0xbd9dd55c	-0.07706711
84	0x3e30ca02	0.1726456
85	0xbeae2d3d	-0.3401889
86	0x3d49bfb3	0.049255084
87	0x3e11826b	0.14209907
88	0xbe57bed6	-0.21068892
89	0x3ea6c613	0.32572994
90	0xbd9a1e29	-0.07525284
91	0xbdaa9e2c	-0.0833095
92	0xbf2e8f60	-0.6818752
93	0x3d0b3380	0.03398466
94	0x3cd6d9fe	0.026226994
95	0xbf8275ca	-1.0192196
96	0x3e5e524e	0.21711084
97	0x3e1577d7	0.14596497
98	0x3e0cce6c	0.13750619
99	0xbdbba680	-0.09162617
100	0x3cd5e6cb	0.026111027
101	0x3e87bf01	0.26512912
102	0x3e2c413d	0.16821761
103	0x3e454dae	0.19267914
104	0x3de6d1aa	0.11270459
105	0x3ecc5c93	0.3991438
106	0x3d3c9a77	0.046045747
107	0xbdb1bdbe	-0.086787686
108	0x3d11257b	0.035436135
109	0x3d8ed952	0.06975044
110	0x3de793e7	0.11307507
111	0x3e7bae59	0.24578227
112	0x3e7f088e	0.24905607
113	0x3d236ab4	0.039896682
114	0x3cef846b	0.029237946
115	0x3e0fd770	0.14047027
116	0x3cc8ff5f	0.024535833
117	0xbd1442a6	-0.036196373
118	0x3e57641b	0.21034281
119	0x3e59c2b7	0.21265684
120	0x3dae2e70	0.08504951
121	0x3e73c1de	0.23804423
122	0x3df0b9ff	0.11754226
123	0x3e1a758d	0.15083905
124	0x3e4a5e48	0.19762528
125	0x3e2d603f	0.16931246
126	0x3e2f6ca7	0.17131291
127	0x3daf9e2f	0.08575093

weight_ih_l0_reverse f4 [128, 2]
0	0x3dcd1aef	0.10014903
1	0x3e6d4884	0.23172194
2	0x3d9b1d95	0.07574002
3	0xbd33c06e	-0.043884687
4	0xbda39dfc	-0.079891175
5	0x3e70108e	0.23443815
6	0x3e714212	0.2356036
7	0x3dfd0d10	0.12356007
8	0xbea8c854	-0.32965338
9	0xbd43f827	-0.04784408
10	0x3edfb37f	0.43691632
11	0xbe04557d	-0.12923236
12	0xbf091cdb	-0.53559655
13	0xbf6ec1e9	-0.93264633
14	0x3e8d5a5a	0.27607995
15	0xbeceec58	-0.4041469
16	0x3e1f60bb	0.15564243
17	0xbfa5493d	-1.2912976
18	0xbe08c791	-0.13357379
19	0x3e3a4c71	0.18193223
20	0xbea28b0c	-0.3174671
21	0x3e8fd9cc	0.28095853
22	0x3ea14735	0.3149964
23	0xbbf81972	-0.0075713927
24	0x3e96f736	0.29485482
25	0x3f6d4f28	0.9269891
26	0xbea7075d	-0.32622805
27	0xbd88d125	-0.06680516
28	0x3f3e6168	0.7436738
29	0xbf3f9b28	-0.74846125
30	0x3ec40573	0.38285407
31	0x3e06d5f2	0.13167551
32	0x3e0e17a1	0.13876201
33	0xbee00098	-0.43750453
34	0x3d628f84	0.05531265
35	0x3f610a1e	0.8790606
36	0x3d1cf6ea	0.038321413
37	0xbec1ee53	-0.3787714
38	0x3e576e75	0.2103823
39	0x3e189f62	0.1490455
40	0xbca5a24c	-0.02021899
41	0x3ded773a	0.11595006
42	0x3f4a9576	0.7913431
43	0x3e94dafe	0.29073328
44	0xbeb9feeb	-0.363273
45	0x3e11730e	0.14204046
46	0xbdc3e525	-0.0956519
47	0x3dafd189	0.085848875
48	0xbf8e6b58	-1.1126509
49	0x3deba586	0.115061805
50	0xbf13e1f6	-0.57766664
51	0x3dddc896	0.10829274
52	0xbe5b1bc3	-0.21397309
53	0x3d0964b3	0.0335433
54	0xbda1c6f8	-0.078992784
55	0x3e934212	0.28761345
56	0x3ebac6c6	0.36479777
57	0xbe8b340d	-0.2718815
58	0xbe821b54	-0.25411475
59	0x3d2a2c17	0.041545954
60	0xbe6a6d38	-0.22893226
61	0x3e0ef650	0.13961148
62	0xbe869bd0	-0.2629075
63	0xbe9d2bc8	-0.30697465
64	0x3e2e1671	0.17000748
65	0x3f044dc9	0.5168119
66	0x3e48e698	0.19619215
67	0xbdf2e60c	-0.11860284
68	0xbdc0c652	-0.094128266
69	0x3e910902	0.28327185
70	0x3e1aed79	0.15129651
71	0x3dc9317b	0.09823891
72	0xbe8709af	-0.26374575
73	0x3bfccc3a	0.0077147754
74	0x3efbc280	0.4917183
75	0x3e45b916	0.19308886
76	0xbee83036	-0.45349282
77	0xbf37be43	-0.7177469
78	0x3e96f5f2	0.29484516
79	0xbe0aec71	-0.13566758
80	0x3eec75d2	0.4618364
81	0xbeb9d4d5	-0.3629519
82	0xbdc1fcd8	-0.09472054
83	0x3e353d67	0.17699204
84	0x3e2903b1	0.16505314
85	0x3d64d0a4	0.055863038
86	0x3e32a913	0.17447309
87	0x3d075318	0.03303823
88	0x3ea82cd7	0.3284671
89	0x3f13d964	0.57753587
90	0xbe8b730f	-0.2723622
91	0xbbc40bee	-0.0059828674
92	0x3e9f37ad	0.31097165
93	0xbf3a92f0	-0.7288046
94	0x3ed6ad99	0.4192932
95	0x3e43bf0e	0.1911585
96	0x3d8815c1	0.06644774
97	0xbe5304ea	-0.20607343
98	0xbe5016cd	-0.20321198
99	0x3f15062d	0.5821255
100	0x3ca2f674	0.019892909
101	0xbe7a2254	-0.24427158
102	0x3d3f4b9b	0.046702962
103	0x3e062a70	0.13102126
104	0x3d955080	0.07290745
105	0x3d853a2c	0.06505236
106	0x3dcceffc	0.10006711
107	0x3dc16b22	0.09444262
108	0xbe76c19d	-0.24097295
109	0xbd9c3849	-0.07627923
110	0xbeb0040a	-0.34378082
111	0xbcc728c1	-0.024311425
112	0xbf246d43	-0.6422922
113	0x3e0b8a4e	0.13626978
114	0xbed8e21f	-0.42360017
115	0xbe6c3afb	-0.23069374
116	0xbcd47717	-0.025935693
117	0xbd75f31d	-0.060046304
118	0x3d6a5d58	0.057217926
119	0x3d0b976e	0.03407996
120	0x3e105574	0.14095098
121	0xbd668eef	-0.056288656
122	0xbe2232f3	-0.15839748
123	0x3beddd9d	0.0072590844
124	0xbe9021dd	-0.28150836
125	0x3e88ba53	0.26704654
126	0x3de3d628	0.111248314
127	0xbf16ab17	-0.5885481
128	0xbea835b3	-0.3285347
129	0xbdbc1111	-0.09182943
130	0x3e85600a	0.26049834
131	0x3ec9b748	0.39397645
132	0x3e984ade	0.2974462
133	0x3d04ee2a	0.032453693
134	0xbe70eb66	-0.23527297
135	0xbe86bb6b	-0.26314864
136	0x3eb20fcd	0.3477768
137	0x3eb0414f	0.34424827
138	0x3eb1e99d	0.34748545
139	0x3cc404a1	0.023927988
140	0xbeafe95e	-0.34357733
141	0xbf0ccf52	-0.55003846
142	0xbecab057	-0.39587662
143	0x3e6b0dbd	0.2295446
144	0xbe4cc08b	-0.19995324
145	0xbf56ff87	-0.83983654
146	0xbe2c1444	-0.16804606
147	0x3ef5e8ed	0.4802927
148	0x3ebaf242	0.36512953
149	0xbe6a7be7	-0.22898827
150	0x3f046ec0	0.5173149
151	0xbdbafe46	-0.0913053
152	0x3f16c62b	0.5889613
153	0x3e66e328	0.2254759
154	0x3eaf6691	0.3425794
155	0xbbdad74f	-0.006678499
156	0x3d7cb3d8	0.06169495
157	0xbed0b460	-0.40762615
158	0x3eb18053	0.34668216
159	0x3dc3b048	0.09555107
160	0xbd0f87e9	-0.035041723
161	0x3f1fd4b0	0.6243391
162	0x3e1a0359	0.1504034
163	0x3f82e891	1.0227224
164	0x3c5fe91d	0.013666418
165	0xbe950c4f	-0.29110953
166	0xbeae5803	-0.34051523
167	0x3e0901d4	0.13379604
168	0xbeb285f4	-0.34867823
169	0x3ca0f826	0.019649576
170	0xbed9caa2	-0.4253741
171	0xbdebb6ec	-0.11509499
172	0xbeb6d38f	-0.3570828
173	0x3e4054fb	0.18782417
174	0x3e861e79	0.26195124
175	0x3e822c6d	0.2542452
176	0xbf15c6e2	-0.58506596
177	0x3ea1fadb	0.316367
178	0x3e96f3fd	0.29483023
179	0x3e4d904a	0.20074573
180	0xbeb04d9a	-0.34434205
181	0xbe143213	-0.14472227
182	0xbd174d80	-0.036939144
183	0xbe9d7678	-0.30754447
184	0xbed431a0	-0.4144411
185	0x3e841eb2	0.2580467
186	0x3eb56cc7	0.35434553
187	0xbc91d3eb	-0.017801246
188	0x3e44ea83	0.19230084
189	0xbe8fdfef	-0.28100535
190	0x3dfa2e7d	0.12215898
191	0xbe1def4d	-0.15423317
192	0x3e41de4a	0.18932453
193	0x3da02a0e	0.07820521
194	0x3db5ba3a	0.088734105
195	0xbe55ea98	-0.20890272
196	0x3d90ea55	0.07075945
197	0x3c9a97d0	0.018871218
198	0xbe91dfeb	-0.28491148
199	0xbe232743	-0.15932946
200	0xbee4074e	-0.44536823
201	0x3e5a4d4a	0.21318546
202	0x3efa8684	0.48930752
203	0x3d7a0a1e	0.061044805
204	0xbf0a7c4d	-0.5409592
205	0xbf3428da	-0.70374835
206	0x3ef898ae	0.48553985
207	0xbef4ba7b	-0.47798523
208	0xbe266ebe	-0.16253182
209	0xbf88d329	-1.0689441
210	0xbdbafb63	-0.091299795
211	0xbdf6daac	-0.12053427
212	0xbdd9715e	-0.10617326
213	0x3e27cdac	0.16387051
214	0x3eaa4983	0.3325921
215	0xbd46e7a4	-0.048560753
216	0x3e14512a	0.14484087
217	0x3e00646b	0.12538306
218	0xbea84215	-0.32862917
219	0x3e632ec2	0.22185805
220	0x3f3515d2	0.7073642
221	0xbf3f7495	-0.74787265
222	0x3e247a07	0.16062175
223	0xbc9f85f1	-0.019473048
224	0x3eed9ca0	0.46408558
225	0xbeb0900d	-0.34484902
226	0xbe2bb852	-0.16769531
227	0x3e8a7024	0.27038682
228	0x3de55583	0.11197951
229	0xbe1531bf	-0.14569758
230	0xbd12fa2c	-0.035883114
231	0x3ecdac39	0.40170458
232	0x3e28cc85	0.16484268
233	0xbdae412d	-0.08508525
234	0x3e9b25bd	0.3030223
235	0x3ebc0a4d	0.3672661
236	0xbe18357f	-0.14864157
237	0xbe03f7ae	-0.12887451
238	0xbe61bcd7	-0.22044693
239	0x3dfaf788	0.12254244
240	0xbec7b271	-0.39003327
241	0x3e852f2c	0.26012552
242	0xbe6fb9f3	-0.23410778
243	0xbdb92e7d	-0.0904207
244	0xbf010a19	-0.5040603
245	0x3dcc6beb	0.09981521
246	0x3c46c75f	0.012132495
247	0x3e5557f0	0.20834327
248	0x3f48b7a4	0.78405213
249	0xbef71599	-0.48258665
250	0xbea0b1bf	-0.3138561
251	0xbe418d3b	-0.18901531
252	0xbe5a3934	-0.21310884
253	0x3e9e8dad	0.30967465
254	0x3e66144a	0.22468677
255	0xbbc64381	-0.0060505276
