data/models/zara2/model_registrar-1999.pt (torch_old, 492052 bytes, 45 tensors)

weight_ih_l0 f4 [128, 6]
000000 2e 8f c5 3d 8c 3e 42 3e 8d 92 21 be d3 50 da bb
       0.0964645 0.18969172 -0.15778561 -0.006662467
000010 15 f5 ba 3d 76 18 c1 bb c7 27 10 bd f6 63 41 3e
       0.09128777 -0.0058928085 -0.035194185 0.18885788
000020 c4 8d 9d bd 90 e0 25 3d 4e af 51 3d 2e d6 22 be
       -0.07693055 0.040497363 0.051192574 -0.15902016
000030 cf 63 93 bd ff 8a 6a be 27 7e 9d 3c 32 df 25 3d
       -0.07196771 -0.22904585 0.019225193 0.04049606
000040 bd 4d 5a bf dc ce 3a 3f c4 76 9b 3d a7 1a 24 3e
       -0.8527487 0.7297189 0.07591012 0.16025792
000050 f2 a2 2b 3e e7 2a 0b 3e bc a8 59 bf 1e 18 47 3f
       0.16761377 0.13590585 -0.85023093 0.77771175
000060 f0 92 bb bd ea fc d6 3a 63 f8 b5 be 0f d5 e9 3d
       -0.091588855 0.0016402279 -0.35541067 0.11417591
000070 da 22 a9 3f d5 f5 5e bf b9 42 39 3e 7d 98 92 3e
       1.3213761 -0.8709386 0.18091859 0.28631964
000080 15 1d 7c 3e 0c 28 6d be bb 61 8a bd 4c ee 8d bf
       0.24620469 -0.23159808 -0.06756922 -1.1088347
000090 72 e2 2a be 6d 7c 25 be 66 d6 da bd c4 55 c2 3c
       -0.16687945 -0.16160746 -0.106854245 0.023722537
0000a0 b8 5e df 3b 04 6f f2 3b 09 99 53 3d 90 da bb 3e
       0.0068167113 0.007398488 0.051659618 0.36690187
0000b0 c4 a8 55 be de df 1b be 55 be 8f bc c4 2d 80 3d
       -0.2086516 -0.15222117 -0.017546812 0.06258729
0000c0 2b a0 d8 3d 85 5a 04 3e 0d 30 35 3e 1a a5 9e be
       0.105774246 0.12925155 0.17694111 -0.30985337
0000d0 e4 9c be 3e 0c 34 16 3f 66 a4 f9 3d ac 89 63 3d
       0.37229073 0.5867317 0.1218956 0.055551216
0000e0 16 86 85 be 46 14 84 bd fc 64 20 3e bd 98 07 3e
       -0.26078862 -0.06449179 0.15663522 0.13241859
0000f0 b4 f3 8d 3d 81 7a 14 3e b0 a7 99 3c 3e df 21 bf
       0.06931248 0.14499857 0.018756717 -0.63231266
000100 d9 2c ef be dc 66 a3 3d 83 a4 8f 3c 47 91 7f 3e
       -0.46713904 0.07978603 0.0175345 0.24957763
000110 d1 c4 99 be a2 f3 04 bf 7e 94 86 3f 55 c4 69 bf
       -0.30032972 -0.51934254 1.0514066 -0.91315204
000120 78 99 d7 bd 0b 9e 3b be c5 cb 16 3b dd 8c f8 3d
       -0.10527319 -0.18322007 0.002300964 0.121362425
000130 a4 ee 43 3e 32 df a3 be 37 a2 1d be cc 08 ca 3d
       0.19134003 -0.32006222 -0.15393911 0.09864959
000140 33 d0 94 3e b6 ba 32 be d5 13 7d 3f 5b c1 75 3f
       0.29065093 -0.17454037 0.98858386 0.9599816
000150 37 2a 7a bd 0c 0e 96 3d 8a b5 3c be de 81 8a bc
       -0.061075415 0.07326898 -0.18428627 -0.016907629
000160 5f 2f b7 be 2a 92 7c be a3 f5 e5 bd 24 a7 48 3d
       -0.3577833 -0.24665132 -0.11228492 0.048987523
000170 c7 43 12 3e b9 db 95 3d 1f 44 04 be b7 28 81 3e
       0.14283668 0.073172994 -0.12916611 0.25226375
000180 74 77 4f 3e 88 08 3c 3b 64 d3 1d bd 3b b2 fb 3e
       0.20260412 0.0028691608 -0.038531676 0.49159417
000190 de 11 3b bf 30 7e 96 bf b8 6d 35 bd 92 60 6b be
       -0.7307414 -1.1757259 -0.04429409 -0.22986057
0001a0 5a 6b 4a bd 6b 48 9b 3e df 63 6c bd d4 6a 9e 3d
       -0.049418785 0.30328688 -0.057712432 0.077352196
0001b0 97 45 72 3c e5 6b 23 be 0f 9e 51 3e 41 a8 cd 3e
       0.014787099 -0.15959127 0.20470451 0.4016743
0001c0 09 7c 39 bd 48 26 44 bf d7 45 42 be bf ba 86 3e
       -0.045284305 -0.7662091 -0.18971954 0.2631435
0001d0 8d 97 8e be a0 41 ec 3d 14 be cb 3e 07 bc 06 3f
       -0.2785 0.115359545 0.39793456 0.52630657
0001e0 f2 7a e2 be 82 0e 85 be ef 07 a1 3e 37 ec 27 3e
       -0.44234425 -0.2598763 0.31451365 0.16398703
0001f0 17 e3 54 3d b5 d1 09 3d 8d fc 49 3d ec 2f 77 be
       0.051974382 0.033647258 0.049313117 -0.24139374
000200 db 7e 0b 3e 55 7d 57 3f 76 31 ae 3e 2d 54 54 be
       0.1362261 0.84175617 0.3402211 -0.20735236
000210 b3 cb 83 bd 18 e4 de be 89 8a 91 3d 5d 59 d0 3e
       -0.06435337 -0.43533397 0.071065016 0.4069318
000220 b8 55 5b 3e 0e 56 76 3d e4 0e e3 3d 09 0a 46 be
       0.21419418 0.060140662 0.110868245 -0.19339766
000230 50 ae 68 be f2 08 b3 3e 33 86 5d 3e 96 00 14 be
       -0.22722745 0.34967762 0.21633224 -0.14453349
000240 2f d8 f1 3d 66 c4 23 3f 4c d9 c4 bd 05 ab 46 bf
       0.11808812 0.63971555 -0.096117586 -0.77604705
000250 67 9e a6 bf 6f 95 ac bc 5c 4f d1 bd 28 ab 64 be
       -1.301709 -0.02106735 -0.10220215 -0.22330916
000260 80 e6 a4 3d ac 92 0e 3f b3 15 27 3e 41 34 0c be
       0.08051777 0.55692554 0.16316871 -0.13691808
000270 f9 6e 35 be 88 a9 88 3e 48 6d 6d be e9 54 cd be
       -0.17718114 0.26691842 -0.23186219 -0.40103844
000280 7f 10 8e bd 7e 38 1f 3f dd 8a 29 be 53 30 aa 3d
       -0.0693674 0.62195575 -0.16556878 0.08309998
000290 51 96 57 3e 17 e6 ff 3e b8 f8 b7 3e 8a 88 1f 3f
       0.21053435 0.49980232 0.35931945 0.6231772
0002a0 46 1a aa 3e e8 61 9c bd 75 0d b6 be 36 c8 8c 3e
       0.3322317 -0.07635862 -0.35557142 0.274965
0002b0 37 4f 88 3f c7 17 0d 3f e7 11 63 be 24 2a 95 be
       1.0649174 0.55114406 -0.22174798 -0.29133713
0002c0 b7 0e f9 bd b2 c2 91 3e 79 14 01 3f 85 da 17 bd
       -0.1216101 0.28468853 0.50421864 -0.03707363
0002d0 10 5b ea bc 25 bb dc b9 2b b2 1c 3e c2 da dc bd
       -0.028607875 -0.00042101103 0.1530234 -0.10783912
0002e0 97 0a 50 be d3 0c 15 be e4 d0 95 be 8e 9c 2c 3e
       -0.2031654 -0.14555673 -0.29260933 0.16856596
0002f0 ea 8d c7 3d a6 03 a9 bd 9e 06 14 3e b0 71 81 bc
       0.09743865 -0.08252649 0.1445565 -0.01580128
000300 0c 23 ce 3d ff c7 40 3e 5d 1c 67 bd b2 b6 29 be
       0.100652784 0.18826292 -0.056423534 -0.16573599
000310 11 e5 b5 bc aa 87 16 be 6e cf 28 3e d7 f9 b3 3e
       -0.022203954 -0.14700189 0.16485378 0.3515155
000320 3c 4e a1 bc 61 3a 06 be c8 12 da 3e 3f 4b 5b 3c
       -0.019690625 -0.13108207 0.42592454 0.013384639
000330 49 07 d7 bd 63 20 92 3c b2 00 d6 bd c1 db 79 3d
       -0.104994364 0.017837709 -0.10449351 0.06100059
000340 4d 26 8f 3e 27 89 09 bf e9 d7 8f 3c db bb 46 3e
       0.2795891 -0.537249 0.017559009 0.19407599
000350 5a e3 49 3d 0f e5 42 3c 62 27 43 3e db 48 de be
       0.049289085 0.011895432 0.19057992 -0.4341496
000360 ff 8e db 3c 3d 89 38 be e8 06 1a bd ab 3f 23 bd
       0.026801584 -0.18021102 -0.037604243 -0.03985564
000370 17 13 af be 69 d1 5a 3e 4c 13 3e 3d 29 fe 2d bd
       -0.34194252 0.21368946 0.04640512 -0.042478714
000380 71 93 3e 3e 03 a4 fa be 7a 3d 92 be db cf ea bd
       0.18610932 -0.48953256 -0.28562528 -0.114654265
000390 71 38 d4 3c 46 aa 77 3d 72 71 04 3e 14 67 51 3c
       0.02590582 0.06046512 0.12933901 0.012780923
0003a0 92 21 b1 bd 9e 15 cc bd f8 a8 29 3e 81 f4 8a 3d
       -0.08648981 -0.09965061 0.16568363 0.06784917
0003b0 bf ee 33 be d0 e2 d5 be 83 19 15 bd b0 75 b7 3d
       -0.17571543 -0.41774607 -0.036401283 0.08957994
0003c0 e0 82 60 3d ca f4 21 bd 90 6c a0 bd f2 f3 5a be
       0.054812312 -0.03954009 -0.07833207 -0.2138212
0003d0 30 33 05 bf 30 a4 89 bd 15 cb a6 bd 78 fc b5 bd
       -0.5203123 -0.067207694 -0.081442036 -0.08886045
0003e0 af 7c 8d 3d 60 5e 4a 3b 4a 65 fa 3d f7 79 f3 3d
       0.06908547 0.0030879006 0.122263506 0.11888497
0003f0 f9 61 6d 3e bb 11 ab 3c 60 b8 d9 3d aa 89 18 bf
       0.23181905 0.020882478 0.1063087 -0.5958506

weight_hh_l0 f4 [128, 32]
000000 aa d7 b8 3b 25 17 d2 bd 05 4a 2b bd 56 4f f9 3d
       0.0056409435 -0.10258321 -0.041818637 0.12173335
000010 c9 4b 0f be fa 09 e2 bc 13 66 07 be 33 52 06 3e
       -0.13993753 -0.027592648 -0.13222532 0.13117294
000020 de a0 de 3d f4 f0 ab bb 59 8e ae bd 35 1c c5 3d
       0.10870527 -0.0052472297 -0.085232444 0.09624521
000030 62 bb b2 bc 70 0c 9d 3e 07 6a ba 3d de 77 09 bc
       -0.021817867 0.30673552 0.09102254 -0.008390395
000040 6e ef 08 3e c0 ba 27 be 9c 73 e2 bc f4 1c 05 be
       0.13372585 -0.16379833 -0.027643017 -0.12999326
000050 a3 87 9f be 53 9f a6 be d6 9d 70 be 7c 71 d7 bd
       -0.3115817 -0.3254343 -0.2349771 -0.10519692
000060 24 9c 9f 3d f1 f5 1a 3e fd eb b9 3d 46 d1 7f 3e
       0.07793453 0.15132882 0.09078214 0.24982175
000070 ca 7f 4c 3e d9 96 67 3d 46 21 fd 3d af 7e 55 be
       0.19970623 0.056540344 0.12359862 -0.20849107
000080 2d 39 10 3d 69 83 49 be fa ef 53 3e 6e 8c 25 3c
       0.035210777 -0.19679035 0.20697013 0.010104282
000090 c1 56 d5 3e f1 fc 12 3e 51 4c 8d be 2b 8c 00 be
       0.4166775 0.14354302 -0.27597287 -0.1255347
0000a0 bd 83 3a 3e 81 8e c1 bc 6d 3b d4 bd c7 7e 0a 3e
       0.18214317 -0.023627521 -0.10362897 0.13524924
0000b0 19 6f 7f bd e9 6c fa 3d 6a c4 1a 3e 69 9f e3 bd
       -0.06236181 0.12227804 0.15113989 -0.111143894
0000c0 e5 57 dc bd a4 df 98 3e 08 a5 36 3e 04 a0 32 3d
       -0.10758952 0.29858124 0.17836392 0.043609634
0000d0 ff fd a2 3b 4c a7 f8 bc 6c 18 57 be 42 eb 5a be
       0.0049741264 -0.03035321 -0.2100541 -0.21378806
0000e0 24 a5 84 3e 13 3e e2 3c cc a3 44 be 88 46 2d be
       0.25907242 0.02761749 -0.19203109 -0.16921437
0000f0 e7 05 c4 bd bd 2c 12 3d 7e 69 1e 3d 72 6f 1f 3d
       -0.09571438 0.035687197 0.038674824 0.038924642
000100 94 b3 9a bd 63 18 61 be 4e fe 08 3c 8d 54 2d 3e
       -0.07553783 -0.21981959 0.008361412 0.16926785
000110 b8 1b 69 3d 99 8a a9 3d a9 e9 bb be fc 90 00 be
       0.0569112 0.082783885 -0.36701706 -0.12555307
000120 2e b9 89 bc 8b 07 39 3e 0d 3a cc bd bc 77 0a 3e
       -0.016811933 0.18069284 -0.0997201 0.13522238
000130 10 7a 20 bd 9c 55 2e be 2e 96 03 3e be e9 3d be
       -0.039178908 -0.17024845 0.12850258 -0.18546197
000140 da 0a b5 39 21 5e 4b 3d 62 68 2b 3e 7b 8b 64 be
       0.00034531095 0.049650315 0.16739038 -0.22318833
000150 22 a6 b1 3d ef 7f d0 3d f8 36 a2 3c eb aa ca 3d
       0.086742654 0.101806514 0.019801602 0.09895881
000160 c1 36 93 3e 4a db a7 3d 78 b6 bf 3d 4e c5 01 3e
       0.2875271 0.08196123 0.09360975 0.12672922
000170 2b 37 d7 3d 8e 4f fe 3d d1 40 93 bd 27 84 23 3e
       0.10508569 0.124175176 -0.07190097 0.15968381
000180 5a 5b 8f be 3a ae 63 bd dd 12 7b 3e 6c ca 91 3e
       -0.27999383 -0.055586077 0.24518915 0.28474748
000190 9e df 30 be d2 3b e1 3c 4a 18 81 bc 64 4d 92 3d
       -0.17272803 0.027494345 -0.015758652 0.07143667
0001a0 de c3 1d bd f8 1f 03 3e 03 ec c8 bd 61 7c 8f bd
       -0.03851687 0.12805164 -0.09810641 -0.07006145
0001b0 c2 f3 4b be f4 0b 79 be ee 65 90 be 48 e5 cc be
       -0.19917205 -0.24320966 -0.28202766 -0.40018678
0001c0 83 db 98 be 35 37 8a 3e bf 29 e8 3d 30 fd 9d be
       -0.29854974 0.26995245 0.113360874 -0.3085723
0001d0 6d 2b b1 be 40 22 f4 3d 22 e2 1a 3e 15 95 45 be
       -0.34603444 0.11920595 0.15125325 -0.19295152
0001e0 4c 79 a4 3e 2c 25 ab bd 33 a8 07 be 76 d9 26 bd
       0.32123792 -0.08356699 -0.13247757 -0.04073473
0001f0 47 ec 79 be e1 5e b0 ba ab 45 ab 3e db 78 c3 3d
       -0.24406539 -0.001345601 0.3345159 0.09544536
000200 2d e4 9a 3d 10 34 8d bc 2b 4a cd 3e 9b 40 38 bb
       0.07563052 -0.01723674 0.40095648 -0.002811468
000210 62 83 35 3e 6b 4e 93 bd 2b 73 cb 3e f7 8b 70 3e
       0.177259 -0.071926914 0.39736304 0.23490892
000220 54 9c a6 bc 6f cc 9e be ac c1 44 be db 28 81 bd
       -0.020338215 -0.31015345 -0.19214505 -0.06306621
000230 44 9f 8b bd 23 02 02 3c 1a bc 58 3d 24 7e a5 be
       -0.06817487 0.00793508 0.052913763 -0.323228
000240 eb b1 36 3d c0 19 9f be 93 5f 20 be 30 e1 6a 3d
       0.04460327 -0.31074333 -0.15661459 0.05734366
000250 22 8f b5 bd 08 0e 93 3d 75 ae 3d 3d 02 95 ec 3c
       -0.08865191 0.071804106 0.046308953 0.028879646
000260 77 d0 63 3d 9c af 34 be 84 f3 c1 bd ca 81 47 be
       0.05561873 -0.17645115 -0.09470275 -0.19483104
000270 f6 f8 4c 3e 0b eb 58 be f2 06 64 3e 8e 2d 65 be
       0.20016846 -0.21183412 0.22268274 -0.22380659
000280 ff f8 7e bd c6 c2 35 be 47 1b ab 3d b4 ee 35 be
       -0.06224918 -0.17750081 0.08354812 -0.1776684
000290 1a 17 76 3e f0 24 04 bd b4 b8 4b 3e 8f db 28 be
       0.2403225 -0.03226179 0.19894677 -0.16490005
0002a0 62 13 0f 3d 77 1f f9 3d ec 5e 15 3e e6 04 55 3d
       0.034930594 0.121642046 0.14586991 0.052006625
0002b0 6d a3 2e be 23 e3 df 3b 9f e9 7e bd 72 88 ae 3d
       -0.1705453 0.0068324967 -0.062234517 0.08522119
0002c0 ac 0f 84 bd d9 93 cc 3e e7 ed d4 bd 81 18 91 3d
       -0.06448302 0.3995655 -0.10396939 0.07084752
0002d0 71 e4 85 3d 1c 42 41 bd 9c c1 3e bd 91 13 2e be
       0.06537712 -0.047182187 -0.04657136 -0.16999651
0002e0 6d ce 14 3d e5 0f 02 be 38 37 36 3e 43 68 13 3e
       0.036329675 -0.12701376 0.17794502 0.14395241
0002f0 54 3b 13 be 3e 34 15 3c 45 78 08 bd bd 61 a4 3e
       -0.143781 0.009106694 -0.033317823 0.32105818
000300 62 67 0e 3e 17 96 9a 3d 49 45 02 be 70 a6 60 3e
       0.13906625 0.075481586 -0.12721743 0.21938491
000310 82 7c 8e 3e 57 d6 bd bd cc 60 8f be 28 bb 26 be
       0.27829367 -0.09269398 -0.28003538 -0.16282332
000320 2c 52 97 3e 0e 60 31 3e f3 9f 6b be cd ed 98 3d
       0.2955488 0.17321798 -0.23010235 0.07467232
000330 5a 62 91 bd f8 09 95 3e ef aa 40 be 55 51 81 bd
       -0.07098837 0.29109168 -0.18815206 -0.06314341
000340 6b 75 4a be 60 49 48 3e 93 04 8e 3e c2 e9 b9 be
       -0.19771354 0.1955924 0.27737865 -0.36311156
000350 b4 3c 9a 3e 0f f9 d3 3e 65 25 ae 3c fe 20 ef bd
       0.30124438 0.41400954 0.021258065 -0.11676215
000360 96 5c 20 be a9 26 12 bf f5 52 21 3e e9 f5 b1 bd
       -0.15660319 -0.5709024 0.15754302 -0.08689482
000370 c2 b6 bb be d9 de d3 bd ce 5d a9 bd 6d dd 6f 3e
       -0.3666287 -0.10345239 -0.08269845 0.23424311
000380 06 fa b4 3e 4c 2e b6 3c 64 c0 43 3d 8c 8e 09 3e
       0.35347003 0.022238873 0.0477909 0.13433284
000390 07 a5 33 be 20 7f 2c 3e 8c 44 ac bd 96 71 56 3d
       -0.17543422 0.1684537 -0.08411512 0.052354418
0003a0 a3 2d 17 3c 5a 28 24 be df 68 b0 bd ad 46 3c be
       0.009227189 -0.16031018 -0.086137526 -0.18386336
0003b0 77 17 24 3e 73 4a 85 bd d9 39 a8 3d b6 fb 48 3d
       0.16024576 -0.06508341 0.082141586 0.049068175
0003c0 57 bb b5 3d 50 41 65 be e2 b8 df bd 8b 3c 6e bd
       0.08873623 -0.22388196 -0.109239355 -0.058163207
0003d0 e0 65 ac bc 87 b0 6c bd 8e 1a dc bc c0 b2 6c be
       -0.021044672 -0.057785537 -0.026868131 -0.23115063
0003e0 d6 b4 4a 3c 58 8a 05 3e 22 72 f9 3a dd cb e8 3d
       0.012372216 0.13041055 0.0019031207 0.11367009
0003f0 7f 14 e8 3d ff ac 9e 3e e3 7e 98 3d ea 95 0a 3d
       0.11332034 0.3099136 0.07446077 0.033834375

bias_ih_l0 f4 [128]
000000 6d fe ca 3d 8e 65 a5 3e b3 e9 9f 3d d6 0b 5f 3e
       0.09911809 0.32304043 0.078082465 0.21781859
000010 7e 5c bd bd d5 75 74 3e 8c ce dd 3e 97 ac 07 be
       -0.09246157 0.23873074 0.43321645 -0.13249432
000020 0e ca 9c b9 bc 30 01 3e 9b 5e a5 3e df fb c1 3d
       -0.0002990518 0.12616247 0.3229874 0.09471869
000030 a3 54 c6 3e fb 99 27 bd 15 a9 e9 3e 83 77 4c 3e
       0.38736448 -0.04091833 0.45636812 0.19967465
000040 b7 66 7c bd ed 18 b0 3e 2d 7e 57 3c f7 93 bd 3e
       -0.061621394 0.34394017 0.013152641 0.3702695
000050 42 b2 f1 3e da 15 ac bd ea b4 ab 3c ad 3f 8d 3a
       0.47206312 -0.08402605 0.02096029 0.0010776423
000060 57 a7 c3 3e 59 91 83 3d b5 b8 89 bd 85 37 ca 3b
       0.38213608 0.06424207 -0.06724683 0.006171169
000070 ed e5 12 be b1 da aa 3e 0e 7e 55 3e 87 2d a4 3d
       -0.14345522 0.33369973 0.20848867 0.08016496
000080 b1 74 08 3e 92 dc 03 bf 6b 5f ac be 32 52 4a be
       0.13325764 -0.5150844 -0.33666548 -0.19757918
000090 e3 d2 9a be 73 fa 77 be 37 ed 34 bf 4d 14 9e bd
       -0.3023902 -0.24216633 -0.7067446 -0.07718716
0000a0 94 5d 42 be ac bb 37 3d e9 97 8a bd 53 15 0b 3d
       -0.1898101 0.044856712 -0.06767256 0.033955883
0000b0 74 40 c3 be a9 be 1e 3e 1a 34 df be 2f 90 02 bf
       -0.3813511 0.15502419 -0.43594438 -0.51001257
0000c0 09 85 c0 bc 38 c7 31 3a f2 fc 6d be df e9 39 be
       -0.023500936 0.00067817 -0.23241022 -0.18155621
0000d0 58 f9 29 bf 2b fd 92 bb 5f 37 4a 3d 77 39 84 bc
       -0.66396093 -0.0044857464 0.049369212 -0.016140683
0000e0 8e 6b 3b be c3 8f 96 3d 94 f7 2d 3d 4b fe 7e 3d
       -0.18302748 0.07351639 0.042472437 0.06225423
0000f0 6d fc 00 be 38 f3 d2 be 5d 03 33 bf 8b 3c 53 be
       -0.12596293 -0.41201186 -0.69927007 -0.20628564
000100 2c 97 09 3e 02 d7 03 3e d0 96 8c bd 52 fd d6 3c
       0.13436574 0.12874988 -0.06864703 0.02624384
000110 eb 71 d7 bd 1a cb 65 bc dc 89 bd 3d d6 7f 4a bd
       -0.10519775 -0.014025474 0.0925481 -0.04943832
000120 9c 56 04 bd ec f0 6a 3d 2f 10 93 bd 0b 1b a4 3c
       -0.03230916 0.057358667 -0.07180821 0.020032426
000130 2d 41 c8 bd b9 fa ce bc 46 d1 16 3d af a1 ae bd
       -0.09778056 -0.025266038 0.036820672 -0.085269324
000140 05 df ae bd 28 b7 e5 bd 73 3d 8f 3d 35 7c 2b 3d
       -0.08538631 -0.11216575 0.069941424 0.0418665
000150 4a b9 94 3d be 5c 2c 3d 85 df f5 3d 29 25 12 be
       0.072619036 0.042080633 0.120055236 -0.14271988
000160 86 23 e9 3d 27 ae ae bd b8 f1 1d 3c 07 c2 7e bd
       0.11383729 -0.08529311 0.00964015 -0.062196758
000170 25 e9 de bd 2f 67 09 3e b2 1c a8 3c 2b 5d 80 bd
       -0.108843125 0.13418268 0.020521495 -0.062677704
000180 c0 9e 98 3e 51 83 8f 3e 0a b1 00 3e 72 08 9a 3e
       0.29808617 0.28029874 0.12567535 0.30084568
000190 56 30 d2 3d 4c f7 23 3e fe dd e2 3e bf 8a e9 bd
       0.102631256 0.16012305 0.44309992 -0.11403417
0001a0 84 9c f0 bd d9 b0 27 3e c2 4b b7 3d a3 d1 f3 3c
       -0.11748603 0.16376056 0.089499965 0.029763049
0001b0 b1 e5 a5 3e 1c 65 87 bc de 62 fe 3e 87 77 b5 3e
       0.32401803 -0.016527705 0.49684805 0.35442755
0001c0 7d dc 9a 3d c9 81 84 3e 66 cf e9 3d a1 3a 8c 3e
       0.07561586 0.25880268 0.11416511 0.2738848
0001d0 0a 60 0b 3f 78 8b 8a bd 2c 44 89 bc ca cd 2d 3d
       0.5444342 -0.06764883 -0.01675614 0.042432584
0001e0 c2 5e 7a 3e 6d 00 e5 3d a2 5c c3 3d 09 0e 16 bd
       0.2445021 0.11181722 0.09539153 -0.03663448
0001f0 0d d3 91 bb f4 c3 03 3f 8d 8c 79 3e 09 04 47 3d
       -0.004450208 0.51470876 0.24370022 0.048587833

bias_hh_l0 f4 [128]
000000 53 93 60 3d 94 1b ac 3e 47 2e 64 bd db 33 c2 3e
       0.054828 0.3361479 -0.055708196 0.37930188
000010 e5 2e 52 3d 89 66 a9 bb 24 c3 a9 3e bb 9b 38 3d
       0.051314253 -0.005169694 0.33156693 0.04507039
000020 15 c0 ad 3d 8a 05 95 3e b4 42 88 3d 68 a7 f6 bc
       0.08483902 0.29105788 0.066533476 -0.030109122
000030 09 a6 18 3e 27 b7 81 3e c8 6d fe 3e 78 5e b8 3e
       0.14907087 0.25335047 0.4969313 0.36009574
000040 80 27 18 be c4 49 ac 3e a6 09 a9 bd 6e e8 a6 3e
       -0.14858818 0.3365003 -0.082537934 0.32599205
000050 44 a7 1e 3f e3 05 c6 3d b1 b1 4a 3d a1 e3 85 3d
       0.6197398 0.096690916 0.049485866 0.065375574
000060 e8 4d 91 3e 22 2b 49 3d 6a b2 ce 3b d5 eb ae bd
       0.2837975 0.0491134 0.0063078897 -0.08541075
000070 ce 7b 66 be 17 12 a6 3e 20 57 8e 3e fb 7b 05 3e
       -0.22508165 0.32435676 0.27800846 0.13035576
000080 f6 43 36 3d 78 5d fa be 15 b4 ca bd d4 b4 ce be
       0.044498406 -0.48899436 -0.09897629 -0.40372336
000090 be cc c3 3b 00 74 a2 bd 72 d8 10 bf 5d 57 63 be
       0.005975335 -0.079322815 -0.5658027 -0.22201295
0000a0 10 76 ef bd 44 36 3a bc 56 a1 47 bd f3 17 df bc
       -0.116924405 -0.011365477 -0.048737846 -0.0272331
0000b0 21 ad c4 be df fc c7 bc 62 f4 a8 be 01 78 eb be
       -0.38413337 -0.02441257 -0.3299895 -0.45989993
0000c0 9c 00 1e be 19 b8 89 bd 69 f4 50 be 7c c6 b9 be
       -0.1542992 -0.06724567 -0.20405735 -0.36284244
0000d0 41 22 05 bf 06 4c 2b be 95 dd 31 be c9 bf 34 bd
       -0.5200539 -0.1672822 -0.17369683 -0.044128213
0000e0 c1 f1 c5 be 59 c1 70 be 5a 21 58 be e0 ae cc 3a
       -0.38661006 -0.23511256 -0.21106473 0.0015616082
0000f0 74 e2 1d be b2 5e 36 be 0b 33 11 bf a2 c6 c2 3d
       -0.15418416 -0.17809561 -0.5671851 0.095105425
000100 7a 77 18 be 2c 62 0f be b5 bb cf 3d 91 bd f0 bc
       -0.14889327 -0.14002293 0.10143224 -0.029387267
000110 17 19 1b 3e e7 e0 95 3c 6c ae bf bd 47 f5 26 bb
       0.1514629 0.018295718 -0.0935944 -0.0025475787
000120 86 20 df 3d 09 85 14 bd 5a 7a 65 3d 13 e3 18 3d
       0.10894875 -0.036259685 0.056024887 0.03732593
000130 93 d8 a9 3d 8a aa 28 3d 48 76 27 bd 8a cf 79 3d
       0.082932614 0.041178264 -0.040884286 0.06098894
000140 a1 90 f7 3b 83 59 05 3e 79 1a 97 bb 0f 7f ad bd
       0.007555083 0.13022427 -0.00461131 -0.084715
000150 c1 c2 ac bd b1 81 96 bc 44 02 fd bd 19 c6 d7 3d
       -0.08435584 -0.018372389 -0.12353948 0.10535831
000160 90 4d ff bd 5a af a6 3c 5d 8e 4e 3c 51 a7 57 3d
       -0.12465966 0.020347286 0.012607184 0.0526498
000170 8b 73 c7 bd cc ed 13 be cf f9 83 bb 26 3d 29 3d
       -0.09738835 -0.14446181 -0.0040275822 0.04131808
000180 a6 70 3b 3e a4 49 d4 3e 2a 3d f9 bc 67 35 07 3f
       0.1830469 0.41462433 -0.030424673 0.5281586
000190 2f 13 4e 3e ca 12 82 3d 1e 45 24 3f d4 46 49 3e
       0.20124505 0.0635124 0.64167964 0.19655925
0001a0 66 9a 2f be f7 93 3e 3e 66 5a a9 3e ed 6d da 3d
       -0.17148742 0.18611132 0.3307678 0.10665498
0001b0 b9 1f ac 3e e3 e4 34 3e 0b 5a d5 3e 44 7e b9 3e
       0.33617952 0.17665438 0.4167026 0.36229146
0001c0 1c bc c0 3d eb e0 f9 3d 01 86 60 3e 26 01 1a 3e
       0.09410879 0.12201103 0.21926118 0.150395
0001d0 55 ea 01 3f 1e d1 fc 3d 8b 42 0a 3e ee 38 33 3e
       0.5074819 0.123445734 0.13501947 0.17502186
0001e0 75 5a dd 3e 35 21 b3 3d 6d d7 16 3e 51 4a f9 bc
       0.43233076 0.08746568 0.14730616 -0.030430945
0001f0 65 00 09 be bf 58 02 3f 9e 9b 8a 3e 4e 4f 7f 3e
       -0.13379057 0.50916666 0.27071851 0.24932596

weight_ih_l0 f4 [128, 2]
000000 61 02 0f 3e c5 ac ff 3d 26 88 ad bd c0 85 36 be
       0.13965751 0.12484125 -0.08473234 -0.17824459
000010 d9 16 9f 3e a2 46 93 be 3c 45 d9 3d 0d 87 1a 3d
       0.3107212 -0.28764826 0.106089085 0.03772645
000020 ba 4c b7 be 9c dc 47 be 0f df 92 bd 80 10 c0 3e
       -0.35800725 -0.1951775 -0.07171451 0.37512589
000030 b5 2b 2e bd 8f 65 f4 3d e9 3a 8b 3d 35 87 26 3e
       -0.04252215 0.11933433 0.067983456 0.16262515
000040 d8 d2 2a 3e 29 72 55 be a1 a6 9a bd 16 d7 9b 3c
       0.16681993 -0.2084433 -0.07551313 0.01902346
000050 b3 96 41 3e 1a 5f bd bd 63 e4 da be 4c 50 51 bd
       0.18905143 -0.09246655 -0.4275237 -0.051101968
000060 24 9f d5 3d 18 e9 e4 3d 9c 81 14 3e 83 8d 63 bd
       0.10430744 0.111772716 0.14502567 -0.055554878
000070 0c aa 32 3e 02 02 a7 3d 6d cb ae 3e a4 17 b1 be
       0.1744768 0.0815468 0.34139577 -0.3458835
000080 97 4c 09 be c8 b8 2b 3e 02 90 d6 3d b6 89 97 3e
       -0.13408123 0.16769707 0.10476686 0.29597253
000090 d9 45 00 be c2 c4 36 3c 87 7e 8e be 05 30 c6 bc
       -0.12526645 0.011155309 -0.27830908 -0.02419282
0000a0 7d a9 1b bd 9d 66 d3 be d2 55 a2 3c cf 19 96 bd
       -0.038003433 -0.41289225 0.019816313 -0.07329141
0000b0 1f 02 03 bb 40 67 b3 3e 3d e6 c6 be 08 9d 89 3d
       -0.0019990278 0.3503971 -0.38847533 0.067194045
0000c0 40 47 fc 3a 62 d9 61 bd 02 07 3c be 0d 10 da 3e
       0.0019247308 -0.055138953 -0.18362048 0.4259037
0000d0 98 84 a7 3d 4c 25 88 3e e3 5c 85 3e 3d c0 43 3c
       0.08179587 0.26590955 0.2604743 0.011947689
0000e0 68 0c 90 bc fb b4 c8 be 7e 25 00 3e b4 c0 d3 bd
       -0.01758404 -0.39200577 0.12514302 -0.103394896
0000f0 38 47 1c 3e 5e fb d4 bc b1 34 db bd 2e 30 c5 bd
       0.15261543 -0.025998767 -0.107034095 -0.0962833
000100 5e ff 6c be 7d eb 32 3b 2c fb 78 bd 17 df d9 be
       -0.2314429 0.0027301006 -0.06078641 -0.42553017
000110 c2 fd 34 3e cb 2e a8 be 58 d7 da 3d ef 98 51 3e
       0.17674926 -0.328482 0.10685605 0.20468496
000120 53 92 01 bc a8 0c 66 be 8d e8 88 3d 6e bf 4b 3e
       -0.007908422 -0.22465765 0.066849805 0.19897243
000130 99 36 cf bd fd 19 c3 3e 89 28 c7 3d bb 9f d7 3e
       -0.101178356 0.38105765 0.09724528 0.42114052
000140 cc ec 2c bd 85 5c ac bd 2d 5c 58 bd c8 d5 d6 3d
       -0.042218015 -0.08416084 -0.05282228 0.10489994
000150 e6 a2 61 3e 27 41 3a be 78 ed 21 bf 65 e3 d6 3d
       0.22034797 -0.18188916 -0.63252974 0.10492591
000160 70 14 48 3e 66 dd 32 3e 68 c7 0b bd 2d f5 11 3c
       0.19539046 0.1746727 -0.034125715 0.008908552
000170 a9 f7 ec 3e af 87 80 3d db 18 c5 3e e7 4b 03 bf
       0.462827 0.062758796 0.38495526 -0.5128769
000180 6d db f0 3d ce 18 91 3e 46 e5 a6 3d 07 7c a6 3d
       0.11760602 0.28339237 0.08149199 0.08129125
000190 d5 ab cd bd f6 b1 04 3e 3a ee e4 be d8 0b 6e bd
       -0.1004254 0.12958512 -0.44713002 -0.058116764
0001a0 b8 21 af bd 6f 3e fd be 9e ef 74 3e dc 3a 60 be
       -0.08551353 -0.49461696 0.23919532 -0.21897453
0001b0 8a 62 d2 bc 71 9a 7d 3e d2 59 d8 be f2 e6 c7 bd
       -0.025681753 0.24765946 -0.42256027 -0.09760846
0001c0 78 3a 89 bd 24 71 c3 bc 26 82 37 be b4 59 1f 3e
       -0.06700605 -0.02385766 -0.17920741 0.15561563
0001d0 c2 e7 04 3e 8c f6 39 3e bd 0c 19 3f e5 2a 58 be
       0.12979034 0.18160456 0.5978506 -0.21110113
0001e0 c7 41 51 3e 1d cd 10 bf ec 0a 72 3e 77 0c e1 bd
       0.20435248 -0.5656298 0.23636979 -0.109887056
0001f0 22 76 ba 3e e5 56 e9 3b c4 09 4b bd d7 90 60 be
       0.36418253 0.0071209543 -0.04956986 -0.21930252
000200 8b bf 8f 3c 72 69 d8 3e 6b 12 9d bd bd 26 bc be
       0.01754739 0.42267948 -0.076695286 -0.36748305
000210 3d 28 29 bd 5b f9 93 be f5 4d 02 be f6 48 00 bf
       -0.04129814 -0.2890118 -0.12725051 -0.5011133
000220 a8 24 f0 be 07 d4 70 be 3c 28 26 3e 8d 06 33 be
       -0.46902966 -0.23518382 0.16226286 -0.17482968
000230 4f 12 77 be fb de 80 be c2 0e a6 3d 26 b9 d8 3d
       -0.24128078 -0.2517012 0.081082836 0.10582189
000240 55 7f 20 3e b1 8a af 3e 2a f0 bf bc ad 4b c5 3d
       0.15673573 0.342855 -0.023429949 0.09633575
000250 62 47 a7 3d b7 80 e2 3e 6f f4 dd be 09 48 bc 3c
       0.08167912 0.44238827 -0.4335055 0.022983568
000260 ae f7 12 be dd 93 f9 be d5 62 95 3e 50 b7 85 3e
       -0.14352295 -0.48745623 0.29176965 0.2611642
000270 b0 d2 a1 be 14 fb 2b be 53 73 ae be c6 b2 6e 3e
       -0.31606054 -0.16794997 -0.3407236 0.23310384
000280 05 5f b9 bd ce 13 12 bd e4 4e 62 bd 0f 72 47 3e
       -0.09051327 -0.03566342 -0.055251017 0.19477104
000290 0a d6 41 bc f5 fe 00 3e 49 c4 3f 3e 99 8e 31 3e
       -0.011830816 0.12597258 0.1872722 0.17339553
0002a0 aa 12 3f bc 87 ce d2 bd ee af 24 be 2c 06 08 3e
       -0.011662165 -0.10293298 -0.16082737 0.13283604
0002b0 57 81 0b bd fd b4 96 be ad 58 81 bb c1 68 aa bc
       -0.034058895 -0.29434958 -0.0039473386 -0.020801904
0002c0 58 2a e4 3d d0 79 ca 3d 0a b7 49 3d 18 73 79 3e
       0.11140889 0.09886515 0.049246825 0.24360311
0002d0 0f 79 11 be f5 8b e7 3c f9 ef b0 3e 51 ce ed 3c
       -0.14206336 0.028264979 0.34558085 0.029029043
0002e0 1c 59 09 3e 81 85 a8 3e c3 24 90 3d c9 e3 e8 3d
       0.13412899 0.32914355 0.07038262 0.113715716
0002f0 46 22 b1 bd 7a 12 4f bb 38 61 3e be ea c4 37 be
       -0.08649115 -0.0031596706 -0.18591774 -0.1794621
000300 f0 99 5f be 41 00 2d bd 79 54 f3 3c 6b e1 33 be
       -0.21836066 -0.04223657 0.029703366 -0.17566459
000310 05 4d a8 3d 9a 33 dc be 1c 32 05 3e 56 e1 de 3d
       0.08217815 -0.4300812 0.13007396 0.10882823
000320 7e a0 7d be 53 39 aa be 3c 81 d2 bc 35 21 a4 3e
       -0.24768254 -0.3324686 -0.02569639 0.32056585
000330 c5 90 c6 bd 05 e5 91 3d c9 7d 0c bd 9a fa 19 3e
       -0.09695581 0.0712376 -0.034299646 0.15037003
000340 70 25 26 bd 13 f4 da 3d f5 0c 7c be 7e 5c 33 bd
       -0.040563047 0.10691085 -0.24614318 -0.04378938
000350 88 96 df 3e 68 37 08 be 15 7b d3 be 75 df 3c be
       0.43669534 -0.13302386 -0.41304842 -0.18444617
000360 21 e8 d3 3e 18 4d 80 3c 1e cb e6 3d ed 03 2d 3e
       0.41388038 0.015661761 0.1126921 0.16896029
000370 07 da 94 3d 34 6c e0 3d 96 55 99 3e de 7b 47 be
       0.07268148 0.10958138 0.2994811 -0.19480845
000380 6b 2c 0e be 77 a0 a4 3d 09 03 03 be 59 7d e4 3d
       -0.13884132 0.08038419 -0.12794127 0.11156721
000390 3d eb 73 be 55 63 e8 bd f0 39 b5 be 02 a8 8e 3d
       -0.23820205 -0.11347071 -0.35395765 0.06965639
0003a0 0c c3 3b 3c e3 fc ac be bc d1 4b 3c 9d f3 4d be
       0.011460077 -0.33786687 0.012440141 -0.20112462
0003b0 53 41 f9 3d f3 d8 8f 3e a7 08 c8 be 57 28 4a 3c
       0.12170663 0.28095207 -0.390691 0.012338719
0003c0 ca 2d 19 3e bf cb 9a 3d a9 b2 95 be 6f e1 4b 3e
       0.14958873 0.07558393 -0.2923787 0.19910215
0003d0 dd e3 d6 3d fe 98 5c 3e 76 be de 3e 92 31 df bd
       0.1049268 0.21542737 0.43504685 -0.10898127
0003e0 a9 d8 a9 bd 57 27 ac be 2c d4 d9 3d aa 4e dc be
       -0.08293278 -0.33623764 0.10636172 -0.43028766
0003f0 c4 bd 1b 3e 69 f7 4a 3e 84 5b 0a 3d 7a 34 99 be
       0.15209109 0.19820942 0.033778682 -0.2992285

weight_hh_l0 f4 [128, 32]
000000 aa 46 88 3c 2a f2 82 3e 2d 58 f6 3d 62 d5 a2 3c
       0.016635258 0.25575382 0.12028537 0.01987714
000010 b1 10 f9 bd 01 96 05 3e 83 91 d5 bd d3 e1 bc 3d
       -0.12161387 0.13045503 -0.10428145 0.0922276
000020 22 3c aa bc 69 7a 81 bd fb a3 08 3e b8 f4 d8 3d
       -0.020780627 -0.06322176 0.13343804 0.105935514
000030 32 9e 18 bc 5c d2 67 3e 7e 8f 2a 3d 1b 62 ee bd
       -0.00931506 0.2263884 0.04164075 -0.11639806
000040 0f 12 c6 3d cd c1 34 be 94 92 77 3d 12 21 19 bc
       0.09671413 -0.17652054 0.060442522 -0.0093462635
000050 57 4d 36 3e 74 2b 85 be 5d d9 3c be 03 a5 b4 3d
       0.1780294 -0.26009715 -0.18442293 0.08820536
000060 9e 2b ac be 07 e8 80 3e 36 14 60 be 49 9c 98 3e
       -0.33627027 0.25177023 -0.2188271 0.29806736
000070 b7 c9 a9 bd a7 43 c3 be a9 d5 55 bc d5 a8 59 3e
       -0.08290427 -0.38137552 -0.013051429 0.2125581
000080 1d c3 a1 3d 3f ae a5 bd 28 52 d9 3d 3c 35 45 be
       0.07898543 -0.080898754 0.10611373 -0.19258589
000090 24 37 32 bd 7c ac 3e 3d 2a 4a 6b be bf 61 e3 bb
       -0.043509617 0.046551213 -0.2297751 -0.0069391425
0000a0 85 9d c1 bc 03 e3 cf 3d b9 4a bb be 55 ca b3 bd
       -0.023634681 0.10150721 -0.36580446 -0.08778826
0000b0 a5 68 95 bc 48 7e 3d 3e 59 b3 82 3b 1f 20 9d bd
       -0.018238375 0.18505204 0.003988665 -0.07672142
0000c0 1c ec c7 bd 2b f5 40 3d 74 53 4f 3c 52 1f da 3d
       -0.09761831 0.04710881 0.012654174 0.10650505
0000d0 d9 4f 91 3e ca ca 6d be c6 14 c6 bc 5f cd 47 3e
       0.2838123 -0.23221889 -0.024179827 0.19511937
0000e0 c2 87 12 3d 1c 08 93 3c de 71 d1 3b 82 b2 fc 3d
       0.035774 0.017948203 0.006391748 0.12338735
0000f0 c7 26 f0 bd ca b6 a0 3c 65 6f c3 bd 5f ec 05 bc
       -0.11726146 0.01961841 -0.09542731 -0.008174031
000100 cf 69 35 3d 3d 22 5d 3d 1d e9 a3 3d 05 84 29 be
       0.04429036 0.05398773 0.08003447 -0.16554268
000110 d1 eb 09 be 91 4b 63 bc 81 ef ba bd 7d 27 ab 3d
       -0.13468863 -0.013872997 -0.09127713 0.08357141
000120 8b dc 5f bd 1b 41 91 be eb e3 a1 be f1 ff e0 ba
       -0.054653686 -0.28369984 -0.316192 -0.001716612
000130 9b 8c 9b bc 55 d9 8f 3e 40 7b 5c 3d 29 9e cb bd
       -0.018987944 0.280955 0.053828478 -0.09942276
000140 01 77 ae bd 25 8b 85 bd 84 1b 34 be 9d 46 5a be
       -0.08518792 -0.0652068 -0.17588621 -0.21316
000150 3e 4b 9f bd 98 40 d1 bd ba 44 4f be 47 79 6c 3e
       -0.07778023 -0.102173984 -0.20241061 0.23093139
000160 88 de d8 bd a9 2f 9e bd 71 44 2c be 6f f9 19 3e
       -0.105893195 -0.07723934 -0.16822983 0.15036558
000170 73 68 54 be 01 48 ff 3b 01 35 90 3d e3 84 c8 bd
       -0.20742969 0.007790566 0.0704136 -0.09790971
000180 24 f7 31 3e 29 7f d9 bc 94 b9 5d 3d 6d 23 cc bd
       0.17379433 -0.026549893 0.05413206 -0.099676944
000190 f3 18 69 be 4c cc 89 3d d6 2b 02 3d ce 5e f7 3d
       -0.22763424 0.0672842 0.031780086 0.120786294
0001a0 00 85 21 3e 10 33 70 3e b9 2c cc bc e6 69 b5 ba
       0.15773392 0.23456979 -0.02492367 -0.0013840764
0001b0 1b 7d 6a be 50 ad b3 3d 41 72 a7 bd cc 9b 24 be
       -0.22899286 0.08773291 -0.08176089 -0.16075057
0001c0 57 7f 9b be 7e 81 67 3d ab 01 f5 bd 1d b4 42 be
       -0.3037059 0.056519978 -0.11963209 -0.1901402
0001d0 f0 b4 14 3e 04 b0 5c 3d 29 b1 c5 bd 64 29 0f 3c
       0.14522147 0.0538788 -0.09652931 0.008737896
0001e0 72 85 a9 bc 24 c2 40 3e 8f 9c 78 bd 0a d0 62 3d
       -0.020693514 0.18824059 -0.06069618 0.055374183
0001f0 58 8a 30 bd 53 e9 bb bd a8 b9 09 3e 28 d9 86 be
       -0.043100685 -0.091753624 0.13449728 -0.26337552
000200 24 86 a3 3d 42 63 0c bc c2 78 8d bb 8f ad 69 be
       0.0798457 -0.008568587 -0.004317374 -0.22820114
000210 40 cc a2 3d 9e fe 4b 3e f5 c6 54 3e b2 72 99 3d
       0.07949114 0.19921347 0.20779021 0.074925795
000220 62 86 3a 3e d7 c6 97 bb aa c5 ae bd b5 27 4c 3e
       0.18215325 -0.004631858 -0.08533795 0.19937022
000230 9f ef c7 bd e7 12 8a 3e 3e 94 8c 3e 48 d3 4a be
       -0.09762501 0.26967546 0.2745685 -0.1980716
000240 90 92 27 bf e1 2c 94 3d 4a e5 51 be 13 13 40 be
       -0.6545801 0.072351225 -0.20497623 -0.18757276
000250 6b 2e 9a 3d f0 e6 5a bd df 72 ef bd e9 5c dc 3d
       0.07528385 -0.053442895 -0.11691832 0.10759909
000260 de 1f fe be 51 d2 e7 3e 59 f0 22 be 5a 10 f8 3e
       -0.49633688 0.45277646 -0.15911998 0.48449975
000270 b4 37 63 bd 3a fe 3b bd ce 29 ef 3d 57 14 8e 3e
       -0.055473045 -0.045896746 0.116778955 0.27749893
000280 52 fa 9a bb 0c d2 58 3d 41 43 c3 3d a1 6b 6e be
       -0.0047295475 0.05293469 0.09534312 -0.23283245
000290 5a 34 95 be c9 c5 49 3e 3e ee a8 bd 1d 3f db 3e
       -0.29141504 0.19704355 -0.08248566 0.4282159
0002a0 04 9d 2b 3e 3c 1a a3 bd 0b 56 9a 3b cd 59 b7 3d
       0.16759115 -0.07963988 0.004709964 0.08952675
0002b0 f6 39 8b 3d 01 e0 4f 3d 5b 2f 85 3e 61 62 7d be
       0.067981645 0.050750736 0.26012692 -0.2474456
0002c0 e5 70 a7 bd c2 a6 84 3d 36 9c ae bd db 1b 52 3d
       -0.0817583 0.06477119 -0.085258886 0.051296096
0002d0 dd d7 27 3c e4 d1 fc bd 52 69 a1 be c3 3d 0f 3e
       0.010244337 -0.12344721 -0.31525666 0.13988404
0002e0 d8 25 f5 3a 0a 31 99 3e 77 87 e6 3d 5e 43 09 be
       0.0018703295 0.29920226 0.112563066 -0.13404605
0002f0 00 9b 6f 3c d6 a1 0f be ff d3 9c 3e 65 b9 f6 3c
       0.014624357 -0.1402658 0.3063049 0.0301177
000300 36 16 de 3c 3b f3 f1 3d 70 9b 9c 3d 91 18 72 be
       0.0271102 0.11813971 0.07646835 -0.23642184
000310 32 a3 c9 3e e8 28 12 be e2 56 a6 bd 7a 2e 8d 3e
       0.3938232 -0.14273417 -0.0812204 0.2757452
000320 22 24 0e be fa 4b db bd 6c 07 2c 3e 31 6f 7b 3e
       -0.13880971 -0.10707851 0.16799706 0.24554135
000330 1d b7 98 3d 81 ad 7f 3e a4 22 e8 bc 60 68 99 be
       0.07456801 0.2496853 -0.02833683 -0.29962444
000340 28 f2 56 be 4f 72 ab bd e8 58 cf bb 9b aa 90 be
       -0.20990813 -0.08371412 -0.006327737 -0.28255162
000350 e4 93 9c 3e e5 0b b6 bc cd 78 9d be a5 4d c8 3e
       0.30581582 -0.022222469 -0.30756226 0.39121738
000360 cb 34 1c be 69 31 aa 3e bf 12 2e be c3 38 86 3e
       -0.15254514 0.33240822 -0.16999339 0.2621518
000370 61 ba 35 bd 88 54 87 be 04 82 d5 3d 68 bb 29 3e
       -0.044367198 -0.2643168 0.10425189 0.16575396
000380 37 f4 d9 3e 2e ee 90 3d c1 23 07 3c fc 7e a0 bc
       0.42569134 0.07076679 0.0082482705 -0.0195918
000390 3a 25 5e be cf 62 32 3d fe c2 de 3d 59 6a 3d 3e
       -0.21693888 0.043551262 0.108770356 0.184976
0003a0 9d 73 01 3f ba 6c 50 be 83 d2 3e 3d 0c 33 18 3e
       0.50567037 -0.20353976 0.04658748 0.14863223
0003b0 2c a6 20 be b1 f9 53 3e 8d af 4b 3e ad 19 b2 bc
       -0.1568839 0.20700718 0.19891186 -0.021740759
0003c0 3e 5d fb 3d 83 f6 27 be b7 78 68 3d 3f cf 21 3d
       0.12273644 -0.1640263 0.056755748 0.039504286
0003d0 96 28 46 be fa 38 09 3b 25 37 18 be bd 65 07 bd
       -0.1935142 0.0020938502 -0.14864786 -0.03305601
0003e0 68 bf 32 3c 27 f7 cf bd a2 06 8f bd ca b8 4e 3c
       0.010909893 -0.101545624 -0.06983687 0.012617299
0003f0 7e de 25 3d 3d bc bc 3d b7 a1 3d 3e 79 91 a0 3d
       0.04049539 0.09215591 0.1851872 0.07840247

bias_ih_l0 f4 [128]
000000 02 81 89 3d 5b 4f cd bd 19 e6 c0 3d 7e c9 df 3d
       0.067140594 -0.100249015 0.09418888 0.109271035
000010 4f e1 70 3e 76 1f 6d 3e 4c e2 b2 3e db c6 6d bd
       0.23523448 0.23156533 0.34938276 -0.05805097
000020 9e 7f bd 3d c4 e5 48 3e 86 46 10 bd 8d ff 62 bd
       0.09252857 0.19618899 -0.035223506 -0.055419493
000030 8c a7 b2 3d eb 49 a7 3e 59 97 f2 bd 18 27 21 3e
       0.08723363 0.32673582 -0.118452735 0.1573757
000040 41 32 a9 3c 0d ad 88 3e f5 74 39 3e ae eb ea 3d
       0.020653846 0.26694527 0.18111022 0.114707336
000050 4f 09 4c 3e ff e4 33 bd 1d 53 e5 bd f0 b1 e7 bc
       0.19925426 -0.04391956 -0.11197493 -0.02828309
000060 30 4e c5 bb 7b 6a db bc 01 34 26 3e 51 07 b0 3d
       -0.0060212836 -0.026784172 0.16230775 0.085951455
000070 ee 3a 10 3e 31 57 fd 3d 3a 90 37 3e a9 28 b2 3d
       0.1408498 0.12370146 0.17926112 0.086991616
000080 95 a7 96 3e de 07 aa bd 3c 3f 6a bd df 87 ac bd
       0.2942473 -0.08302282 -0.05718921 -0.08424353
000090 bf bb dd 3d 68 32 83 3e 28 e7 2e 3e 15 c9 59 3e
       0.10826825 0.25624394 0.17080367 0.21268113
0000a0 7c 4a 4a 3e 15 87 a6 3e 1e d5 ba 3d 79 43 7b 3e
       0.19754976 0.32524934 0.0912268 0.24537458
0000b0 7c aa 77 bc d1 fc 6b 3e a5 1e ec 3d d4 28 03 3c
       -0.01511633 0.2304566 0.115292825 0.00800534
0000c0 ee 9e b2 bd 81 0f cc 3e dc 43 2a 3e 63 76 c4 3e
       -0.0872172 0.3985558 0.16627449 0.38371572
0000d0 d7 b8 8e 3e f9 1b 0b 3e 6f 57 13 bd 73 e0 c0 3d
       0.27875397 0.1358489 -0.035972055 0.0941781
0000e0 7b e8 ef bb c9 cf fe 3d cd c3 56 3e a0 ee b3 3e
       -0.007321415 0.124419756 0.2097313 0.35142994
0000f0 f6 e6 d7 bd a2 6d 52 3d 25 ca d2 3c 32 97 43 3d
       -0.10542099 0.051374085 0.025731156 0.047751613
000100 51 0c 62 bd 4a 05 e4 3c ad d2 ac 3d d6 8f 2e be
       -0.055187527 0.027834553 0.08438621 -0.17047057
000110 22 09 cf bc e6 00 a7 3d 36 77 cd 3d 0c 35 e0 3d
       -0.02527291 0.08154468 0.10032503 0.10947618
000120 30 ac dc 3d 05 9a 15 be 6f 24 bc 3d 50 6f 73 3d
       0.1077503 -0.14609535 0.09186637 0.059432328
000130 a5 78 19 3d 23 c0 0a 3c 27 68 1a 3d aa 66 f2 bd
       0.03746857 0.0084686605 0.037696984 -0.11835988
000140 94 61 17 be 07 bb 98 bd 55 d9 23 3e 2d c2 2f bd
       -0.14783317 -0.07457548 0.16000874 -0.04290979
000150 6f 66 5b bc 10 1d 28 be 1e f6 ae bd 02 25 29 3e
       -0.013391121 -0.16417336 -0.08543037 0.16518024
000160 11 6a 0b be 1f 84 d0 bd af ef 12 3e ee 84 a8 3d
       -0.1361468 -0.1018145 0.14349245 0.08228479
000170 8c 4b 26 ba cf 8c 9e bd 84 00 b4 bd 9b c5 c1 3d
       -0.0006343655 -0.07741701 -0.08789161 0.094615184
000180 87 ed a9 3d 92 9f 28 3e b3 80 2f 3e 59 64 22 3e
       0.08297258 0.16467121 0.17138939 0.15858592
000190 d8 ee ae 3e 24 48 ab 3e 7f 36 da 3e b3 d7 29 3d
       0.34166598 0.33453476 0.42619702 0.041465472
0001a0 9d ba 35 3d f4 80 9a 3e 7a 61 15 3e f4 6a 68 bd
       0.04436742 0.30176508 0.14587966 -0.056742623
0001b0 7f 7a ad bd 83 d8 9c 3e 70 18 12 3e 6b 4a fe 3d
       -0.0847063 0.30633935 0.14267135 0.12416538
0001c0 a5 78 7e 3d 13 b0 ec 3d df f0 d8 3d 49 31 62 3e
       0.062126774 0.11557021 0.105928175 0.22089113
0001d0 6a ce f6 bc 45 aa fc 3d 57 44 92 bb 84 53 cd bd
       -0.030127723 0.12337164 -0.004463713 -0.10025695
0001e0 b2 89 36 3e 16 c1 a2 3d 57 68 a8 3e 00 a6 d6 3c
       0.17825964 0.079469845 0.32892105 0.026202202
0001f0 3d 27 ed bd d2 59 86 3c b7 4c 36 3e ce c1 87 bc
       -0.1157975 0.016400252 0.17802702 -0.016571905

bias_hh_l0 f4 [128]
000000 ee a4 97 3e a6 0f 23 3e 16 b1 c7 3c c7 5d 74 bd
       0.2961802 0.15923938 0.024376433 -0.059659746
000010 d7 95 a8 3e 26 74 a3 3e 1b 76 d2 3d c8 8d 3c 3d
       0.3292682 0.31924552 0.10276433 0.04603365
000020 9e 50 2f 3e 2e 61 89 3e e0 e8 2d 3e c6 03 1d 3e
       0.17120597 0.26831955 0.16983366 0.1533347
000030 76 c3 b3 3d f0 0a ac 3e 86 fb e2 3d 19 74 55 3e
       0.087775156 0.33602095 0.110831305 0.20845069
000040 ec fa f8 bc 5f 54 40 3e 13 19 ba 3d e3 d6 8e 3d
       -0.030393086 0.18782185 0.09086814 0.0697458
000050 fd 38 51 3e b3 2c 86 3d 83 c9 3a 3e 6b 67 d0 bd
       0.20431896 0.065514944 0.18240933 -0.101759754
000060 7c 76 e7 bd 83 29 e1 bd 34 96 01 3e d9 80 27 bc
       -0.11301896 -0.10994246 0.12654954 -0.010223591
000070 52 b1 2a 3e ca 75 17 3e 00 7a 1d 3d e8 7d ed 3d
       0.16669205 0.14791027 0.038446426 0.1159628
000080 62 e1 23 3e 83 4d 0d 3e ae ac 88 3d 05 2f a5 3c
       0.16003945 0.137991 0.06673561 0.020164022
000090 af 0e f3 3d f6 0b b7 3d ef 5d 43 3d d1 49 9e bd
       0.11868035 0.08937828 0.047697004 -0.07728923
0000a0 af 43 83 bd 4c 12 16 3e f6 1e 22 3c 81 f8 0e 3e
       -0.06409394 0.14655417 0.009895077 0.13961984
0000b0 f7 88 04 3e ef 64 79 3e fd 8d 28 bd 21 01 87 bd
       0.12942873 0.2435491 -0.041151036 -0.06592012
0000c0 05 cd a1 bc 56 c8 0d 3e e1 40 ae 3c cc 3f 49 3e
       -0.019751081 0.13845953 0.021271171 0.19653243
0000d0 88 d5 8a 3e 10 8b 71 3d 79 f4 de 3d f0 b5 5a bd
       0.27116036 0.05897051 0.10886473 -0.053396165
0000e0 ee 31 8c 3c 3c 63 2d 3e 86 b2 f6 3d 4c a7 07 3e
       0.017113652 0.16932386 0.120457694 0.13247412
0000f0 46 85 be 3d a5 47 10 be 0d 1d c0 bd cb 18 66 3e
       0.09302764 -0.1408983 -0.09380541 0.22470395
000100 a5 28 fe 3d 6c 80 3b 3d 11 a9 d5 bd 4c 96 0c be
       0.12410096 0.04577677 -0.104326375 -0.13729209
000110 b6 85 45 3d 7a 2e f5 bd f6 bb d4 bd e3 d5 de 3d
       0.04822322 -0.11971755 -0.10387413 0.108806394
000120 ba a6 1c be 72 cd 9c 3d 36 86 89 3c 5a c3 2a 3e
       -0.15297976 0.07656373 0.01678763 0.16676083
000130 b0 82 b7 ba 43 9b a6 3d f5 72 72 3c 12 db 3d bc
       -0.001400074 0.081350826 0.014797916 -0.011587875
000140 75 63 71 bd 6b d6 c5 3d 6c 4d fc bd 3b d9 61 3d
       -0.05893274 0.096600376 -0.123194546 0.055138808
000150 dd 85 09 3d 32 d9 fa bd 17 0c 3d 3d f6 8b ce 3d
       0.033574928 -0.12248458 0.046154108 0.10085289
000160 6b 71 93 bd 33 3d f7 3d 5e a7 78 bd 38 91 c9 3d
       -0.07199367 0.1207222 -0.06070649 0.098421514
000170 5f f1 18 be 21 b8 ed bd 73 6d 0c 3e 41 fa ad bd
       -0.14935826 -0.116073854 0.13713627 -0.08494998
000180 b3 d8 b1 3e cc 04 10 3e fc fc 90 3d 37 a2 dc bd
       0.3473564 0.1406433 0.07079503 -0.107731275
000190 7e 87 2c 3e bf 09 b2 3e b8 db b3 3e 1e e9 eb 3d
       0.16848561 0.3477306 0.3512857 0.11519073
0001a0 2c 14 b3 3d e6 04 a1 3e bd 97 ba 3d 06 57 13 bd
       0.08744082 0.3144905 0.09110973 -0.035971664
0001b0 70 56 9d bd 11 78 29 3e d5 6a 55 3e 4e ad 67 3e
       -0.07682502 0.16549708 0.20841534 0.22624704
0001c0 d7 43 57 3e 67 21 32 3e 6a 9e ed bd 33 21 53 3e
       0.21021973 0.17395554 -0.11602481 0.20618133
0001d0 84 b8 41 bd 6c b9 88 bd cf 62 ee 3d b6 ff 3e 3e
       -0.04729511 -0.066759914 0.1163994 0.18652233
0001e0 5a e3 59 3d bf 3a 52 3e b3 23 f0 3d 0d ae 58 3e
       0.053195335 0.20530222 0.11725559 0.21160145
0001f0 66 8d 23 3e 0c 32 ab 3d 0d a2 d2 3d 63 2c 45 3d
       0.15971908 0.08359155 0.10284815 0.048138034

weight_ih_l0_reverse f4 [128, 2]
000000 4b ed e3 bd 5d 17 d6 bc 19 20 0d bb 7a c7 98 3e
       -0.111292444 -0.026134187 -0.0021534024 0.2983969
000010 8e 7d 2a be ea fd 88 3d 1d 24 01 3e f3 85 e3 bd
       -0.16649458 0.06689055 0.12611432 -0.11109533
000020 ec 80 a4 bb f2 06 19 3d 17 53 77 be cc 06 aa be
       -0.0050202515 0.03736014 -0.2415279 -0.3320831
000030 20 8c 04 be e2 2b 5f 3e db 37 cf bd f7 b0 8d bd
       -0.12944078 0.21794084 -0.101180755 -0.06918519
000040 4f b6 18 3e 6e ad c1 be cd b1 30 be b8 b2 b9 3e
       0.14913295 -0.3782763 -0.17255326 0.36269164
000050 3e 7f 8c be ec 3e ed bc 5e 70 5f 3e 2b c9 80 bd
       -0.27440828 -0.028960668 0.21820208 -0.0628837
000060 25 2e 8a be 2a 11 ef 3c be 32 22 be 41 63 20 be
       -0.2698833 0.02918299 -0.15839669 -0.15662862
000070 97 67 53 3d af 3f 39 3e 70 a7 f7 bc a8 f2 1e 3e
       0.051612463 0.180907 -0.030231208 0.15522254
000080 25 b1 59 bd 73 66 b4 bd c4 ad 26 be 08 e7 d2 bd
       -0.053147454 -0.08808603 -0.16277224 -0.10297972
000090 18 d6 be be a9 ab 4a be c5 dc b6 bd 26 dd be 3e
       -0.37272716 -0.19792046 -0.08928827 0.37278098
0000a0 a6 17 81 be 41 d6 66 3e 74 54 25 bd 9a 71 90 be
       -0.25213355 0.22542669 -0.040363744 -0.2821167
0000b0 5e b5 5b be 12 b2 70 3d 0d a9 59 3e 0a 9e 09 3d
       -0.21455905 0.05876357 0.21255894 0.033597983
0000c0 b3 c0 a1 be e8 35 ce 3d bc 75 46 be 4e c7 15 be
       -0.3159233 0.100688756 -0.1938085 -0.1462681
0000d0 52 75 14 3e 58 91 27 3e eb 3a 3b bd ca ea 47 be
       0.14497879 0.16364038 -0.045710485 -0.19523159
0000e0 80 7c 6f 3e 0f 39 b6 be 96 f6 32 3d 90 cf 9c 3e
       0.23387337 -0.35590407 0.043692194 0.30627108
0000f0 e7 84 52 3e 0a 94 17 3d 45 85 d4 3d cc 99 b9 be
       0.2055851 0.037006415 0.10376982 -0.3625015
000100 65 ad 5f be b4 11 7e 3e b1 98 05 3e 5a e8 52 3e
       -0.21843489 0.2481144 0.13046528 0.20596448
000110 a2 c7 b8 3d 12 da 8e 3d 0d e2 27 3d 6c ac c6 bd
       0.09022452 0.06975187 0.040987063 -0.097008556
000120 2f 49 c2 3c 4a 27 08 3e b8 ab 19 bd fc 23 c5 bb
       0.023716537 0.13296238 -0.03751728 -0.0060162526
000130 99 e2 ce be df 6b 62 3d 47 b4 34 3e a5 06 32 3e
       -0.40407255 0.055278655 0.17646895 0.17385347
000140 29 dc 11 3e 12 7d e8 bd b0 27 2b bc 15 6c 1c 3e
       0.1424414 -0.1135198 -0.010446474 0.15275605
000150 99 c5 ce bd d1 4f 4e be f2 13 0b 3e 75 4d 01 be
       -0.100962825 -0.20147635 0.13581827 -0.12627204
000160 7e f6 23 be d9 3d a2 3d 56 19 4a bc 42 07 7d bd
       -0.16011998 0.07921953 -0.012335142 -0.0617745
000170 6f 18 ac 3e e1 bc 36 bd 7a d9 12 bb 01 d2 7d bd
       0.3361239 -0.044613723 -0.0022407458 -0.061967853
000180 f2 19 47 3e f8 d2 6d bc 1c 23 3f be af e2 09 3e
       0.19443491 -0.014515631 -0.18665737 0.13465379
000190 ea 32 aa be 5e 7c 59 be 4f 6f 9c bd 38 e1 b7 3e
       -0.3324197 -0.21238849 -0.07638418 0.35914016
0001a0 f0 9a 00 be ad 99 82 3e 4c 1e 48 3e c1 6f a6 be
       -0.12559104 0.2550787 0.19542807 -0.32507136
0001b0 58 35 5c 3e 5f b5 3e be b3 f4 3e bd 8e c0 44 bc
       0.21504724 -0.18623875 -0.046620082 -0.012008799
0001c0 23 95 2a be 4a 3b 38 bd 62 ec dd bd 21 54 58 be
       -0.16658454 -0.044978417 -0.10836102 -0.21125843
0001d0 36 c5 89 3e 50 fa cf 3d e9 65 0a 3e 7f e4 d2 be
       0.26908273 0.10155165 0.13515438 -0.41189954
0001e0 e0 28 9c 3e 4a 95 05 be dd e1 9c 3e b9 64 85 3e
       0.30499935 -0.1304523 0.3064107 0.26053408
0001f0 a7 0b b4 3e 40 ae de 3d a2 3a bd 3e 0a ce ee be
       0.3516514 0.10873079 0.36958796 -0.4664157
000200 fd 23 79 be ab 65 87 be 39 bc a8 3e 7c d0 c9 3e
       -0.24330135 -0.26444754 0.32956102 0.39416873
000210 6e 46 fa bc e3 3d 9b 3c 16 c6 fa bd 73 8b 60 be
       -0.030551162 0.018950408 -0.12244813 -0.21928196
000220 47 eb 61 3e 56 ac 97 3e 1d 23 d7 3d 2f f8 8b 3e
       0.22062407 0.2962367 0.10504744 0.27337787
000230 4e 35 16 3e b1 34 67 be e3 8c ec be e6 60 8c bd
       0.14668772 -0.22578694 -0.46201238 -0.068544194
000240 35 a0 d4 3c 3a f4 c7 be 39 62 1f be af f1 8b 3e
       0.025955299 -0.39053518 -0.15564813 0.27332827
000250 29 54 06 3e 92 dc ce 3d 9b 14 a8 3e ad 3d 77 bc
       0.13118042 0.10100664 0.3282822 -0.015090388
000260 e0 89 eb 3e a1 5b 21 3e 85 7e 44 3e 1a a5 b6 3e
       0.46003628 0.1575761 0.19188888 0.35672837
000270 d1 6a 0c bd 8b 99 8c be 34 00 a0 3e 39 76 18 3e
       -0.034281556 -0.27460894 0.31250155 0.14888848
000280 71 78 4f 3d 1a 07 e6 3d 90 3d 26 3e 7b 92 f0 3e
       0.05065197 0.11231823 0.16234422 0.46986756
000290 af 0f fb 3e bc 74 91 be 29 06 8f be a4 cb 7a be
       0.49035403 -0.28409374 -0.27934387 -0.24491745
0002a0 8b 1f ef bc ae 87 81 bd b2 83 6c 3e 6c f1 fc bd
       -0.029189846 -0.06324707 0.23097113 -0.12350735
0002b0 d5 7e 8c be 5b 18 92 bc 47 af 94 3e 20 23 94 3e
       -0.27440515 -0.01783388 0.29039976 0.28933048
0002c0 84 60 87 3e 7a 9a 08 be 18 d8 a8 3d 66 9f 9b 3e
       0.26440823 -0.13340178 0.082443416 0.3039505
0002d0 0f 99 12 be 4b 1b 1f be 68 f7 af 3d fd 90 d2 be
       -0.143162 -0.15537755 0.08592111 -0.41126242
0002e0 56 b8 0b bf d1 19 fa 3e e4 09 04 3f bc 71 18 3e
       -0.5457815 0.4884782 0.5157759 0.14887136
0002f0 a2 e4 b0 3e 92 bc aa be df e6 b8 bd 9f 37 a3 be
       0.34549433 -0.33346993 -0.0902841 -0.31878373
000300 5d d6 05 3e 88 e7 22 bc 1c af a8 3d a9 32 2e 3e
       0.13070054 -0.009942897 0.082365245 0.17011513
000310 4b ff f4 bd 78 40 f1 3b 55 90 37 be 08 17 8f be
       -0.11962756 0.0073624216 -0.17926152 -0.2794726
000320 bd 85 51 bd ca b1 d8 3e d9 d8 8d be b8 7e 58 be
       -0.051152933 0.42323142 -0.27704504 -0.2114209
000330 c3 9b 98 be 61 38 68 3d c0 59 08 be 8f e1 36 3c
       -0.29806337 0.056694392 -0.13315487 0.011162176
000340 b2 e3 1c 3e 62 19 9a be 40 35 c6 bd e0 58 37 be
       0.15321234 -0.3009749 -0.096781254 -0.17904997
000350 f5 d5 5b bc e3 f1 48 be bb 07 6b 3e 9d da 87 bd
       -0.013417711 -0.19623522 0.22952168 -0.06633494
000360 73 c9 db 3c 76 be 55 3c 9b 25 7a bd f2 95 9e bd
       0.026829457 0.013045898 -0.06107102 -0.077434435
000370 ff 23 85 3e da b8 0e be 07 35 22 be 2c 53 cb be
       0.26004025 -0.13937703 -0.15840541 -0.39711893
000380 19 95 96 3e 19 f6 9f 3d ea 8e 39 bd bc 94 32 bd
       0.29410627 0.07810611 -0.04530231 -0.043598875
000390 0f 30 b2 be 95 fd 90 be 57 8f 0a be 7d 45 9a 3e
       -0.3480229 -0.28318468 -0.13531242 0.3013114
0003a0 38 63 8f bd 32 10 68 bd 49 02 59 3d b9 18 51 be
       -0.07001346 -0.05665607 0.052980695 -0.20419587
0003b0 60 a5 33 be f6 ae 1c be b2 1c 11 bd 62 30 0e 3d
       -0.17543554 -0.15301117 -0.035427757 0.03471411
0003c0 32 f0 d9 bd cf b5 46 3d 8a a3 60 3d 9b 50 56 be
       -0.10641517 0.04851323 0.054843463 -0.20929186
0003d0 7c e3 9c bd 72 b6 9c bc 83 72 a9 3d 46 47 1a be
       -0.07660577 -0.019129965 0.082737945 -0.15066251
0003e0 0c 9b e3 3e 47 f0 4b bf a9 35 f4 3d a1 50 81 3d
       0.4445423 -0.7966351 0.11924297 0.06314207
0003f0 b3 90 b8 3d 0d 24 90 3e 00 fd 31 3e d2 58 05 be
       0.09011974 0.28152505 0.17381668 -0.13022164
