experiments/pedestrians/models/univ_attention_radius_3/model_registrar-100.pt (torch_old, 545361 bytes, 43 tensors)

weight_ih_l0 f4 [128, 6]
0.11695327 0.31487453 -0.19960254 -0.17638002 -0.099692255 0.08096599 -0.17747325 -0.18663311
0.05744827 0.2229949 -0.035265904 0.01879538 0.107368246 0.0814177 -0.2217752 -0.24828026
-0.15800759 0.077178106 -0.0075313356 0.09810333 0.095266245 0.020673659 -0.06964697 0.16423057
-0.04448198 -0.13386306 -0.03129298 0.36990133 -0.0468463 -0.1368669 0.31761304 -0.03504731
-0.007413461 0.17579299 0.039135274 -0.029423898 -0.19801603 -0.029372388 -0.03861387 -0.05960556
-0.17746106 -0.17823683 -0.13018583 0.4163302 0.18216708 -0.14826135 0.032880582 0.039927553
0.34787667 0.21777241 0.10360861 -0.23738828 -0.24035029 0.029369412 -0.3864916 -0.45743236
0.036336992 0.33022654 0.104181916 0.05480532 0.33181337 -0.28330648 -0.3821667 0.13553588
-0.3134649 0.12304036 -0.20627204 -0.06935977 0.11555422 0.22829983 0.20806633 0.06543114
-0.014508764 0.16160248 0.117680326 -0.29971275 -0.013191103 -0.06542866 0.08350328 0.25101945
0.047074623 -0.028542658 0.050062794 0.017216057 -0.22866678 -0.055570338 -0.3338884 0.04692238
0.23142606 0.026434092 -0.31399408 0.15401171 0.34272996 0.043373995 -0.04617811 0.13794191
-0.19571553 0.44026998 0.32533064 -0.15700658 -0.18172006 -0.27843902 0.0016015731 -0.16216134
0.12304343 -0.060157157 -0.056541584 0.039956234 0.058785174 -0.1113583 0.067885175 0.21688725
0.25577882 0.30869147 -0.25591576 -0.057645716 -0.036291588 0.11118941 0.08357088 0.3551641
-0.15344192 0.14838576 0.21153796 -0.27775046 0.040632825 0.021548314 0.305601 0.43836325
-0.16724338 -0.27042785 0.0033472632 0.21846707 -0.083217956 -0.21096386 -0.07685887 0.034752205
-0.026173042 0.011375309 -0.1015332 0.000104068116 0.18729857 -0.19499755 -0.014157607 0.005670362
0.16649209 0.05396424 -0.16677466 -0.09627527 -0.4044533 -0.15126035 -0.06387437 0.057848755
-0.17126377 -0.059745878 -0.09354192 -0.051566053 0.31947622 -0.33931008 -0.44829184 0.46346182
0.075848766 0.030854577 -0.082932055 0.20924218 0.44306037 0.36810535 -0.10812407 0.0144048855
0.034031674 -0.08059872 -0.18577337 0.26857525 0.22496161 0.29316092 -0.12844546 -0.037090223
-0.2091468 -0.028293885 0.07912539 0.09129895 -0.22356296 -0.1820718 0.35950264 0.031539563
-0.3136514 -0.2083754 -0.02739706 0.0014596763 -0.06259093 0.23437624 -0.0005099878 -0.08405101
0.18407674 0.29427767 -0.14542525 -0.21920426 0.0023036131 -0.18356952 0.06725332 -0.012638114
0.058853198 0.08832736 0.12632589 -0.030623635 -0.09785048 0.042289052 -0.016814435 -0.042543236
-0.09062499 -0.11209852 0.027500782 -0.002339661 0.007890502 -0.1280389 -0.1727863 -0.24398795
0.030479783 -0.109379984 0.1408922 0.11358208 -0.31823355 -0.062664084 0.2251115 -0.051835533
0.044613462 -0.13624193 -0.14216493 -0.1654905 0.03358284 -0.040727783 0.021400692 -0.00694337
-0.18316326 -0.033413187 -0.092688374 -0.08047047 0.22532934 -0.12282682 0.15291251 0.001404202
0.22481985 -0.057493486 -0.17469409 -0.051814537 -0.34223196 0.055704452 -0.2148424 -0.15969744
0.26284957 0.2501841 0.11474567 0.11193145 0.1879234 -0.12386978 -0.07933574 0.01988182
00000000: 3285 ef3d 3c37 a13e 9c64 4cbe f79c 34be
00000010: 742b ccbd 7fd1 a53d 8cbb 35be c01c 3fbe
00000020: e14e 6b3d c658 643e fb72 10bd c5f8 993c
00000030: e2e3 db3d 53be a63d 0a19 63be 2e3d 7ebe
00000040: becc 21be 8e0f 9e3d 6cc9 f6bb 66ea c83d
00000050: f31a c33d ce5b a93c 12a3 8ebd 0f2c 283e
00000060: bd32 36bd 6613 09be 112d 00bd b563 bd3e
00000070: e8e1 3fbd d626 0cbe 2d9e a23e c58d 0fbd
00000080: 9eec f2bb 1403 343e 4f4c 203d 630a f1bc
00000090: b7c4 4abe 5d9e f0bc 9429 1ebd f624 74bd
000000a0: 5ab8 35be b783 36be 6f4f 05be 3b29 d53e
000000b0: 028a 3a3e d3d1 17be caad 063d 138b 233d
000000c0: e41c b23e bbff 5e3e c030 d43d ea15 73be
000000d0: 631e 76be 1f98 f03c 3ae2 c5be 9334 eabe
000000e0: 19d6 143d 7413 a93e 545d d53d 8b7b 603d
000000f0: 71e3 a93e 8c0d 91be 5bab c3be ebc9 0a3e
00000100: 797e a0be 96fc fb3d fa38 53be 7f0c 8ebd
00000110: b1a7 ec3d 6ec7 693e 570f 553e c300 863d
00000120: 2bb6 6dbc 1f7b 253e 6202 f13d f373 99be
00000130: 7f1f 58bc 76ff 85bd c503 ab3d 9f85 803e
00000140: 52d1 403d 4bd2 e9bc a50e 4d3d b008 8d3c
00000150: a027 6abe b99d 63bd 6cf3 aabe ae31 403d
00000160: f4fa 6c3e 4f8c d83c d5c3 a0be 3fb5 1d3e
00000170: 4d7a af3e eea8 313d 4225 3dbd a540 0d3e
00000180: a769 48be 116b e13e bd91 a63e 55c6 20be
00000190: d314 3abe 8f8f 8ebe e0eb d13a 9f0d 26be
000001a0: 32fe fb3d 5a67 76bd 2698 67bd 26a9 233d
000001b0: b9c8 703d d20f e4bd 6207 8b3d b117 5e3e
000001c0: 71f5 823e cf0c 9e3e 6407 83be ea1d 6cbd
000001d0: 7da6 14bd 46b7 e33d 3627 ab3d 12d8 b53e
000001e0: e11f 1dbe 70f2 173e 689d 583e 4f35 8ebe
000001f0: 9b6e 263d 1786 b03c bc77 9c3e 2671 e03e
00000200: d941 2bbe 8575 8abe c25d 5b3b d5b5 5f3e
00000210: 2d6e aabd e906 58be 2f68 9dbd 5458 0e3d
00000220: d968 d6bc 815f 3a3c a3f0 cfbd 253f da38
00000230: 32cb 3f3e 70ad 47be 4ff5 67bc 72ce b93b
00000240: e77c 2a3e 9b09 5d3d fac6 2abe f82b c5bd
00000250: 8114 cfbe fee3 1abe 91d0 82bd d1f2 6c3d
00000260: c55f 2fbe 18b8 74bd e892 bfbd ed36 53bd
00000270: 6392 a33e 0dba adbe 8286 e5be de4a ed3e
00000280: 9956 9b3d bdc2 fc3c 48d8 a9bd 9543 563e
00000290: cfd8 e23e 4e78 bc3e 2770 ddbd 7802 6c3c
000002a0: cc64 0b3d f110 a5bd 603b 3ebe b282 893e
000002b0: 565c 663e 3019 963e 3587 03be ebeb 17bd
000002c0: 942a 56be 94c8 e7bc 7e0c a23d f2fa ba3d
000002d0: b0ed 64be 0871 3abe bb10 b83e a12f 013d
000002e0: eb96 a0be 5c60 55be cd6f e0bc 9c52 bf3a
000002f0: ac2f 80bd 5300 703e b4b0 05ba f022 acbd
00000300: 9d7e 3c3e 90ab 963e 5bea 14be 1577 60be
00000310: 37f8 163b a6f9 3bbe 1cbc 893d 1810 4fbc
00000320: 0d10 713d fae4 b43d 935b 013e 6bde fabc
00000330: d565 c8bd 4937 2d3d 6dbe 89bc d141 2ebd
00000340: 9899 b9bd e993 e5bd 5249 e13c ff54 19bb
00000350: 2a47 013c a11c 03be e4ee 30be fad7 79be
00000360: bdb0 f93c 9d02 e0bd 0b46 103e b99d e83d
00000370: 82ef a2be 0756 80bd a183 663e 7f51 54bd
00000380: 9bbc 363d 0183 0bbe af93 11be 5776 29be
00000390: 298e 093d 2dd2 26bd 8150 af3c 3685 e3bb
000003a0: 268f 3bbe 44dc 08bd 67d3 bdbd b4cd a4bd
000003b0: bcbc 663e a18c fbbd 1995 1c3e 330d b83a
000003c0: 2d37 663e 4a7e 6bbd 02e3 32be 7b3b 54bd
000003d0: 0739 afbe 5a2a 643d a5ff 5bbe ba87 23be
000003e0: 3894 863e 2118 803e c7ff ea3d 513c e53d
000003f0: fe6e 403e 70af fdbd c77a a2bd 33df a23c

weight_hh_l0 f4 [128, 32]
0.04417932 -0.1725906 0.08666211 0.1533864 0.20904733 0.0008974202 -0.024140995 -0.13341345
0.03929359 0.23181944 -0.027771316 0.26702994 -0.2487721 0.07270864 0.29252136 -0.06633113
-0.08239555 -0.0892062 -0.0017023559 -0.017497683 -0.32731712 -0.017880952 -0.11378767 -0.28858587
0.12525885 -0.20942104 0.12871775 0.3909567 0.16722125 0.10140664 0.09322453 -0.20636715
0.17901255 -0.30418727 0.18641095 -0.10996961 0.29168963 0.21923447 0.1104166 -0.26488778
0.11508047 0.039480813 -0.22756256 0.12276777 -0.41669852 0.112406574 0.12391189 -0.2554732
-0.16882122 0.17409515 -0.088034205 -0.12795979 -0.2246297 0.03812508 -0.22441632 -0.20283112
0.042199645 -0.19693612 -0.0032452682 0.057085007 -0.09641726 -0.04252214 0.26884872 -0.09400574
0.10914364 -0.10229991 -0.09901371 0.15264209 0.26882175 0.14539255 -0.18933633 -0.26930413
-0.07571338 0.20581105 -0.17025904 0.0811072 -0.0922713 -0.18314469 0.13661116 -0.20335305
0.047716063 -0.10017333 0.15845565 -0.16349384 0.06866213 0.040735144 0.10150635 0.15489294
0.16389278 0.030011468 0.10287377 0.15756711 0.11844823 0.08395563 -0.16239747 0.06599241
-0.041025814 0.043970417 0.14234278 0.1347465 -0.028714744 0.04265041 -0.052863933 -0.023705274
-0.083443694 0.03796099 -0.23955521 -0.092075504 -0.21506508 -0.23488612 -0.08728749 -0.05696949
-0.13669196 0.15242939 -0.12296845 -0.10004748 -0.19813536 0.18227287 0.07316037 -0.13319118
-0.09182713 -0.086610414 -0.042627778 0.26008385 -0.14430244 0.21560192 0.20095903 -0.025023758
0.12285921 -0.426384 0.6554369 -0.1262797 0.18697496 0.17965585 0.37541047 -0.19833136
0.6275593 -0.12451125 -0.80721384 0.3593163 -0.17633396 -0.16346344 -0.65776044 0.11250039
-0.72153825 0.15869965 0.47803608 -0.9621137 -0.06440304 0.84789956 0.060938884 -0.5407132
-0.122175165 -0.534595 0.43867058 -0.7615427 -0.58076996 0.058694333 0.4741818 0.16548657
0.16232046 0.02382572 0.105524495 -0.15511811 -0.041812003 0.015735485 0.025381237 -0.2936952
-0.23056139 0.11146261 0.05623279 -0.12790515 -0.2895432 0.025709841 0.015412488 -0.18412647
-0.10501605 0.17879923 -0.26745152 0.17476523 -0.06438469 -0.099488564 -0.070776284 -0.105917424
-0.0992197 -0.18356913 0.22412726 0.23527762 0.15595226 0.19092327 0.13744317 -0.03345687
0.1461268 0.054277528 -0.11028444 0.17398115 0.12495937 0.014485879 0.07259337 -0.39730608
-0.19238402 0.12900475 -0.13495348 -0.016240094 -0.13774146 0.15520316 0.045994148 -0.040792126
-0.14041886 -0.082157835 -0.070720255 -0.120179005 -0.11654761 0.21369532 0.12849018 -0.08176059
-0.22110553 -0.010770453 0.25246322 0.11212371 -0.14709131 0.20221649 -0.1004533 -0.03145305
0.15606715 -0.12864003 0.06805732 0.12986414 0.035094935 0.082174145 0.22045195 -0.08856154
-0.097807124 -0.15506953 -0.12961902 -0.19985309 0.19992912 -0.01996079 0.20500794 0.15710445
0.029948933 -0.04206132 -0.19596528 0.06531089 -0.2124806 0.14864455 -0.03325547 -0.2786748
-0.057690516 0.14125702 0.22464883 0.17891401 0.2318269 0.15351579 0.020428132 0.043916967
00000000: 60f5 343d 97bb 30be e87b b13d 5311 1d3e
00000010: 8110 563e da40 6b3a 56c3 c5bc 899d 08be
00000020: 51f2 203d 1362 6d3e ac80 e3bc 26b8 883e
00000030: 1dbe 7ebe 44e8 943d 5cc5 953e 9ed8 87bd
00000040: 00bf a8bd bdb1 b6bd 9621 dfba 4d57 8fbc
00000050: 1c96 a7be 137b 92bc 8309 e9bd 87c1 93be
00000060: db43 003e 7872 56be 96ce 033e 7a2b c83e
00000070: 0c3c 2b3e 49ae cf3d 81ec be3d e951 53be
00000080: 114f 373e 6fbe 9bbe 83e2 3e3e bf37 e1bd
00000090: 5858 953e 007f 603e 1922 e23d 5f9f 87be
000000a0: 4faf eb3d a2b6 213d 2906 69be ab6d fb3d
000000b0: 8259 d5be 6b35 e63d 84c5 fd3d 62cd 82be
000000c0: 78df 2cbe 0046 323e 474b b4bd e407 03be
000000d0: 5405 66be 0b29 1c3d 64cd 65be f6b2 4fbe
000000e0: 89d9 2c3d 9fa9 49be 91ae 54bb f8d1 693d
000000f0: 6a76 c5bd b22b 2ebd 8aa6 893e 1586 c0bd
00000100: b386 df3d 9d82 d1bd b3c7 cabd 354e 1c3e
00000110: 01a3 893e c9e1 143e 62e1 41be 3be2 89be
00000120: 9e0f 9bbd 22c0 523e 6358 2ebe 881b a63d
00000130: bcf8 bcbd 488a 3bbe cce3 0b3e c83b 50be
00000140: eb71 433d ad27 cdbd 3342 223e ee6a 27be
00000150: bb9e 8c3d e5d9 263d 90e2 cf3d 419c 1e3e
00000160: 82d3 273e 9cda f53c 7caf d23d 4659 213e
00000170: fc94 f23d eef0 ab3d 864b 26be 0727 873d
00000180: af0a 28bd 531a 343d 4ec2 113e fdfa 093e
00000190: 2f3b ebbc 32b2 2e3d da87 58bd 9031 c2bc
000001a0: 87e4 aabd fc7c 1b3d f64d 75be 1592 bcbd
000001b0: 053a 5cbe fd85 70be c9c3 b2bd d758 69bd
000001c0: faf8 0bbe 7316 1c3e e2d6 fbbd b1e5 ccbd
000001d0: ffe3 4abe bda5 3a3e 1bd5 953d 4563 08be
000001e0: dd0f bcbd cd60 b1bd 779a 2ebd b629 853e
000001f0: 05c4 13be c0c6 5c3e 34c8 4d3e a0fe ccbc
00000200: 9c9d fb3d 014f dabe b6ca 273f 774f 01be
00000210: 5d76 3f3e b4f7 373e cd35 c03e 6017 4bbe
00000220: baa7 203f c1ff febd 91a5 4ebf 4ef8 b73e
00000230: e490 34be f662 27be fd62 28bf 9b66 e63d
00000240: bbb6 38bf 2982 223e 25c1 f43e 154d 76bf
00000250: bee5 83bd f20f 593f 0d9b 793d 2e6c 0abf
00000260: f936 fabd 38db 08bf 6e99 e03e 76f4 42bf
00000270: 57ad 14bf 7869 703d f5c7 f23e 5075 293e
00000280: 5637 263e 282e c33c 3a1d d83d 48d7 1ebe
00000290: 1043 2bbd b4e7 803c 50ec cf3c 385f 96be
000002a0: 4918 6cbe 8246 e43d 5b54 663d 91f9 02be
000002b0: 023f 94be 729d d23c a984 7c3c a68b 3cbe
000002c0: a812 d7bd 2517 373e 68ef 88be a8f5 323e
000002d0: 1fdc 83bd a9c0 cbbd 28f3 90bd 3ceb d8bd
000002e0: b333 cbbd 8cf9 3bbe 9e81 653e 9eec 703e
000002f0: f3b1 1f3e 6481 433e e7bd 0c3e 120a 09bd
00000300: 44a2 153e 1d52 5e3d cfdc e1bd 1d28 323e
00000310: b3ea ff3d 2e56 6d3c d5ab 943d b46b cbbe
00000320: 5100 45be d219 043e 3f31 0abe f209 85bc
00000330: 190c 0dbe 94ed 1e3e 5c64 3c3d a515 27bd
00000340: f6c9 0fbe 5e42 a8bd c8d5 90bd 6920 f6bd
00000350: 83b0 eebd f2d2 5a3e ee92 033e 1972 a7bd
00000360: 7d69 62be 8e76 30bc dc42 813e 1ea1 e53d
00000370: 1b9f 16be d711 4f3e 76ba cdbd ead4 00bd
00000380: 11d0 1f3e 36ba 03be a361 8b3d 1bfb 043e
00000390: b5bf 0f3d eb4a a83d 28be 613e c15f b5bd
000003a0: 1a4f c8bd 8cca 1ebe d9ba 04be 4aa6 4cbe
000003b0: 38ba 4c3e d084 a3bc 9aed 513e fddf 203e
000003c0: 7757 f53c 7e48 2cbd 1fab 48be b7c1 853d
000003d0: 8494 59be 4736 183e e336 08bd 77ae 8ebe
000003e0: e44c 6cbd aea5 103e 580a 663e 3c35 373e
000003f0: 0864 6d3e 3e33 1d3e e658 a73c 47e2 333d

bias_ih_l0 f4 [128]
0.10409005 0.20260425 0.104099035 0.18907551 0.41978762 0.3239782 0.13417807 0.05102284
0.097112805 0.2282065 0.36312667 0.28671268 0.59563226 0.20933253 0.14970218 0.5755384
0.15045746 0.28120908 0.011561205 0.17289962 0.6196153 0.1154065 0.44270086 0.08847616
0.17829591 0.22538927 0.17931125 0.09767014 -0.03153389 0.20436788 0.028848015 0.009822799
-0.0069789165 -0.3694858 -0.237048 -0.10309962 -0.72509176 -0.18592365 -0.29689088 -0.34485134
-0.18463898 -0.25659993 -0.1475155 -0.034522768 -0.32624182 -0.15226166 -0.0014292591 -0.91705436
-0.063479155 -0.120609984 -0.10009894 0.08394104 -0.653205 -0.0865677 -0.29242456 -0.05887481
-0.041355647 0.009553155 -0.06464025 0.13301606 -0.07500589 -0.5335467 -0.24167162 -0.27432147
0.14426659 0.12731077 -0.050972182 0.032437213 -0.11468237 0.007260368 0.119422294 -0.05791278
0.0027832952 0.060996745 -0.08907795 0.023756655 -0.12469553 -0.034521777 -0.08922087 -0.082364775
-0.083638646 -0.122071765 0.117239155 -0.09520662 0.034267575 0.08835712 0.11258367 -0.13962245
0.12239595 -0.07426119 0.039475124 -0.18846238 -0.0781512 0.12034122 0.03751656 -0.0382236
0.31328213 0.16978852 0.15116484 0.23407021 0.50448436 0.27454188 0.16701996 0.09359732
-0.012806802 0.2873861 0.14731498 0.2254793 0.5185642 0.17785874 0.18034886 0.70778644
0.3143824 0.19405091 0.107057 0.05765496 0.69970846 0.13402604 0.40113354 0.13689093
-0.028917713 0.25899312 0.3609587 0.025144389 0.1147653 0.40326846 0.09808512 -0.024306573
00000000: 2a2d d53d 7d77 4f3e e031 d53d 039d 413e
00000010: 67ee d63e 78e0 a53e fa65 093e 53fd 503d
00000020: 14e3 c63d f7ae 693e bdeb b93e 01cc 923e
00000030: 5b7b 183f 445b 563e 874b 193e 7c56 133f
00000040: 8511 1a3e a3fa 8f3e 356b 3d3c 990c 313e
00000050: 1c9f 1e3f 3e5a ec3d b0a9 e23e fd32 b53d
00000060: 3493 363e 72cc 663e 5e9d 373e 4807 c83d
00000070: ae29 01bd d045 513e ac52 ec3c ceef 203c
00000080: 65af e4bb 3e2d bdbe b6bc 72be e525 d3bd
00000090: 9d9f 39bf c562 3ebe 1502 98be 5b90 b0be
000000a0: 0012 3dbe 1161 83be 4e0e 17be bf67 0dbd
000000b0: 2b09 a7be 7bea 1bbe fa55 bbba 13c4 6abf
000000c0: 5c01 82bd 5e02 f7bd ac00 cdbd 48e9 ab3d
000000d0: 7138 27bf 684a b1bd acb8 95be b626 71bd
000000e0: 8a64 29bd d684 1c3c 1b62 84bd 5d35 083e
000000f0: b09c 99bd 8496 08bf c478 77be dd73 8cbe
00000100: 9fba 133e c15d 023e 35c8 50bd e2dc 043d
00000110: 97de eabd 62e8 ed3b ad93 f43d f435 6dbd
00000120: f267 363b b9d7 793d 806e b6bd 519d c23c
00000130: 5f60 ffbd b566 0dbd 6eb9 b6bd ddae a8bd
00000140: bd4a abbd c300 fabd 151b f03d b0fb c2bd
00000150: 285c 0c3d 94f4 b43d 4492 e63d 30f9 0ebe
00000160: baaa fa3d 4016 98bd abb0 213d 48fc 40be
00000170: bd0d a0bd 7575 f63d f7aa 193d 5990 1cbd
00000180: 8466 a03e 0bdd 2d3e f5ca 1a3e 1ab0 6f3e
00000190: e325 013f c190 8c3e 4807 2b3e f4af bf3d
000001a0: 9fd3 51bc 4524 933e bdd9 163e 0ce4 663e
000001b0: a0c0 043f 9a20 363e 5fad 383e 7e31 353f
000001c0: bbf6 a03e 48b5 463e b340 db3d 9b27 6c3d
000001d0: 1820 333f 1f3e 093e 6061 cd3e 232d 0c3e
000001e0: d7e4 ecbc bf9a 843e 94cf b83e 9bfb cd3c
000001f0: 120a eb3d 3479 ce3e dae0 c83d 941e c7bc

bias_hh_l0 f4 [128]
0.05979988 0.21571176 -0.029691389 0.35055804 0.5635643 0.08007764 0.032528527 0.22858737
0.1822509 0.39310324 0.10667374 0.16188434 0.35733888 0.5036022 0.19026576 0.7359587
0.063490614 0.27376926 -0.08412919 0.12862219 0.7672922 0.29612377 0.47122642 0.15277427
0.079956986 0.2102607 0.25286588 0.0060881036 -0.1131599 0.19502485 0.09836737 0.060013782
-0.0957383 -0.34339643 0.00064056483 -0.30924326 -0.4167261 -0.023080405 -0.15594919 -0.48967752
-0.11175332 -0.31282228 -0.12858112 -0.09571159 -0.32902414 -0.33169794 0.10452563 -0.86694187
-0.19427754 -0.1885342 -0.071746 -0.097344756 -0.509299 -0.24936447 -0.51549035 -0.08686236
-0.24493778 -0.2990752 -0.3181771 0.07232341 -0.103226915 -0.29963097 -0.10958669 0.027069679
-0.13899238 -0.14146248 0.11910676 -0.023193946 0.14197834 0.039581437 -0.066720165 -0.011022027
0.14404188 -0.032621577 0.038755365 0.04105017 0.056017812 0.031922534 -0.1669255 0.063893564
0.009302644 0.120318145 0.042686075 -0.2217886 -0.12270738 0.027904097 -0.13101175 0.108455844
-0.11610085 0.031379208 0.04244218 -0.07361639 -0.066696405 -0.15830308 0.01296749 0.06577223
0.19824286 0.30411452 -0.0049353563 0.461383 0.6030984 0.17793223 0.3655999 0.40418997
-0.066807605 0.30973694 0.38858426 0.3023718 0.5307254 0.37104103 0.1002039 0.71565026
0.33287466 0.057259202 0.21215257 -0.06583469 0.6627566 0.32512078 0.5529091 0.26948032
0.15891112 0.23464051 0.41287354 0.0313478 -0.014574841 0.3977262 0.125103 0.17643179
00000000: b8f0 743d 8be3 5c3e 5b3b f3bc 587c b33e
00000010: c045 103f bfff a33d a23c 053d cf12 6a3e
00000020: fb9f 3a3e d444 c93e c377 da3d 02c5 253e
00000030: 1ff5 b63e 13ec 003f 07d5 423e ca67 3c3f
00000040: 5e07 823d 7c2b 8c3e ed4b acbd 89b5 033e
00000050: 436d 443f 899d 973e 9744 f13e dc70 1c3e
00000060: 7dc0 a33d 954e 573e a377 813e b77e c73b
00000070: 61c0 e7bd 98b4 473e d574 c93d 03d1 753d
00000080: 7112 c4bd a8d1 afbe 94eb 273a 2255 9ebe
00000090: 205d d5be 1e13 bdbc 25b1 1fbe 03b7 fabe
000000a0: edde e4bd 3e2a a0be c5aa 03be 7004 c4bd
000000b0: da75 a8be 50d4 a9be 8911 d63d e7ef 5dbf
000000c0: b1f0 46be 1c0f 41be 91ef 92bd b05c c7bd
000000d0: 6b61 02bf 6659 7fbe 2df7 03bf e5e4 b1bd
000000e0: f8d0 7abe 6220 99be 1ce8 a2be 4c1e 943d
000000f0: a268 d3bd 3b69 99be fd6e e0bd 3bc1 dd3c
00000100: 0554 0ebe 8adb 10be 3fee f33d 3b01 bebc
00000110: c562 113e 2520 223d 95a4 88bd bb95 34bc
00000120: b77f 133e 349e 05bd f2bd 1e3d 3924 283d
00000130: ef72 653d 34c1 023d 85ee 2abe a1da 823d
00000140: 1e6a 183c 5c69 f63d 98d7 2e3d 8d1c 63be
00000150: 024e fbbd 2297 e43c f227 06be 191e de3d
00000160: 48c6 edbd 7c87 003d dad7 2d3d 31c4 96bd
00000170: 2098 88bd 341a 22be 9875 543c 97b3 863d
00000180: 2d00 4b3e e6b4 9b3e c5b8 a1bb 643a ec3e
00000190: a864 1a3f de33 363e e92f bb3e fdf1 ce3e
000001a0: 6dd2 88bd d795 9e3e 84f4 c63e 7ad0 9a3e
000001b0: 9fdd 073f 17f9 bd3e b437 cd3d db34 373f
000001c0: 8c6e aa3e a088 6a3d 863e 593e 57d4 86bd
000001d0: 6baa 293f 3b76 a63e 738b 0d3f 53f9 893e
000001e0: 99b9 223e 9a45 703e 2964 d33e 8d66 003d
000001f0: 50cb 6ebc c5a2 cb3e 001b 003e 89aa 343e

weight_ih_l0 f4 [128, 2]
0.020665314 0.117886476 -0.0940685 0.05387358 0.055396535 0.0065244366 -0.08962443 -0.014943567
-0.0639906 -0.051454686 -0.045361035 0.07745799 -0.033592887 -0.036799308 -0.04714741 -0.055708006
0.12795965 -0.043643493 0.03954438 0.0016567062 -0.010215153 0.08385005 0.00037131514 -0.08467477
-0.07074564 0.04878266 0.08125734 -0.070487194 -0.10379847 0.025774186 -0.04936974 0.07421852
-0.046958614 0.08805638 0.096741214 0.14694378 0.012820143 0.018256515 0.039891608 0.038719475
0.14017728 -0.05091277 -0.09110486 0.093658015 -0.0006387577 0.07448805 -0.20936666 0.021083212
0.09472718 -0.015851539 -0.11731109 0.0010946477 0.1137126 0.1360429 -0.097068034 0.06006195
-0.06875708 0.09982928 -0.013715918 0.053210597 0.13456559 -0.14704193 -0.11968456 -0.0023647458
-0.08664425 -0.214097 0.010275071 -0.059205964 0.0033785086 -0.11678891 0.15102561 0.1071532
0.25559503 -0.05779175 0.027627666 -0.012045697 -0.13187633 0.1906622 0.16344823 0.10696053
-0.11453051 -0.08639418 0.19278683 -0.067509755 0.023507841 0.0055678086 -0.03501661 0.049430337
-0.1463596 0.0846146 -0.013256403 0.013043302 0.020563493 0.13736008 0.19773066 -0.0018303178
0.104027234 0.008838249 -0.052372947 -0.17298213 -0.05566969 0.13472621 -0.184028 -0.03965136
-0.15350704 -0.1141751 0.09039045 0.023388777 0.0932996 0.084633 -0.19991907 -0.1498864
-0.060403913 -0.037515882 -0.025735356 -0.09746495 -0.06825201 0.0530796 -0.05903878 0.023065494
0.19230008 -0.08865261 -0.00028367515 0.13477114 0.19555898 -0.09641987 -0.110131085 -0.13180299
0.04494946 0.15396008 -0.02773152 -0.177046 -0.040682454 -0.12675683 -0.13178441 -0.16293253
-0.17681073 0.027808724 0.097214974 -0.1491272 -0.031389065 -0.17037365 0.13899802 -0.0772703
0.17425227 0.052903365 -0.10670164 0.20094162 0.10370699 0.18431923 -0.14880505 0.16199307
-0.15535603 -0.08057224 0.1255134 0.09932701 -0.030837359 -0.2128517 -0.20798564 0.2046207
0.13178462 -0.049587235 -0.171709 0.11942851 -0.08976811 0.13726158 0.111999266 0.071518846
-0.095308885 -0.0747548 -0.18043987 0.052426405 -0.057936333 -0.19531009 0.1940613 0.03360814
0.15836836 0.058736864 0.012435946 0.27177015 -0.16458246 0.07356482 0.17419325 -0.1048969
0.17310628 0.08447667 0.08759462 0.2947407 0.19016065 -0.062290885 -0.16539282 -0.09405913
-0.18828423 -0.030232012 0.22220425 0.12574455 -0.07840597 -0.15884335 -0.0036166487 -0.054568406
0.015776549 -0.21935564 -0.018544037 0.03778591 -0.07776696 -0.06488489 -0.0600223 -0.11278654
0.026011765 0.113357216 0.008752261 -0.25236166 0.16145626 0.10539121 0.12410746 -0.15491551
0.10898594 0.13739543 -0.05241908 0.18367638 0.12907055 0.25281906 -0.062101364 0.08478708
-0.01808572 0.033108633 -0.09585948 -0.11597711 -0.25075018 -0.015427043 0.03777822 0.054984614
0.016227111 -0.1212848 -0.10901184 0.026397303 0.2030488 0.077729516 -0.25256884 -0.07526921
0.1597599 0.053681705 -0.12746197 -0.25712636 0.005313168 -0.06863922 0.016427435 0.17524652
-0.05103006 0.030719398 0.108327776 0.06488773 0.1645551 -0.007896319 -0.013040674 -0.16064967
00000000: 4e4a a93c 776e f13d fca6 c0bd 8baa 5c3d
00000010: 7ae7 623d f1ca d53b 038d b7bd ddd5 74bc
00000020: 810d 83bd 26c2 52bd 7ecc 39bd 4ba2 9e3d
00000030: b298 09bd dfba 16bd a51d 41bd 142e 64bd
00000040: db07 033e 85c3 32bd 4af9 213d d625 d93a
00000050: 755d 27bc 93b9 ab3d 13ad c239 f769 adbd
00000060: 17e3 90bd 54d0 473d 406a a63d 975b 90bd
00000070: 4b94 d4bd 6324 d33c ed37 4abd e1ff 973d
00000080: ad57 40bd e756 b43d 4220 c63d 6e78 163e
00000090: 940b 523c b08e 953c 6265 233d 5098 1e3d
000000a0: a28a 0f3e e989 50bd 2f95 babd c6cf bf3d
000000b0: 4e72 27ba 318d 983d 3764 56be b3b6 ac3c
000000c0: 5300 c23d 16db 81bc cc40 f0bd 487a 8f3a
000000d0: 27e2 e83d d44e 0b3e 9bcb c6bd 8503 763d
000000e0: 83d0 8cbd 4b73 cc3d bbb8 60bc 5bf3 593d
000000f0: 90cb 093e 2992 16be 2e1d f5bd daf9 1abb
00000100: 8a72 b1bd 3e3c 5bbe c558 283c f481 72bd
00000110: f869 5d3b 062f efbd 75a6 1a3e 2373 db3d
00000120: 5add 823e 0bb7 6cbd 6a53 e23c 515b 45bc
00000130: 970a 07be f43c 433e f95e 273e 1f0e db3d
00000140: f98e eabd 6fef b0bd e969 453e 8e42 8abd
00000150: 8493 c03c 2a72 b63b 946d 0fbd 7777 4a3d
00000160: 4adf 15be 6b4a ad3d 6231 59bc 93b3 553c
00000170: c574 a83c 1fa8 0c3e e879 4a3e 46e7 efba
00000180: 3b0c d53d 4ece 103c 0485 56bd 3a22 31be
00000190: e705 64bd abf5 093e d671 3cbe 7769 22bd
000001a0: f330 1dbe a3d4 e9bd a11e b93d d299 bf3c
000001b0: dc13 bf3d 1154 ad3d 96b7 4cbe d27b 19be
000001c0: 186a 77bd 41aa 19bd f4d2 d2bc b49b c7bd
000001d0: b6c7 8bbd ff69 593d a6d2 71bd d9f3 bc3c
000001e0: 50ea 443e 808f b5bd 3cba 94b9 7201 0a3e
000001f0: 9d40 483e c877 c5bd 688c e1bd 5df7 06be
00000200: ed1c 383d b6a7 1d3e 362d e3bc 8c4b 35be
00000210: a5a2 26bd 8bcc 01be 7ef2 06be c9d7 26be
00000220: df0d 35be 1fcf e33c a518 c73d cdb4 18be
00000230: d291 00bd 6e76 2ebe 7f55 0e3e e43f 9ebd
00000240: 306f 323e 33b1 583d 6486 dabd a4c3 4d3e
00000250: 5564 d43d 2ebe 3c3e 5a60 18be 83e1 253e
00000260: a715 1fbe 0f03 a5bd 9686 003e f66b cb3d
00000270: a19e fcbc ccf5 59be 30fa 54be 1788 513e
00000280: 8cf2 063e fc1b 4bbd 7cd4 2fbe ef96 f43d
00000290: 58d8 b7bd 4d8e 0c3e df5f e53d 7978 923d
000002a0: 4e31 c3bd 0b19 99bd 3bc5 38be 12bd 563d
000002b0: a64e 6dbd 5eff 47be 01b8 463e b0a8 093d
000002c0: 512b 223e 1196 703d 23c0 4b3c 7525 8b3e
000002d0: 4e88 28be 27a9 963d b75f 323e 30d4 d6bd
000002e0: c642 313e 1b02 ad3d cf64 b33d 41e8 963e
000002f0: 79b9 423e ba24 7fbd bc5c 29be 13a2 c0bd
00000300: 95cd 40be 20a9 f7bc 8389 633e 2ec3 003e
00000310: 4f93 a0bd d5a7 22be 4c05 6dbb 1f83 5fbd
00000320: d23d 813c c49e 60be aae9 97bc 66c5 1a3d
00000330: 4944 9fbd 5fe2 84bd f1d9 75bd a1fc e6bd
00000340: a016 d53c d427 e83d a565 0f3c 8c35 81be
00000350: ca54 253e 59d7 d73d 0d2c fe3d 2ca2 1ebe
00000360: 0534 df3d 63b1 0c3e 64b5 56bd a915 3c3e
00000370: 122b 043e 8071 813e 005e 7ebd d9a4 ad3d
00000380: 8128 94bc eb9c 073d fa51 c4bd 6885 edbd
00000390: 5462 80be b5c1 7cbc 56bd 1a3d 8c37 613d
000003a0: b8ee 843c 2a64 f8bd 9941 dfbd 283f d83c
000003b0: 06ec 4f3e a730 9f3d b450 81be be26 9abd
000003c0: 1998 233e 59e1 5b3d 6485 02be 11a6 83be
000003d0: 151a ae3b b892 8cbd d492 863c d373 333e
000003e0: e504 51bd 3fa7 fb3c f4da dd3d dce3 843d
000003f0: 2281 283e 905f 01bc 8da8 55bc 5981 24be

weight_hh_l0 f4 [128, 32]
-0.12868743 -0.09346242 -0.026504336 0.21867603 -0.088969626 0.06115302 -0.080601715 -0.09613682
-0.11517301 -0.08356392 0.12352615 -0.01264107 0.15257764 0.07724221 -0.20670927 0.042062715
0.101257585 -0.13356073 0.024268297 0.10761991 0.13556774 -0.024254266 -0.09827744 -0.08452124
-0.20610054 -0.041512642 -0.13411647 0.06608039 0.029333437 -0.20858575 -0.09752089 0.33182922
-0.08769775 -0.17770542 0.11040605 0.008690795 -0.07563416 0.04146606 -0.1871293 -0.015399207
-0.0218645 0.016603917 -0.12254286 -0.22228587 0.06434764 0.20734222 -0.08131368 0.09587703
0.054904386 -0.098241895 0.13174887 0.14681445 0.2720751 -0.10326123 0.11323936 0.14378424
0.08770778 -0.28978103 0.017343428 -0.23507747 -0.02698004 0.10592766 0.03266393 0.14464676
-0.11095594 -0.102488466 0.10455578 0.03236962 -0.070067964 -0.14820267 -0.11187525 -0.14647828
-0.19895478 -0.07912149 -0.11112523 0.027195664 0.058116917 0.18731114 -0.061398488 0.07194929
-0.045400765 0.039170273 -0.16799732 -0.22368452 -0.03548052 0.01335796 -0.16373302 0.005083299
-0.1344831 -0.19282827 -0.056802303 -0.19253533 -0.21428221 0.18203318 -0.0014071899 -0.042226665
0.08524784 -0.101176165 0.16983247 0.017722698 0.005849557 0.10224063 0.18564156 0.06382588
0.1614074 0.13051343 0.058969717 -0.02398965 -0.14331923 0.012004929 -0.13802318 -0.18493658
-0.17270073 -0.088005364 -0.1767465 -0.1154266 0.036347322 0.07381828 -0.10863455 -0.104587816
0.065505385 0.024490448 -0.12793824 -0.010884483 0.0017975313 -0.011010285 0.15893845 -0.02303186
0.08092508 0.08295226 -0.0014750327 0.046720393 0.020157574 0.17599912 0.11340442 -0.0851728
0.12350275 0.10844373 -0.059304353 -0.11566101 0.0053085345 0.19527826 0.09694946 0.07077038
-0.17569968 0.035537858 0.09481892 0.04677454 0.089855686 0.1663513 0.044141315 -0.19880658
-0.0637583 0.07513441 -0.20224594 -0.0066760452 0.0046136524 0.15367812 0.17366095 -0.028199611
-0.027440663 -0.183608 0.015508946 -0.0061078416 -0.16363333 0.15496898 -0.098970786 0.19873641
0.054292854 -0.19282712 -0.2217255 -0.0137112485 0.13226365 -0.120561294 0.0035008616 -0.0562085
-0.17424944 0.048923135 -0.02717526 0.1090644 -0.084172025 0.008331981 -0.04231883 0.028541755
0.1267973 -0.0045136623 0.15219516 -0.17805892 -0.026575083 -0.16972385 0.24421816 0.019931763
0.015044163 -0.03541523 0.15956223 0.028605947 0.029771227 -0.12238397 -0.16747402 0.17431396
-0.09626943 -0.27827615 0.022611635 -0.09188416 -0.07829956 0.2249082 -0.22632161 -0.26398134
-0.019742642 -0.16918716 0.017739147 -0.010960427 0.2817962 0.034590468 -0.1606975 0.21181554
0.053820085 -0.18268348 -0.16650961 0.07547178 0.12533616 -0.13986866 -0.06262454 0.09633672
0.15555888 0.10148435 -0.020015715 0.05808904 0.04433443 -0.20480001 0.051281046 0.041864328
0.012464127 -0.18771525 -0.10705841 0.12732537 0.20203835 -0.085889906 0.13255787 0.11548743
-0.0200992 -0.050073307 -0.06594766 0.13278584 -0.08305618 0.08208271 -0.120079406 -0.20507999
0.08028918 -0.055571847 0.0625604 0.010411117 -0.074793346 0.051640786 0.11203069 0.008252405
00000000: a3c6 03be 3a69 bfbd 9f1f d9bc 9cec 5f3e
00000010: b535 b6bd 977b 7a3d 8312 a5bd 62e3 c4bd
00000020: d4df ebbd 8f23 abbd 47fb fc3d 7e1c 4fbc
00000030: 503d 1c3e 2a31 9e3d 98ab 53be f449 2c3d
00000040: 2360 cf3d 25c4 08be 4fce c63c d467 dc3d
00000050: 45d2 0a3e e2b0 c6bc af45 c9bd 7919 adbd
00000060: 050c 53be 2909 2abd d455 09be 2855 873d
00000070: ad4c f03c 8197 55be 08b9 c7bd 85e5 a93e
00000080: e19a b3bd 69f8 35be 911c e23d d663 0e3c
00000090: 15e6 9abd 51d8 293d d39e 3fbe f54c 7cbc
000000a0: 2e1d b3bc f004 883c c0f7 fabd e89e 63be
000000b0: b2c8 833d 8551 543e c987 a6bd 2d5b c43d
000000c0: 6ce3 603d 0c33 c9bd 2de9 063e 8756 163e
000000d0: 6d4d 8b3e a07a d3bd 0aea e73d 2d3c 133e
000000e0: 23a0 b33d 2e5e 94be ce13 8e3c 26b8 70be
000000f0: 3f05 ddbc 9af0 d83d 9dca 053d 481e 143e
00000100: de3c e3bd 79e5 d1bd 5721 d63d 0296 043d
00000110: cb7f 8fbd 71c2 17be da1e e5bd 67fe 15be
00000120: cdba 4bbe 730a a2bd a095 e3bd 71c9 de3c
00000130: 010c 6e3d 7ece 3f3e fb7c 7bbd 265a 933d
00000140: 27f6 39bd 0271 203d 7d07 2cbe 8e0d 65be
00000150: 0654 11bd 58db 5a3c a1a9 27be cd91 a63b
00000160: f0b5 09be c674 45be 88a9 68bd fb27 45be
00000170: cc6c 5bbe e866 3a3e 7571 b8ba def5 2cbd
00000180: 6b96 ae3d 7335 cfbd 90e8 2d3e 312f 913c
00000190: a4ad bf3b 8963 d13d d218 3e3e 25b7 823d
000001a0: fb47 253e 50a5 053e 3b8a 713d f185 c4bc
000001b0: 47c2 12be 52b0 443c f355 0dbe 0460 3dbe
000001c0: 76d8 30be 283c b4bd 09fd 34be c864 ecbd
000001d0: eee0 143d 0a2e 973d ca7b debd 2332 d6bd
000001e0: b027 863d 31a0 c83c 3e02 03be d554 32bc
000001f0: 249b eb3a 7b64 34bc c3c0 223e 50ad bcbc
00000200: 0cbc a53d e0e2 a93d e255 c1ba e25d 3f3d
00000210: 7f21 a53c 1d39 343e 9440 e83d 146f aebd
00000220: 03ef fc3d bf17 de3d 1fe9 72bd aedf ecbd
00000230: 37f3 ad3b 06f7 473e 708d c63d 10f0 903d
00000240: 9eea 33be 2590 113d 6c30 c23d a996 3f3d
00000250: 4206 b83d ff57 2a3e 86cd 343d f493 4bbe
00000260: b693 82bd 12e0 993d 8f19 4fbe bac2 dabb
00000270: 1f2e 973b cc5d 1d3e 2dd4 313e df02 e7bc
00000280: 3ecb e0bc bc03 3cbe 3c19 7e3c 4a24 c8bb
00000290: 7f8f 27be 30b0 1e3e 32b1 cabd 8f81 4b3e
000002a0: 2f62 5e3d 7974 45be 020c 63be 25a5 60bc
000002b0: 1f70 073e d7e8 f6bd b66e 653b e23a 66bd
000002c0: 726e 32be a063 483d a79e debc 285d df3d
000002d0: 6262 acbd dc82 083c 8256 2dbd 66d0 e93c
000002e0: 27d7 013e 58e7 93bb 0cd9 1b3e 1455 36be
000002f0: fdb3 d9bc 17cc 2dbe 5314 7a3e f047 a33c
00000300: cb7b 763c 8f0f 11bd 4864 233e 0557 ea3c
00000310: cae2 f33c 72a4 fabd 4f7e 2bbe 5c7f 323e
00000320: e828 c5bd 367a 8ebe 093c b93c c32d bcbd
00000330: 855b a0bd 564e 663e dac0 67be 9028 87be
00000340: 52bb a1bc 663f 2dbe b051 913c 5d93 33bc
00000350: 9747 903e bcae 0d3d e38d 24be 2ce6 583e
00000360: 7372 5c3d 6111 3bbe 7f81 2abe f390 9a3d
00000370: 1f58 003e bb39 0fbe 4b41 80bd 304c c53d
00000380: d44a 1f3e 07d7 cf3d fff7 a3bc c6ee 6d3d
00000390: 0598 353d 18b7 51be 130c 523d ee79 2b3d
000003a0: 5636 4c3c 6d38 40be 7141 dbbd 9561 023e
000003b0: 24e3 4e3e 0ce7 afbd 40bd 073e ac84 ec3d
000003c0: 14a7 a4bc ab19 4dbd 910f 87bd 03f9 073e
000003d0: 5c19 aabd fb1a a83d 31ec f5bd 7d00 52be
000003e0: a76e a43d 4e9f 63bd ab1f 803d 6493 2a3c
000003f0: 412d 99bd 4a85 533d 5970 e53d 1835 073c

bias_ih_l0 f4 [128]
-0.076600984 -0.10265221 0.05782029 0.10827366 0.033081796 0.09965194 0.13829184 -0.08947065
0.02497109 0.041014556 -0.14617531 -0.13811511 0.0045598075 0.1450683 -0.17081264 0.040798374
0.038990147 0.1174602 0.12637587 -0.07131595 0.13478099 -0.045349933 -0.14250618 -0.085428625
0.00034163462 -0.0035755388 0.047938224 0.010455896 0.11935904 0.08929547 0.11634353 -0.012330134
0.10911403 -0.09769873 -0.1380293 -0.09970172 -0.053912796 0.0801633 -0.0066525936 0.16011086
0.17002925 0.12454303 0.048412222 0.1756672 -0.12442989 0.13307421 0.01075009 -0.052440774
-0.11750185 0.21028785 0.09240255 0.17766377 0.037830688 0.10282051 -0.108188614 0.009853272
-0.037025794 0.10438525 0.03604036 0.19478083 -0.14881587 0.06503018 -0.03818934 -0.040868405
-0.12350025 0.051128205 0.166603 -0.19250874 -0.01689792 0.0536801 0.052193873 0.09296896
0.07742443 -0.07031487 0.09992502 0.07416179 0.0490555 0.032879546 0.10250828 -0.12196709
-0.16143994 -0.08480487 0.17076917 -0.06973253 0.039166387 -0.19217233 -0.11772725 0.16497803
-0.1442909 -0.021345463 0.1401209 -0.0012171599 0.029384157 -0.16904534 -0.10217585 0.043965485
0.0061296425 0.23168401 0.1145387 0.17848086 0.20248164 0.21893382 0.32608053 0.05943083
0.045972053 0.21888529 0.020170424 -0.07883095 -0.029181471 0.201872 0.07179299 0.0871235
0.115292184 -0.030581566 0.13712315 0.13425565 -0.023422942 0.16522534 -0.0038221239 -0.089338146
0.2169698 0.026105389 0.25885347 -0.03983285 -0.036906824 0.072699934 0.15440157 0.04173206
00000000: fae0 9cbd 523b d2bd f8d4 6c3d 95be dd3d
00000010: c780 073d 5116 cc3d 609c 0d3e 633c b7bd
00000020: 2c90 cc3c e1fe 273d fbae 15be 0c6e 0dbe
00000030: 706a 953b c98c 143e 82e9 2ebe 321c 273d
00000040: 22b4 1f3d f98e f03d ad68 013e 190e 92bd
00000050: 0704 0a3e dac0 39bd 24ed 11be 34f5 aebd
00000060: 6c1d b339 9653 6abb df5a 443d 354f 2b3c
00000070: 8372 f43d 8be0 b63d 8445 ee3d 5504 4abc
00000080: 2d77 df3d 4616 c8bd 8e57 0dbe 6a30 ccbd
00000090: aad3 5cbd a82c a43d 00fe d9bb 1af4 233e
000000a0: 261c 2e3e 6b10 ff3d e54b 463d 1ae2 333e
000000b0: 19d5 febd 9b44 083e 2521 303c 23cc 56bd
000000c0: cfa4 f0bd b355 573e 8c3d bd3d 7eed 353e
000000d0: 5af4 1a3d 8f93 d23d fe91 ddbd 9e6f 213c
000000e0: 5ca8 17bd efc7 d53d 0e9f 133d a074 473e
000000f0: 3063 18be 8b2e 853d 6d6c 1cbd a165 27bd
00000100: b3ed fcbd cf6b 513d fa99 2a3e 0321 45be
00000110: 826d 8abc aadf 5b3d 3ec9 553d 8366 be3d
00000120: b390 9e3d 3e01 90bd 7da5 cc3d 23e2 973d
00000130: 6cee 483d b4ac 063d dcef d13d e2c9 f9bd
00000140: 8350 25be 2dae adbd 1dde 2e3e eecf 8ebd
00000150: ef6c 203d d3c8 44be fc1a f1bd 00f0 283e
00000160: fec0 13be aedc aebc da7b 0f3e 1c89 9fba
00000170: 0bb7 f03c 391a 2dbe 9241 d1bd 2715 343d
00000180: 2bdb c83b 933e 6d3e 4493 ea3d b0c3 363e
00000190: 5957 4f3e 3030 603e 07f4 a63e be6d 733d
000001a0: 314d 3c3d 7723 603e 723c a53c 1f72 a1bd
000001b0: fb0d efbc 89b7 4e3e 3408 933d ce6d b23d
000001c0: 4f1e ec3d 3186 fabc 036a 0c3e 507a 093e
000001d0: 78e1 bfbc d530 293e 997c 7abb ebf6 b6bd
000001e0: 552d 5e3e f8da d53c 7188 843e c527 23bd
000001f0: 9c2b 17bd b4e3 943d 721b 1e3e 3def 2a3d

bias_hh_l0 f4 [128]
0.1524388 0.15683606 -0.0119918985 -0.0606573 0.12711656 0.18733266 -0.10832589 0.014613943
0.10364842 0.113145635 0.05888182 0.07063928 0.0051013217 0.15435375 0.058471534 0.09187366
-0.012056872 0.03833692 0.036132887 -0.1162776 0.13984568 0.06408454 0.15187792 -0.15890484
-0.10665641 -0.08673366 0.012180035 -0.085719146 0.14520162 0.11350428 -0.024471521 0.016641038
-0.02509411 0.12331522 -0.014104549 0.0047059134 -0.043500695 -0.08670255 -0.12975904 -0.12985945
-0.091614485 -0.054152496 -0.03291955 0.06991235 0.020114435 0.14616661 -0.14569385 -0.12636566
-0.050035864 -0.049809013 -0.052600518 -0.009519928 0.03023723 0.02594197 0.036648147 -0.13772035
-0.012590643 0.14928953 -0.053233463 -0.024174718 0.04963293 -0.12724166 -0.1577261 0.13608381
0.055788152 0.06907052 -0.02210961 -0.15933034 0.056598257 -0.14758195 -0.1520049 0.092299156
-0.1833048 0.15234464 0.02484599 0.18149057 0.010186842 0.10576154 0.07960917 -0.015195124
-0.07253963 0.08637096 -0.11243407 0.028316168 0.08613243 -0.15048385 0.013857377 0.10065107
-0.08013749 0.201191 -0.064078055 0.014919613 -0.119339556 -0.20770197 0.12285204 -0.13559909
0.270513 0.20765615 0.013944236 -0.08783568 0.029300997 0.23212971 0.25116917 0.1331555
0.08904537 0.2316107 -0.034599278 -0.058060016 -0.021300254 0.06103037 0.13753662 0.18920453
0.26338673 0.02780396 -0.08483032 0.119545855 -0.04059032 -0.02490563 0.11704132 0.19744147
0.09190499 0.15193747 0.047188696 0.14556581 0.23860937 0.13989128 0.079222925 0.10644209
00000000: eb18 1c3e a299 203e ab79 44bc ca73 78bd
00000010: d82a 023e 22d4 3f3e f7d9 ddbd 526f 6f3c
00000020: 9f45 d43d e6b8 e73d 102e 713d 54ab 903d
00000030: fd28 a73b e90e 1e3e d97f 6f3d 4228 bc3d
00000040: 308a 45bc 2d07 1d3d 1400 143d f322 eebd
00000050: b533 0f3e c13e 833d e385 1b3e f3b7 22be
00000060: ad6e dabd 6ba1 b1bd c58e 473c 858d afbd
00000070: bcaf 143e ef74 e83d 8078 c8bc c952 883c
00000080: 2a92 cdbc b18c fc3d c416 67bc 1034 9a3b
00000090: c92d 32bd 1b91 b1bd 8edf 04be e0f9 04be
000000a0: 60a0 bbbd 02cf 5dbd a6d6 06bd 352e 8f3d
000000b0: 07c7 a43c b3ac 153e c530 15be 0066 01be
000000c0: 68f2 4cbd 8904 4cbd a473 57bd 79f9 1bbc
000000d0: 11b4 f73c 4184 d43c 5e1c 163d 9006 0dbe
000000e0: fc48 4ebc 5bdf 183e 550b 5abd 0f0a c6bc
000000f0: e64b 4b3d a34b 02be f382 21be 8e59 0b3e
00000100: 1e82 643d d874 8d3d 361f b5bc 7e27 23be
00000110: 93d3 673d b91f 17be 2ca7 1bbe 5707 bd3d
00000120: 41b4 3bbe 3c00 1c3e d189 cb3c aad8 393e
00000130: b6e6 263c 8299 d83d 220a a33d f8f4 78bc
00000140: a88f 94bd 42e3 b03d d543 e6bd 4ff7 e73c
00000150: 3366 b03d 7018 1abe 0d0a 633c 2622 ce3d
00000160: 201f a4bd 0305 4e3e 5b3b 83bd 6471 743c
00000170: 4c68 f4bd d3af 54be da99 fb3d 7dda 0abe
00000180: ae80 8a3e d0a3 543e 5d76 643c 31e3 b3bd
00000190: a508 f03c 69b3 6d3e 3f99 803e ea59 083e
000001a0: 6b5d b63d 5b2b 6d3e f9b7 0dbd 57d0 6dbd
000001b0: df7d aebc fbfa 793d 66d6 0c3e d5be 413e
000001c0: a0da 863e 21c5 e33c 85bb adbd 75d4 f43d
000001d0: 0942 26bd e406 ccbc 5cb3 ef3d 192e 4a3e
000001e0: af38 bc3d 7f95 1b3e ef48 413d 340f 153e
000001f0: 0456 743e a93f 0f3e a13f a23d 4ffe d93d

weight_ih_l0_reverse f4 [128, 2]
-0.012654107 -0.21616665 0.15336525 -0.26799193 -0.22015466 -0.4918498 -0.023409877 -0.5844217
-0.15152718 -0.32310015 0.084318794 -0.45666343 0.17226739 0.20661 0.06278239 -0.35837418
0.072405405 -0.36111864 -0.13082363 0.31577244 -0.59181726 0.15743014 0.4964201 -0.13528584
-0.14106794 0.056447234 -0.36351967 -0.17643957 0.39446196 -0.12916294 0.3154843 0.06942443
-0.17663312 0.1266533 0.022544349 -0.12007843 -0.17080337 -0.14247346 -0.35942164 0.28039807
-0.3317145 0.068218134 -0.1972073 0.6492384 -0.79514384 0.0850907 0.24914233 0.082072936
-0.27861154 0.2950925 -0.49956635 -0.320101 0.3154239 0.42004752 -0.1322859 0.28544992
-0.017173244 0.079773135 0.05194786 0.2817382 -0.12923923 -0.0062329727 0.1738769 -0.4389465
-0.11900871 -0.01368564 0.18097714 -0.39513493 -0.110072196 -0.29805532 -0.08312408 -0.3885613
-0.12222455 -0.11492881 0.3773237 -0.10076568 -0.10753305 0.2865513 0.19576994 -0.14780349
0.11614442 -0.18396598 0.07622034 -0.11637666 -0.09406746 0.00038088925 0.22093228 -0.068146795
0.035027046 0.12598625 -0.111994214 -0.14338194 0.19976524 -0.23803826 0.2614339 0.08938291
-0.01906302 0.16238277 0.027554085 0.18919033 -0.1352728 -0.082087785 -0.2402342 0.07092335
-0.15792948 0.16086785 -0.25960997 0.1045344 -0.08617357 -0.025529733 -0.14012653 0.1308596
-0.07489949 -0.032055307 -0.2028715 -0.33400777 0.230894 0.14766118 -0.1098907 0.011099674
-0.27762577 0.3007447 0.194614 0.19267245 -0.020960715 -0.0037016487 0.1600011 -0.2523862
-0.15797374 -0.61421216 0.08818739 0.6009336 0.14862528 0.41771433 -0.29313034 -0.63622844
0.26562774 0.70470583 0.3737535 -0.019928759 -0.13651955 -0.48444176 -0.7869925 0.6138369
0.0064734193 -0.16915324 -0.36597502 0.5604508 0.2751388 0.008413479 0.7811232 -0.13772206
0.12328003 0.08491288 0.17578381 0.2846626 0.12470485 -0.5380113 0.3518429 0.18910478
0.18641192 0.39519182 0.15739934 0.5867913 0.03862386 -0.52182275 -0.69561034 0.37476096
-0.46349165 -0.027400814 0.429904 -0.29644442 -0.6302533 0.059303775 0.101391114 0.5858335
-0.39044765 0.5029902 0.64622176 0.65793836 -0.55760485 -0.658168 0.11256746 -0.2606459
-0.59784734 0.22276552 0.5152205 0.2628311 0.3710648 -0.27173898 0.539666 -0.2150447
0.11385302 0.017530102 0.16000381 -0.18647021 -0.28431302 -0.57993335 -0.30293593 -0.40475696
-0.19816743 0.032844547 0.034935996 -0.008375441 -0.24661534 -0.016023291 0.130172 -0.27517292
-0.10158923 -0.08239715 -0.046556003 0.13800292 -0.006359922 -0.071314745 0.48733607 -0.1619046
0.18709113 -0.16883579 -0.2742805 0.03608226 0.26501116 -0.059982806 0.07024891 -0.04970812
0.23886105 0.13596573 0.12419534 -0.20705701 -0.18379472 -0.13147195 -0.52116656 0.28647393
-0.2935671 -0.14687645 -0.17221524 0.72709364 -0.65654975 0.04872405 -0.09179082 0.19065347
-0.23466277 0.20291342 -0.1760675 -0.47455534 0.1929433 0.53058034 -0.10580307 0.04501279
0.38124216 -0.052107006 0.067410216 -0.13428386 -0.27296218 -0.005381943 0.20578392 -0.414457
00000000: 2c53 4fbc ca5a 5dbe c80b 1d3e 3d36 89be
00000010: 3970 61be bdd3 fbbe 12c6 bfbc a99c 15bf
00000020: f129 1bbe 626d a5be 55af ac3d cacf e9be
00000030: dd66 303e 9291 533e 0e94 803d d27c b7be
00000040: 4949 943d 8be4 b8be a1f6 05be edac a13e
00000050: 5681 17bf 5e35 213e c62a fe3e 5f88 0abe
00000060: 1d74 10be 3735 673d 401f babe 93ac 34be
00000070: ebf6 c93e 4a43 04be 2887 a13e 652e 8e3d
00000080: 50df 34be 67b1 013e edae b83c aeeb f5bd
00000090: 14e7 2ebe 90e4 11be 1d06 b8be 5690 8f3e
000000a0: 7cd6 a9be f3b5 8b3d b6f0 49be 7d34 263f
000000b0: 8c8e 4bbf 0844 ae3d 2b1f 7f3e db15 a83d
000000c0: 2ca6 8ebe 5d16 973e 29c7 ffbe 47e4 a3be
000000d0: 3e7f a13e 7810 d73e f475 07be 7e26 923e
000000e0: e7ae 8cbc 1960 a33d 47c7 543d fd3f 903e
000000f0: 4a57 04be f73d ccbb c90c 323e 98bd e0be
00000100: d7ba f3bd bc39 60bc 1252 393e 204f cabe
00000110: 886d e1bd b59a 98be f53c aabd 82f1 c6be
00000120: dd50 fabd cc5f ebbd 9230 c13e 3d5e cebd
00000130: 4a3a dcbd dab6 923e ea77 483e cc59 17be
00000140: 20dd ed3d 9461 3cbe 6919 9c3d e356 eebd
00000150: 71a6 c0bd 17b2 c739 123c 623e 8c90 8bbd
00000160: 8578 0f3d 8a02 013e 395d e5bd b7d2 12be
00000170: 428f 4c3e 4dc0 73be aada 853e 630e b73d
00000180: 0d2a 9cbc ab47 263e 1bb9 e13c 1cbb 413e
00000190: f484 0abe a41d a8bd f4ff 75be 4340 913d
000001a0: 44b8 21be 8bba 243e 99eb 84be 2216 d63d
000001b0: c57b b0bd bb23 d1bc 547d 0fbe 0f00 063e
000001c0: e764 99bd 6d4c 03bd 8cbd 4fbe 1103 abbe
000001d0: 7a6f 6c3e 7e34 173e 600e e1bd 68db 353c
000001e0: f724 8ebe 36fb 993e e448 473e ed4b 453e
000001f0: ceb5 abbc 5c97 72bb 54d7 233e c438 81be
00000200: dec3 21be 023d 1dbf 979b b43d c9d6 193f
00000210: 3a31 183e a7de d53e 2e15 96be dedf 22bf
00000220: 5c00 883e 9a67 343f 9e5c bf3e a341 a3bc
00000230: c8cb 0bbe c008 f8be 5778 49bf 6a24 1d3f
00000240: fa1e d43b 8236 2dbe 1461 bbbe b479 0f3f
00000250: fede 8c3e b0d8 093c b1f7 473f 0307 0dbe
00000260: 3e7a fc3d cee6 ad3d ac00 343e 4cbf 913e
00000270: 4265 ff3d 1cbb 09bf c124 b43e afa4 413e
00000280: c4e2 3e3e 9556 ca3e 4b2d 213e f437 163f
00000290: 0d34 1e3d 2d96 05bf 8513 32bf abe0 bf3e
000002a0: c74e edbe ac77 e0bc 611c dc3e 90c7 97be
000002b0: 4858 21bf 84e8 723d 25a6 cf3d 2ff9 153f
000002c0: c1e8 c7be f7c3 003f ca6e 253f a66e 283f
000002d0: 31bf 0ebf b37d 28bf c589 e63d 6173 85be
000002e0: 860c 19bf a51c 643e 7ee5 033f cc91 863e
000002f0: 35fc bd3e 5f21 8bbe 8d27 0a3f ae34 5cbe
00000300: c62b e93d 4a9b 8f3c 0ad8 233e 0cf2 3ebe
00000310: 7a91 91be 8376 14bf 6b1a 9bbe 4e3c cfbe
00000320: 67ec 4abe 0188 063d 0c19 0f3d 2539 09bc
00000330: bb88 7cbe 4743 83bc cf4b 053e 77e3 8cbe
00000340: 040e d0bd d6bf a8bd 82b1 3ebd a350 0d3e
00000350: e466 d0bb 770d 92bd 1d84 f93e 52ca 25be
00000360: d194 3f3e 4ae3 2cbe 7e6e 8cbe feca 133d
00000370: 8baf 873e 88b0 75bd a9de 8f3d be9a 4bbd
00000380: fe97 743e 9a3a 0b3e 205a fe3d c106 54be
00000390: af34 3cbe 95a0 06be 2c6b 05bf b6ac 923e
000003a0: 6d4e 96be c866 16be 3159 30be cf22 3a3f
000003b0: a513 28bf df92 473d d3fc bbbd aa3a 433e
000003c0: 704b 70be 89c8 4f3e 0a4b 34be ebf8 f2be
000003d0: ee92 453e 1dd4 073f 48af d8bd 555f 383d
000003e0: 2c32 c33e 286e 55bd 5e0e 8a3d b581 09be
000003f0: b3c1 8bbe 035b b0bb 05b9 523e b533 d4be

weight_hh_l0_reverse f4 [128, 32]
0.0603428 -0.02141686 -0.05908376 0.13058236 0.036239367 0.055056788 0.077395864 -0.10545371
0.19292754 -0.0010823804 0.106223516 -0.15110758 -0.22460859 0.21226227 -0.033840932 -0.059034757
-0.108104 -0.030609148 0.070681415 -0.2655696 -0.17366436 0.34741026 -0.051805146 -0.088650316
-0.28386605 0.14100286 0.02999719 0.075674765 0.042302523 -0.119981505 0.09357219 -0.08849372
0.026695712 -0.036100313 -0.14169529 0.3226116 -0.22751692 0.06973924 -0.016804934 -0.2625485
0.254401 -0.05570208 -0.1085087 -0.082013585 0.27327883 -0.21263234 0.2491849 0.11242816
0.1384583 0.18892848 0.24672589 -0.099485874 -0.010582149 0.060081407 0.123724245 0.012971003
-0.07038189 -0.21293326 -0.06825733 -0.09761741 0.051052473 -0.0040836805 0.047044817 0.23165539
0.17188604 -0.16268198 -0.09812393 -0.06520555 0.08011937 0.058597043 0.1308245 -0.18773603
0.19481815 0.015268035 0.006038885 0.07145679 0.081281215 -0.11922334 0.0760622 -0.053245474
-0.24134806 -0.105254166 -0.064783886 -0.099521406 -0.07498922 -0.01283443 0.15706515 -0.31934753
-0.2059943 0.17271902 0.21310447 0.057513468 0.033058792 0.077645324 -0.023500608 -0.25204647
0.20465647 -0.26522624 -0.1917508 0.036307145 -0.14944836 -0.12466909 0.36350086 -0.07387401
0.079559036 -0.13271591 -0.080292255 0.1505838 -0.15384646 -0.1522534 0.1876099 -0.06838663
-0.30008864 -0.19513376 0.009990468 -0.038033977 -0.027100403 0.20275384 -0.13958736 -0.272823
-0.26408252 0.019138513 0.32822537 0.09432135 0.032786403 -0.280292 0.10214401 -0.054798353
0.40906876 -0.16719016 -0.12098991 0.12117507 -0.2787522 -0.07697156 0.42054644 -0.17968164
0.17394544 -0.17701261 -0.017013289 -0.14368403 -0.49487334 0.0017743269 0.061043918 -0.34238604
-0.4829223 -0.31770065 0.14121546 -0.2778694 -0.06768296 0.19198467 -0.080686055 -0.19087994
-0.27347866 0.13024071 0.24729954 0.37098715 -0.048202325 -0.11276877 0.04057154 -0.24912287
0.086765 -0.1805577 0.12887661 -0.09483852 0.22222683 0.27677587 -0.098155595 -0.5465366
-0.13409631 -0.2671682 0.15603705 0.05109613 -0.13123491 0.3099584 0.12780258 0.103400506
-0.1779151 -0.28846377 -0.19325826 -0.3509024 -0.03059626 0.15279767 -0.5100741 -0.04919639
-0.0058801733 0.10825348 -0.02260925 -0.008982603 -0.33259955 0.11832104 0.2727007 0.027537178
-0.070214674 0.44590357 0.23827045 -0.3699354 0.1986495 -0.40734518 0.14645411 0.23405012
-0.21856594 0.27330512 0.2630355 0.11246252 -0.08719094 0.15287837 -0.3351266 -0.07012335
-0.052876666 0.08361429 -0.11805307 -0.028226519 -0.090552926 0.1943619 0.047526706 0.112190664
-0.10445365 0.31723195 0.17991452 -0.069890074 -0.213656 -0.13993153 0.003901453 -0.14622001
0.17687272 -0.2266201 0.26812786 -0.14886166 0.123791054 -0.028173126 -0.14475961 -0.37476262
-0.03805612 -0.11919664 0.23895471 -0.002265973 -0.16831866 0.10565041 0.14726889 -0.18454826
0.0972453 -0.04020361 -0.33535063 -0.30228847 -0.30060288 0.2766179 -0.0012504772 0.049969397
-0.14577502 0.23911133 0.2733834 0.42754972 -0.13961108 -0.14653203 0.22728923 -0.08340084
00000000: 032a 773d 6972 afbc d001 72bd 62b7 053e
00000010: bb6f 143d 3a83 613d b981 9e3d 1df8 d7bd
00000020: cc8e 453e a9de 8dba b78b d93d f2bb 1abe
00000030: cbff 65be 485b 593e ca9c 0abd 6ece 71bd
00000040: a165 ddbd 09c0 fabc 6bc1 903d bdf8 87be
00000050: 12d5 31be c2df b13e a231 54bd 4c8e b5bd
00000060: e456 91be 0e63 103e abbc f53c 5ffb 9a3d
00000070: 6945 2d3d ddb8 f5bd c7a2 bf3d 323c b5bd
00000080: f7b0 da3c ecdd 13bd 9218 11be 592d a53e
00000090: 32fa 68be 72d3 8e3d 80aa 89bc c26c 86be
000000a0: d940 823e dd27 64bd cf39 debd bdf6 a7bd
000000b0: 34eb 8b3e 4bbc 59be 542a 7f3e bc40 e63d
000000c0: 03c8 0d3e 7876 413e b6a5 7c3e 40bf cbbd
000000d0: c060 2dbc ec17 763d 2363 fd3d 5484 543c
000000e0: 6124 90bd 2d0b 5abe 80ca 8bbd a3eb c7bd
000000f0: 661c 513d 65d0 85bb 11b2 403d 1237 6d3e
00000100: e502 303e 1b96 26be 33f5 c8bd 7d8a 85bd
00000110: a015 a43d 7403 703d dcf6 053e e03d 40be
00000120: 697e 473e c826 7a3c d7e1 c53b f057 923d
00000130: c476 a63d 5e2b f4bd 80c6 9b3d ed17 5abd
00000140: f223 77be 7f8f d7bd 6aad 84bd e1d1 cbbd
00000150: f393 99bd 8047 52bc b0d5 203e 8581 a3be
00000160: 2bf0 52be 41dd 303e 0f38 5a3e 3e93 6b3d
00000170: a868 073d 8304 9f3d 5984 c0bc 3c0c 81be
00000180: 7791 513e bccb 87be 525a 44be cdb6 143d
00000190: fe08 19be 8252 ffbd c91c ba3e 424b 97bd
000001a0: d9ef a23d aee6 07be 4470 a4bd a432 1a3e
000001b0: ed89 1dbe 51e8 1bbe cf1c 403e 4a0e 8cbd
000001c0: 38a5 99be 25d1 47be 0faf 233c 84c9 1bbd
000001d0: aa01 debc b49e 4f3e fdef 0ebe 75af 8bbe
000001e0: d335 87be 5fc8 9c3c 280d a83e 8d2b c13d
000001f0: 094b 063d 6f82 8fbe e130 d13d 3d74 60bd
00000200: 7671 d13e e633 2bbe 8fc9 f7bd a32a f83d
00000210: 9cb8 8ebe 44a3 9dbd dd51 d73e 77fe 37be
00000220: c11e 323e cb42 35be 745f 8bbc e821 13be
00000230: 0a60 fdbe 8890 e83a 3009 7a3d 394d afbe
00000240: 9741 f7be a9a9 a2be c99a 103e e644 8ebe
00000250: 5d9d 8abd a197 443e bb3e a5bd 0876 43be
00000260: 6505 8cbe d25d 053e 173c 7d3e 07f2 bd3e
00000270: cd6f 45bd 50f3 e6bd 582e 263d 111a 7fbe
00000280: d9b1 b13d 1ee4 38be 3bf8 033e b33a c2bd
00000290: 6e8f 633e 91b5 8d3e cd05 c9bd d3e9 0bbf
000002a0: 8b50 09be 45ca 88be 2dc8 1f3e 2d4a 513d
000002b0: 7262 06be deb2 9e3e aede 023e a5c3 d33d
000002c0: 602f 36be 86b1 93be 7ee5 45be 7ba9 b3be
000002d0: 02a5 fabc fe76 1c3e 3794 02bf 2782 49bd
000002e0: 78ae c0bb 00b4 dd3d 0937 b9bc c52b 13bc
000002f0: 7d4a aabe 4d52 f23d 6d9f 8b3e a695 e13c
00000300: b6cc 8fbd 794d e43e 2bfd 733e 2c68 bdbe
00000310: c66a 4b3e 8c8f d0be 11f8 153e d6aa 6f3e
00000320: c0cf 5fbe a6ee 8b3e 97ac 863e c052 e63d
00000330: 2a91 b2bd 268c 1c3e b795 abbe d59c 8fbd
00000340: 3495 58bd f83d ab3d cfc5 f1bd 4d3b e7bc
00000350: d073 b9bd ce06 473e 5dab 423d 38c4 e53d
00000360: cceb d5bd 3a6c a23e 833b 383e 8722 8fbd
00000370: a3c8 5abe 364a 0fbe 85af 7f3b b3ba 15be
00000380: 1f1e 353e 190f 68be 0e48 893e 316f 18be
00000390: 2a86 fd3d 54cb e6bc dd3b 14be e3e0 bfbe
000003a0: bce0 1bbd 5e1d f4bd 8bb0 743e b880 14bb
000003b0: ba5b 2cbe 3e5f d83d a8cd 163e 38fa 3cbe
000003c0: 8b28 c73d 8aac 24bd 14b3 abbe 8ec5 9abe
000003d0: 9fe8 99be dda0 8d3e 0de7 a3ba b6ac 4c3d
000003e0: 0c46 15be 9ad9 743e e9f8 8b3e cce7 da3e
000003f0: 35f6 0ebe 7e0c 16be 82be 683e 0fce aabd
