experiments/pedestrians/models/zara2_attention_radius_3/model_registrar-100.pt (torch_old, 545361 bytes, 43 tensors)

weight_ih_l0 f4 [128, 6]
0	0xbce0c680	-0.027438402
1	0xbc71254e	-0.014718367
2	0xbdfc81f7	-0.12329476
3	0xbdea7f98	-0.11450118
4	0xbad99d99	-0.0016602754
5	0x3e3781db	0.1792063
6	0xbe7d2441	-0.24720861
7	0xbe98838e	-0.29787868
8	0xbe03e0d3	-0.12878732
9	0x3ef80444	0.48440754
10	0x3d961790	0.07328713
11	0xbd46a3cf	-0.048496064
12	0x3da1eda4	0.079066545
13	0x3e34ff47	0.17675506
14	0xbdbaac2d	-0.09114871
15	0xbe7236c5	-0.23653705
16	0xbe85b745	-0.26116386
17	0x3e10b748	0.14132416
18	0x3da418e2	0.080125585
19	0x3e51d0ec	0.20489854
20	0x3e22411e	0.15845153
21	0xbd2af3f7	-0.04173657
22	0xbe7a475d	-0.24441285
23	0x3dbcb345	0.092138804
24	0x3d8e7a59	0.0695693
25	0xbe0dda3f	-0.13852786
26	0xbe5f61b1	-0.2181461
27	0x3ef0460a	0.46928436
28	0xbdb6b26f	-0.08920752
29	0xbdb8ba57	-0.090199165
30	0x3eaa153c	0.33219326
31	0xbd1a02e2	-0.037600406
32	0xbc5e8a11	-0.013582722
33	0x3e03b6f9	0.12862767
34	0xbdb0557c	-0.08610055
35	0xbdd994f9	-0.106241174
36	0xbe371abe	-0.17881295
37	0xbe082709	-0.1329614
38	0xbe001fd7	-0.12512146
39	0x3d8f3ad6	0.06993644
40	0xbe816c1c	-0.25277793
41	0xbe608474	-0.21925527
42	0xba6a558f	-0.0008939141
43	0x3e02500a	0.12725845
44	0x3e0c7630	0.1371696
45	0xbbc768cf	-0.006085492
46	0xbded90a6	-0.11599855
47	0x3e03220f	0.12805961
48	0x3ea6de6c	0.3259157
49	0xbd23106b	-0.03981058
50	0xbda7bd5b	-0.081904136
51	0x3d596502	0.053074844
52	0x3ddabf60	0.10681033
53	0xbc0637e1	-0.0081920335
54	0xbe5632f3	-0.20917873
55	0xbe7a0efa	-0.24419776
56	0x3dadbd0d	0.08483324
57	0x3e2a4227	0.16626798
58	0xbd1137df	-0.035453673
59	0xbdf8337c	-0.12119195
60	0x3ea00190	0.31251192
61	0xbe12b255	-0.14325841
62	0xbe816fb1	-0.25280526
63	0x3e6acf71	0.22930695
64	0xbe8cdacb	-0.27510676
65	0xba0c3416	-0.00053483376
66	0xbeb9d588	-0.36295724
67	0xbe4654de	-0.19368312
68	0x3ea60539	0.3242586
69	0x3e7522d3	0.23939066
70	0x3dbfdfe4	0.093688756
71	0x3e41525d	0.18879075
72	0xbea9c133	-0.33155212
73	0xbd9d887f	-0.0769205
74	0x3e1d1ea0	0.15343714
75	0xbd73d2cc	-0.059527203
76	0x3e9a1c93	0.30099925
77	0xbf1ca52d	-0.6118954
78	0x3e0df562	0.13863137
79	0x3e8edc89	0.2790263
80	0xbb8e7fb2	-0.0043487186
81	0xbd81a3c9	-0.06330068
82	0x3d39239c	0.045199975
83	0x3ee5e05a	0.4489773
84	0xbe9da967	-0.30793306
85	0x3e08803d	0.13330169
86	0xbe8de98b	-0.27717242
87	0x3dc980c1	0.09839011
88	0x3f09ae70	0.53781796
89	0xbdbd74dc	-0.09250805
90	0xbe6bd21b	-0.23029368
91	0x3ebad50f	0.36490676
92	0x3ec239cd	0.37934723
93	0xbe29d6ec	-0.16585892
94	0xbde88ac6	-0.11354594
95	0x3e0b4d39	0.13603677
96	0x3cf24a0a	0.02957632
97	0x3ea709fd	0.32624808
98	0x3ea80ec5	0.32823768
99	0x3ba77e61	0.005111501
100	0xbe367c45	-0.17820843
101	0xbf136cf4	-0.57588124
102	0xbb7d5b42	-0.003865913
103	0xbe23811b	-0.15967219
104	0x3dedc5c0	0.116099834
105	0xbd976067	-0.07391434
106	0x3d0cca49	0.0343726
107	0x3e00ffa6	0.12597522
108	0xbd07aca7	-0.03312364
109	0x3dd3b190	0.10336602
110	0x3e318ebc	0.17339605
111	0xbe4a58ee	-0.19760486
112	0x3e4893a9	0.19587578
113	0x3ea781bc	0.32716167
114	0xbe64d917	-0.22348438
115	0xbde442da	-0.111455634
116	0x3d9a742f	0.075416915
117	0x3e6e113b	0.2324876
118	0x3da24e64	0.07925108
119	0x3e28180e	0.16415426
120	0xbe3d164a	-0.18465534
121	0x3e384f1a	0.17998925
122	0x3dd7744f	0.10520231
123	0xbee1097b	-0.43952546
124	0xbdcc6f44	-0.0998216
125	0xbc7da291	-0.015480653
126	0x3e9b99f6	0.303909
127	0x3f205ee4	0.6264479
128	0xbf1c8c4b	-0.6115157
129	0xbedf27a2	-0.43584925
130	0x3ebca606	0.36845416
131	0x3e1cdf21	0.15319492
132	0xbdc6abf7	-0.097007684
133	0xbe2fc256	-0.17163977
134	0x3d9fb262	0.07797696
135	0x3e2d7f58	0.16943109
136	0xbd2d70ab	-0.042343777
137	0xbdf0fe16	-0.11767213
138	0x3cd876cc	0.026423834
139	0xbda576ad	-0.08079276
140	0xbb48c499	-0.003063476
141	0xbc4c8c1f	-0.012484579
142	0x3e089d39	0.13341226
143	0xbcb32262	-0.021866981
144	0x3e95daa7	0.2926838
145	0xbe111a47	-0.1417018
146	0xbdf7c641	-0.12098361
147	0x3df5a55f	0.11994433
148	0xbf5d1ed6	-0.86375177
149	0xbe53be25	-0.20678003
150	0x3d7a6aff	0.061137196
151	0x3e09d90a	0.134617
152	0xbe1b8fca	-0.1519157
153	0xbc8880e5	-0.016663024
154	0xbd7ae6ee	-0.061255388
155	0x3d1afc04	0.037837997
156	0x3d82dc3d	0.06389663
157	0xbead1371	-0.33803895
158	0xbe8c7583	-0.27433404
159	0x3ebbb729	0.36663178
160	0x3e3d6a49	0.18497576
161	0x3d2f1b5e	0.04275071
162	0x3e32a780	0.17446709
163	0x3ebef332	0.37294918
164	0x3e8124dd	0.25223437
165	0x3e2dd2e9	0.16974987
166	0xbdd7189f	-0.10502743
167	0x3eb1ffe4	0.34765542
168	0xbe8b1b1d	-0.27169123
169	0x3ead155b	0.33805355
170	0xbd1241c1	-0.03570724
171	0x3c382b21	0.0112407515
172	0x3e254ec7	0.16143332
173	0x3d3aa046	0.045563005
174	0xbe35cf8d	-0.17754956
175	0xbdc9601e	-0.09832786
176	0xbe220480	-0.15822029
177	0xbd621051	-0.05519134
178	0x3dddda44	0.108326465
179	0x3e10af97	0.14129482
180	0xbe1b1e37	-0.15148245
181	0xbe392bdf	-0.18083142
182	0x3ead9fb1	0.33910897
183	0x3e0f47d7	0.13992248
184	0xbe4e731d	-0.201611
185	0xbdc46dcd	-0.09591255
186	0xbd073f64	-0.03301944
187	0x3d767a77	0.060175385
188	0x3e160963	0.14652018
189	0xbe00cbe0	-0.12577772
190	0xbe806724	-0.2507869
191	0xbccf67cc	-0.025318049
192	0x3ee3c9d0	0.44489908
193	0x3d25491f	0.040352937
194	0xbe528e0d	-0.20562
195	0xbdcdf082	-0.10055639
196	0xbdcca8a5	-0.09993104
197	0xbe751cb8	-0.23936737
198	0x3e4f7a1e	0.20261428
199	0xbdd0055f	-0.101572745
200	0x3d4e9e68	0.050444037
201	0xbcfe6670	-0.031054705
202	0xbdc3ff74	-0.09570208
203	0x3ce6b05f	0.028160272
204	0xbe0ebd3e	-0.13939378
205	0x3d9117df	0.07084631
206	0xbd3c6142	-0.04599119
207	0x3c2d0796	0.010560891
208	0x3d0c9f54	0.034331635
209	0xbddc3c20	-0.107536554
210	0xbdc889ee	-0.09791933
211	0x3ca19e56	0.01972882
212	0x3e6b3c9a	0.22972336
213	0x3988ca92	0.00026090868
214	0xbe44aec5	-0.19207294
215	0xbecf8a2e	-0.4053511
216	0xbd01c3e1	-0.031680945
217	0xbe488219	-0.19580878
218	0x3d3bfcf9	0.04589555
219	0x3ed312b6	0.41225213
220	0xbe98412b	-0.2973722
221	0xbe5da110	-0.21643472
222	0x3e24130b	0.1602289
223	0x3c779282	0.015110614
224	0x3d9c74ce	0.07639466
225	0xbe2f60e4	-0.17126805
226	0xbea8694b	-0.32892832
227	0xbd28c542	-0.041203745
228	0x3d70a50d	0.058751155
229	0x3d7a043c	0.061039194
230	0x3c5abaa9	0.013350167
231	0x3d8824ba	0.0664763
232	0x3cca5be2	0.024702016
233	0x3ceea494	0.029131211
234	0x3c2dd45b	0.0106097115
235	0x37857f78	1.5914193e-05
236	0x3da0c863	0.07850721
237	0x3ca5a475	0.02022002
238	0x3cead494	0.028665818
239	0xbd3a460a	-0.04547695
240	0x3e85317a	0.2601431
241	0xbda766f5	-0.08173934
242	0xbdd5dec4	-0.1044288
243	0x3da5ca51	0.080952294
244	0xbecfb9e7	-0.4057152
245	0x3e06044e	0.1308758
246	0xbded2ee4	-0.11581209
247	0xbd060824	-0.032722607
248	0x3e737018	0.23773229
249	0x3e30ad89	0.17253698
250	0x3b9eed3b	0.0048500574
251	0xbd94dc9d	-0.07268641
252	0xbbe19f52	-0.0068854475
253	0xbd152efa	-0.036421753
254	0xbe959e2f	-0.29222247
255	0x3d8da617	0.06916445

weight_hh_l0 f4 [128, 32]
0	0xbe14ed97	-0.14543758
1	0xbebaeda9	-0.36509445
2	0x3e1a1b6e	0.15049526
3	0x39e6bf27	0.00044011438
4	0x3e33928c	0.17536372
5	0x3e8e9278	0.27846122
6	0xbc4c9515	-0.012486716
7	0xbe126923	-0.14297919
8	0x3e281177	0.16412912
9	0x3ec4e37d	0.3845481
10	0xbe87da45	-0.26533714
11	0x3f0b4730	0.544055
12	0xbe6f0145	-0.23340328
13	0x3e296078	0.16540706
14	0xbe884da3	-0.26621732
15	0x3d2edabc	0.04268907
16	0xbe3836c8	-0.17989647
17	0xbdb9fdb7	-0.090815954
18	0x3eaa937f	0.33315656
19	0xbf049c51	-0.5180102
20	0xbe8835a0	-0.26603413
21	0x3e0f7343	0.14008813
22	0xbe2a5b67	-0.1663643
23	0xbe7bb000	-0.24578857
24	0x3e614bc3	0.22001557
25	0xbe9d1fc1	-0.3068829
26	0x3eddc741	0.4331608
27	0xbd3a1c37	-0.045437064
28	0xbe88a615	-0.2668921
29	0x3de0cadd	0.10976193
30	0x3e1201e8	0.1425854
31	0xbdd32a4f	-0.10310804
32	0x3dcbd0e5	0.09951953
33	0xbe8e906d	-0.27844563
34	0x3ec39f49	0.38207462
35	0x3e2e2aa4	0.17008454
36	0x3d8ac392	0.06775583
37	0x3e608f03	0.21929555
38	0xbd90840d	-0.07056437
39	0xbe914932	-0.28376156
40	0x3e41b827	0.18917905
41	0x3dc86191	0.09784234
42	0xbdf52388	-0.11969668
43	0x3e3117f1	0.17294289
44	0xbec8037f	-0.39065167
45	0x3e1f4468	0.15553439
46	0x3d984e44	0.07436803
47	0xbb9be10f	-0.0047570537
48	0xbe121884	-0.14267164
49	0x3e9481f2	0.2900539
50	0x3b8be81b	0.0042696125
51	0xbe4d65c9	-0.20058359
52	0xbe0709e9	-0.13187374
53	0x3ec81aeb	0.39083037
54	0xbe6cefbd	-0.23138328
55	0xbe043751	-0.12911727
56	0x3e64c9ec	0.22342652
57	0xbe0debd5	-0.13859494
58	0xbd5d9061	-0.05409277
59	0xbe25401c	-0.16137737
60	0xbe918e37	-0.28428814
61	0x3da85c27	0.08220702
62	0x3df1a4a6	0.11798982
63	0x3c98d6cf	0.018657116
64	0x3d92e5ef	0.071727626
65	0xbe6e6b00	-0.23283005
66	0xbda64f0d	-0.081205465
67	0x3ddbefe6	0.10739116
68	0x3d860a96	0.06544988
69	0x3dac89a7	0.084246926
70	0xbeb35149	-0.35022953
71	0xbe66e123	-0.2254682
72	0x3afeebe1	0.001944896
73	0x3e20476c	0.15652245
74	0xbe91acb5	-0.28452078
75	0x3e32d314	0.17463332
76	0x3d81b215	0.063327946
77	0xbdde4410	-0.10852826
78	0x3e10a696	0.14126047
79	0xbe3889ce	-0.18021318
80	0xbdab7934	-0.08372727
81	0xbd9d1a64	-0.07671049
82	0x3e4d7c25	0.20066889
83	0xbe04cdac	-0.12969083
84	0x3d07d5bb	0.033162814
85	0x3db89ece	0.090146646
86	0x3e331305	0.17487724
87	0x3da23f68	0.0792225
88	0x3ea11871	0.3146396
89	0x3e39ebf7	0.1815642
90	0x3e0afb8b	0.13572519
91	0x3dc38aa4	0.09547928
92	0x3d6abb32	0.05730743
93	0x3e3c2d3c	0.1837663
94	0xbe63b254	-0.22235996
95	0x3d9d33c0	0.07675886
96	0xbdbc3bec	-0.09191117
97	0xbe5a3497	-0.21309124
98	0x3e64d4bb	0.22346775
99	0x3da780d7	0.08178871
100	0xbe2f8c3d	-0.1714334
101	0x3d3b4f2e	0.04572981
102	0xbe578639	-0.21047296
103	0x3ce311a2	0.027718369
104	0xbd259579	-0.04042575
105	0x3e30de0b	0.17272203
106	0xbe8fc0c9	-0.2807677
107	0x3e3190ee	0.17340443
108	0xbe935e0d	-0.28782693
109	0xbe50e66c	-0.20400399
110	0xbeeacfa4	-0.45861542
111	0xbdad8d1a	-0.084741786
112	0xbe9a0eec	-0.3008951
113	0x3e592d60	0.21208715
114	0x3ea18478	0.31546378
115	0xbf059a07	-0.5218815
116	0xbe01d30b	-0.12678163
117	0x3ef3d571	0.4762378
118	0x3de4df26	0.11175375
119	0xbe4fcf1d	-0.20293851
120	0x3e4f03fc	0.20216364
121	0xbd37ca3e	-0.044870608
122	0x3df60e46	0.12014441
123	0xbdcffafd	-0.10155294
124	0xbef29a14	-0.47383177
125	0x3e816689	0.2527354
126	0x3db13384	0.08652404
127	0x3ca3734e	0.019952442
128	0xbe7b1205	-0.24518593
129	0xbf0d69bb	-0.55239457
130	0x3ef047d0	0.4692979
131	0xbeb6a24e	-0.35670704
132	0x3e803a5e	0.2504453
133	0x3e47c509	0.19508757
134	0x3e28cceb	0.1648442
135	0xbe662f6d	-0.22479029
136	0x3efca259	0.4934261
137	0xbc3c454b	-0.01149113
138	0xbe33a220	-0.17542315
139	0x3e108115	0.14111741
140	0x3c0dcd33	0.00865488
141	0xbc12604c	-0.008934092
142	0xbf5b4f2d	-0.8566769
143	0xbc1228dc	-0.008920874
144	0xbdf12e17	-0.11776369
145	0x3d32ec70	0.043682516
146	0x3f910693	1.1330131
147	0xbf9bac45	-1.2161947
148	0xbe3b0d43	-0.18266778
149	0x3f51d117	0.8195967
150	0xbcc07727	-0.023494316
151	0xbeacfa32	-0.33784634
152	0xbe7d063d	-0.24709411
153	0xbea40b6f	-0.32039973
154	0x3eb4246c	0.35184038
155	0xbf88c2ad	-1.068441
156	0xbf860989	-1.047166
157	0xbe2f2d1c	-0.17107052
158	0x3e4798f5	0.19491942
159	0x3e83530e	0.25649303
160	0x3c55fee7	0.013061262
161	0xbd8eb6fd	-0.06968496
162	0x3e1ddfda	0.15417424
163	0xbe1908a7	-0.14944707
164	0x3dcee554	0.101023346
165	0xbc8d8525	-0.017275402
166	0x3d8bb78a	0.06822117
167	0x3e008bbb	0.12553303
168	0x3cf615b2	0.030039642
169	0x3e3251af	0.17413972
170	0x3d31fcfb	0.04345415
171	0xbd52ac82	-0.051434048
172	0xbe059165	-0.13043745
173	0xbcd712dc	-0.02625411
174	0xbe1d793d	-0.1537828
175	0xbe24e766	-0.16103896
176	0xbe1bc930	-0.15213466
177	0x3e574810	0.21023583
178	0xbde897c3	-0.11357071
179	0xbc98ce1f	-0.018652974
180	0x3dd55928	0.10417396
181	0x3e88f238	0.26747298
182	0xbe50b8db	-0.20383017
183	0xbe1c3429	-0.15254273
184	0xbdee8475	-0.11646358
185	0xbe544150	-0.2072804
186	0x3ea80fe7	0.32824633
187	0xbd22108f	-0.039566573
188	0xbd951bd9	-0.07280702
189	0x3ea3ddf4	0.32005274
190	0x3e55533f	0.20832537
191	0x3dcd3758	0.100203216
192	0x3c4bb757	0.012433848
193	0xbe1806d1	-0.1484635
194	0xbe223551	-0.15840651
195	0x3c923887	0.01784922
196	0x3c968259	0.018372701
197	0x3e18d54a	0.14925113
198	0xbd2269a7	-0.03965154
199	0xbe8cda79	-0.2751043
200	0x3c601185	0.013676052
201	0x3e1a1e3c	0.15050596
202	0xbe7a3e6c	-0.24437875
203	0x3e3c15f8	0.18367755
204	0x3ce79f6d	0.028274262
205	0x3e057103	0.13031392
206	0xbcd5a9e4	-0.026081987
207	0x3d85f15b	0.065401755
208	0xbcaf530d	-0.021401906
209	0xbd94dc6b	-0.07268604
210	0x3de89c24	0.113579065
211	0xbe894ca1	-0.26816276
212	0xbde0ad6c	-0.109705776
213	0x3eb98563	0.36234578
214	0x3e0730e4	0.13202244
215	0xbd6c6a88	-0.057718784
216	0xbd9f6f17	-0.077848606
217	0x3bd1570e	0.0063885516
218	0x3eaf0309	0.34182003
219	0x3b40518e	0.0029345485
220	0xbebb93cb	-0.36636195
221	0x3e503dba	0.20336047
222	0xbe275329	-0.16340317
223	0x3cdc1695	0.026866237
224	0x3dc2eaca	0.09517439
225	0xbe410ff3	-0.1885374
226	0xbdb55e76	-0.088559076
227	0x3d6df0bc	0.05809091
228	0x3e1eb00f	0.15496849
229	0x3d40aae6	0.04703798
230	0x3e745718	0.23861349
231	0x3e5d0f76	0.21587929
232	0x3dfa2284	0.122136146
233	0xbe81f340	-0.25380898
234	0x3d3c9f0b	0.046050113
235	0xbeba1039	-0.36340502
236	0x3f001580	0.50032806
237	0x3e2ce0ff	0.16882704
238	0x3da92156	0.082583115
239	0x3dfb4cbd	0.12270496
240	0x3db171ae	0.08664261
241	0xbe175936	-0.14780125
242	0x3e4a1d2e	0.19737694
243	0xbe174908	-0.14773953
244	0xbe520167	-0.20508347
245	0x3d5fb464	0.054615393
246	0x3c4c6cee	0.012477143
247	0xbe9eafad	-0.30993405
248	0x3dc59829	0.09648163
249	0x3e6b1ad4	0.22959453
250	0x3e39fcc7	0.18162833
251	0xbe1ee5db	-0.1551737
252	0xbdb32405	-0.087471046
253	0x3e11d738	0.14242256
254	0x3ceb6558	0.028734848
255	0x3d996c3e	0.07491349

bias_ih_l0 f4 [128]
0	0x3d3f39f5	0.04668613
1	0x3e8078f1	0.2509227
2	0x3de2095a	0.1103694
3	0x3de63076	0.11239712
4	0x3ecedeed	0.40404454
5	0x3ea8d91e	0.32978147
6	0x3e851636	0.25993508
7	0x3e582e19	0.21111335
8	0x3e095bb2	0.13413885
9	0x3e84810a	0.258797
10	0x3eeea572	0.466106
11	0x3ec4af86	0.38415164
12	0x3f142e57	0.5788321
13	0x3eb55582	0.354168
14	0x3e42a987	0.19009982
15	0x3ed32869	0.41241768
16	0x3dff8940	0.1247735
17	0x3e9d91c0	0.3077526
18	0x3d7b73ca	0.061389722
19	0x3e4c11ae	0.1992862
20	0x3f118506	0.568436
21	0x3e45b925	0.19308908
22	0x3ef6bd03	0.4819108
23	0x3d04c0a0	0.032410264
24	0x3ee12292	0.43971688
25	0x3e094d14	0.13408309
26	0x3dd51827	0.10404997
27	0x3dda5612	0.10660948
28	0x3a83e679	0.0010063193
29	0x3ea04edd	0.31310168
30	0x3ec0dbf4	0.3766781
31	0x3e7ba2f9	0.24573888
32	0x3df2a3cb	0.11847647
33	0xbecf2309	-0.40456417
34	0xbe97de75	-0.2966191
35	0xbcc0ce40	-0.023535848
36	0xbf487e38	-0.78317595
37	0xbe41451b	-0.18874018
38	0xbee2fa25	-0.4433147
39	0xbec00806	-0.3750612
40	0xbe1f90f9	-0.15582646
41	0xbe598e78	-0.21245754
42	0xbe862680	-0.26201248
43	0xbe559e86	-0.20861253
44	0xbefde38c	-0.49587667
45	0xbe397722	-0.18111852
46	0xbcc06cd0	-0.023489386
47	0xbf41f81d	-0.75769216
48	0xbe0b2d61	-0.1359153
49	0xbe348d7e	-0.176321
50	0xbcc05544	-0.023478158
51	0x3df1b3dc	0.118018836
52	0xbf1776bf	-0.5916557
53	0xbe1350b0	-0.14386249
54	0xbe8d7cd8	-0.2763431
55	0xbd5bc0ec	-0.05365078
56	0xbe449eaa	-0.1920115
57	0x3d42a830	0.047523677
58	0xb93b47f9	-0.00017860522
59	0x3e013484	0.1261769
60	0xbd644235	-0.055727202
61	0xbf184420	-0.5947895
62	0xbf06ccf3	-0.5265648
63	0xbebfc2dc	-0.37453353
64	0x3e042b68	0.12907183
65	0x3dba97c3	0.091109775
66	0xbd14df41	-0.036345724
67	0x3ca77451	0.020441206
68	0xbddd784e	-0.10813962
69	0x3c999279	0.018746601
70	0x3de6410b	0.11242875
71	0xbd63b33d	-0.055590857
72	0xbcb1c7c1	-0.021701695
73	0x3d91ec43	0.071251415
74	0xbda42496	-0.08014791
75	0x3d2bc251	0.04193336
76	0xbdf6aaf1	-0.12044323
77	0xbd3e35f4	-0.046438172
78	0xbd7f27dd	-0.062293876
79	0xbdb82e44	-0.089931995
80	0xbdc29510	-0.09501088
81	0xbde67b0b	-0.11253937
82	0x3e49fac7	0.1972457
83	0xbddac21b	-0.10681554
84	0x3d5366f3	0.051611852
85	0x3db74478	0.08948606
86	0x3dd305b2	0.10303821
87	0xbe110883	-0.14163403
88	0x3de4096d	0.1113461
89	0xbda528a5	-0.08064393
90	0x3d5911f7	0.05299565
91	0xbe52f497	-0.20601116
92	0xbdc4ea43	-0.096149944
93	0x3df7ddbc	0.12102839
94	0x3d294c2e	0.041332416
95	0xbd68ff1a	-0.05688391
96	0x3e86da9a	0.26338655
97	0x3e6187dc	0.22024482
98	0x3e195f44	0.14977747
99	0x3e32ca2e	0.17459938
100	0x3ef62134	0.48072207
101	0x3e88d967	0.26728365
102	0x3e95548d	0.2916607
103	0x3e71e033	0.23620681
104	0x3d0254ef	0.03181928
105	0x3e943898	0.28949428
106	0x3e87ae1c	0.26500022
107	0x3ea964e7	0.33084795
108	0x3ef97168	0.48719335
109	0x3eae451f	0.3403711
110	0x3e58461d	0.21120496
111	0x3f058bc6	0.521664
112	0x3e8ffc40	0.2812214
113	0x3e5690c5	0.20953663
114	0x3e16310a	0.14667144
115	0x3da61f2e	0.08111416
116	0x3f24a575	0.6431497
117	0x3e65f11e	0.2245526
118	0x3edbfe16	0.4296729
119	0x3dca8414	0.09888473
120	0x3e294784	0.16531187
121	0x3e476ec3	0.19475846
122	0x3e9306e2	0.2871619
123	0x3d3556b8	0.044272155
124	0x3e0ec347	0.1394168
125	0x3f01e0fa	0.5073391
126	0x3ed561f1	0.41676286
127	0x3e439824	0.19101006

bias_hh_l0 f4 [128]
0	0x3b1d0842	0.002396122
1	0x3e872efd	0.26403037
2	0xbcbfddc8	-0.023421183
3	0x3e8c39eb	0.27387938
4	0x3f0c3e2d	0.5478237
5	0x3dafe221	0.085880525
6	0x3e2215c0	0.1582861
7	0x3ec7009e	0.38867658
8	0x3e6089fa	0.21927634
9	0x3ed8eeb6	0.42369622
10	0x3e56aed9	0.20965137
11	0x3e84c609	0.2593234
12	0x3eae5ac7	0.34053633
13	0x3f25fff5	0.64843684
14	0x3e6c3302	0.23066333
15	0x3f12a598	0.57283926
16	0x3d1adba3	0.03780712
17	0x3e99c29c	0.30031288
18	0xbd0c7f06	-0.034300826
19	0x3e1ebab8	0.15500915
20	0x3f375336	0.71611345
21	0x3ebf6361	0.37380508
22	0x3f02abfc	0.5104368
23	0x3dc60ec8	0.09670788
24	0x3eaec90c	0.34137762
25	0x3df39e4d	0.11895428
26	0x3e35ddb6	0.17760357
27	0x3c7635fa	0.015027517
28	0xbda51bf8	-0.08061975
29	0x3e9b8642	0.30375868
30	0x3ee473fa	0.44619733
31	0x3e978431	0.29593042
32	0x3cf371be	0.029717322
33	0xbec1c76c	-0.3784746
34	0xbd7160ac	-0.058930084
35	0xbe6b3123	-0.22967963
36	0xbef31a03	-0.47480783
37	0xbcd425df	-0.025896965
38	0xbe9ad09b	-0.30237278
39	0xbf051777	-0.5198893
40	0xbda9dd1c	-0.082941264
41	0xbe899077	-0.2686803
42	0xbe78e95f	-0.24307774
43	0xbe8a2366	-0.26980132
44	0xbeff5039	-0.49865893
45	0xbeb89ac4	-0.36055577
46	0x3da8e364	0.08246496
47	0xbf3523ef	-0.70757955
48	0xbe888ebd	-0.266714
49	0xbe7a1b3b	-0.2442445
50	0x3b9fbe2c	0.004874965
51	0xbd819206	-0.0632668
52	0xbee53f17	-0.44774696
53	0xbe9d027b	-0.30665955
54	0xbeffb26f	-0.49940822
55	0xbda731f8	-0.08163828
56	0xbeca8b5a	-0.39559442
57	0xbe85af71	-0.26110414
58	0xbe81e6fe	-0.25371546
59	0x3d861c2e	0.065483436
60	0xbdabed2e	-0.08394848
61	0xbeb8c4a9	-0.3608754
62	0xbec9f92a	-0.3944791
63	0xbd95cc33	-0.073143385
64	0xbe1de343	-0.15418725
65	0xbe35ed83	-0.17766385
66	0x3e08f15a	0.13373318
67	0xbd102314	-0.035189703
68	0x3e18161b	0.14852183
69	0x3d512c30	0.05106753
70	0xbd96f73a	-0.073713735
71	0xbc0e8aa6	-0.008700049
72	0x3df4d9e0	0.11955619
73	0xbcb73b6c	-0.022367202
74	0x3d435136	0.04768487
75	0x3d7297e3	0.05922688
76	0x3d76ddc7	0.060270097
77	0x3ca3e358	0.020005867
78	0xbe0f5bd6	-0.13999876
79	0x3d66b69b	0.05632649
80	0xbb079e45	-0.0020693701
81	0x3e04f7aa	0.12985101
82	0x3dfb45f9	0.122692056
83	0xbe6eff94	-0.23339683
84	0xbdd7c886	-0.10536294
85	0x3cedd6a1	0.029033007
86	0xbe0fee1a	-0.14055672
87	0x3dd9ff58	0.10644406
88	0xbe0233c8	-0.12715065
89	0x3cccc5d9	0.024996685
90	0x3d65392c	0.055962726
91	0xbdbab45b	-0.09116431
92	0xbdad74ae	-0.084695205
93	0xbe216602	-0.15761569
94	0x3c897d38	0.016783342
95	0x3d40f83a	0.047111727
96	0x3e17e821	0.14834644
97	0x3eb58a2f	0.35456988
98	0xbbcf2e92	-0.0063226903
99	0x3ecdc798	0.4019134
100	0x3f144f51	0.5793353
101	0x3e2ec4d8	0.17067277
102	0x3efb00e3	0.49024114
103	0x3f0bfb1e	0.5468005
104	0xbcb5b6b8	-0.022181854
105	0x3e9faa1d	0.31184474
106	0x3f019ae8	0.50626993
107	0x3ed0c33d	0.40773955
108	0x3effab6e	0.49935478
109	0x3f0896db	0.5335519
110	0x3e06343f	0.13105868
111	0x3f078f25	0.52952796
112	0x3e99740b	0.29971346
113	0x3d94fb85	0.07274536
114	0x3e80e7b2	0.2517677
115	0xbd2d9225	-0.042375702
116	0x3f1b2fc2	0.6061975
117	0x3ed4cfa1	0.41564658
118	0x3f14d98b	0.58144444
119	0x3e6d07b1	0.23147465
120	0x3eb4ced0	0.35314035
121	0x3e2e7f25	0.1704069
122	0x3ead9b4c	0.33907545
123	0x3d4ebf85	0.050475616
124	0x3c25198a	0.01007689
125	0x3f0075bb	0.5017964
126	0x3ee33758	0.4437816
127	0x3ec89383	0.39175043

weight_ih_l0 f4 [128, 2]
0	0x3e7e46b9	0.24831666
1	0x3e015217	0.12628971
2	0xbe3c1ea9	-0.18371071
3	0x3d24096b	0.040048044
4	0x3d8bc7a4	0.06825188
5	0xbdc808bf	-0.09767293
6	0xbccc5cf2	-0.024946664
7	0x3d3da977	0.046304192
8	0x3d100dbc	0.035169348
9	0xbded121f	-0.11575722
10	0x3d905fe5	0.070495404
11	0x3dfd9406	0.12381749
12	0xbd254483	-0.04034854
13	0x3c1d0de9	0.009585836
14	0xbe0da92f	-0.1383407
15	0xbd0cce5e	-0.034376495
16	0x3e138277	0.14405237
17	0x3caae924	0.020863123
18	0xbca28572	-0.019839022
19	0x3d857945	0.06517271
20	0xbc49d44e	-0.012318684
21	0x3d1b3638	0.037893504
22	0xbcf154d4	-0.029459395
23	0xbdc8046d	-0.09766469
24	0xbdc6aa6f	-0.097004764
25	0x3d8b2dca	0.06795843
26	0x3e0bdd30	0.13658595
27	0xbd910cb7	-0.07082503
28	0xbe7d9717	-0.24764667
29	0x3be02801	0.0068407063
30	0x3e254e27	0.16143094
31	0x3d549b25	0.05190577
32	0x3d368918	0.044564337
33	0x3bb5f84f	0.0055532823
34	0x3dfe89a9	0.124286
35	0x3d705c50	0.058681786
36	0x3dd9a3f1	0.106269725
37	0x3db5e936	0.08882372
38	0xbcc858ce	-0.024456408
39	0xbc2d982c	-0.010595363
40	0x3df956dc	0.1217477
41	0x3c863657	0.016383333
42	0x3dcfadc1	0.10140563
43	0x3e84b073	0.2591587
44	0x3d6c0a9b	0.0576273
45	0x3db00062	0.08593823
46	0xbe58d15f	-0.21173619
47	0xbda0c148	-0.078493655
48	0xbccd3e7a	-0.025054205
49	0xbd65f59e	-0.056142442
50	0xbd918c6c	-0.071068615
51	0xbc1be5ad	-0.009515208
52	0x3e26fc36	0.16307148
53	0x3d232123	0.039826524
54	0xbd9c146b	-0.07621082
55	0x3d709eae	0.05874508
56	0xbc9475c6	-0.018122565
57	0x3c77d11f	0.015125542
58	0xbdd10cd8	-0.10207528
59	0x3caf2ee1	0.021384658
60	0x3eaf2d42	0.34214216
61	0x3bd0a334	0.0063671116
62	0xbe2b7566	-0.16744003
63	0x3c7a76f1	0.015287147
64	0xbe434b4a	-0.19071689
65	0xbe79fd07	-0.24412929
66	0xbc214422	-0.009842904
67	0x3d0f4e2c	0.03498666
68	0x3de0ff17	0.109861545
69	0xbe31f9db	-0.17380469
70	0x3e46b184	0.19403654
71	0xbbbc3102	-0.005743147
72	0x3ecec656	0.40385693
73	0xbe17277a	-0.14761153
74	0x3d8a2d9e	0.06746982
75	0x3ccae1bb	0.02476584
76	0x3d63caf2	0.055613466
77	0x3e4d2782	0.20034602
78	0xbdfd6f4d	-0.123747446
79	0x3db67587	0.08909135
80	0xbd18fdb2	-0.037351318
81	0x3e038461	0.12843467
82	0x3e04fba4	0.12986618
83	0x3cb825d6	0.02247898
84	0x3e232f4d	0.15936013
85	0x3d331834	0.043724254
86	0xbda23fff	-0.079223625
87	0x3d9dcf76	0.07705586
88	0xbd66857c	-0.056279644
89	0x3d96a374	0.07355395
90	0xbe9a4992	-0.30134255
91	0xbcb33d5f	-0.02187985
92	0xbd55d4f9	-0.05220506
93	0x3d5e57df	0.05428302
94	0x3ec47dd1	0.3837724
95	0xbc2d3069	-0.010570624
96	0xbd52e1af	-0.05148476
97	0x3dd39cec	0.10332665
98	0xbdcabc46	-0.098991916
99	0xbe86ce38	-0.26329207
100	0xbdd9fee6	-0.10644321
101	0x3e51d78f	0.20492385
102	0xbe895765	-0.2682449
103	0x3d2476b5	0.04015227
104	0xbdcb2ad6	-0.0992028
105	0xbc1e2982	-0.009653451
106	0x3e07ba04	0.13254553
107	0xbe276df1	-0.16350533
108	0x3e60c366	0.21949539
109	0x3e63cd2e	0.22246239
110	0xbe080465	-0.13282926
111	0xbd59c20b	-0.05316357
112	0xbe955c9e	-0.29172224
113	0xbe20277d	-0.15640064
114	0xbca814ad	-0.020517671
115	0x3d5df9b4	0.054193214
116	0x3e5a53da	0.2132105
117	0x3dba2c06	0.09090428
118	0xbe86e6d6	-0.2634799
119	0xbd190a39	-0.037363265
120	0x3d91f78f	0.07127296
121	0xbdac2bca	-0.084067896
122	0xbcf4b1da	-0.029869962
123	0x3dec88e7	0.115495495
124	0x3e99a78c	0.3001064
125	0xbc603c90	-0.013686314
126	0xbdc86385	-0.09784607
127	0xbe9a22fd	-0.3010482
128	0x3e70a7b4	0.23501474
129	0x3db6a055	0.089173
130	0xbe0a7b10	-0.13523507
131	0xbdce8a2e	-0.100849494
132	0xbddaa35e	-0.10675691
133	0xbe385e75	-0.18004782
134	0xbe5c9272	-0.2154024
135	0xbe622508	-0.22084439
136	0xbd8816d4	-0.06644979
137	0x3d1db175	0.038499314
138	0x3eaa2fc6	0.33239573
139	0x3c7a0ade	0.01526138
140	0x3e808c99	0.25107267
141	0xbd8b5ef4	-0.0680522
142	0x3ef2f93a	0.4745577
143	0xbab05d5b	-0.0013455556
144	0x3ee24f39	0.44201067
145	0x3e2c1334	0.168042
146	0xbdf9f936	-0.12205736
147	0x3e47c4f3	0.19508724
148	0x3e931aed	0.2873148
149	0x3e4954dc	0.19661278
150	0xbe20bcc2	-0.15697005
151	0x3e384e05	0.17998512
152	0xbdcdfe79	-0.100583024
153	0xbdabe784	-0.083937675
154	0x3f0c1a16	0.54727304
155	0x3da151e9	0.07876951
156	0xbe34b4de	-0.1764712
157	0xbe91528c	-0.2838329
158	0xbd44df3c	-0.048064455
159	0x3d9429b1	0.072345145
160	0x3e0a9333	0.13532715
161	0xbb70f06f	-0.0036764403
162	0xbe910da8	-0.2833073
163	0x3d125516	0.035725676
164	0x3db31432	0.08744086
165	0x3e2ea151	0.17053725
166	0x3deb95da	0.11503191
167	0x3d84bfb3	0.06481876
168	0xbe8d64f8	-0.27616096
169	0xbd9826c3	-0.07429268
170	0xbe8e5771	-0.27801087
171	0x3b3cd6bb	0.0028814513
172	0x3d179aa0	0.037012696
173	0xbda19cd8	-0.07891244
174	0x3e5c59ef	0.21518682
175	0x3d63a0b9	0.0555732
176	0x3e51ccd1	0.20488288
177	0xbc7cbf8e	-0.01542653
178	0x3d3ec19e	0.046571366
179	0x3dc78282	0.09741689
180	0xbe91842e	-0.28421158
181	0x3cd902f6	0.02649067
182	0x3de06710	0.109571576
183	0xbd905724	-0.07047871
184	0x3e8f819e	0.28028578
185	0x3d89a622	0.067211404
186	0x3de3e212	0.11127104
187	0x3e0f9278	0.14020717
188	0x3f0060e6	0.50147855
189	0x3cd4d1fd	0.025979036
190	0x3d6b7133	0.057481002
191	0xbcb2e54a	-0.02183785
192	0xbe07f497	-0.13276897
193	0xbdf1dde9	-0.11809904
194	0x3d3f915f	0.046769496
195	0x3e06e5da	0.13173619
196	0x3de48e4e	0.11159955
197	0xbe879a2c	-0.2648481
198	0x3e0933ed	0.13398714
199	0xbda10651	-0.07862533
200	0x3e41c6d4	0.18923503
201	0xbe6b7825	-0.2299505
202	0xbbf60f74	-0.0075091664
203	0x3d4d3987	0.05010369
204	0x3d6ab3e8	0.05730048
205	0x3da4417e	0.08020304
206	0xbe89067b	-0.26762757
207	0xbcb7a5cc	-0.022417925
208	0xbde0cec5	-0.10976938
209	0x3e2c48eb	0.16824691
210	0x3cfc54ec	0.030802213
211	0xbd88d2b3	-0.06680813
212	0x3e886729	0.26641205
213	0x3dccb317	0.09995096
214	0x3d76e8db	0.060280662
215	0xbd551357	-0.052020397
216	0x3e3fe9fd	0.18741603
217	0x3d5c322f	0.053758796
218	0xbeb16753	-0.34649143
219	0x3cf92bf8	0.030416474
220	0xbd627bc7	-0.055293825
221	0x3e38955c	0.18025726
222	0x3e6f37e7	0.23361169
223	0x3dede880	0.116166115
224	0xbe001729	-0.12508835
225	0x3d4a9520	0.049458623
226	0xbe21041c	-0.15724224
227	0xbe2d04cc	-0.16896361
228	0xbe3e5123	-0.18585639
229	0xba9646fa	-0.0011465244
230	0xbd886476	-0.066597864
231	0x3dd1ed72	0.10250367
232	0x3db03141	0.086031444
233	0xbc154daa	-0.009112755
234	0xbd7b7faa	-0.061401047
235	0xbd9fa9e7	-0.07796078
236	0x3e9aefdd	0.30261126
237	0x3e981513	0.29703578
238	0xbeaf1fdf	-0.34204003
239	0xbd94eaf3	-0.072713755
240	0x3e64a205	0.2232743
241	0xba29dfed	-0.0006480206
242	0xbe599c3c	-0.21251005
243	0xbe3c2b76	-0.18375954
244	0x3e5f070e	0.21780035
245	0x3c355efe	0.011070011
246	0xbdae5a16	-0.08513276
247	0x3def03a4	0.11670616
248	0xbd4345e5	-0.04767408
249	0xbd17695e	-0.03696572
250	0xbd909ead	-0.07061515
251	0xbdb060f0	-0.08612239
252	0x3e95aca5	0.2923328
253	0x3d5cafb6	0.05387851
254	0xbeabd6af	-0.33562228
255	0xbee69147	-0.45032713

weight_hh_l0 f4 [128, 32]
0	0xbdbbb101	-0.0916462
1	0xbca42af6	-0.020040017
2	0xbeb7b1cc	-0.35877836
3	0x3e3f0cdf	0.18657254
4	0x3e35bad8	0.17747056
5	0x3f052f5f	0.5202541
6	0x3e4d14af	0.20027421
7	0xbcf84242	-0.030305032
8	0x3dda7e3f	0.10668611
9	0xbd492ae5	-0.049113173
10	0x3ecd93a8	0.40151715
11	0xbd84bb0c	-0.06480989
12	0x3daf051a	0.08545895
13	0x3d67c3ce	0.05658322
14	0xbdb6bba0	-0.089225054
15	0x3e230795	0.15920861
16	0x3e50e671	0.20400406
17	0xbdf3df37	-0.11907809
18	0x3e2536fe	0.16134259
19	0x3e6517bc	0.22372335
20	0xbe1a17cb	-0.15048139
21	0x3e05ae93	0.13054876
22	0xbd9d2b02	-0.07674219
23	0x3d2e365f	0.04253232
24	0x3e223027	0.15838681
25	0x3e43cd52	0.19121292
26	0xbe806270	-0.25075102
27	0x3e0d08d0	0.13772893
28	0x3e55d128	0.20880568
29	0xbd405386	-0.046954654
30	0x3df9e7f1	0.122024424
31	0x3e388523	0.18019538
32	0xbc48913d	-0.012241659
33	0xbe56be51	-0.20971037
34	0x3e3a681b	0.18203776
35	0x3cf05986	0.029339563
36	0xbe1e4625	-0.15456446
37	0xbe0a5b63	-0.13511424
38	0xbe8c2920	-0.27375126
39	0xbe46cd35	-0.19414218
40	0xbe7ebc77	-0.24876581
41	0x3dbbefb1	0.09176577
42	0xbe900fb3	-0.28136978
43	0xbdb17e90	-0.08666718
44	0x3c5a2f44	0.013316933
45	0xbd0ac6d3	-0.03388102
46	0xbc426026	-0.011863744
47	0xbc71a7d4	-0.014749486
48	0xbd00fd7d	-0.031491745
49	0xbdeecea6	-0.11660509
50	0x3da52352	0.080633774
51	0x3e72e2bb	0.23719303
52	0x3e9ff609	0.31242397
53	0xbd3f4210	-0.04669386
54	0x3c4fe2b7	0.01268833
55	0x3d573aac	0.05254619
56	0x3e00a732	0.1256378
57	0xbe2fbf09	-0.17162718
58	0x3e6a6e4d	0.22893639
59	0xbe1384c9	-0.14406122
60	0xbd05c969	-0.032662783
61	0x3e15e38b	0.14637582
62	0xbe4d017f	-0.20020102
63	0x3dd1c09a	0.10241814
64	0xbdd4d5dd	-0.10392354
65	0xbe0f19bf	-0.13974665
66	0x3e00a781	0.12563898
67	0xbe2a5ad6	-0.16636214
68	0xbe053fe3	-0.13012652
69	0xbdd89efa	-0.105771974
70	0xbd46d687	-0.048544433
71	0x3d0faf95	0.035079557
72	0xbdfede56	-0.12444751
73	0xbe020252	-0.12696198
74	0xbe183beb	-0.14866607
75	0xbca92ad2	-0.020650301
76	0xbe2945ad	-0.16530485
77	0x3e4a35ca	0.19747081
78	0x3e19acb9	0.15007295
79	0xbd7cf857	-0.061760273
80	0xbd3623b8	-0.044467658
81	0xbdb9a430	-0.090645194
82	0xbe5ca1f1	-0.2154615
83	0xbe89764b	-0.26848063
84	0xbdfca131	-0.12335432
85	0xbe080410	-0.132828
86	0xbe7b13b8	-0.24519241
87	0x3e492240	0.19641972
88	0xbe20a4a4	-0.15687805
89	0xbda611f9	-0.08108897
90	0xbea64a1a	-0.3247841
91	0xbd88b4d8	-0.06675118
92	0xbe6387f5	-0.22219832
93	0x3e004520	0.12526369
94	0x3d8d91a1	0.06912542
95	0xbcb9afd6	-0.022666853
96	0x3ca612a2	0.020272557
97	0x3d142013	0.0361634
98	0x3e6ee75e	0.23330447
99	0x3e42868b	0.18996637
100	0x3ec39e83	0.38206872
101	0xbdc31461	-0.09525371
102	0xbd14a554	-0.03629048
103	0xbe04b15b	-0.1295828
104	0xbe5654d7	-0.20930801
105	0x3e26c47a	0.16285887
106	0xbdde15eb	-0.10844024
107	0x3e935655	0.28776804
108	0x3e27d3b5	0.16389354
109	0xbf09810b	-0.5371253
110	0x3d8b2872	0.06794824
111	0xbd123cfe	-0.035702698
112	0xbe29911e	-0.16559264
113	0xbe4dc8bf	-0.2009611
114	0xbe9c5eb8	-0.30541015
115	0xbdf11fe2	-0.11773659
116	0x3d9809af	0.07423722
117	0x3db45691	0.08805574
118	0x3e186c00	0.14884949
119	0xbe41dfbd	-0.18933006
120	0xbe6412fa	-0.22272864
121	0x3de3c00d	0.11120615
122	0xbda87598	-0.08225554
123	0xbdbed558	-0.09318036
124	0xbec23088	-0.3792765
125	0x3de94944	0.113909274
126	0xbca483c3	-0.02008236
127	0x3d9a06cb	0.07520827
128	0x3e138d22	0.14409307
129	0x3e387dd5	0.18016751
130	0x3e19299f	0.14957283
131	0x3db62a96	0.088948414
132	0xbc904bc0	-0.017614245
133	0xbccc6f50	-0.024955422
134	0xbdea4ba2	-0.11440207
135	0xbe4f3512	-0.20235088
136	0xbdfcff24	-0.12353352
137	0x3c323e33	0.010879087
138	0xbe9ff7b4	-0.3124367
139	0x3cd2ff34	0.025756456
140	0xbe07b9ef	-0.13254522
141	0xbcc8783b	-0.024471393
142	0x3e2d7dc1	0.16942503
143	0xbd89317a	-0.0669889
144	0xbe6bdfe1	-0.23034622
145	0x3d9f7497	0.077859096
146	0xbc08da9f	-0.008352905
147	0x3dc05c2b	0.0939258
148	0x3df42ca3	0.11922576
149	0xbda55af2	-0.08073987
150	0x3e859ebd	0.2609767
151	0xbe3e720d	-0.18598194
152	0xbde9974c	-0.11405811
153	0xbd18be35	-0.03729077
154	0xbd80144d	-0.06253872
155	0x3dca8177	0.09887975
156	0xbe295667	-0.16536866
157	0x3e54956f	0.2076013
158	0xbcee6e02	-0.02910519
159	0xbe97cca2	-0.2964831
160	0xbd92005b	-0.07128974
161	0xbe01b798	-0.12667692
162	0x3c867d98	0.01641731
163	0xbe820d58	-0.25400805
164	0xbea384ce	-0.3193726
165	0x3e0fc6c2	0.14040664
166	0xbd85fcb8	-0.06542343
167	0x3eec6564	0.46171105
168	0x3e4fd157	0.202947
169	0xbe1d8f53	-0.15386705
170	0xbe9b40b0	-0.3032279
171	0x3d195c48	0.037441522
172	0xbd03ec6c	-0.03220789
173	0x3e033e18	0.12816656
174	0x3e12852f	0.14308618
175	0xbe488dc6	-0.19585332
176	0xbe64e3cd	-0.22352524
177	0xbdda1f3c	-0.10650489
178	0xbe1e7185	-0.15472992
179	0xbd6d816b	-0.05798475
180	0xbe30dfcd	-0.17272873
181	0xbe550ab8	-0.2080487
182	0xbd96d52c	-0.07364878
183	0x3ea2c495	0.31790605
184	0x3e434de7	0.19072686
185	0x3e366bc5	0.17814548
186	0x3c42cc31	0.011889503
187	0xba9faa71	-0.0012181533
188	0x3b8a9c00	0.0042300224
189	0xbea1012e	-0.31446213
190	0x3e8c4ed2	0.27403885
191	0x3da3d17f	0.079989426
192	0x3d7ab800	0.061210632
193	0xbdeec91b	-0.116594516
194	0x3de3bad4	0.11119619
195	0x3db63777	0.08897298
196	0x3bf9d352	0.0076240683
197	0xbe17a9c0	-0.14810848
198	0xbda8a209	-0.08234031
199	0x3e4c93b5	0.19978221
200	0x3d700795	0.05860098
201	0xbdbdf4b2	-0.092751876
202	0x3c947c83	0.018125778
203	0xbe07a48d	-0.13246365
204	0xbd4494f1	-0.047993604
205	0x3e915f2c	0.28392923
206	0xbebac793	-0.36480388
207	0xbe8f0974	-0.279369
208	0x3d308640	0.04309678
209	0xbe508b0e	-0.20365545
210	0x3e2e4d50	0.1702168
211	0xbd1a1f87	-0.037627723
212	0x3ed28594	0.41117537
213	0x3e827814	0.25482237
214	0xbe836617	-0.25663826
215	0xbe16754d	-0.14693184
216	0x3f09bd9f	0.53804964
217	0xbe5b0807	-0.21389781
218	0x3d855554	0.06510416
219	0x3db021ac	0.086001724
220	0x3f0ef55d	0.55843145
221	0xbb51b704	-0.0031999955
222	0xbc934d6b	-0.017981252
223	0x3e46309d	0.19354482
224	0xbd6a112d	-0.057145286
225	0x3dfb75ec	0.12278351
226	0x3da04d6a	0.078272656
227	0x3d44a325	0.04800715
228	0x3e164548	0.14674866
229	0xbebd556b	-0.3697923
230	0x3dcadfe5	0.09905986
231	0xbc646fe5	-0.013942693
232	0xbde37245	-0.111057796
233	0xbdd57496	-0.10422628
234	0xbe3fb591	-0.18721606
235	0x3eacdf0b	0.33763918
236	0x3e84294c	0.25812757
237	0xbe1e26cb	-0.15444486
238	0x3e5731ac	0.21015042
239	0x3dae7995	0.08519284
240	0xbdcbe0d1	-0.0995499
241	0xbcb98c52	-0.022649918
242	0xbdddcc08	-0.108299315
243	0xbdcc0d0d	-0.09963427
244	0xbc03e65a	-0.008050526
245	0x3dba15fa	0.09086223
246	0xbdc27a26	-0.09495954
247	0xbe2c00d9	-0.16797198
248	0x3c39cb22	0.011339935
249	0x3dba1440	0.09085894
250	0x3e3eb4de	0.18623683
251	0x3d342e70	0.0439896
252	0xbe6a2a3d	-0.22867675
253	0x3d5121b5	0.051057536
254	0xbd702982	-0.058633335
255	0xbd5348af	-0.05158299

bias_ih_l0 f4 [128]
0	0xbdc33e9d	-0.09533427
1	0xbdbb2a48	-0.09138924
2	0x3d50de49	0.050993238
3	0x3e0225c7	0.12709723
4	0x3d3d20ef	0.046173986
5	0x3e07f4a8	0.13276923
6	0x3dc552eb	0.09634956
7	0xbdb93299	-0.09042854
8	0x3cad92a6	0.021188091
9	0x3caef113	0.021355188
10	0xbe09c1e7	-0.13452874
11	0xbe26ba8e	-0.16282102
12	0x3cfdca6e	0.030980315
13	0x3e1df8c4	0.15426928
14	0xbe2ef7b5	-0.1708668
15	0xbc8aba1c	-0.016934447
16	0xbbdcaaec	-0.0067342427
17	0x3ddc0bdc	0.107444495
18	0x3de15121	0.11001802
19	0xbe2918ad	-0.1651332
20	0x3d0cefac	0.034408256
21	0x3bfbd2e6	0.007685053
22	0xbe3a079c	-0.18166965
23	0xbd85f561	-0.06540943
24	0x3c9052d1	0.017617615
25	0xbb835fee	-0.0040092384
26	0x3d3241eb	0.043519896
27	0xbd29e1f9	-0.04147527
28	0x3e26fad7	0.16306625
29	0x3de8708f	0.11349594
30	0x3deb9c92	0.11504473
31	0xbc6d352b	-0.014478008
32	0x3e39747e	0.18110844
33	0xbd9e73ad	-0.07736907
34	0xbd84daff	-0.06487083
35	0xbdb93a7f	-0.0904436
36	0x3d766192	0.060151644
37	0x3e40d993	0.18832998
38	0x3e02e40e	0.12782308
39	0x3e8d0ee4	0.27550423
40	0x3e97a97a	0.29621488
41	0x3e31c456	0.17360052
42	0x3e08b948	0.13351929
43	0x3e358b80	0.17728996
44	0x3c7cfedd	0.0154416235
45	0x3e742a15	0.23844178
46	0x3c9f5e99	0.019454287
47	0xbcad60a9	-0.021164255
48	0xbde7d72e	-0.11320339
49	0x3e65932b	0.22419421
50	0x3e4d0b4c	0.2002384
51	0x3e365454	0.17805606
52	0x3d9653a7	0.07340174
53	0x3e4c6ab8	0.19962585
54	0xbd527421	-0.05138028
55	0xbc1b3769	-0.00947366
56	0xbd81339b	-0.06308671
57	0x3d860f60	0.06545901
58	0x3d47a3b4	0.048740104
59	0x3e7b9a33	0.24570541
60	0xbe0e5b0d	-0.1390192
61	0x3dbb468d	0.09144316
62	0x3d27d909	0.040978465
63	0xbb9c491b	-0.004769457
64	0xbe83fd04	-0.25778973
65	0x3d6b75a4	0.057485238
66	0x3dbd723e	0.092503056
67	0xbe356517	-0.17714344
68	0x3d852d36	0.06502764
69	0x3d21f29c	0.03953801
70	0x3dee4b4b	0.11635455
71	0x3dbf46dc	0.09339687
72	0x3dfcbf9e	0.123412356
73	0xbd6997f6	-0.057029687
74	0x3dbdb59f	0.09263157
75	0x3da5cf94	0.08096233
76	0x3df7a4e4	0.12091997
77	0xbd5d4f32	-0.054030605
78	0x3dac03f7	0.08399194
79	0xbdf6cc06	-0.12050633
80	0xbe305ac1	-0.1722212
81	0xbd9ab963	-0.07554891
82	0x3e066cff	0.13127516
83	0xbcc6c7b8	-0.024265155
84	0xbd9082d7	-0.07056206
85	0xbea5794d	-0.32319108
86	0xbd911458	-0.070839584
87	0x3eba73cd	0.36416474
88	0xbe72020b	-0.23633592
89	0xbd38f39c	-0.0451542
90	0x3ccd06a7	0.025027586
91	0xbc014ad4	-0.007891376
92	0xbe371b80	-0.17881584
93	0xbdbc8847	-0.0920568
94	0xbed211b0	-0.4102912
95	0xbd8f3981	-0.0699339
96	0x3bb37929	0.00547709
97	0x3e631735	0.22176822
98	0x3e3e8ec4	0.18609148
99	0x3e1ad3f6	0.15119919
100	0x3e85c3a7	0.26125833
101	0x3ea8c5d7	0.3296344
102	0x3ec7718f	0.38953826
103	0x3df3be24	0.11901501
104	0x3dc7af5f	0.09750246
105	0x3e764b7c	0.24052233
106	0x3d85808d	0.0651866
107	0xbda1a324	-0.07892445
108	0x3d0abfc1	0.033874277
109	0x3e91f51e	0.28507322
110	0x3dff4039	0.124634214
111	0x3e2b7780	0.16744804
112	0x3df4bf54	0.119505554
113	0xbc8cb8d9	-0.017177986
114	0x3e438cab	0.1909663
115	0x3e0701fc	0.1318435
116	0x3ca75321	0.020425381
117	0x3e710857	0.23538338
118	0x3d6f8995	0.058480818
119	0xbb54c6ee	-0.0032467204
120	0x3e86c7eb	0.263244
121	0x3cd61a83	0.026135689
122	0x3e6610a7	0.2246729
123	0x3c9423c5	0.018083462
124	0xbb9dd4a8	-0.0048166104
125	0x3dbad16c	0.09121975
126	0x3e647a50	0.22312284
127	0x3caa8a3d	0.02081787

bias_hh_l0 f4 [128]
0	0x3e08e9e2	0.13370469
1	0x3e2c2232	0.1680992
2	0xbc9a2b0d	-0.018819356
3	0xbd2b5901	-0.041832928
4	0x3e0f92df	0.1402087
5	0x3e61bd83	0.22044949
6	0xbe19e017	-0.1502689
7	0x3c5fbeaf	0.013656302
8	0x3dcc8646	0.09986548
9	0x3dbf75f5	0.093486704
10	0x3d907106	0.070528075
11	0x3d3c2501	0.045933727
12	0x3d011d0d	0.031521846
13	0x3e277ae4	0.16355473
14	0x3d6f474b	0.0584176
15	0x3d0bd6f5	0.034140546
16	0xbd6cac38	-0.057781428
17	0x3ce80420	0.02832228
18	0x3ca20054	0.019775547
19	0xbe572308	-0.21009457
20	0x3d21ae77	0.039473023
21	0x3defdc57	0.11711948
22	0x3de6d6b5	0.11271421
23	0xbe0e37f7	-0.13888536
24	0xbdb70cda	-0.08937998
25	0xbdb284da	-0.08716746
26	0x3bfe553f	0.007761627
27	0xbe0cf43a	-0.1376504
28	0x3e417147	0.18890868
29	0x3e0d02a4	0.13770539
30	0xbcd31bae	-0.025770035
31	0x3c6d73ce	0.014492942
32	0x3d401a9a	0.04690037
33	0x3e131796	0.14364466
34	0x3d71e282	0.059053905
35	0x3c64c8f0	0.013963923
36	0x3d9083be	0.07056378
37	0x3cafd4d9	0.021463798
38	0x3b9a8b8f	0.0047163437
39	0xbc6d0194	-0.014465708
40	0x3d0d991f	0.034569856
41	0xbba6eb43	-0.0050939634
42	0x3d55c2a7	0.052187588
43	0x3d92807d	0.071534134
44	0x3e23d341	0.15998556
45	0x3e80c918	0.25153422
46	0xbe0c471c	-0.13699001
47	0xbdc2beac	-0.09509024
48	0xbd3b56fa	-0.045737244
49	0xbd130ee9	-0.03590289
50	0x3d623ddf	0.055234786
51	0xbc158bf8	-0.009127609
52	0x3d86c688	0.065808356
53	0x3dfb62c9	0.12274701
54	0x3dbf6621	0.093456514
55	0xbe20d146	-0.15704831
56	0xbd1e5128	-0.038651615
57	0x3de20624	0.110363275
58	0xbd2606ab	-0.040533703
59	0x3cdb226e	0.026749816
60	0x3d736b6f	0.05942863
61	0xbdce7fc9	-0.10082967
62	0xbda0e314	-0.07855812
63	0x3e3050b4	0.17218286
64	0xbda0c598	-0.07850188
65	0x3d9a79ac	0.07542738
66	0xbdc5096e	-0.09620939
67	0xbe136b84	-0.14396483
68	0x3e0dd925	0.13852365
69	0xbe259b04	-0.16172415
70	0xbdb3e7bf	-0.087844364
71	0x3dbde7af	0.09272706
72	0xbe0c9d10	-0.1373179
73	0x3e299a98	0.16562879
74	0x3c8fca25	0.017552445
75	0x3e40cf6f	0.1882913
76	0x3da80a78	0.08205122
77	0x3c9a6e0c	0.018851303
78	0x3d7a3c60	0.061092734
79	0xbc6103d4	-0.013733823
80	0xbdaaa479	-0.08332152
81	0x3dc3d826	0.095627114
82	0xbe1b9312	-0.15192822
83	0x3d971be3	0.07378366
84	0xbcc14cf8	-0.023596272
85	0xbe90211f	-0.2815027
86	0x3d78d015	0.060745317
87	0x3e998467	0.29983827
88	0xbe3050a5	-0.17218263
89	0x3e35a3ca	0.17738262
90	0xbe377895	-0.17917092
91	0x3c0717f5	0.008245458
92	0xbea7b345	-0.3275396
93	0xbe05d9b0	-0.13071322
94	0xbe3db5ed	-0.1852643
95	0xbe7f7d08	-0.2495004
96	0x3e8a2b81	0.26986316
97	0x3e4a7c6d	0.19774027
98	0x3daf1946	0.085497424
99	0xbdebc315	-0.11511818
100	0x3db46249	0.08807809
101	0x3eaf876c	0.34283006
102	0x3ea116cc	0.31462705
103	0x3e455daf	0.19274019
104	0x3e0ff312	0.14057568
105	0x3e81a9b9	0.253248
106	0x3c2aab2c	0.010416787
107	0xbd6e323d	-0.05815338
108	0x3d2b07c0	0.041755438
109	0x3e13b121	0.14423038
110	0x3e42f26b	0.19037788
111	0x3e89ff97	0.26952812
112	0x3e890297	0.26759788
113	0x3d28c97b	0.04120777
114	0xbcfdd907	-0.030987276
115	0x3defe36f	0.117133014
116	0x3b5582fc	0.0032579293
117	0x3d3959d0	0.045251667
118	0x3e37a5ba	0.17934313
119	0x3e912afa	0.283531
120	0x3e0d7ee7	0.1381794
121	0x3e1b9ddf	0.15196942
122	0x3c551cf5	0.013007392
123	0x3e505da7	0.20348226
124	0x3e8a9900	0.27069855
125	0x3e223697	0.15841137
126	0x3e177eab	0.14794414
127	0x3daf2910	0.08552754

weight_ih_l0_reverse f4 [128, 2]
0	0x3e012ce3	0.12614779
1	0xbe69893c	-0.22806257
2	0x3d935b2b	0.07195123
3	0x3d4c9c4c	0.049953744
4	0xbe970b6b	-0.295009
5	0xbe666b3d	-0.22501846
6	0x3e1c417f	0.1525936
7	0xbea31b84	-0.3185693
8	0x3c2229ff	0.009897708
9	0xbd101426	-0.035175465
10	0x3d59c5ea	0.05316726
11	0xbef077d3	-0.4696642
12	0x3e034963	0.12820964
13	0x3f0c2144	0.5473826
14	0x3cf5ebf5	0.03001974
15	0xbe4fbbb7	-0.20286451
16	0x3dfe699d	0.12422488
17	0xbec5737c	-0.3856467
18	0xbe911003	-0.28332528
19	0x3d86f0ec	0.06588921
20	0xbe1fb59a	-0.15596619
21	0x3f106924	0.5641043
22	0x3e904556	0.281779
23	0xbe5bd348	-0.21467316
24	0xbebed2c8	-0.37270188
25	0x3e9ed215	0.31019655
26	0xbe05f3d8	-0.130813
27	0xbeb471c4	-0.35243046
28	0x3e2fcd61	0.1716819
29	0xbdfb4222	-0.12268473
30	0x3e233d0a	0.15941253
31	0xbe954bec	-0.29159486
32	0xbe7dd8a0	-0.24789667
33	0x3d5bf5a3	0.053701054
34	0xbdd95f6f	-0.10613906
35	0xbea79812	-0.32733208
36	0xbd97d683	-0.07413962
37	0x3ccd15f5	0.025034884
38	0x3c93873b	0.018008819
39	0x3e4e6f89	0.20159735
40	0xbe0b56b9	-0.13607301
41	0x3ef9b742	0.48772627
42	0xbe8b987f	-0.27264783
43	0x3e9fb9ab	0.3119634
44	0xbf8e36bb	-1.1110452
45	0x3e4a8394	0.19776756
46	0x3e7e2f53	0.2482274
47	0xbe56ba8a	-0.20969597
48	0xbe59864b	-0.21242635
49	0x3ebc971a	0.3683403
50	0xbf5cd3c3	-0.8626062
51	0xbec21781	-0.37908557
52	0x3dce8b26	0.10085134
53	0x3ddce720	0.10786271
54	0xbebd3a2f	-0.36958453
55	0x3ed9bd87	0.4252741
56	0x3ea2da04	0.31806958
57	0xbc95cff0	-0.018287629
58	0xbc9894b5	-0.018625597
59	0x3e3aa60f	0.18227409
60	0x3d081429	0.03322235
61	0x3e10fc18	0.14158666
62	0xbc269084	-0.010166291
63	0xbea8559f	-0.32877824
64	0xbd464541	-0.04840589
65	0xbd65a782	-0.05606795
66	0x3d1e24cd	0.038609315
67	0xbe6adce7	-0.2293583
68	0xbda66f97	-0.08126753
69	0xbe000b1c	-0.12504238
70	0xbd921e29	-0.07134659
71	0xbec29811	-0.38006642
72	0xbddb45ac	-0.10706648
73	0xbd8316e3	-0.0640085
74	0x3e761c85	0.24034317
75	0xbe631158	-0.22174585
76	0xbd6f4fdc	-0.05842577
77	0x3ed6aaf7	0.4192731
78	0x3e18a394	0.1490615
79	0xbdefaa59	-0.11702413
80	0x3dc9da90	0.098561406
81	0xbe0d5efd	-0.13805766
82	0xbd974437	-0.07386058
83	0x3ca750d8	0.020424291
84	0xbd2b0560	-0.041753173
85	0x3e941f79	0.28930262
86	0x3e2826e9	0.16421093
87	0xbe4f30ff	-0.20233534
88	0xbebd94b4	-0.37027514
89	0x3eb0e135	0.3454682
90	0x3e02fe67	0.1279236
91	0xbe57fdca	-0.21092907
92	0x3ddb47da	0.10707064
93	0xbdf15beb	-0.1178511
94	0x3e685a45	0.22690685
95	0xbe16f277	-0.1474093
96	0xbd252b62	-0.040324576
97	0x3c672e02	0.01411009
98	0xbe0cabf7	-0.13737474
99	0xbc98abe9	-0.01863666
100	0xbd873733	-0.06602325
101	0x3d6f6e07	0.05845454
102	0xbdb9a2d0	-0.09064257
103	0x3dc01829	0.09379608
104	0x3e14168d	0.14461727
105	0x3f1e6d9b	0.61885995
106	0xbe72d875	-0.23715384
107	0x3e35e123	0.17761664
108	0xbe19382c	-0.14962834
109	0xbc1ebc93	-0.009688514
110	0xbde00005	-0.10937504
111	0xbe4297b4	-0.19003183
112	0xbd54b102	-0.05192662
113	0x3d25067f	0.0402894
114	0xbe3bebbc	-0.18351644
115	0xbe915c5a	-0.2839077
116	0x3ddd5895	0.10807911
117	0x3dd06a3d	0.10176513
118	0xbdfa739d	-0.12229083
119	0x3e198124	0.1499067
120	0x3e0f1bd8	0.13975465
121	0x3e02b130	0.12762904
122	0x3dd694b7	0.10477584
123	0x3e273484	0.16328627
124	0x3db8a87a	0.09016509
125	0x3cd4b615	0.02596573
126	0x3cfa84c0	0.030580878
127	0xbe6ffff7	-0.23437487
128	0xbe078e38	-0.13237846
129	0xbf005e02	-0.50143445
130	0xbb2cee99	-0.0026387332
131	0x3f7ff8f2	0.99989235
132	0x3c9ef8f6	0.019405823
133	0x3d72f5b9	0.05931637
134	0xbd386609	-0.045019183
135	0xbdea6df7	-0.114467554
136	0x3de3fa69	0.11131746
137	0x3e5d494e	0.21609995
138	0x3e054188	0.1301328
139	0xbd24ba6e	-0.040216856
140	0xbca4b6e7	-0.020106746
141	0xbf10399f	-0.5633792
142	0xbf1c2ee5	-0.61009055
143	0x3f2c3373	0.67266005
144	0xbd61c9fb	-0.055124264
145	0xbebc72c8	-0.3680632
146	0xbed5a7b5	-0.41729513
147	0x3f66d477	0.90167946
148	0x3c0aac6a	0.008463958
149	0xbd7c5c89	-0.061611686
150	0x3e7694fb	0.24080269
151	0xbe1054ce	-0.1409485
152	0x3e2082fb	0.15674965
153	0xbe4696e6	-0.193935
154	0x3c04c4fa	0.0081036035
155	0x3e6022fd	0.21888347
156	0x3c806d88	0.015677229
157	0xbe1b56d1	-0.15169837
158	0x3e121a19	0.14267768
159	0x3d58590a	0.05281929
160	0x3e2ad921	0.1668439
161	0xbd41db8d	-0.04732852
162	0x3e8f6cc1	0.2801266
163	0x3edccb75	0.43123975
164	0x3d10d1ca	0.03535632
165	0xbe5a0ab4	-0.21293145
166	0xbebc0690	-0.36723757
167	0x3d8b4e68	0.06802064
168	0xbdddd87b	-0.10832306
169	0x3d8cf651	0.068829186
170	0x3e122827	0.1427313
171	0xbd389d0b	-0.045071643
172	0xbf3ecbf6	-0.7452997
173	0x3e01eb5b	0.12687437
174	0x3bb02d05	0.0053764605
175	0x3e49c451	0.19703795
176	0xbc6ee5e1	-0.014581175
177	0x3eab76a0	0.3348894
178	0x3f42b082	0.7605058
179	0x3f0e99cb	0.5570342
180	0xbcf9546b	-0.030435761
181	0xbe7a95d1	-0.24471213
182	0x3d98281c	0.07429525
183	0xbe0bfc9a	-0.13670579
184	0xbefc0ab7	-0.49226925
185	0x3e4b11d7	0.19831024
186	0x3ea006d7	0.31255218
187	0xbe6d36d0	-0.2316544
188	0x3dcabe04	0.09899524
189	0xbeafbe3e	-0.3432483
190	0x3e863491	0.2621198
191	0xbe038070	-0.12841964
192	0x3e6642e0	0.22486448
193	0xbdce78c4	-0.10081628
194	0x3e12fb59	0.14353694
195	0xbd7e3874	-0.062065557
196	0xbe968b9d	-0.2940339
197	0xbe276b94	-0.16349632
198	0xbe73debd	-0.23815437
199	0xbe4f338e	-0.2023451
200	0x3d9c08ad	0.07618842
201	0x3e2c93ad	0.16853209
202	0x3da4786e	0.08030783
203	0xbcc83a35	-0.024441818
204	0xbe034819	-0.12820472
205	0x3ee3ba88	0.4447825
206	0x3e0ec1e8	0.13941157
207	0xbe85aac1	-0.26106837
208	0xbeac1f82	-0.3361779
209	0xbe9d0731	-0.3066955
210	0xbe512867	-0.20425569
211	0x3acafab7	0.0015486096
212	0x3d597f55	0.05309995
213	0x3d9b8ef2	0.07595624
214	0x3edde41b	0.43338093
215	0xbe95bccc	-0.29245603
216	0xbe21a7d1	-0.15786673
217	0x3e030b84	0.12797362
218	0xbdb4ede0	-0.088344336
219	0xbe027bcd	-0.12742539
220	0x3e19bd20	0.15013552
221	0xbe9cbdbf	-0.30613515
222	0x3d39f440	0.04539895
223	0x3be6c836	0.00704291
224	0x3d56c2ac	0.052431747
225	0x3e4543ab	0.19264095
226	0xbd9ffef1	-0.07812298
227	0xbf14178f	-0.5784845
228	0xbd2c5e5b	-0.042082172
229	0x3d0820fc	0.03323458
230	0xbe15fd07	-0.14647304
231	0x3e6fc473	0.23414783
232	0xbd9c08b0	-0.076188445
233	0x3ed1a35f	0.40944955
234	0xbe991762	-0.29900652
235	0x3f0a99a3	0.5414068
236	0xbefcc04a	-0.49365455
237	0xbde753f0	-0.11295307
238	0x3e04e173	0.12976627
239	0xbea81a12	-0.3283239
240	0xbe50adc6	-0.2037879
241	0x3ec0f537	0.37687084
242	0xbe25c3f8	-0.16188037
243	0xbf08c59e	-0.5342654
244	0xbe3db5c9	-0.18526377
245	0x3e8c3dd1	0.27390912
246	0xbe910a13	-0.28328
247	0x3eb1bc8b	0.3471416
248	0x3ec9e2fa	0.39430982
249	0xbd8232ac	-0.06357321
250	0x3d248175	0.040162522
251	0xbcf9f50c	-0.030512355
252	0xbadac826	-0.0016691729
253	0x3e67f552	0.22652176
254	0xbdd955ab	-0.10612043
255	0xbe93792c	-0.28803384
