experiments/pedestrians/models/zara2_vel/model_registrar-100.pt (torch_old, 545346 bytes, 43 tensors)

weight_ih_l0 f4 [128, 6]
00000000: 6970 b93c 5592 2d3e 66b4 9ebe 0f2c a2be
00000010: 6aef 1bbd 407e 6f3e 8e5a 293b 0add 0cbe
00000020: f825 4dbe 4472 203e 1def ea3c a21d e8bd
00000030: 2d9a a23d e635 0ebc 88c1 27bd b53e f5bd
00000040: a284 7abf f81f bbbe a338 833d 32f8 61bd
00000050: 764c c93c dfc0 b9bb 74c7 7bbe 5642 2a3f
00000060: 6939 22bd c3d1 bbbd 6dca 72be ecfc 873e
00000070: 852d b73e f6ae eabf e11d a0bd 1b8c bf3e
00000080: bb23 193f 9120 d7be 12c1 aa3d d079 fcbd
00000090: 3a5f 92be cd55 293e cb1b d93c 4643 78be
000000a0: 589c 8bbe e92a 07be 6db1 94be 12b7 2abe
000000b0: c827 863e 68ba 463e 0d51 263d 4855 f33c
000000c0: c4ab 723e 7cac 04be 7d49 19bd 63e4 88bb
000000d0: 248b 273f 9cee 283d 49b1 d6be 980d 08bf
000000e0: 5957 033f 69f2 cd3e 6723 033e a2a6 c63e
000000f0: af42 cf3e fd48 8bbe 8e9b 27bf 809c 763e
00000100: c633 e9bc a091 d23e a4ba eebd 0913 c9bd
00000110: c85f 5d3d 4f8c 3b3e f13c 2bbd 2e75 ddbd
00000120: 2587 dfbd 7faf 71be be3b a639 c221 083e
00000130: 0b06 f23e 415b 9c3d 309f 71be b64a 3abe
00000140: ecce 103f 1ec7 173f 24c0 a53e 3a8e 4a3f
00000150: 94b6 bfbe 4fe1 76bd 9097 18bf 5f7a d13d
00000160: 857f b13d 8dc6 283d 5382 b2be d174 723e
00000170: 47e3 8b3e 2c2f b83c d388 82be 109b a63e
00000180: f5ed a63d c7e2 a33d 844b 8fbe 272a fc3e
00000190: 2b8f 3ebd c0c4 0fbf be8c 8a3d 7d90 2abe
000001a0: 928d cd3d 5136 993d c3a5 bebe a2ac 2ebe
000001b0: 1a7e ca3d 1420 49bb a40d 9b3b 97bd ea3e
000001c0: 3afa 1bbd 5f32 bc3e e843 89be e932 59be
000001d0: 3e3b 81bd 91eb 8b3d ef8c 0abe 92f4 993d
000001e0: 3a50 88be 0afb cf3d 7542 f63d 12a5 8dbe
000001f0: 3b7d 193e b4f4 27bc 1a36 0b3f 3e58 153f
00000200: 197d 44bf 16ea 17bf afe3 f43e c693 2b3e
00000210: dec3 21bd f4b9 61be 1628 983d 7bf2 e33c
00000220: 3432 063e 3cca ccbd bf14 4dbe dea8 c8bc
00000230: b74f 313e d212 15bd 56f3 f03e 58bb 85be
00000240: 0141 e03d 16cc 9abd b216 f8bd c96b 9ebd
00000250: 3912 36bf 9f8e 363e a491 f4bd e6b1 a5bd
00000260: d24f d03d b870 8b3d 221c 8f3e 9ae2 0c3e
00000270: 398b 9cbd ec3f 4dbe 5304 81bc 7d3e 8e3e
00000280: 9eb3 68bd 219f ea3e c548 9a3b c86d a73e
00000290: f452 1d3f 4cd9 073f 0c6e 8a3e d0fc fe3e
000002a0: 7f78 86be 4fc4 633e bda3 acbe 20b5 d63d
000002b0: 8fa5 b23d 9d37 973e 8c74 a6be dec5 843d
000002c0: 1cf1 0fbc ee7c 46be f646 5f3e 7192 963d
000002d0: 4f6c cebc ce10 31be 0619 483e f2fb be3d
000002e0: 9629 63be 6b22 3dbe 65c7 063e 3f8e 7fbd
000002f0: 2623 82be 59f1 6f3e 81f9 64be 788f 763d
00000300: e025 c53e 6831 873e 41ef 6fbe b588 ffbe
00000310: e3f3 293b fee8 5239 1f1a 9abc ceee cc3d
00000320: 03d0 f4bd e422 1a3d d6d7 e73c 3926 47be
00000330: 6d36 15be 3e23 a0bd 8ec6 7dbe cdd9 35bb
00000340: 7a6a 523e ea44 18be 543a a0bd 3da2 48bd
00000350: 8f17 373e da65 1dbd ad4f 9dbd 07dc f7bd
00000360: 0c9a 993e bad9 9fbd 6a3a 5f3e 8c36 0ebe
00000370: ec81 49be ea77 bf3e 7f85 ac3e aa99 873d
00000380: 01f1 393e 84ba aebe d0bb bfbe da57 f4bd
00000390: f35d c7bd 7858 7f3e 8aa3 3d3e 66fc bdbe
000003a0: ed85 46be f74f 0cbc 3215 04be 44b1 95be
000003b0: 80d7 5f3e 1660 a63a 5681 cd3d 6ecf 9f3d
000003c0: 06a8 503e 693c 0abe e766 a53e 0406 c1bd
000003d0: bf36 cdbe 08fe 9e3e c87a 7b3c 1e6b 72bd
000003e0: e762 763e 5e03 893e 8f8e 183e b9aa 11bd
000003f0: 1f67 893e 8343 c2be 0e27 68be c546 d03e
0.02263661 0.16950352 -0.30997008 -0.3167424 -0.03807012 0.23388004 0.0025841328 -0.13756195
-0.20034015 0.15668589 0.028678471 -0.11333777 0.07939563 -0.008679843 -0.04095605 -0.11974851
-0.9785863 -0.36547828 0.06407287 -0.055168338 0.024572592 -0.005668744 -0.24587804 0.6650747
-0.03960553 -0.09170868 -0.23710032 0.26560152 0.35776916 -1.8334644 -0.07818199 0.3741158
0.59820145 -0.42017034 0.083376065 -0.123279214 -0.28588277 0.16536637 0.02650251 -0.24244413
-0.27267718 -0.13199963 -0.29041615 -0.16671398 0.26202226 0.19407046 0.04060464 0.029703751
0.23698336 -0.12956423 -0.0374236 -0.0041776164 0.65446687 0.04124318 -0.41932133 -0.5314574
0.51305157 0.40224007 0.12806474 0.38799006 0.40480563 -0.27204123 -0.6547173 0.24083138
-0.02846707 0.41126728 -0.116566926 -0.09818084 0.054046422 0.18315242 -0.041806165 -0.10813366
-0.10914449 -0.23602103 0.000317065 0.13294128 0.47270235 0.07634593 -0.23595881 -0.18192562
0.5656574 0.59288204 0.32373154 0.7912327 -0.37443984 -0.060273465 -0.59606266 0.102284186
0.086669005 0.041204978 -0.34865054 0.23677374 0.27321836 0.02248343 -0.25495014 0.32540178
0.081508555 0.08002239 -0.279873 0.4925091 -0.046523254 -0.5615959 0.06765126 -0.1665668
0.10036768 0.07481063 -0.3723584 -0.17058042 0.09887333 -0.0030689286 0.0047318507 0.4584777
-0.03808043 0.3675718 -0.2680962 -0.21210827 -0.06310128 0.0683204 -0.13530324 0.07517351
-0.26623708 0.10155304 0.120243944 -0.27665 0.14989178 -0.010251213 0.5437943 0.5833777
-0.76753384 -0.5934156 0.4782996 0.1675559 -0.039493434 -0.22043592 0.07429521 0.027825585
0.13105088 -0.09999511 -0.20027445 -0.024494585 0.17315565 -0.0363949 0.4706065 -0.26119494
0.109498985 -0.075584576 -0.12113704 -0.07735402 -0.71121556 0.17827843 -0.11941841 -0.08090572
0.101714745 0.06808609 0.2795115 0.13758317 -0.07643742 -0.20043916 -0.015749132 0.2778205
-0.05681192 0.4582453 0.004708382 0.32700944 0.614547 0.53065944 0.27037084 0.49802256
-0.26263806 0.22242855 -0.33718672 0.104837656 0.08722984 0.29534617 -0.32510793 0.06483053
-0.008785512 -0.19383594 0.21804413 0.0735215 -0.02519813 -0.17291567 0.19540796 0.093253985
-0.22183833 -0.1847016 0.13162 -0.062391516 -0.2541744 0.2343191 -0.22360803 0.060195416
0.3850546 0.2640488 -0.23431112 -0.49908987 0.0025932721 0.00020113957 -0.018811284 0.10006486
-0.119537376 0.03763093 0.02830116 -0.19448175 -0.14571543 -0.07819222 -0.24782774 -0.0027748228
0.2054843 -0.14870039 -0.07823625 -0.048982847 0.1788008 -0.03842721 -0.076812126 -0.12102514
0.3000034 -0.078052 0.21799627 -0.13887995 -0.19678468 0.37396175 0.336956 0.06621106
0.18158342 -0.34126675 -0.37447977 -0.11930819 -0.09734716 0.24936092 0.18519416 -0.37106627
-0.19387026 -0.008563987 -0.1289871 -0.29236805 0.2185955 0.0012693431 0.100344345 0.07803236
0.20376596 -0.13499607 0.3230507 -0.094249755 -0.4008083 0.31053185 0.015349098 -0.059184186
0.24061166 0.2676038 0.14898132 -0.035563204 0.26836488 -0.37942132 -0.22671148 0.40678993

weight_hh_l0 f4 [128, 32]
00000000: e3db 763e 1e4a 26be 6695 db3e e734 933e
00000010: 6270 fc3d 7561 48be 6dce 92bb 45b3 79be
00000020: 3111 663e 9833 023f 98b8 0dbf e4d0 be3e
00000030: 9ef6 a4bc 3623 8f3e a8d4 65bd 65b5 8abe
00000040: 9938 9d3c f041 16be 0ff3 ee3d 0a86 f2be
00000050: 51e1 0fbe a591 703e 8d02 a5be 047c bfbe
00000060: 421a 7b3d 79ce 46be c050 893e c14c 943e
00000070: 0510 3bbe 12ca 2f3a 4d9f 873e 46e9 adbd
00000080: 3d4a 19be 64a3 4ebf c903 653e 3675 7ebe
00000090: 5a03 e13e edf9 acbd 8a4e 44be bfca d4bd
000000a0: 19e9 c43e 10e3 6e3e af22 86be f096 a23d
000000b0: 30bd 94be 9c70 463e ed04 aabe c7fd 21bf
000000c0: ed14 f1be 9412 103d 74f8 9f3e 3aac e6be
000000d0: 8648 5cbc 4994 3d3e 542b 10bf 3ce9 91be
000000e0: 4159 3d3e 1063 e8be 9722 c5bc 98ff 08bf
000000f0: a211 34bf 7dbb 70be dbc8 fc3e 57a8 033d
00000100: c777 823e 2aaf 943e 971e a13e c33f aa3e
00000110: 757b 263e 94f1 e53d dfae 99be 2b49 65be
00000120: 093c 6b3e 0adb d63e 5704 1abf b2ba 303e
00000130: 00a5 63bd caa3 16be b494 703d 2790 e6be
00000140: dc0f 11bd efcf 4dbe abb9 893e 3c3a c3be
00000150: 3e4c 103e dada 643e 27ff 2c3e ae38 bd3d
00000160: 39e1 2b3e cd8a 6dbd cd0b 7e3e 3bd8 cc3d
00000170: 4458 53be b969 093f 1ce0 6ebe 3fff 91bd
00000180: 7aa4 b2be 2c47 8e3d 7e08 b7bd c2fe d83d
00000190: 3712 3b3e cb39 32be 04f1 acbe fa05 c7bd
000001a0: 624f b13e 9fc7 853e 0500 e7be 393d 8e3d
000001b0: 5e05 c0be d12e 353d b34a b5be 1829 e2be
000001c0: b9ae 86be bfdb ff3d a091 123e 5290 edbe
000001d0: ac95 3e3d 1022 0c3f f616 83bd 112c 5cbe
000001e0: 00ec 92bd 0f99 5cbe 5614 f4bd d50e 65bd
000001f0: f3d2 febe 8720 823e 2e37 c93e 7bf4 39be
00000200: 24cd 57be 4a89 b23e 79e1 5f3e 3b82 cd3d
00000210: 8032 2d3f dca0 afbd 31ae ae3e 4fb0 e8be
00000220: b0b4 273e fb18 e53d d8b2 99be d4b1 893e
00000230: c427 14bf 074a febd 3c7e 0dbe a068 35bf
00000240: 45d6 84be cacd 49be 518c cdbd 21ba f1be
00000250: 6fae c0be cbf5 e83e 33ca 033f d51f 17be
00000260: fbf8 b53e 96bc c3be 1875 4b3e 6e13 d9be
00000270: 5e3d 45be dc99 8cbe f582 383d 4c07 00be
00000280: 3ef8 583d 4ade b0be 4c9d 033e 71de d9bd
00000290: 33be 70bd 856c 22be 71e4 e53e 8d76 9dbe
000002a0: c866 1cbd 2580 103d 6da2 283e 05d3 89bd
000002b0: 43b5 43be 5d02 8a3e 0362 12be 0b6f 29be
000002c0: 12a1 aabd 7952 953e 5d88 94bd 5438 3b3c
000002d0: 9f7c 04be 8ffd 0a3e 914f d5bc fc41 a7be
000002e0: 8888 59be 146b 75bd 0e71 0f3e 175f 703d
000002f0: 2501 cebd 7ca6 31be 940e 473e bba1 7d3e
00000300: 0539 d53d 9c49 9fbd 846c f8bd 10ef a0bd
00000310: ff85 753e b258 71be 9c9f f7bd 1917 acbe
00000320: 1f13 843c 7b6c 933d d839 88be 33d3 a23d
00000330: 1cff 5a3e 6043 e83e 2aac 8ebe 0d66 bbbe
00000340: b690 34be af0e 19be 0ad8 763e 03c8 00bf
00000350: 46c5 243e 502c 043f 7c5c da3a 0edc 90be
00000360: 91d6 b7be 3ab3 8abe ea5e 133e 6551 59be
00000370: 59d6 1cbf 1da5 013e 7944 cebb 1651 733a
00000380: 3398 58be b24b 82be 10aa 1f3d 0b00 b73c
00000390: 7ddb 073f 10f2 6c3d d3fb b7bd 7c4c d23e
000003a0: cafc ad3e 9936 62be 3d73 163e c8a5 ddbd
000003b0: 1cad 453e 9750 26bd a6a3 4a3d fd59 76bc
000003c0: c44b 46be bc15 12bd e12b e53d cbb5 2fbe
000003d0: aabc 08bd 2aef 833e b3e2 783e 119d cabe
000003e0: 4742 2bbd d31d 43bc a4e6 c3bd d518 a8be
000003f0: cbf3 55be 5d69 cf3e 1615 fcbd a75a 593e
0.24107318 -0.16239211 0.4288742 0.287513 0.12326123 -0.19568427 -0.0044801743 -0.24384792
0.22467496 0.50859976 -0.5535979 0.37268746 -0.020137127 0.2795655 -0.056111008 -0.27091518
0.019192027 -0.1467359 0.116674535 -0.4736789 -0.14050795 0.23493059 -0.3222851 -0.37399304
0.06130434 -0.194147 0.2681942 0.2896481 -0.1826783 0.0006705831 0.26488724 -0.08491759
-0.14969726 -0.80718064 0.22364725 -0.248494 0.4394787 -0.08446107 -0.19170585 -0.10390233
0.3845909 0.23328805 -0.26198336 0.07938945 -0.2905059 0.19378895 -0.33206883 -0.6327786
-0.47086278 0.035173967 0.31244242 -0.45053273 -0.013445025 0.18513598 -0.56316113 -0.28498256
0.18491079 -0.4538808 -0.024064345 -0.53515005 -0.70339406 -0.23509021 0.4937199 0.032142963
0.25482008 0.2903989 0.3146865 0.3325177 0.16258033 0.11227718 -0.3001623 -0.22391193
0.2297212 0.4196399 -0.6016287 0.17258719 -0.055577278 -0.14710918 0.058735564 -0.45031855
-0.035415515 -0.20098852 0.26899466 -0.38130367 0.14091584 0.2234911 0.16894208 0.092393264
0.16785134 -0.0579937 0.24809189 0.1000218 -0.2063914 0.53676945 -0.23327678 -0.071287625
-0.3489111 0.06947169 -0.08937167 0.10595466 0.18268667 -0.17404859 -0.3377763 -0.09717937
0.34630877 0.2612886 -0.45117202 0.06945271 -0.37504095 0.0442341 -0.35408553 -0.44171977
-0.26305178 0.12493085 0.14313364 -0.4639917 0.046529457 0.54739475 -0.06400864 -0.21501185
-0.0717392 -0.21542762 -0.11917941 -0.055922348 -0.49770316 0.2541544 0.3929991 -0.18159668
-0.21074349 0.34870368 0.21863355 0.10034605 0.6765518 -0.08575603 0.34117272 -0.45447013
0.1637752 0.11186405 -0.3001926 0.26893485 -0.5787318 -0.12416463 -0.13817686 -0.7086277
-0.25944725 -0.19707409 -0.10036529 -0.47212318 -0.37633082 0.45500025 0.51480407 -0.14758237
0.3554152 -0.38229817 0.19868886 -0.42397636 -0.19261691 -0.27461135 0.045046765 -0.12502784
0.052971117 -0.34544593 0.12852973 -0.106381305 -0.058775138 -0.1586171 0.4490085 -0.3075451
-0.038183957 0.03527846 0.1646821 -0.06729702 -0.19112115 0.26954928 -0.14295201 -0.16546266
-0.08331503 0.29164484 -0.07252572 0.011427004 -0.12938164 0.13573287 -0.026038917 -0.3266753
-0.21243489 -0.05991657 0.1400797 0.058684435 -0.10058812 -0.17348665 0.19439155 0.24768727
0.10411266 -0.07777712 -0.12130073 -0.078580976 0.23976897 -0.23568991 -0.1209099 -0.33611372
0.016122399 0.071984254 -0.2660663 0.07950439 0.21386379 0.45363903 -0.27865726 -0.36601296
-0.17633328 -0.14947008 0.2410585 -0.50305194 0.16090879 0.51630116 0.0016659643 -0.28292888
-0.3590589 -0.27089864 0.14391676 -0.21222456 -0.6126457 0.12660642 -0.0062947837 0.0009281797
-0.2115181 -0.25448376 0.038980544 0.022338888 0.5306929 0.057848036 -0.089835785 0.41073978
0.33981925 -0.2209114 0.14692397 -0.10822636 0.19304317 -0.0406042 0.049472474 -0.015036103
-0.1936484 -0.03566526 0.1119001 -0.17159192 -0.03338305 0.25768405 0.24305229 -0.39572957
-0.041811254 -0.011908966 -0.095654756 -0.32831445 -0.20893781 0.40510073 -0.12308709 0.21225987

bias_ih_l0 f4 [128]
00000000: a573 993d d2fd f93e 1d22 0c3e 3c29 9c3e
00000010: 9160 1f3e c20d a53e ab74 ab3e b5e1 963e
00000020: efeb 9c3e b5c5 383e 095b e03e 5c24 863e
00000030: f564 c63e 65c6 ad3e 6795 693e 23df bbbc
00000040: 83c5 82bd 0375 a43e 8582 233d 3b9b 693e
00000050: ae0d 0f3f 4bd4 a63e a046 e83e 78dd 003d
00000060: aad4 e93e b212 193e 4549 243d 31cf e13d
00000070: fb52 883d 6a71 e83e a828 933e de48 a33e
00000080: b6db 3bbd 733d 08bf 8451 a6be 7c94 b8be
00000090: 0310 ccbe 88ee f7bd 8e6f 17bf e086 bfbe
000000a0: f35a d0be a5a9 47bd 4ce3 41be da11 873d
000000b0: d6d6 aabe 6b1a 8fbe f710 3fbe 7cd3 21be
000000c0: b4e3 833d 787d 03be efcf 85bd 22f6 da3d
000000d0: e1fd 37bf f1d1 0ebe 53cc 83be b60c 84bb
000000e0: 3df7 f1be 3549 273e d924 7f3b aafc e53d
000000f0: 33bb 343c 11a3 3cbf 3ebd 16bf 9dcc c3be
00000100: 25b5 f13d 8947 0c3e 06d7 66bc 1c58 213d
00000110: 3ece 15bd 4527 25bc 3217 c93d cc8e 5cbd
00000120: 3fba 46bc b517 e63d 46a9 02be 3805 7b3c
00000130: a46e febd c273 693c 4548 2cbd f4df 61be
00000140: 85e3 09be 8891 0cbe fc85 113e b4a9 78bd
00000150: d0dd 3b3d 3c3d 033e bc27 d53d a2d0 23be
00000160: 1142 093e 5e02 44be c34f d23c 66c7 b2bd
00000170: 9425 4fbe 931d 083e 9bb5 e13c ae4f 8abd
00000180: 91cd 843e 1e86 da3e d784 473e 77a6 b73e
00000190: b1cf e13e 18d2 873e ded9 b33e a12f a73e
000001a0: 035c 763e 80fa 873e fe5d 5c3e ea30 533e
000001b0: 721b aa3e 850c be3e dc8b 793e 4ec9 163e
000001c0: efb3 ad3d 0e7c 803e 1e7d e73d c7d0 f83d
000001d0: a07f 1f3f d4bb bd3e 2f8e d43e 9473 b63d
000001e0: f189 623e 2c0b 3b3e a813 673e 9941 473d
000001f0: e87c 533e 1c0b 1c3f 300c b23e c445 803e
0.074927606 0.48826462 0.13684888 0.3050021 0.15564181 0.3223706 0.33487448 0.29469076
0.30648753 0.18044169 0.43819454 0.26199615 0.387489 0.33940426 0.22810899 -0.022933548
-0.063853286 0.32120523 0.039919395 0.22813122 0.5588025 0.32583842 0.45366383 0.03146121
0.45670062 0.14948538 0.040108938 0.11025847 0.06656452 0.45399028 0.28741956 0.3189153
-0.04586383 -0.53218764 -0.32484066 -0.36050785 -0.39855966 -0.12106043 -0.59154594 -0.3740759
-0.4069439 -0.04874577 -0.18934363 0.06595202 -0.33367032 -0.27949843 -0.18658815 -0.15803331
0.06439915 -0.12840831 -0.06533801 0.10691477 -0.71871763 -0.13947274 -0.25741825 -0.0040298356
-0.4725894 0.1633652 0.0038931875 0.112298325 0.01103096 -0.7368632 -0.5888251 -0.38242045
0.11802129 0.13699163 -0.0140893515 0.03939067 -0.03657364 -0.010080163 0.09818877 -0.05384712
-0.0121293655 0.112349905 -0.12759885 0.0153210685 -0.12423447 0.01424879 -0.04206111 -0.22058088
-0.13465698 -0.13727391 0.14211267 -0.060708717 0.045865834 0.12816328 0.10407969 -0.15997556
0.13404109 -0.19141528 0.025672799 -0.087294385 -0.20229179 0.13292532 0.027552417 -0.06753479
0.25938085 0.42680448 0.19484268 0.3586919 0.44103768 0.26527476 0.35127157 0.32653525
0.24058537 0.26558304 0.2152023 0.20624128 0.33224064 0.37118927 0.24369758 0.14725229
0.08481585 0.25094646 0.11303161 0.12149196 0.62304115 0.37057364 0.41514727 0.089087635
0.22122933 0.1826598 0.22566092 0.048646543 0.20653117 0.6095445 0.34774923 0.25053227

bias_hh_l0 f4 [128]
00000000: 57fb fa3c ee59 003f d266 483b 1ad7 ee3e
00000010: 494d 993e c0b5 a03d 8ad2 6e3e 80cb f13e
00000020: 2383 c83e 08d0 b03e 211a 3a3e e275 0c3e
00000030: 20c7 183e a138 223f 8d8f 893e 95c9 0c3e
00000040: be70 1abe dfa5 a03e 1d70 64bd 2a44 3c3e
00000050: d1db 343f 8cad 013f 97e1 f63e 7e1d c43d
00000060: 2b7b b73e b994 093e 4cc8 e83d 8300 993c
00000070: e7c3 76bc cba8 e33e b0c0 b63e 82fb bc3e
00000080: 6cda 09be a48f 01bf 267c b2bd 1410 11bf
00000090: b2b7 b8bd 6624 2b3d afb5 e6be d6d6 04bf
000000a0: ac09 abbe 8af9 d6bd bd7f 2ebe f416 9c3b
000000b0: 8643 acbe a7f9 eabe 6a23 a5bd 7a05 ddbd
000000c0: 09fc 87bd 350b 49be 8c7d 17bd d94f 98bd
000000d0: c026 13bf fdc2 9abe 1602 f6be c224 03bd
000000e0: 6a19 2dbf e9bf 14be a8a2 7fbe 9b60 533d
000000f0: 44d2 8cbc 29c1 00bf cfd9 e9be d3f1 a5bd
00000100: 1e34 29be b3f1 06be a1bb 1f3e 270a 85bc
00000110: 735e 613e a832 b63c 1321 b4bd d4f0 e3bb
00000120: 573a 043e 8c72 993c ded3 7539 0897 053d
00000130: a956 673d 6542 a53d d547 f5bd 6936 98bd
00000140: c6dd 2abd 1d47 d73d b25c 8a3d 18c9 3fbe
00000150: 398d e3bd b6ab 8a3d 10dd 0ebe bf6e b43d
00000160: d9ec d5bd 37aa afbd 329e ea3c 68b4 e13c
00000170: ce6a 43be 5a37 15be 1ad3 443b 5158 153d
00000180: 1acf 133e 3aa6 0f3f e1b0 1e3d 5904 163f
00000190: 8e26 0a3f 5eb6 2c3e fac2 0c3f d41a 233f
000001a0: d40f 3f3e 0e6c 933e 58b6 e93e b1f6 903e
000001b0: 7555 b03e cf7a 103f 187a 273e bdd6 1e3e
000001c0: 5e93 d33d 8fc9 e93d b05c 5f3e aae7 02bb
000001d0: f509 163f 8ac9 0f3f f421 113f 36ff 623e
000001e0: 2170 d13e 8c1b 223e 621e 8e3e 84aa 603d
000001f0: 1216 9e3d ee9f 1a3f 7de1 bf3e 040d e73e
0.030637426 0.5013722 0.0030578864 0.46648484 0.29941776 0.07847166 0.23322502 0.4722557
0.3916255 0.34533715 0.1817403 0.13716844 0.1491971 0.6336766 0.26867333 0.13748772
-0.1508207 0.3137655 -0.055770982 0.18385378 0.70647913 0.50655437 0.48218986 0.09575938
0.35836157 0.1343564 0.113663286 0.018677002 -0.015061355 0.44464716 0.35693884 0.36910635
-0.13462228 -0.50609803 -0.08715086 -0.5666516 -0.09019412 0.04178276 -0.4506049 -0.51890314
-0.33405817 -0.104968145 -0.17040916 0.0047634784 -0.33645266 -0.45893595 -0.08063395 -0.1079206
-0.06639869 -0.19633181 -0.036984965 -0.07437105 -0.57481 -0.3022689 -0.48048466 -0.032017477
-0.67616904 -0.14526333 -0.24964392 0.051605802 -0.017190106 -0.5029474 -0.45673987 -0.08102765
-0.16523787 -0.13178138 0.15598918 -0.016240193 0.22008686 0.022240952 -0.08795371 -0.006956199
0.1291288 0.018731378 0.00023443947 0.032614738 0.05647913 0.080693044 -0.119765915 -0.07432253
-0.041715406 0.10511611 0.067559615 -0.18729055 -0.111109205 0.067710325 -0.13951516 0.08810186
-0.10445566 -0.08577388 0.028639887 0.027551845 -0.19083712 -0.14571896 0.0030033053 0.03646118
0.14434472 0.56113017 0.038742904 0.58600384 0.5396508 0.16866443 0.5498501 0.6371281
0.18658382 0.28793377 0.4564693 0.2831321 0.344402 0.5643739 0.16355169 0.15511604
0.103308424 0.114153974 0.21812701 -0.0019974508 0.58608943 0.561669 0.56692433 0.22167668
0.4090586 0.15830821 0.27757555 0.054850116 0.07719053 0.60400283 0.3747672 0.45127118

weight_ih_l0 f4 [128, 2]
00000000: e235 ae3d 68a2 493e 55a0 353b 7691 11bc
00000010: abf2 093e 81d2 c0be 02f5 fcbd 61f5 bdbc
00000020: 5288 343e 0337 12bf 8162 0d3e 28c5 6a3e
00000030: c47e 063d 5659 183e 533c d6be f65f 483c
00000040: 834e 89bd ab31 03be ae1c 05be 11ff adbc
00000050: e7c4 c8bd d3ef 133e 2489 d03e 2cb7 08be
00000060: 693c aabe 3f6e aabe 1621 78be 3f40 d1bc
00000070: e7d9 64be 5449 953d ae7f 87bd da12 153e
00000080: 6203 3abe e010 1d3e 4ab2 44be e45c ed3e
00000090: 5844 69bd 07ea e93d d6b8 9abc 1f3c 123e
000000a0: 7c90 173e 6076 8bbd 8e4d 8f3e 4e3d eb3e
000000b0: d5e2 9d3d 6462 f03e d437 83be 7adf c93d
000000c0: 9b11 a33d 5e17 1e3d 484f 22be eef0 8cbd
000000d0: f4bc 94be 6443 413e cd89 b63c 5dc2 353f
000000e0: 1520 6d3d 9a41 39be c9e1 ac3b 6dda a63b
000000f0: dc32 043e 7ef1 083d 58a1 893e 7a1e 92be
00000100: 8530 8abe 80e1 233d eead 84be a2d0 b0be
00000110: 14e1 6abe fd7a b0be 233e 1a3e ac21 963e
00000120: a033 fb3e c3de 37be 989e c3be 1852 ca3e
00000130: dc53 c2be 56a2 c73d d837 e63e 2666 053d
00000140: 5049 05bf af71 92be b9d4 44bd cadd f7be
00000150: 4c4a debd 8c5d 87be a601 b1be da88 023e
00000160: 41bb 61bb 9701 da3e f74a 3b3f 0a5f d33e
00000170: c664 66be 8e20 f8bd 6129 973e 19f9 203e
00000180: eb19 2d3e 7798 f0be 41dd 3fbe 167f 49be
00000190: edf4 ab3d 5562 b63e e0cf d5be 3d34 913e
000001a0: 1401 5bbf f96b 0cbf 6a0e 923e 05dc c23d
000001b0: 385b 5e3d 865f 003e 78b0 b7bd 95b6 40bf
000001c0: 86c8 3fbe c157 e5bd aed8 f3bd 1fea 3a3d
000001d0: 2807 ba3e b355 d6be 41d6 a33e f707 2d3f
000001e0: d16c 843d 5571 2dbe 9813 cabe d2e0 203f
000001f0: e6d7 703e 1298 243d 9780 133e d0e1 513f
00000200: 4190 b9bd 9b0b 7f3e caa2 2dbe 23b3 8fbe
00000210: cfc0 56be eb82 b8be af3e 983c e6f5 afbe
00000220: be73 45be 9f0a 893e 52f4 383e 2a32 e3be
00000230: fbdd 81be da7e 9dbe d38d 8d3e 27c3 94be
00000240: 894b 443f 7f2a 263e 9ffd 9abd 4bc6 1d3f
00000250: cb3b be3e d4fa 113f ccb7 fabe acf8 a33e
00000260: 1f0a 0bbf 6a62 09be d45f d33e 2e52 1f3e
00000270: 5d7f 11bf 6bfc 91be 05d1 bbbe e38a 523e
00000280: 7fdd dcbc 38a6 183e 3be3 a2be 72be e13e
00000290: 8687 4c3c 1334 e43e 14fc 943d 8c96 56be
000002a0: a90d 2cbe 34f5 cebc 60a4 dfbe 6e6a 893e
000002b0: ef4b 4ebe 7d7c 1abf 4c25 343e 0102 ddbb
000002c0: b3e6 843e 9715 303e 6dfc 0e3d 1c11 813e
000002d0: dc32 10bf e523 f13e f3cd 813e c0b2 b83d
000002e0: e60f d53e f580 213e d556 b73d 3225 463d
000002f0: af6e 953e 79f5 343e 171a e1bd cd02 a9be
00000300: 57f6 8cbe e614 3c3d aaa7 363d 4d8d e3bc
00000310: d774 2a3e 5ba6 6ebe f593 6d3e 1a42 bb3c
00000320: 6fcb 033e bd27 e0be 1c88 75be d9ad c63e
00000330: a7ee 12be 2899 8cbe 1c64 72bd fead 9f3c
00000340: b5d5 dbbe 1792 70bd 841b 1bbe 1945 dabe
00000350: b3e5 213e 26c3 37be 1b85 8d3e 8e0b 5cbe
00000360: 149a b73e 41e7 903e 79db 2a3e 9a0d 9c3e
00000370: 050d 8bbe 7fed e13d 73ba 37be ac2e a63d
00000380: cd6b 91bd 8810 31bd a1bf 88be a1e3 a0bd
00000390: fcd9 3bbe 5220 38be 5996 e63e e89b 983e
000003a0: 58e1 debd 2ce1 8ebe 5fc7 b3bc fc09 103f
000003b0: c2ba 7abd b0b7 ae3d 9eb3 cbbd a51d bcbe
000003c0: 0462 6a3e 2d33 323d 66d7 65bd a332 72be
000003d0: 2d55 623d 9b31 84be cd22 a33e f7cd 5e3f
000003e0: 7802 333e 1412 4fbd c448 70be 2b95 c63d
000003f0: 8560 283e 19d9 54bd a54c a13e e18f 04be
0.08506371 0.1969086 0.0027713974 -0.008884778 0.13471477 -0.37660602 -0.12351419 -0.023188295
0.17630127 -0.5711519 0.13807108 0.22926772 0.032835737 0.14877829 -0.418429 0.01222991
-0.06704428 -0.12811916 -0.12999222 -0.02123979 -0.09803181 0.14446954 0.4072963 -0.13351125
-0.33249214 -0.33287236 -0.24231371 -0.02554333 -0.22348748 0.07289377 -0.0661615 0.14557973
-0.18165353 0.15338469 -0.19208637 0.46359932 -0.056949943 0.1142159 -0.018886965 0.14280747
0.1480121 -0.068096876 0.27988857 0.4594521 0.077092804 0.46950066 -0.2562853 0.09857078
0.07962342 0.038596503 -0.15850556 -0.06881891 -0.2905041 0.18873364 0.022282505 0.709997
0.057891924 -0.18091431 0.005275939 0.0050919564 0.12910026 0.03343343 0.26880908 -0.28538877
-0.26990142 0.040009975 -0.25913948 -0.34534174 -0.22937423 -0.34468833 0.15062766 0.29322565
0.49062824 -0.1795607 -0.38206935 0.39515758 -0.37954605 0.0974776 0.4496448 0.03256812
-0.5206499 -0.2860236 -0.04805443 -0.484114 -0.10854015 -0.26438558 -0.3457157 0.12747517
-0.0034443887 0.42579338 0.7316126 0.41283447 -0.2249938 -0.12115584 0.29523757 0.15720023
0.16904418 -0.4699132 -0.18736745 -0.19677386 0.08396325 0.35621896 -0.4176016 0.28360167
-0.8554852 -0.54852253 0.28526622 0.09514622 0.05428621 0.1253644 -0.089692056 -0.752786
-0.18728837 -0.11198378 -0.11906563 0.04563343 0.36333585 -0.41862258 0.319994 0.6759028
0.064660676 -0.16937764 -0.39468074 0.6284305 0.23519859 0.040184088 0.14404522 0.8198519
-0.090607174 0.24906771 -0.1695663 -0.28066358 -0.20971988 -0.36037382 0.018584577 -0.34367293
-0.19282433 0.26765916 0.18061951 -0.4437421 -0.2536467 -0.30760843 0.27647266 -0.2905514
0.7667776 0.16227148 -0.07567906 0.61630696 0.37154993 0.5702336 -0.4896835 0.3202566
-0.5431232 -0.13416448 0.4128405 0.15558693 -0.56834966 -0.28512892 -0.36682907 0.20560794
-0.026961086 0.14907157 -0.31813988 0.4409061 0.012483483 0.4457098 0.072746426 -0.20955867
-0.16802086 -0.025263406 -0.43680096 0.26839012 -0.20146154 -0.60346204 0.17592353 -0.0067446236
0.2595726 0.17195736 0.0349087 0.25208366 -0.56327605 0.47097698 0.2535244 0.09018469
0.41613692 0.1577185 0.08952109 0.048375316 0.29186007 0.17671765 -0.10991304 -0.3300995
-0.27531692 0.045918368 0.04459349 -0.027777338 0.16646133 -0.23305647 0.23200972 0.022858668
0.12870573 -0.43780318 -0.23977703 0.3880451 -0.14348851 -0.274606 -0.059177503 0.019492146
-0.42936483 -0.058733072 -0.15147215 -0.42630842 0.1581028 -0.17945537 0.27640614 -0.21488783
0.3585974 0.28301433 0.16685285 0.30479127 -0.2715837 0.11031627 -0.17942218 0.08114371
-0.071006395 -0.043228656 -0.267087 -0.07855917 -0.18344873 -0.17981079 0.4503658 0.29806447
-0.10882825 -0.27906168 -0.021945653 0.56265235 -0.061213262 0.08531129 -0.09946369 -0.36741367
0.22888952 0.043505836 -0.056113623 -0.23652129 0.05525701 -0.25819096 0.31862488 0.8703303
0.1748141 -0.05055435 -0.23465258 0.0969642 0.1644307 -0.051964853 0.31503788 -0.1294551

weight_hh_l0 f4 [128, 32]
00000000: 9d71 1fbd 4168 9d3d da12 9ebe 9ef9 373d
00000010: 77b9 c6bc 4c34 57bc 95ec fabd c8f2 163e
00000020: 3027 323e 848d c2bd 3cd7 133f d16a 903e
00000030: c758 9cbe 3344 943e bab8 33bc f947 32be
00000040: 7b3f 08bd 178d 78bd e1d9 793e 2343 e0bc
00000050: d629 013e 3ad2 51be 345f b4be 733b c53d
00000060: 6a4e 6cbe b37b 8e3e a845 edbe 6e46 573e
00000070: 0e9e 673e 5688 84be 4423 013c b597 ff3c
00000080: 8326 a03c 37fd 04be e29b 91be 19ab 20be
00000090: 157e d43d c16a 93bc 148e 78be d89b 83bd
000000a0: af7d 503e 93e8 023e 4647 cf3e 204b 9e3b
000000b0: 550b 3bbe e0ee c43e 6576 0cbb af83 09be
000000c0: 374f cb3c 7ed8 4b3e 4671 9f3e 7c2a 203d
000000d0: db62 263e 58e3 9abe 17ca 8ebe fffc 3d3e
000000e0: 0c7b 903d 7646 0d3b d1cb 79be edc3 e63a
000000f0: 44c4 9a3c b180 cf3c 2ad4 6a3d cd1e 7cbe
00000100: c8df babb 3f77 983e f0ad 693e 9295 aabd
00000110: d17a 40be b772 5cbe 9e8f 77be c318 ba3d
00000120: 8deb 9cbd 3ff3 bcbe 2dab 96bd 633c 923d
00000130: fefc abbd 4dee db3e 2153 513e 41d5 27be
00000140: 722e b13c ae2d 093e c3e5 f1bc a39b 82be
00000150: 13f1 0b3e e8f0 56be 532f 2dbe 83e6 8a3e
00000160: 27b1 8abe 8e0b 753d c578 93be e598 e93d
00000170: e5d6 56be a5f1 d3bc 719f 3c3e 9216 e1be
00000180: ac37 3a3e 03dd cdbc 32d0 bc3c 53a1 18be
00000190: 9db0 d03e 141e 3f3d 336c bf3d 9d8f bf3d
000001a0: 0796 b63e fd9e 433e cb04 9dbd 953a 38bb
000001b0: 1dd9 ac3e 27ed b83c 9a7d 6abd 5960 84bd
000001c0: e05d bebd c18a c8bd f91a 52bc 3cd5 2fbe
000001d0: b2ed 85bd 05b1 e63d be93 213b 4b6d d6bc
000001e0: 3acd 033b 88e0 603e de8b 793d 430e 613e
000001f0: 4109 1fbd 0a67 febd f558 7f3e 4cdd a7be
00000200: 1b21 2abf 3c60 c83d 34a5 813e ed4a b43e
00000210: 4644 ffbd c018 f43e 58fc a23e 3509 ef3d
00000220: 10d6 b23e a6c1 ec3b a760 c6be 728f 90be
00000230: 1756 c33d 6d23 d93c 8feb 6d3e dad2 063d
00000240: 0b4b 92be 983b 34bf 3888 aebe 40d1 2d3e
00000250: 34d9 913d cb52 603d 9866 243f 4d28 a1bd
00000260: 909b 3abe 1dec 413d d746 14bf 9d1a 3d3e
00000270: 6503 90bc fd87 fd3d f663 5a3e 264f 483e
00000280: a3bb 843d 03be ffbd 7241 babe b519 a1be
00000290: 0bf5 883e 9abb 003e ceb6 9dbe ce62 7f3e
000002a0: a4ce e83e f76e 5ebe 1067 393d bc1a 7f3e
000002b0: 3fce 96bd b930 ce3d ef91 fd3d f647 f2bd
000002c0: 46e1 2cbe 2d5b 0ebe 981e 0abd aecd 3c3e
000002d0: 955c d6bd 06ea 20be bad0 3bbe d38c 4e3e
000002e0: 4254 2f3e 4679 9e3e 7769 f63c 884b cc3e
000002f0: ca7f 303d f7b6 abbe db96 093f f3a1 54be
00000300: 547e 3a3e e5be 913d 0e3e 173e 9ada cd3c
00000310: 2a98 8f3e 4717 51be 710c 0ebe 46c1 93bc
00000320: 51f8 54be ff44 7e3d c90c ec3c fa5c 8f3e
00000330: 01fe 543d ddeb 003e a0ae d1bc aec9 8ebe
00000340: 07db 9cbd 4f2a ca3d 4280 953d 95f2 8bbe
00000350: 13f5 9f3e 1087 5abb 36a8 04be 1f0a 083d
00000360: a9d9 f1bd d158 c93d 524a 8e3d 1bf3 c9bd
00000370: ee8e a7bd da3d cebd 5ce5 18be 3598 95bd
00000380: 97c7 ac3e 3a45 1a3e 22d7 e63b 6b7a c13b
00000390: c45e 373e 27b9 60be dec8 fb3d 3f2a d13d
000003a0: cab8 10bf ffa0 60be 1aaf 88be b3cd a73e
000003b0: f56a 3d3f 1893 9dbd 7ab5 0d3e 2739 5d3e
000003c0: 5b84 9d3d 2806 813e 6b69 87bd a2ac 613d
000003d0: 52d1 07bc 439d 673d f59f d8bd c608 79bd
000003e0: ff5a 23bc 7804 47bd 9f76 b63e b76c d03d
000003f0: db80 b2bd 71a5 a03d 657a c7bc 3256 ea3d
-0.03892671 0.076859005 -0.30873758 0.044915788 -0.024258358 -0.013135027 -0.12252156 0.14741051
0.17397761 -0.09499648 0.57750297 0.28206494 -0.30536482 0.28958282 -0.010969335 -0.17410268
-0.033263665 -0.06068143 0.2439952 -0.027375763 0.12613615 -0.20490351 -0.35228884 0.0963048
-0.23076788 0.2782875 -0.46342206 0.2102296 0.22618887 -0.25885266 0.007881943 0.03120027
0.019549614 -0.12987219 -0.28439242 -0.15690269 0.10375611 -0.01799524 -0.24272949 -0.06426209
0.20360444 0.12784033 0.40484065 0.004830733 -0.18266042 0.38463497 -0.0021432873 -0.1342914
0.024818046 0.19906804 0.31141108 0.039103016 0.16248648 -0.30251575 -0.27888557 0.18553542
0.07054719 0.002155689 -0.24394156 0.0017605998 0.018892415 0.02532992 0.05733124 -0.24621125
-0.0057029463 0.29778478 0.22820258 -0.083293095 -0.1879685 -0.21528135 -0.2417588 0.09086754
-0.07662115 -0.36904332 -0.07356868 0.07140424 -0.08397864 0.42955247 0.20441867 -0.16389944
0.021628592 0.13396332 -0.029528504 -0.25509366 0.13666181 -0.20990336 -0.16912584 0.2712899
-0.27088282 0.059825473 -0.28803077 0.114061154 -0.20980413 -0.025872061 0.18420197 -0.43962532
0.181853 -0.0251298 0.023048494 -0.1490529 0.40759745 0.046659544 0.09346809 0.09353564
0.35661337 0.19103618 -0.0766693 -0.002811109 0.33759394 0.02257402 -0.05724869 -0.06463689
-0.09295249 -0.0979209 -0.012823814 -0.17171186 -0.065394774 0.112642325 0.0024654712 -0.026175162
0.0020111338 0.21960652 0.060924403 0.21978097 -0.038827185 -0.12421997 0.24936278 -0.32786024
-0.66456765 0.0978398 0.25321352 0.35213414 -0.12464194 0.47675133 0.31833148 0.11671678
0.34928942 0.007225233 -0.38745615 -0.2823444 0.09537905 0.02650615 0.2323439 0.032915927
-0.28572878 -0.7040343 -0.34088302 0.16974354 0.07121506 0.054766458 0.64219046 -0.07869015
-0.18223405 0.047344316 -0.57920593 0.18467183 -0.017579744 0.12379453 0.21327195 0.19561443
0.06481101 -0.12487414 -0.36378056 -0.31464925 0.26749453 0.12571564 -0.3080353 0.24940035
0.45470154 -0.21722017 0.045264304 0.24912542 -0.07363557 0.10067887 0.1238135 -0.11830132
-0.1688281 -0.13901968 -0.033720583 0.18437836 -0.10466877 -0.15714273 -0.18341342 0.20170908
0.17121986 0.309519 0.030079586 0.39901376 0.04309062 -0.3353803 0.5374581 -0.20764904
0.18212253 0.07116488 0.14769766 0.025128651 0.2804578 -0.20419036 -0.13871934 -0.018036496
-0.2079785 0.06207752 0.02881469 0.28000623 0.05200005 0.12589975 -0.025595963 -0.27888244
-0.07658964 0.09871351 0.07299854 -0.27333513 0.31241664 -0.0033344664 -0.12954792 0.033212777
-0.118090935 0.098313935 0.06947769 -0.09860822 -0.081815585 -0.10070391 -0.14931244 -0.07304422
0.33746025 0.1506547 0.007044689 0.005904486 0.17907244 -0.2194563 0.12294172 0.10213136
-0.56531966 -0.21936415 -0.26696092 0.32774124 0.7399133 -0.076940715 0.13838759 0.21603833
0.076912604 0.2520001 -0.06611904 0.055096276 -0.008289652 0.05654646 -0.105773844 -0.060799383
-0.009970426 -0.048588246 0.35637376 0.10176986 -0.087159835 0.078440554 -0.024350354 0.11442222

bias_ih_l0 f4 [128]
00000000: 7987 dabc 9334 73bd baa8 f93d f3d1 ae3d
00000010: 1185 eabb 97da d93d d841 823e afb3 b9bd
00000020: d010 703d 70d3 823d f8a7 a2bd a8c0 b3bd
00000030: 95e0 803d b393 203e 46be 32be 5571 823d
00000040: 5a14 b6bb 6a08 313e 79f8 7c3e 03eb 78bd
00000050: b7ea 4a3e cc91 1bbd c9ff a2bd d5a2 aabd
00000060: 33ac c1bc 20ac 89bc 25ad fa3d a8db b83d
00000070: 5ddd 2b3e 4822 cd3d 36ea 8a3e 71ec a53d
00000080: 2802 073e e109 05be 9c6a a6bd ec94 eebd
00000090: b801 663d 8808 db3d 623f 393e 0a9c 7d3e
000000a0: b619 743e f175 a63e c095 b53d 84ba 653e
000000b0: 3bf6 02be daa3 473e d69a 1abd 79e8 b3bc
000000c0: c4b8 48bd 0398 6f3e e4c3 833e 6027 683e
000000d0: 6beb 2d3e af72 203e bf9f dcbd d1a9 a43d
000000e0: 8008 6ebc 7e27 dc3d f372 bd3d 0da8 543e
000000f0: a0f7 d5bd 8c96 203e 8866 bc3a fb78 1cbc
00000100: 7f8e 7ebe b73a 4d3e 9874 0b3e bb52 f2bd
00000110: 4de7 803e 3021 1d3e 2a73 0dbe 9f80 873e
00000120: 0479 2e3e 0214 2bbe 92b3 c339 7367 203e
00000130: 83ef ed3e f1b7 593e 523c 7c3d 4620 62be
00000140: 4e8a 91be 7b20 b5be 1831 f83e 5fe6 f7bd
00000150: 073b 703e 1ac3 88be eace 33be 9e8c 863e
00000160: 1485 65be 41c0 393d bb33 423a dba8 debd
00000170: 82a7 d0be 0dcc 24be 331c 31be c57c bbbe
00000180: 1f32 25bd 7e75 323e e9e4 623e 6c2d fd3d
00000190: 7331 1d3e eb26 7f3e 3e01 8f3e b113 c43d
000001a0: 22c9 a43d 3c62 943e 2fe9 a13d 7150 f3bd
000001b0: 16a0 433c c049 813e 1877 c43c 2af4 7e3d
000001c0: ad28 ae3d 155d 11bd ec54 7e3e ce12 e03d
000001d0: 78d4 093c 861a 023e cdde 853d 2664 bbbd
000001e0: 822b 523e 3a7b c13d 74bd aa3e d87e cc3d
000001f0: 9d9b dfbd cc6a 9a3d 4eda 6a3e ffb2 66bc
-0.026675927 -0.05937631 0.12190385 0.085361384 -0.007156976 0.10637396 0.2544086 -0.09067475
0.058609784 0.06387985 -0.07942194 -0.08776981 0.062928356 0.15681343 -0.17455396 0.063692726
-0.0055566253 0.17288366 0.2470416 -0.060771 0.19816099 -0.03798084 -0.079589434 -0.08331839
-0.023641681 -0.016805708 0.12240056 0.09026271 0.16783662 0.10016304 0.27131814 0.08101738
0.13184416 -0.1299205 -0.08125803 -0.11649498 0.056153983 0.106949866 0.18090585 0.24766555
0.23837933 0.32511857 0.08866453 0.22434431 -0.12789242 0.19496098 -0.03774532 -0.021961438
-0.04900433 0.23397832 0.2573539 0.2267127 0.16984336 0.15668748 -0.10772657 0.080402024
-0.014528394 0.1074972 0.092504404 0.20767231 -0.10447621 0.15682429 0.0014373818 -0.009550328
-0.24859045 0.20041929 0.13618696 -0.11832186 0.25176468 0.15344691 -0.13813463 0.26465318
0.17038351 -0.16706851 0.0003732709 0.15664463 0.46471795 0.21261574 0.061580963 -0.22082624
-0.2842583 -0.35376343 0.48474956 -0.12104487 0.23460017 -0.2671135 -0.175594 0.26279157
-0.22414047 0.045349363 0.0007408221 -0.108720504 -0.40752798 -0.16093464 -0.17295913 -0.3661863
-0.040331002 0.17427632 0.22157635 0.12362179 0.15350895 0.2491719 0.27930635 0.09574068
0.080461755 0.28981197 0.07905804 -0.11880577 0.011940023 0.2525158 0.02398257 0.06224457
0.08503852 -0.03548916 0.24837083 0.10941087 0.008412473 0.1270543 0.065366365 -0.09149961
0.2052441 0.09447332 0.33347666 0.09985131 -0.10918353 0.07539901 0.22934839 -0.014080762

bias_hh_l0 f4 [128]
00000000: 3038 4f3e 4dea 4c3e d85d 553d 7626 abbd
00000010: cbec b13d 4fb6 463e f544 ff3b 1bb5 5b3c
00000020: fc94 0c3e ae46 0b3e 4ba6 003e b4c6 f73d
00000030: 7ffc 813d d315 2a3e e22b 603d 240b eb3d
00000040: 2ed9 67bd ba05 c03d 0990 203e 168a d8bd
00000050: 651a 503e 6356 923d 41f3 5b3e e08e 20be
00000060: 52c6 05be 1bba ccbd 6871 b13d ebbb c1bb
00000070: d053 463e 96b6 fe3d 3fa3 053e ba41 e13d
00000080: e2e4 1abb 688f ba3d 44c3 2e3d 2e0b 46bc
00000090: f653 883d 586a 75bd 96be 6c3d f748 2dbd
000000a0: 9a95 bebc 89ef 153e 1f4b f03b 17df f23d
000000b0: d469 883c f50b 553e b3d9 46be 2660 c4bd
000000c0: d43d 973c 3df8 d5bc 4618 e63d 16e9 213d
000000d0: c224 263e 6b72 a33d c500 183d 7191 89bd
000000e0: 694f 223c 320f 1c3e f0ae 533b 58dd 38bc
000000f0: 9574 c03d ea31 11bd 18de f1bd 8e6b 2b3e
00000100: 1eee 8dbd 2d9a 5f3e 1125 57bd d25f aebd
00000110: 7088 a63e dfd9 43bd 5c46 afbe cd28 873e
00000120: 8907 b9bd 45b3 633d 11ff 98bd 8b27 873e
00000130: db08 da3e 742c 923e aa70 1e3d 0895 e9bd
00000140: eb0b 48be 33f8 3abe 3362 4e3e 5262 bcbc
00000150: 8229 903e 03d6 66be 3843 34bd ef39 4b3e
00000160: b0d3 23be 5028 893e 6b57 50be 199d bdbd
00000170: 9566 0ebf a961 4cbe 6b46 553d 4eb6 0bbf
00000180: 196e 653e bada 193e 8fc5 f73d ee1e 12be
00000190: 0a26 a1bc ff54 863e cf4c 513e cd88 2d3e
000001a0: baff fc3d 2ce6 9a3e 17f8 c63c 2ec6 c8bd
000001b0: 4b60 a23c 1db5 e43d 54c2 b73d 3645 283e
000001c0: d2b9 6e3e 3391 bb3c 376b d83c b0f2 c13d
000001d0: 6870 0fbc 862e 81bd f6b2 3e3e 4af7 473e
000001e0: d534 a43d ff97 613e 5878 f93d 430c 923e
000001f0: 3553 2a3e 3203 123e aede 1d3e b460 4f3d
0.20236278 0.20011254 0.05209145 -0.08356945 0.08687743 0.19405483 0.0077902027 0.013409878
0.13728708 0.13601181 0.12563436 0.120984465 0.06346988 0.16609888 0.05472935 0.11476734
-0.056603603 0.09376092 0.15679945 -0.10573213 0.20322569 0.07145383 0.21479513 -0.15679502
-0.13063934 -0.09996434 0.08664209 -0.005912294 0.1936791 0.12437169 0.13050555 0.109988645
-0.002363496 0.09109384 0.04266669 -0.012087626 0.06656639 -0.05991587 0.057798944 -0.042305913
-0.023264695 0.14642157 0.007333174 0.11858957 0.016652025 0.20805342 -0.19418983 -0.09588651
0.0184621 -0.026119346 0.112350985 0.03952893 0.1622496 0.07980808 0.03711011 -0.06717194
0.009906628 0.15240172 0.0032300316 -0.011283241 0.09397236 -0.035447992 -0.11809939 0.16740248
-0.06930183 0.21836157 -0.052525584 -0.0851437 0.3252597 -0.0478152 -0.34233367 0.26398316
-0.0903464 0.055590887 -0.07470525 0.26397356 0.4258488 0.2854954 0.038681664 -0.114053786
-0.19535796 -0.18258743 0.20154648 -0.022996102 0.28156668 -0.22542576 -0.044009417 0.19846319
-0.15998721 0.26788568 -0.20345847 -0.092584796 -0.5562528 -0.1995913 0.05206911 -0.5457505
0.2240528 0.15024844 0.12098228 -0.14269611 -0.019671459 0.26236722 0.20439456 0.16946717
0.123534635 0.30253732 0.02428822 -0.09803425 0.019821307 0.11167357 0.08972612 0.16432652
0.23313072 0.022896385 0.026418312 0.09470117 -0.008754827 -0.06307702 0.18622956 0.19527927
0.080178894 0.22030638 0.12181157 0.2852498 0.16633303 0.14259031 0.15416977 0.050629333

weight_ih_l0_reverse f4 [128, 2]
00000000: f505 003d d592 a7bd 4660 483e ddcc bdbe
00000010: 8f76 9d3e 154c 26bd 83d9 b8bc fb54 19be
00000020: 41ee 8cbe d238 cabd c0d7 f43d fadb 1abe
00000030: d49c 873c d754 b63e 1f96 923e ed57 07bf
00000040: 4221 8ebe ec8c 7fbf faf5 f1bd 05c4 8b3c
00000050: 9199 8bbe a831 763e 0cb6 8b3e 6eb2 dcbd
00000060: 3915 0abf 1680 1b3e 4acf 81be dfee 66bd
00000070: 7905 623d 99ec 9b3e a310 da3e 54d9 0fbc
00000080: b7a6 4b38 cb4d 90be 0bf9 303d 8798 193f
00000090: be61 0fbf da6f e33e ab05 84be 4329 8a3e
000000a0: 9223 2a3e 3f60 053f 9ee4 733c 54cd f43d
000000b0: 122e ac3d a5e2 8d3b 1ad6 15be b101 8cbe
000000c0: b271 8d3d 058f 673d 5b00 80be 10ff 7a3e
000000d0: 1ef0 873e 2a82 a63e cd4d e1be bb23 533e
000000e0: 61de b83e 73d2 a6be ce77 b4be 7c31 61bd
000000f0: fbfa 6b3e 1409 8fbe 0761 90be b0f1 903e
00000100: c41e 563d d690 653e 68f7 8a3e bd05 d5be
00000110: d2a5 ae3e f9ea b53d 6df3 33be 6dfb 2cbe
00000120: d64e a4be 5cba 8bbd e2cb 053f 186c 2abc
00000130: e444 86be 983a b93e 9d21 bb3e 4d8f a0be
00000140: 3ac7 bebd d603 11bf 4910 4abc 0df8 c3bd
00000150: 9943 863e 8cfc 3ebd 773d 2a3e dad0 fabd
00000160: 37ce fabe 9718 343e 0abb 0dbe 164b b63c
00000170: e289 e53b dbcb 5d3c 793d 033f 011b 1a3d
00000180: b0bd dc3d cd82 a6be 35ba 92bd c35f ec3e
00000190: c960 00bf ff38 e03e 70d6 f0be 7cdd 9f3e
000001a0: d3cf 763e e106 123f 1a95 23be c87b 33bb
000001b0: 82c8 903e 1a93 48be c85d 32bf a538 88be
000001c0: 3fda 383e 8103 b9bc 1915 e3bd 108e cc3d
000001d0: d79b 8d3e 5da1 323e cd47 dabe 657c 32bd
000001e0: 01bc e03d 5d87 b7bd 77e4 a0be 2700 04be
000001f0: 0acc 4c3e bef1 03be 4d39 d9bc 9b8c a03e
00000200: 08c2 bbbe f722 b5bd 9c0e 4c3e 3380 ae3e
00000210: a87e 963e c082 edbd 5150 8cbe da7b ecbd
00000220: a358 fc3e 8eca c03e 6b17 9d3e bef1 b5bd
00000230: 817b 04bd 14d8 77be 70f9 babe a560 853e
00000240: 022a b1be c2ec 39bf f2c3 46be b3e3 e43e
00000250: a5f5 a13e 1564 54be 9d87 f33e 45d1 1ebe
00000260: a6a4 9d3e 8fd3 c5bc d8ae d13e bfec 07be
00000270: cc28 c0be f242 05be 0022 103e c1e9 0b3d
00000280: 9ee7 1f3d e225 133f 6dee 0d3e b09e 593f
00000290: df86 d43d 669d a1be 31a0 d3be 1f7f a33e
000002a0: d5dc afbe ebd7 56bd 9426 9cbe 160d 99bd
000002b0: 8419 a1be 28b8 463e 3980 5d3e ca4f a43e
000002c0: 20d2 2a3d ba92 563e 9488 ab3e 1d1b 723e
000002d0: c8d4 91be 5f1a 0cbe 85e7 9ebd 918d 44be
000002e0: 46e3 bfbe 7e19 a13e 0cea be3e addd 8cbc
000002f0: 8930 fa3d 4e63 26be e10d a03e 3b9d 63be
00000300: 6c68 db3d 727e 573b 2811 913d 25af c3be
00000310: eaef 9c3e c628 99be f165 cfbe 399d 9bbe
00000320: bdce a2be 732b 023e 8b1d 473e fdcf 0a3e
00000330: 2465 9abe 3ecd 823e 7d8e dd3e 4c59 08bf
00000340: 147b 0ebf 1d71 1dbf 8f41 6c3c f2b7 82be
00000350: 3e74 c43d 574b 963b 4ca6 323e 46a3 e0bd
00000360: 641c aebe cb9f 3c3e 1586 23be 2ec2 183e
00000370: f130 493e 7498 f73d ece8 603e 9f45 153d
00000380: 716c 343e b0fc 48be 0e33 ab3c 6eba 5a3e
00000390: 7997 95be 3c47 753e 7521 aebe ed5a ff3e
000003a0: 23d8 453e f23a 093e cd82 f9bc b962 ab3e
000003b0: f039 cf3d 4445 49be 6e55 93be 4b4f 91bd
000003c0: 0467 023e 28a0 023e 9079 883e 3051 55bd
000003d0: dddc 82bd 6923 773e bf84 03be 29e0 a83e
000003e0: 831e 0a3f 7470 abbe 235e bbbe 9f10 8bbe
000003f0: 5b0b 373e 529a 53be 5496 7fbe f2f5 e23e
0.03125568 -0.08182303 0.19567975 -0.3707036 0.30754516 -0.0405999 -0.022564655 -0.14973824
-0.27525523 -0.09874119 0.119552135 -0.15122977 0.016554274 0.35611603 0.28630158 -0.5286854
-0.2775975 -0.99824405 -0.118144944 0.017061243 -0.272656 0.2404238 0.27287328 -0.1077622
-0.53938633 0.1518558 -0.25353462 -0.05638015 0.055181 0.30453947 0.42590818 -0.008779842
4.8554237e-05 -0.2818435 0.043206256 0.59998363 -0.5600852 0.44421273 -0.25785574 0.26984605
0.16615131 0.52099985 0.01488605 0.11953226 0.08407225 0.0043299966 -0.14632455 -0.2734504
0.06906451 0.05653288 -0.2500027 0.24511361 0.26550382 0.32521182 -0.4400467 0.20619099
0.36107162 -0.32582435 -0.35247654 -0.054978833 0.2304496 -0.27936614 -0.28199026 0.28309393
0.052275434 0.22418532 0.2714188 -0.4160594 0.34110886 0.08882708 -0.17573328 -0.16892786
-0.32091397 -0.068226546 0.52264225 -0.010401748 -0.26224434 0.36177516 0.36549082 -0.3135933
-0.09315343 -0.5664648 -0.012332984 -0.09568796 0.26223448 -0.046627566 0.1662501 -0.122468665
-0.48985454 0.17587505 -0.13840881 0.0222526 0.0070049623 0.013537372 0.51265675 0.03762341
0.107783675 -0.32521668 -0.071644224 0.4616681 -0.5014768 0.43793485 -0.47038603 0.31223667
0.24102716 0.57041746 -0.15974846 -0.0027387012 0.28277975 -0.19587365 -0.6967435 -0.26605716
0.18052004 -0.022584679 -0.110880084 0.09988034 0.2765796 0.17444368 -0.42632905 -0.043575663
0.10973359 -0.08961365 -0.31424305 -0.12890683 0.1999971 -0.12885186 -0.026516581 0.31357273
-0.36671472 -0.0884456 0.19927448 0.34082183 0.29393506 -0.11597204 -0.27405027 -0.1154706
0.49286374 0.37654537 0.3068193 -0.08883999 -0.032344345 -0.24203521 -0.3651843 0.26050296
-0.34602362 -0.7262689 -0.19410685 0.4470497 0.31632724 -0.20741303 0.47564402 -0.15509517
0.3078968 -0.02414873 0.40953708 -0.13273905 -0.37531126 -0.13013819 0.1407547 0.034158472
0.039039247 0.5747968 0.13860483 0.8500776 0.10377287 -0.31565398 -0.41333154 0.31932923
-0.3434817 -0.05245201 -0.30498183 -0.07473199 -0.3146478 0.19406188 0.21630944 0.32092124
0.041704297 0.20954409 0.33502638 0.23643155 -0.28482652 -0.13681935 -0.077590026 -0.19194628
-0.37478083 0.31464761 0.3728794 -0.017195547 0.122162886 -0.16248819 0.3126059 -0.22227947
0.10713276 0.0032881764 0.070833504 -0.38219562 0.3065179 -0.2991392 -0.40507463 -0.3039339
-0.31798354 0.12711887 0.19444863 0.13555904 -0.3015529 0.25547212 0.43272772 -0.53261256
-0.5565655 -0.6150072 0.014419927 -0.25530964 0.09592484 0.004586618 0.1744625 -0.10968642
-0.34006035 0.18420331 -0.15969117 0.14917824 0.19647576 0.12089625 0.21963853 0.03644335
0.17619492 -0.19627643 0.020898368 0.2136018 -0.29217127 0.23952955 -0.340099 0.49874058
0.19320731 0.13401392 -0.030457878 0.33473757 0.101184726 -0.19655329 -0.28776115 -0.07095202
0.1273461 0.12756407 0.26655245 -0.05207938 -0.063897826 0.24134602 -0.12843607 0.3298352
0.5395281 -0.33484232 -0.36595258 -0.27161118 0.17875426 -0.20664337 -0.2495969 0.44328266

weight_hh_l0_reverse f4 [128, 32]
00000000: c42e 0abe a52f 553e 36c1 14be 5929 da3c
00000010: a45c 5dba 2542 b93d 1775 bcbd 7dc4 1c3e
00000020: aac8 0abe 0ea7 2c3e 6d52 a6bd cd93 25be
00000030: 928d 7ab9 9704 72bd 86f5 92bd ee80 c33d
00000040: 653c 533e a2fe 693e 1d0e 31bd b7a5 0a3d
00000050: c9ff 57be 5ea4 c83d 080e 073e 11b7 173e
00000060: 036f 91bd 7a76 343d 7db6 0abe c58c 2bbe
00000070: f915 473e 51a3 073e c522 71be db47 e03c
00000080: 192a b8bd 1ee5 e83d 4a28 a4bd 09d8 1c3e
00000090: 4fa1 33be dd42 21be 0d56 1e3e 1ac1 a1bb
000000a0: 7a67 0abe a8b5 d73d bb14 82bc 4376 17be
000000b0: 5bec 043d 73d4 c5bd 5ec0 813d 3e74 26be
000000c0: 63e0 e5bd 4bf1 67be c822 303e 9542 08bd
000000d0: 3ad9 c0bc 2395 983d 23bd 153b df51 853d
000000e0: a65b 3fbd 7b81 28be 0361 8a3b 5232 adbd
000000f0: bbd8 9e3d 2b22 99ba 7566 6b3d b8c6 813e
00000100: a3ac 16bd ad81 f8bd bc13 09be 5581 b7bd
00000110: f3c8 c43e e9b5 273f 59a4 5b3e 51c3 78be
00000120: 62e5 67be d67f 1f3e 671e 143f 44ae c43e
00000130: a1c1 2d3f 5c5d 443e c584 903e 7722 ed3e
00000140: f2a6 fcbe 44f9 54bb 213a b93c 98cd 30bf
00000150: 6c43 693c 7b61 16bf e80a 6c3d 8779 debb
00000160: 2141 30be a475 d43e 8969 b93d e4af d2be
00000170: fb01 11be 3678 c53e 9303 b9bd bdec 65be
00000180: 79bf b13b 8cbd c5bd dbd4 bebd a9c8 edbd
00000190: 5560 463e 8d7c aabd 81b3 493d 40c5 493e
000001a0: 5526 48be e4b6 c5bd 493a 6ebd 495d 0f3e
000001b0: b8aa af3d e479 943d c18e bfbc 0c0f dd3d
000001c0: c104 323e 0c55 e53d bec3 4cbd b95d 543b
000001d0: 389b 3abd 3c02 013e 5f7b 3fbe 5460 883e
000001e0: abe3 1bbe 1cf2 a13e 6d10 94bd 1eae 51bd
000001f0: 6169 1a3e f8c4 68bd 1b67 413c a0d8 7c3d
00000200: 83e8 a03e c4de 0cbe 5498 9dbe 1bd4 063e
00000210: 95f2 08be 92e2 76be 8805 6f3c 0dd7 7a3d
00000220: 468c 76be eefb 36be 9dd4 9bbe 9b59 d2bd
00000230: b854 8bbe 7c41 a33e 36e6 38bd b157 b4be
00000240: dd09 273d 6977 debe 5cb7 b13d ee4e d83d
00000250: f830 4c3d 406d 023f 20cb 32bd 93ef a33e
00000260: af1e 35be d021 013e 99f1 5cbd bd79 853e
00000270: fa3d 533d 57d4 493d 634e 87bd 9157 ecbd
00000280: 01f9 c63c a4be 57be 05c1 bc3d ff9f 513d
00000290: 9eb7 cc3d ec5a 243e 6759 dfbd 1098 8dbe
000002a0: 517d 66be c63e e2bd ccbb a73d 9313 5bbb
000002b0: 896c 2bbe 2a50 c33e 6ddd 34bd 8c91 3f3d
000002c0: 512f 5ebe 4421 c6be ee63 e6bd c719 e7bd
000002d0: fab1 1fbd 2b6b f73d a51f 70be 7341 433e
000002e0: fa15 b23d 059c 7fbc 637c 13be 896f c3bd
000002f0: d82a 96be c933 f13c e0e8 3a3e dde4 1abe
00000300: 864d 793e 7bb9 2c3e 1842 b0bd e15c bcbd
00000310: 4035 5fbd 81ba 97be 7c13 133e 16d3 093c
00000320: 7aaa e3bd 97d2 d3bd 3730 413d 912e e43d
00000330: 9225 b1bd 728b f73c 52fe 34bd 51e9 b03d
00000340: 4bd2 abbc 52a0 373c d120 043d 2420 263e
00000350: dd77 663e 34b8 6e3e fac7 5b3e 8d4c e53d
00000360: 1c84 50bd fc6d 573d 0b16 ff3d 708d ccbd
00000370: 51f2 aa3b 861f 06be 19f0 7abd adc7 163e
00000380: 17c4 443e 3bc1 81be 9d35 443e 568a f7bd
00000390: fc55 0a3d 439a 2d3e 8e55 e0bc 7b6e 87be
000003a0: aa3c 61bb 0c98 f4bd 4b1f aa3e f140 493d
000003b0: d425 efbc 95f6 5c3e c87c 263e 5d51 80bd
000003c0: 9f6f 8bbd bf8b 80be 37c2 7e3d f94a 80be
000003d0: 6084 cfbb 5715 8cbd b85e 6cbd dbce 833e
000003e0: 45fc 023e 1b05 5f3e 51b0 f93d d39f 37bd
000003f0: b58b 01be c2a3 563d 9cf1 b13c 86a0 4b3e
-0.13494402 0.20818956 -0.14526829 0.026631044 -0.00084442855 0.09045819 -0.092020206 0.1530933
-0.1355311 0.16860601 -0.0812119 -0.16169663 -0.00023894597 -0.05908641 -0.07175736 0.09546076
0.20628507 0.22851041 -0.04322635 0.033849444 -0.21093668 0.097969756 0.13188946 0.14815928
-0.07101252 0.0440583 -0.13546176 -0.16752918 0.19441976 0.13245894 -0.2354842 0.027378013
-0.089924045 0.11371826 -0.08015497 0.15316786 -0.17542003 -0.15748163 0.15462513 -0.0049363496
-0.13516036 0.10532695 -0.015879026 -0.14791207 0.03245197 -0.09659662 0.06335519 -0.1625528
-0.11224439 -0.2265064 0.17200768 -0.033266623 -0.023541082 0.074503206 0.002284833 0.06509756
-0.046718262 -0.16455643 0.0042229905 -0.084568635 0.07756182 -0.0011683156 0.057470758 0.25346923
-0.036785733 -0.12134109 -0.13386434 -0.08960215 0.38434562 0.6551195 0.21449412 -0.24293257
-0.22646096 0.1557611 0.5785889 0.38414204 0.6787358 0.19176239 0.28226295 0.46315357
-0.4934612 -0.0032497207 0.022610726 -0.6906371 0.014237266 -0.58742493 0.05762759 -0.0067893895
-0.17212345 0.41496003 0.09053332 -0.4114982 -0.14160912 0.38568276 -0.09033885 -0.2245359
0.0054244366 -0.09655294 -0.09317943 -0.116105385 0.19372685 -0.083245374 0.049243454 0.19704151
-0.19545873 -0.09654024 -0.058161054 0.14000429 0.08577484 0.07249811 -0.0233835 0.107938856
0.17384626 0.11197862 -0.04999136 0.0032404496 -0.045558184 0.12598509 -0.18699406 0.26635993
-0.15223567 0.31630027 -0.072296955 -0.05119144 0.15079261 -0.05682847 0.011804367 0.061730027
0.31427392 -0.13756853 -0.3078028 0.1316685 -0.13373788 -0.24109867 0.014588721 0.061240245
-0.24076948 -0.17869541 -0.3043565 -0.10270997 -0.27213073 0.31885898 -0.04514142 -0.35223153
0.04078089 -0.43450478 0.08677551 0.1056193 0.049851388 0.5094795 -0.043650746 0.32018718
-0.17687486 0.12610555 -0.053941343 0.2606944 0.051572777 0.04927477 -0.06606748 -0.115401395
0.024288656 -0.21068817 0.09216503 0.051177975 0.0999596 0.16050309 -0.10905724 -0.27655077
-0.22508742 -0.11047129 0.08190116 -0.0033428415 -0.16740622 0.38147098 -0.04415648 0.046769664
-0.21697737 -0.38697255 -0.11249529 -0.112842135 -0.03898809 0.120809875 -0.23449571 0.19067936
0.08695598 -0.015601163 -0.14402919 -0.09542758 -0.29329562 0.029443638 0.18252897 -0.15126367
0.24345979 0.1686763 -0.086063564 -0.09197403 -0.054494143 -0.2963448 0.14362901 0.008412143
-0.111165 -0.10342901 0.047165122 0.11141694 -0.08649744 0.03021786 -0.04418785 0.086382516
-0.020974299 0.011207657 0.03225786 0.16223198 0.22506662 0.23312455 0.21463004 0.111962415
-0.05090724 0.052595124 0.12455376 -0.099879146 0.0052168746 -0.13097963 -0.06126413 0.14724608
0.19215427 -0.25342736 0.19161077 -0.12086932 0.033773407 0.16953377 -0.027384546 -0.26451477
-0.0034368434 -0.11943063 0.33227 0.0491342 -0.029192843 0.21578439 0.16258538 -0.06265519
-0.068083994 -0.25106618 0.062196936 -0.250572 -0.006332919 -0.06840008 -0.05770752 0.25743756
0.12791546 0.21779291 0.12191833 -0.044830155 -0.1265095 0.052402265 0.021721654 0.19885454
