experiments/pedestrians/models/hotel_vel/model_registrar-100.pt (torch_old, 545346 bytes, 43 tensors)

weight_ih_l0 f4 [128, 6]
0.02702747 0.12924212 -0.06428698 -0.08254056 -0.28759944 -0.042988803 -0.07952744 -0.19439009
-0.22112122 0.1603912 -0.03320317 -0.055559326 0.19469748 -0.006212634 -0.26790693 -0.20543322
-0.70321363 -0.07744347 0.1611577 0.094863616 -0.0923987 -0.04709336 -0.25825658 0.38140473
0.0011456776 0.04653826 -0.14027454 0.10670435 0.6391141 -2.1951752 0.049126584 0.21341364
0.36058676 -0.2210119 0.21894671 -0.033920497 -0.37035528 0.17508595 0.13546436 -0.24718745
-0.17769812 -0.15042603 -0.29315212 0.080842495 0.37232372 0.15386541 0.15685962 -0.031799972
0.7366334 -0.1684045 -0.38732395 0.20762514 0.3096033 0.03338866 -0.3572048 -0.3793947
0.42818344 0.32760718 0.09610119 0.31123844 0.061413176 -0.13679287 -0.46258214 0.19877933
-0.059085406 0.081793964 0.10952071 0.01198748 -0.4195023 0.06787423 -0.15429851 -0.21808307
0.021205181 -0.25195527 -0.11464176 0.14114131 2.0238557 -0.80668414 -0.102856174 -0.12966418
0.44328803 0.4584886 0.46385592 0.91930056 -0.35362446 0.10390795 -0.5816335 0.0010432894
-0.03070062 0.0792087 -0.2228876 0.23023184 0.11603184 0.053420644 -0.19229092 0.1700911
0.09551311 -0.036835153 -0.464543 0.48763126 -0.12812714 -0.6175662 0.28763857 -0.32363427
-0.033391397 0.21228264 -0.3095946 0.02197131 -0.010600607 0.008629858 0.05793084 0.34748566
-0.01185639 0.30746657 -0.06817745 -0.091676936 -0.05224267 0.13193056 -0.1793906 0.010726115
-0.19281122 0.24893086 0.21151444 -0.41670012 0.13658915 -0.0026416923 0.23142815 0.5190939
-0.31568775 -0.65531474 0.25102806 0.47798938 -0.13307956 -0.17109811 0.14400724 0.07825809
0.07393026 0.062627114 -0.091979995 0.007930933 0.10275474 -0.11003853 0.14948103 -0.16055146
0.06319916 -0.089787215 -0.15076321 -0.079563454 -0.592377 -0.11865896 -0.15041882 -0.16018973
0.05574062 0.18353859 0.17622316 0.08097792 -0.2005652 -0.0166197 -0.03223967 0.1523503
-0.09692681 0.39970005 -0.061182227 0.12653396 0.6322132 0.45323107 -0.19845209 0.40298778
0.046474174 0.16455884 -0.40441382 0.10989736 -0.031865794 0.20429091 -0.26226768 0.014172458
-0.0076716454 -0.16082668 0.17830212 0.19294019 -0.0057696365 -0.06941615 0.17861627 0.09786329
-0.47843975 -0.31751582 0.13348216 -0.088877894 -0.16442023 0.29081735 -0.3314974 -0.0019784109
0.20871949 0.26084352 -0.21570237 -0.31173822 -0.17131828 0.0013072329 0.13869372 -0.09519477
-0.13282686 0.028664166 0.05963868 -0.16577114 -0.25928205 0.010899816 -0.07834872 -0.026301537
0.043375783 -0.27890193 -0.03050866 0.12255657 0.100185454 -0.11131397 0.102912135 -0.17196266
0.13497555 0.017073696 0.14608555 0.038009223 -0.2586813 -0.0050660404 0.28171834 0.08174775
0.10409211 -0.3216949 -0.44602865 -0.0122832535 -0.06423151 0.16043293 0.20655149 -0.39853087
0.04688439 -0.0698491 -0.14864184 -0.18076491 0.44094288 -0.13063815 -0.0794671 -0.05974164
0.56935984 0.012370559 0.18712842 -0.110384814 -0.47761303 0.24822141 -0.12599069 -0.18848716
0.1930469 0.24301757 0.312009 0.19529954 0.13420811 -0.16434927 -0.19613868 0.24665454
00000000: b668 dd3c 0c58 043e e4a8 83bd 060b a9bd
00000010: 3c40 93be 0715 30bd 48df a2bd 320e 47be
00000020: 9a6d 62be 973d 243e 0c00 08bd 2d92 63bd
00000030: c75e 473e 5a93 cbbb 192b 89be 165d 52be
00000040: cf05 34bf af9a 9ebd 8606 253e db47 c23d
00000050: 883b bdbd f8e4 40bd 353a 84be 7b47 c33e
00000060: 902a 963a e79e 3e3d 21a4 0fbe cf87 da3d
00000070: fb9c 233f c07d 0cc0 f538 493d 1b89 5a3e
00000080: d49e b83e f250 62be 9133 603e 38f0 0abd
00000090: 359f bdbe bb49 333e 2bb7 0a3e b51e 7dbe
000000a0: 7ff6 35be 4809 1abe 0918 96be c090 a53d
000000b0: 37a1 be3e e58e 1d3e cf9f 203e b040 02bd
000000c0: 0294 3c3f 3b72 2cbe 534f c6be af9b 543e
000000d0: 5384 9e3e 8cc2 083d 8ce3 b6be 0640 c2be
000000e0: dc3a db3e 21bc a73e b3d0 c43d a55a 9f3e
000000f0: 628c 7b3d 6e13 0cbe 91d7 ecbe cf8c 4b3e
00000100: 8a03 72bd 9883 a73d 654c e03d 2367 443c
00000110: 01c9 d6be a501 8b3d 6e00 1ebe 2b51 5fbe
00000120: 7db6 ad3c 4800 81be 4dc9 eabd 5987 103e
00000130: da86 0140 da82 4ebf 42a6 d2bd b0c6 04be
00000140: a6f6 e23e 05bf ea3e 867e ed3e 4857 6b3f
00000150: 440e b5be b1cd d43d efe5 14bf fcbe 883a
00000160: de7f fbbc 2c38 a23d a63c 64be e5c1 6b3e
00000170: 1aa2 ed3d 9bcf 5a3d e9e7 44be 5c2c 2e3e
00000180: 619c c33d 75e0 16bd 95d8 edbe ceaa f93e
00000190: c333 03be d218 1ebf 5d45 933e 64b3 a5be
000001a0: 6bc5 08bd 9f60 593e 2f83 9ebe 2dfd b33c
000001b0: 2bae 2dbc 3f64 0d3c e348 6d3d a4e9 b13e
000001c0: 4e41 42bc 426c 9d3e 9ea0 8bbd 1ec1 bbbd
000001d0: 69fc 55bd ce18 073e 2bb2 37be 96bc 2f3c
000001e0: 4e70 45be bbe7 7e3e 3e97 583e b859 d5be
000001f0: 07de 0b3e 3e20 2dbb 80fb 6c3e 56e3 043f
00000200: d3a1 a1be b5c2 27bf c086 803e 06bb f43e
00000210: 0246 08be 5834 2fbe a276 133e c745 a03d
00000220: c068 973d a542 803d 0260 bcbd bef0 013c
00000230: 1471 d23d e15b e1bd 8e11 193e 9a67 24be
00000240: 906e 813d 5ce2 b7bd ac61 1abe 2af2 a2bd
00000250: 05a6 17bf 7803 f3bd 6407 1abe c708 24be
00000260: 4750 643d 8af1 3b3e d873 343e c0d7 a53d
00000270: f760 4dbe 0926 88bc bf0d 04bd b801 1c3e
00000280: 9081 c6bd 7ca5 cc3e 379a 7abd 1e92 013e
00000290: b9d8 213f e70d e83e 0637 4bbe 6a54 ce3e
000002a0: b45b 3e3d 1d82 283e 540f cfbe de11 e13d
000002b0: b585 02bd a331 513e f347 86be 9933 683c
000002c0: 6d62 fbbb c0af 24be d594 363e 1d92 453e
000002d0: 380f bdbb 0e2a 8ebd 2fe7 363e 8c6c c83d
000002e0: 0ef6 f4be 6f91 a2be 8caf 083e 9d05 b6bd
000002f0: c75d 28be 03e6 943e 07ba a9be 3aa8 01bb
00000300: 90ba 553e 488d 853e 15e1 5cbe 279c 9fbe
00000310: 0f6e 2fbe 7557 ab3a ba05 0e3e 7af5 c2bd
00000320: c403 08be 1dd1 ea3c b047 743d e9bf 29be
00000330: 9ec0 84be 2495 323c 4b75 a0bd 5276 d7bc
00000340: ceaa 313d 3ccc 8ebe 4ced f9bc f0fe fa3d
00000350: 082e cd3d 94f8 e3bd 99c3 d23d fb16 30be
00000360: 0837 0a3e 23de 8b3c 7397 153e 8faf 1b3d
00000370: e071 84be 0701 a6bb 633d 903e 5d6b a73d
00000380: 3f2e d53d 32b5 a4be de5d e4be b33f 49bc
00000390: cf8b 83bd 8848 243e 3c82 533e 3d0c ccbe
000003a0: d909 403d 0c0d 8fbd 9135 18be 701a 39be
000003b0: 44c3 e13e 02c6 05be a6bf a2bd a6b3 74bd
000003c0: 91c1 113f e3ad 4a3c 989e 3f3e 6f11 e2bd
000003d0: b289 f4be c12d 7e3e b403 01be c702 41be
000003e0: 16ae 453e 99d9 783e a5bf 9f3e 9afc 473e
000003f0: da6d 093e 2d4b 28be 94d8 48be 0293 7c3e

weight_hh_l0 f4 [128, 32]
0.25940195 -0.018904792 0.42136177 0.1286641 0.035342444 -0.18103424 0.10476805 -0.24531826
0.34649098 0.4382926 -0.16597629 0.36552167 0.06187074 0.30726063 -0.102782644 -0.23932226
-0.035314362 -0.19398496 0.17617965 -0.49929088 -0.20399925 0.40426934 -0.09767841 -0.33361295
0.037680596 -0.17307138 0.36613736 0.34524596 -0.1728934 0.13830012 0.18014248 -0.40304232
0.09285188 -0.44394407 0.24317907 -0.10241871 0.1371794 -0.14409086 0.20023403 -0.29800558
0.38541788 0.13857563 -0.2020009 0.1767851 -0.42931527 0.2600319 -0.3037418 -0.593913
-0.3532384 0.00082130136 0.3475992 -0.5195793 -0.09468268 0.41680574 -0.28738013 -0.3820964
-0.031527985 -0.39246193 -0.06328785 -0.30021787 -0.6211856 0.046697956 0.35679206 -0.09626846
0.13633047 0.08815555 0.06935116 0.16048773 0.027178323 0.08306534 -0.320955 -0.23134105
0.2236365 0.2361493 -0.20052722 0.112079434 -0.21275008 -0.10457412 -0.004182357 -0.28813973
0.027773596 -0.13089831 0.24722296 -0.3060023 0.10204556 0.2568716 0.13170993 0.15383834
0.1399219 -0.0053639975 0.15594274 0.28817707 -0.015554076 0.44776854 -0.15930137 -0.09897965
-0.17803016 0.092612945 0.115974024 0.22279939 -0.02815861 -0.0796938 -0.34084666 0.017417792
0.21835226 0.10979652 -0.2665012 -0.14462486 -0.41083398 -0.1072592 -0.37917742 -0.37970787
-0.11708706 0.040116142 0.1517166 -0.33884522 0.0012094374 0.3218651 0.012228712 -0.11420169
-0.110443205 -0.22339942 -0.15532406 0.08915868 -0.27670336 0.40035775 0.27451634 -0.1824108
-0.35875335 0.49310154 0.25717902 0.056997936 0.22023411 -0.04396186 0.829117 -0.50000703
0.1411336 0.25372484 0.054428857 0.112214446 -0.053703185 -0.0471494 -0.084852114 -0.5567195
-0.29895297 -0.2015131 -0.05849401 -0.46328136 -0.72344774 0.6289254 0.5514572 -0.15778717
0.7118137 -0.2851072 0.28971058 -0.3549324 -0.1266769 -0.42696598 -0.036758505 -0.12862712
0.16913868 -0.26660845 0.18741913 -0.12281271 0.13459465 -0.11986124 0.39119533 -0.2851623
-0.033634726 0.14668973 0.1550938 -0.07613317 -0.39891 0.22088516 -0.04551739 -0.12554666
0.03458765 0.13049123 -0.22769573 0.116148196 -0.1034447 0.14975347 -0.02423122 -0.23083432
-0.08516835 -0.07955243 0.24969806 0.10453729 0.034810957 -0.11648936 0.28320995 0.07830855
0.21487325 -0.05733256 -0.06898936 0.07953049 0.016266454 -0.11167487 0.038152784 -0.34627444
-0.0012835357 0.15793042 -0.07184204 0.03724621 0.064251006 0.4362463 -0.053868294 -0.13689728
-0.031647656 -0.17758505 0.11750156 -0.3163493 0.16614963 0.3527389 0.18599989 -0.10388067
-0.28133714 0.0034547031 0.13659061 -0.027365867 -0.27383858 0.12008638 0.07079257 0.020091292
0.10377093 -0.18863854 0.01120395 0.079159155 0.13830067 0.040545065 0.073341765 0.14534256
0.238297 -0.03817674 0.2610389 0.03196819 -0.3271825 0.13026698 -0.14519554 -0.10538201
-0.2632694 -0.24933472 0.22245727 -0.25349313 -0.19180804 0.4000803 0.10183675 -0.16736415
-0.0822809 -0.11957856 -0.08962881 -0.2245728 -0.21273941 0.32015207 0.049504355 0.0033530998
00000000: 55d0 843e 39de 9abc bbbc d73e 86c0 033e
00000010: 3dc3 103d 0a61 39be a290 d63d b634 7bbe
00000020: 4467 b13e e367 e03e b0f5 29be a825 bb3e
00000030: 2c6c 7d3d 4451 9d3e b57f d2bd e510 75be
00000040: cba5 10bd fea3 46be 7068 343e 0ea3 ffbe
00000050: 2ee5 50be 64fc ce3e 9e0b c8bd 51cf aabe
00000060: f856 1a3d a039 31be 5b76 bb3e 14c4 b03e
00000070: f80a 31be 8c9e 0d3e 4577 383e 905b cebe
00000080: 2029 be3d a34c e3be ef03 793e e7c0 d1bd
00000090: c278 0c3e 8e8c 13be 260a 4d3e 3094 98be
000000a0: 7e55 c53e c5e6 0d3e 53d9 4ebe 2707 353e
000000b0: 36cf dbbe e722 853e 0c84 9bbe af0a 18bf
000000c0: aadb b4be 9a4c 573a 86f8 b13e 2603 05bf
000000d0: fee8 c1bd 9067 d53e 7d23 93be 24a2 c3be
000000e0: 7d23 01bd c5f0 c8be 0f9d 81bd 28b6 99be
000000f0: 0506 1fbf 5b46 3f3d 73ad b63e 6628 c5bd
00000100: 379a 0b3e e68a b43d fb07 8e3d e556 243e
00000110: 13a5 de3c 291e aa3d 3754 a4be abe4 6cbe
00000120: f700 653e 1fd1 713e 0257 4dbe e789 e53d
00000130: 28db 59be f52a d6bd 270c 89bb 0d87 93be
00000140: 7485 e33c 350a 06be 0428 7d3e 55ac 9cbe
00000150: 43fd d03d ad84 833e f8de 063e cc87 1d3e
00000160: b047 0f3e 79c4 afbb 74af 1f3e f28b 933e
00000170: 86d6 7ebc eb41 e53e e61f 23be d8b5 cabd
00000180: 8a4d 36be dbab bd3d ca83 ed3d 8625 643e
00000190: e3ac e6bc 8136 a3bd 7483 aebe c2af 8e3c
000001a0: bc97 5f3e ffdc e03d d872 88be 8a18 14be
000001b0: d558 d2be b6aa dbbd 8b23 c2be 1269 c2be
000001c0: 57cb efbd d350 243d 995b 1b3e 1f7d adbe
000001d0: fc85 9e3a 81cb a43e f05a 483c 93e2 e9bd
000001e0: 0c30 e2bd d1c2 64be 450d 1fbe d398 b63d
000001f0: 10ac 8dbe b1fb cc3e 688d 8c3e e6c9 3abe
00000200: 85ae b7be ce77 fc3e f8ac 833e ab76 693d
00000210: 0d85 613e 5a11 34bd 0341 543f 7600 00bf
00000220: 5485 103e 39e8 813e cbf0 5e3d b0d0 e53d
00000230: dff7 5bbd bb1f 41bd f2c6 adbd 2b85 0ebf
00000240: 5d10 99be 7359 4ebe 6a97 6fbd 3733 edbe
00000250: df33 39bf 4101 213f 4d2c 0d3f f692 21be
00000260: 6c39 363f 92f9 91be f254 943e b3b9 b5be
00000270: 97b7 01be 499b dabe 1690 16bd d4b6 03be
00000280: b132 2d3e e780 88be cdea 3f3e 3b85 fbbd
00000290: 2ed3 093e cf79 f5bd c14a c83e cb00 92be
000002a0: 91c4 09bd d535 163e e9d0 1e3e b5eb 9bbd
000002b0: ee3d ccbe b82f 623e 7170 3abd 4e8f 00be
000002c0: c8ab 0d3d 7e9f 053e 1229 69be 1bdf ed3d
000002d0: d1da d3bd f958 193e 8d80 c6bc d55f 6cbe
000002e0: be6c aebd 62ec a2bd d9b0 7f3e a617 d63d
000002f0: ef95 0e3d f991 eebd e500 913e 3c60 a03d
00000300: bc07 5c3e 8cd5 6abd 4b4a 8dbd e2e0 a23d
00000310: 3a41 853c cbb5 e4bd 1846 1c3d e24a b1be
00000320: 503c a8ba 83b8 213e eb21 93bd 7b8f 183d
00000330: 0896 833d ad5b df3e 00a5 5cbd cd2e 0cbe
00000340: f9a0 01bd dbd8 35be a8a4 f03d 89f8 a1be
00000350: 2123 2a3e 319a b43e c176 3e3e 64bf d4bd
00000360: 6c0b 90be 4d68 623b 69de 0b3e 622e e0bc
00000370: 9234 8cbe d9ef f53d b2fb 903d 7e96 a43c
00000380: da85 d43d 762a 41be c690 373c 321e a23d
00000390: b19e 0d3e 9512 263d 3534 963d aed4 143e
000003a0: 2104 743e 375f 1cbd e4a6 853e 14f1 023d
000003b0: 7784 a7be b564 053e 24ae 14be 86d2 d7bd
000003c0: 3fcb 86be 9a51 7fbe d7cb 633e dac9 81be
000003d0: 5469 44be 53d7 cc3e c98f d03d 8261 2bbe
000003e0: e382 a8bd 9be5 f4bd 4f8f b7bd 69f6 65be
000003f0: 5cd8 59be f9ea a33e 14c5 4a3d aebf 5b3b

bias_ih_l0 f4 [128]
0.122299254 0.54828584 0.14033146 0.38626653 0.17539613 0.2500713 0.39455417 0.244737
0.48651496 0.15793554 0.52673227 0.21072182 -0.0057538794 0.16161449 0.16663542 0.0072811097
-0.0038886957 0.33403823 0.07618391 0.20888221 0.66548973 0.35765 0.5706325 0.032919098
0.49871352 0.08688309 0.007890964 0.1151984 0.05681562 0.4174333 0.43321422 0.25296527
-0.0069427756 -0.6333324 -0.3663758 -0.28397885 -0.29274362 -0.12906986 -0.654235 -0.35548934
-0.47920328 -0.027211266 -0.48458657 -0.015046675 0.13332848 0.05113003 -0.09688581 -0.16490133
0.10452001 -0.08829475 -0.039824277 0.084220394 -0.7154452 -0.062106494 -0.3103834 0.018817248
-0.48461527 0.12695305 0.054464247 0.020043131 0.007873476 -0.728904 -0.7067491 -0.31439146
0.15337944 0.12088685 -0.05303863 0.036966767 -0.07101118 -0.01034537 0.08132248 -0.0135636255
0.000687811 0.10530867 -0.070429 0.035603117 -0.13181153 -7.679556e-05 -0.06351011 -0.19780317
-0.13589676 -0.14483541 0.19596925 -0.07547539 0.05320071 0.1346472 0.09397643 -0.13482656
0.12107955 -0.1536492 0.0517726 -0.05560368 -0.19752356 0.14397846 0.04039071 -0.086575076
0.32782468 0.48232663 0.2027556 0.49003842 0.28312206 0.22108948 0.42492664 0.27441394
0.44065952 0.23760289 0.30451372 0.14402395 0.2431271 0.20396814 0.17723815 0.15557665
0.13726734 0.31024957 0.15975685 0.09708123 0.7305126 0.4441249 0.5409204 0.10385571
0.26268592 0.13116837 0.22845635 0.0805595 0.19337887 0.57247853 0.51982844 0.17488784
00000000: 0878 fa3d 765c 0c3f 0db3 0f3e bac4 c53e
00000010: 0b9b 333e 5809 803e 0103 ca3e 569c 7a3e
00000020: 7d18 f93e dbb9 213e edd7 063f 76c7 573e
00000030: 0a8b bcbb 457e 253e 7aa2 2a3e 6096 ee3b
00000040: 7dd9 7ebb 0f07 ab3e 4f06 9c3d 38e5 553e
00000050: 895d 2a3f e71d b73e f914 123f 2dd6 063d
00000060: 6157 ff3e c3ef b13d 1a49 013c 24ed eb3d
00000070: 7fb7 683d d1b9 d53e 41ce dd3e aa84 813e
00000080: 3980 e3bb 1222 22bf 9c95 bbbe ad65 91be
00000090: 7ee2 95be e42a 04be f27b 27bf b302 b6be
000000a0: 225a f5be 29ea debc bb1b f8be 5486 76bc
000000b0: 4387 083e b96d 513d 116c c6bd e5db 28be
000000c0: 960e d63d e1d3 b4bd c81e 23bd be7b ac3d
000000d0: 6b27 37bf 6163 7ebd 93ea 9ebe a126 9a3c
000000e0: 7e1f f8be fbff 013e e715 5f3d 7e31 a43c
000000f0: c0ff 003c 7499 3abf 82ed 34bf ebf7 a0be
00000100: 800f 1d3e 8693 f73d 093f 59bd 776a 173d
00000110: 4f6e 91bd a07f 29bc 678c a63d f839 5ebc
00000120: 374e 343a 12ac d73d 143d 90bd 93d4 113d
00000130: 9af9 06be 4d0d a1b8 9711 82bd ea8c 4abe
00000140: 8528 0bbe bc4f 14be 2aac 483e d792 9abd
00000150: fde8 593d f5e0 093e b776 c03d f90f 0abe
00000160: 8ef8 f73d 3756 1dbe 810f 543d afc0 63bd
00000170: 9e43 4abe 176f 133e bb70 253d 464e b1bd
00000180: a3d8 a73e 84f3 f63e 2a9f 4f3e 51e6 fa3e
00000190: 60f5 903e 4865 623e fc8f d93e fc7f 8c3e
000001a0: 209e e13e 2c4e 733e 39e9 9b3e 047b 133e
000001b0: 4ff6 783e 06dd 503e eb7d 353e 7c4f 1f3e
000001c0: cf8f 0c3e 08d9 9e3e 4d97 233e 86d2 c63d
000001d0: e002 3b3f 5764 e33e c279 0a3f 4db2 d43d
000001e0: c57e 863e 0051 063e 76f0 693e 61fc a43d
000001f0: 1c05 463e f48d 123f 7a13 053f cc15 333e

bias_hh_l0 f4 [128]
0.07800879 0.5613929 0.0065414896 0.5477498 0.31917182 0.0061696367 0.2929047 0.42230278
0.5716544 0.32283244 0.27027786 0.08589351 -0.24404795 0.4558812 0.20719878 0.16770142
-0.090855636 0.3265985 -0.019506773 0.16460513 0.8131666 0.5383668 0.5991585 0.097217165
0.40037355 0.07175443 0.081445925 0.023616621 -0.02481047 0.40809035 0.502732 0.30315655
-0.095702 -0.6072428 -0.12868714 -0.4901227 0.015621674 0.03377309 -0.51329327 -0.50031847
-0.40631875 -0.0834333 -0.46565163 -0.07623599 0.13054623 -0.12830737 0.009068951 -0.11478882
-0.026278123 -0.1562191 -0.011471226 -0.09706538 -0.57153845 -0.224903 -0.5334513 -0.0091704
-0.68819565 -0.18167552 -0.19907291 -0.040649246 -0.020347646 -0.49498835 -0.57466424 -0.013001077
-0.12987944 -0.14788583 0.11704053 -0.018664265 0.18564968 0.021975702 -0.10482 0.033327065
0.14194605 0.011690428 0.057404246 0.05289662 0.04890176 0.06636763 -0.14121512 -0.051545423
-0.042955 0.097554356 0.12141674 -0.20205747 -0.103774324 0.07419381 -0.14961931 0.113251604
-0.11741706 -0.04800853 0.054739658 0.059242833 -0.18606889 -0.13466577 0.015841555 0.01742087
0.21278721 0.6166539 0.046655126 0.71735305 0.3817356 0.124477394 0.62350804 0.585007
0.386658 0.25995407 0.5457823 0.22091576 0.25528836 0.39715198 0.09709252 0.1634406
0.15575986 0.1734563 0.2648523 -0.026408516 0.6935611 0.63522005 0.69269353 0.23644537
0.45051447 0.106816456 0.2803713 0.08676299 0.06403825 0.5669365 0.5468478 0.37562478
00000000: 13c3 9f3d 72b7 0f3f fe59 d63b 5539 0c3f
00000010: 7d6a a33e aa2a ca3b 9bf7 953e 1238 d83e
00000020: f157 123f 4b4a a53e dc61 8a3e f0e8 af3d
00000030: b5e7 79be 4369 e93e eb2b 543e ecb9 2b3e
00000040: 8512 babd eb37 a73e abcc 9fbc 3f8e 283e
00000050: b02b 503f 68d2 093f 7462 193f cb19 c73d
00000060: c3fd cc3e fdf3 923d 1fcd a63d a577 c13c
00000070: 543f cbbc 38f1 d03e 0bb3 003f 5637 9b3e
00000080: 69ff c3bd 4474 1bbf 90c6 03be 5df1 fabe
00000090: 0df2 7f3c a755 0a3d 3067 03bf df14 00bf
000000a0: 0309 d0be 14df aabd e469 eebe 9d21 9cbd
000000b0: e9ad 053e 0263 03be f095 143c 6716 ebbd
000000c0: 3845 d7bc e6f7 1fbe cff1 3bbc 37ca c6bd
000000d0: 5850 12bf f94c 66be 4490 08bf 723f 16bc
000000e0: 972d 30bf 2609 3abe c5d9 4bbe d37f 26bd
000000f0: 1bb0 a6bc 1d6f fdbe 321d 13bf 7802 55bc
00000100: 1eff 04be 626f 17be f2b2 ef3d cde5 98bc
00000110: f31a 3e3e 6306 b43c deab d6bd f681 083d
00000120: 4e5a 113e 3589 3f3c b720 6b3d 20aa 583d
00000130: 364d 483d c1eb 873d b29a 10be 4b21 53bd
00000140: 95f1 2fbd 94ca c73d 57a9 f83d 27e8 4ebe
00000150: a287 d4bd edf2 973d ce35 19be 75f0 e73d
00000160: 5b78 f0bd 98a4 44bd b136 603d 9da8 723d
00000170: d888 3ebe d3e5 09be 26c6 813c 36b6 8e3c
00000180: e4e4 593e 08dd 1d3f 7219 3f3d 73a4 373f
00000190: d972 c33e 01ee fe3d 399e 1f3f 05c3 153f
000001a0: 0af8 c53e b318 853e 64b8 0b3f be37 623e
000001b0: 28b5 823e 8157 cb3e 71d8 c63d f95c 273e
000001c0: 837f 1f3e 879e 313e b89a 873e ac56 d8bc
000001d0: 388d 313f c89d 223f 5d54 313f bc1e 723e
000001e0: d5a9 e63e 96c2 da3d d48c 8f3e cbb0 b13d
000001f0: 7c26 833d c022 113f 38fe 0b3f e451 c03e

weight_ih_l0 f4 [128, 2]
0.056789808 0.12051466 -0.034388036 -0.0051684384 0.2816209 -0.101774275 -0.4429732 -0.12282929
-0.27581733 -0.6245953 0.36239552 0.12578063 -0.34270674 0.46590656 -0.4898999 -0.019078014
0.29938367 -0.04470391 -0.14401431 -0.09049713 0.12354795 0.27849704 0.17475705 -0.03600106
0.3062204 -0.10164699 -0.33439064 -0.19726034 0.23532036 0.018975599 -0.3800697 0.19060776
-0.2122588 0.2934877 -0.31686407 0.10883245 -0.051682852 0.16698125 0.6487579 -0.06092013
0.24393809 -0.017045299 0.25771442 0.55864763 -0.30144763 0.37774506 -0.3709422 0.37362468
-0.12293188 0.055222373 0.00088057946 -0.10889334 0.019745147 -0.029621473 -0.42621294 0.44467634
0.11063416 -0.012192403 0.21223071 -0.051305775 0.21339186 -0.11499056 -0.53074276 -0.40428367
-0.06544052 -0.2000588 -0.29188332 -0.45196733 0.048384495 -0.08342607 0.54498684 0.066388175
0.28752458 -0.19739811 -0.67521393 0.17865661 0.037558418 -0.30976546 0.5746086 0.45183924
-0.18131779 -0.08239311 0.73405534 -0.480813 -0.0051180106 -0.38116977 -0.4543646 0.04103452
-0.91944814 0.009272745 0.8468021 0.7497454 -0.094680876 -0.31734088 0.0458772 0.06965926
0.11858373 -0.29756457 -0.16519113 -0.53279203 0.14554192 0.37145308 -0.03692988 -0.21066888
-0.8019656 -0.5553987 0.18627588 0.24981144 0.026478363 -0.4573984 -0.3978284 -0.706509
-0.2257392 -0.08654918 0.09885428 0.09506249 0.41780826 -0.20585299 0.00019029119 0.7749724
0.10421694 -0.33358476 -0.31677106 0.8732121 0.320534 -0.0013946742 -0.2876722 0.49931392
-0.19211355 0.25370157 -0.15957032 -0.28970408 -0.19261786 -0.46564013 0.034290537 -0.41237345
-0.36165053 0.24533172 0.22113682 -0.30641413 -0.3723135 -0.32902753 0.23729824 -0.15500927
0.56021917 0.36199287 -0.14477423 0.83449566 0.3789614 0.6264656 -0.4971355 0.35553655
-0.43798032 0.0019999626 0.26555374 0.25218722 -0.08918984 -0.39475477 -0.47738945 0.25347894
-0.0903126 0.18626639 -0.3936232 0.5625181 -0.0076769837 0.43714023 0.32103527 0.046788406
-0.18455173 0.032810576 -0.641226 0.17418025 -0.23021841 -0.44335002 0.23704313 -0.03655758
0.41303265 0.14376743 -0.08189127 0.2895481 -0.67569166 0.2734212 0.3592775 0.01361751
0.49141514 0.31391746 0.2589252 -0.0077659674 0.3302528 0.23288 -0.3000063 -0.5318191
-0.16481028 -0.12862979 0.0324795 -0.098489545 0.20988253 -0.114197776 0.11016043 -0.029619422
0.02052073 -0.6416267 -0.2799994 0.27220023 -0.14087974 -0.3292043 -0.055179607 0.09790846
-0.013799822 0.17938223 0.15642487 -0.48841408 0.2845464 0.012160435 0.10140299 -0.1418362
-0.010722509 0.29924104 0.19364919 0.21259597 0.082053386 -0.089664355 -0.2219175 0.11774055
-0.12712099 0.07426019 -0.26454213 -0.21426535 -0.015069783 -0.15970828 0.659457 0.15782155
-0.14023039 -0.21830696 0.0227538 0.47336385 -0.17160387 -0.16333482 -0.42215827 -0.2555478
0.09018424 0.09256375 0.0865471 -0.17454961 0.11124814 -0.28717542 0.09228806 0.7015101
0.08220236 -0.036827568 -0.051711213 0.30313396 0.29356074 -0.11222994 -0.10989638 -0.38220093
00000000: 6e9c 683d 64d0 f63d 78da 0cbd 015c a9bb
00000010: 9d30 903e 086f d0bd 62cd e2be ec8d fbbd
00000020: ee37 8dbe 7ae5 1fbf e88b b93e a3cc 003e
00000030: 4277 afbe 4e8b ee3e 29d4 fabe 7f49 9cbc
00000040: d148 993e 721b 37bd 7d78 13be 8f56 b9bd
00000050: b506 fd3d 2a97 8e3e 83f3 323e d975 13bd
00000060: ecc8 9c3e 4c2c d0bd 4035 abbe 9dfe 49be
00000070: d2f7 703e b772 9b3c 7f98 c2be ae2e 433e
00000080: 5f5a 59be 0544 963e 023c a2be 8ce3 de3d
00000090: 66b1 53bd 22fd 2a3e ff14 263f 6387 79bd
000000a0: e8ca 793e 95a2 8bbc 25f3 833e 8803 0f3f
000000b0: 5857 9abe cd67 c13e 23ec bdbe bc4b bf3e
000000c0: b6c3 fbbd db30 623d b0d6 663a 7903 dfbd
000000d0: 93c0 a13c bba8 f2bc 9538 dabe 9eac e33e
000000e0: 2a94 e23d a5c2 47bc 0253 593e 0126 52bd
000000f0: 6583 5a3e 2c80 ebbd c2de 07bf 45fe cebe
00000100: ae05 86bd 37dc 4cbe bb71 95be 4368 e7be
00000110: d22e 463d 4adb aabd 4284 0b3f 86f6 873d
00000120: 6c36 933e bb22 4abe d2da 2cbf c2f1 363e
00000130: dbd6 193d 9499 9ebe 8d19 133f 7957 e73e
00000140: 5fab 39be b8bd a8bd 0deb 3b3f 1f2d f6be
00000150: fcb4 a7bb af28 c3be 7aa2 e8be d013 283d
00000160: f460 6bbf b6ec 173c 06c8 583f 51ef 3f3f
00000170: 0ce8 c1bd 817a a2be bbe9 3b3d 84a9 8e3d
00000180: 07dc f23d 625a 98be dd27 29be 0f65 08bf
00000190: f108 153e 192f be3e c943 17bd 95b9 57be
000001a0: 9e4d 4dbf 9c2e 0ebf 1bbf 3e3e 92ce 7f3e
000001b0: 27e9 d83c 2030 eabe 2ab0 cbbe c6dd 34bf
000001c0: 2d28 67be b240 b1bd 1d74 ca3d 1fb0 c23d
000001d0: f7ea d53e 20cb 52be e788 4739 9764 463f
000001e0: b16f d53d 9fcb aabe d12f a2be d48a 5f3f
000001f0: 081d a43e 80cd b6ba c549 93be 13a6 ff3e
00000200: 6ab9 44be 2ce5 813e 6766 23be 1854 94be
00000210: 9e3d 45be 6268 eebe 3c74 0c3d 9d22 d3be
00000220: 422a b9be 3d38 7b3e b171 623e 50e2 9cbe
00000230: e09f bebe 4c76 a8be 4ffe 723e c0ba 1ebe
00000240: 866a 0f3f 2157 b93e b23f 14be 82a1 553f
00000250: 3b07 c23e 0d60 203f 8b88 febe e308 b63e
00000260: f53e e0be ce11 033b a9f6 873e af1e 813e
00000270: 2aa9 b6bd 4c1d cabe 646c f4be fec7 813e
00000280: d0f5 b8bd 9ebc 3e3e fb88 c9be 3001 103f
00000290: 358f fbbb d8d0 df3e bc5e a43e 33a5 3f3d
000002a0: 21fb 3cbe 6264 063d 6327 24bf 4f5c 323e
000002b0: 60be 6bbe c6fe e2be 6fbb 723e 67bd 15bd
000002c0: 0479 d33e c537 133e 9cb6 a7bd a63f 943e
000002d0: 21fa 2cbf ddfd 8b3e 38f3 b73e fa1b 5f3c
000002e0: c49a fb3e cab9 a03e d891 843e a879 febb
000002f0: e516 a93e 1878 6e3e 6d9a 99be 4c25 08bf
00000300: 07c4 28be 87b7 03be 3909 053d e3b4 c9bd
00000310: 72eb 563e 86e0 e9bd cb9b e13d 6ea4 f2bc
00000320: 171b a83c a641 24bf 155c 8fbe d45d 8b3e
00000330: c742 10be 778d a8be 0304 62bd 3b84 c83d
00000340: a618 62bc faaf 373e d72d 203e 6911 fabe
00000350: 11b0 913e 903c 473c 5fac cf3d 823d 11be
00000360: 76ad 2fbc 1f36 993e f94b 463e c2b2 593e
00000370: 9b0b a83d f2a1 b7bd 573e 63be f521 f13d
00000380: 012c 02be ba15 983d 1172 87be 6068 5bbe
00000390: 40e7 76bc 918a 23be 2dd2 283f f99b 213e
000003a0: 8e98 0fbe dc8b 5fbe 2d66 ba3c bf5c f23e
000003b0: edb8 2fbe 3e41 27be 2125 d8be 29d7 82be
000003c0: 84b2 b83d 1092 bd3d 9b3f b13d 22bd 32be
000003d0: 11d6 e33d a808 93be 8601 bd3d 2a96 333f
000003e0: b659 a83d 81d8 16bd 23cf 53bd 6034 9b3e
000003f0: 984d 963e d0d8 e5bd 5a11 e1bd d7af c3be

weight_hh_l0 f4 [128, 32]
-0.070106454 0.064167805 -0.28619805 0.0026383826 0.10164769 -0.19737925 -0.10994815 0.027578142
-0.08647573 -0.037557274 0.18367627 0.34356514 0.2667422 0.175765 -0.13135016 -0.07793156
0.07381628 0.05738814 0.34637952 -0.32947668 0.21746856 -0.1460483 -0.4627013 0.18935892
-0.22650549 0.21781531 -0.24018124 0.16154349 0.047408752 -0.2455857 -0.09541357 0.07032322
0.0022420466 -0.14930259 -0.2979398 -0.16480215 0.098050274 -0.00038841573 -0.39818996 -0.05904764
0.20928977 0.21451446 0.20422795 0.030563459 -0.01870763 0.5079809 0.033248644 -0.037582684
0.109201424 0.08180867 0.3394842 0.03887909 0.17593937 -0.2767102 -0.17663537 0.22843228
0.14176132 -0.0061017782 -0.25804052 0.05934649 0.018339958 -0.013050224 0.1321897 -0.36614048
-0.13713574 0.2904596 0.14529222 -0.17980303 -0.050098997 -0.1698339 -0.21680443 0.18842418
-0.008376163 -0.30953145 -0.10372165 0.0023389517 0.22054844 0.6640504 0.4644664 0.045038
0.061289545 -0.04595228 0.10343469 -0.18960544 0.052039996 -0.19027147 0.107351266 0.31971532
-0.21323147 0.13787164 -0.2733566 0.1820833 -0.41276598 -0.14754525 0.40520516 -0.92077094
0.21285021 -0.04394082 0.02384144 -0.1947753 0.2839432 0.06491235 0.26057762 0.16048197
0.304092 0.12004551 -0.048140585 0.015191542 0.14342286 0.027869657 -0.13210967 -0.057324715
-0.23276192 -0.15816702 0.10612411 -0.08354 -0.08075761 0.22581434 0.0147368135 0.046409864
-0.03667562 0.24311493 -0.01883656 0.23915449 -0.042268205 -0.17173564 0.17621833 -0.19219066
-0.18953136 0.14868464 0.33576396 0.24348548 0.015931748 0.36815548 0.54187 0.06526807
0.19106402 -0.11787871 -0.39596018 -0.12586442 0.077456124 0.16155559 0.1777884 -0.012918805
-0.29762217 -0.6015954 -0.15949845 0.24231812 0.08025402 0.041864153 0.495941 -0.06304681
-0.2367279 0.11751644 -0.6607777 0.20514275 -0.07211184 0.015899286 0.16837539 0.058882054
-0.043756917 -0.097853206 -0.33185166 -0.19092776 0.1935301 0.11796219 -0.20118248 0.27002507
0.5159827 -0.26237094 -0.08565538 0.3183435 0.27028754 0.06202443 0.18480644 -0.10186176
-0.2617462 -0.63669944 -0.13635151 0.14107423 -0.025082905 -0.21617778 0.08106705 0.35738358
0.17989284 0.34686178 -0.217694 0.48834893 -0.021528363 -0.49083582 0.48760325 -0.11106627
0.20505896 0.2964699 0.08127962 0.076521575 0.51570356 -0.11006064 -0.15234928 0.08305842
-0.1868711 0.20114712 -0.08337747 0.7138757 0.67851907 0.29269403 0.30844733 -0.16693717
-0.2359106 0.20932688 0.115034916 -0.64525026 0.42848548 0.048502605 0.013286809 0.25563693
-0.17189127 0.20572007 -0.07099473 -0.07181218 -0.54583555 -0.2660356 0.032008197 -0.24300382
0.33758414 0.1652434 0.35641885 -0.0684316 0.27126452 -0.21807332 0.3404173 0.0516251
-0.90974873 -0.29081318 -0.4942248 0.33210614 0.67823845 -0.19672294 -0.029045474 0.31641454
0.1243203 0.16001584 0.020658458 0.09361539 0.029483166 0.24460289 -0.068541184 -0.20360245
-0.030895889 -0.090640076 0.60037446 0.13066588 -0.17441241 0.047382537 -0.0795167 0.3104569
00000000: f993 8fbd 696a 833d 8d88 92be b7e8 2c3b
00000010: aa2c d03d c91d 4abe 7f2c e1bd 8eeb e13c
00000020: 301a b1bd a8d5 19bd a215 3c3e c5e7 af3e
00000030: 6f92 883e bdfb 333e a880 06be 959a 9fbd
00000040: fd2c 973d d40f 6b3d a858 b13e 2bb1 a8be
00000050: 14b0 5e3e b08d 15be 2fe7 ecbe 4ee7 413e
00000060: 0ef1 67be fa0a 5f3e 12f2 75be a86b 253e
00000070: ae2f 423d d17a 7bbe 3168 c3bd 9f05 903d
00000080: 4def 123b c7e2 18be 918b 98be e5c1 28be
00000090: 95ce c83d 47a4 cbb9 8edf cbbe f0db 71bd
000000a0: 0f50 563e aea9 5b3e 2221 513e 3860 fa3c
000000b0: be40 99bc 090b 023f bb2f 083d 4df0 19bd
000000c0: ffa4 df3d 4e8b a73d e0d0 ad3e ae3f 1f3d
000000d0: 7329 343e f6ac 8dbe e7df 34be 27ea 693e
000000e0: e129 113e 6df1 c7bb e31d 84be 4e15 733d
000000f0: ae3d 963c 9bd0 55bc bd5c 073e c476 bbbe
00000100: 506d 0cbe 1fb7 943e 7cc7 143e 491e 38be
00000110: 9b34 4dbd f0e8 2dbe fb01 5ebe 45f2 403e
00000120: 2d3c 09bc e87a 9ebe 046c d4bd 1949 193b
00000130: 73d7 613e 35ff 293f 8ace ed3e c479 383d
00000140: bf0a 7b3d 7538 3cbd 91d5 d33d ee27 42be
00000150: e427 553d 86d6 42be fbda db3d bab1 a33e
00000160: 5a59 5abe 392e 0d3e 65f5 8bbe 0b74 3a3e
00000170: 1056 d3be 1a16 17be 0d77 cf3e a5b7 6bbf
00000180: 68f5 593e 4afb 33bd 204f c33c 2d73 47be
00000190: 0161 913e c4f0 843d 6e6a 853e 6355 243e
000001a0: f2b1 9b3e 6cda f53d 102f 45bd f2e5 783c
000001b0: 71dd 123e e84e e43c c247 07be 52cd 6abd
000001c0: 2459 6ebe 89f6 21be 9957 d93d 0517 abbd
000001d0: 3f64 a5bd e03b 673e ad72 713c 4518 3e3d
000001e0: 2d39 16bd 1ff3 783e 214f 9abc eae4 743e
000001f0: 6d21 2dbd 78db 2fbe 9472 343e a1cd 44be
00000200: 8214 42be c940 183e 41e9 ab3e 4254 793e
00000210: 4c83 823c e07e bc3e feb7 0a3f 44ab 853d
00000220: 49a6 433e 656a f1bd 4bbb cabe 9ae2 00be
00000230: 51a1 9e3d d46e 253e 2a0e 363e 65a9 53bc
00000240: ef61 98be 2802 1abf 9053 23be 3e22 783e
00000250: 385c a43d bf79 2b3d fbeb fd3e b01e 81bd
00000260: cc68 72be 76ac f03d ba28 29bf f110 523e
00000270: 5faf 93bd 383f 823c 996a 2c3e 4f2e 713d
00000280: 743a 33bd 4367 c8bd 76e8 a9be 9182 43be
00000290: c12c 463e 2996 f13d c802 4ebe ba40 8a3e
000002a0: 7117 043f 7c55 86be 166c afbd ebfd a23e
000002b0: 2163 8a3e 540d 7e3d e63d 3d3e e69c d0bd
000002c0: 9903 86be bcfe 22bf bb9f 0bbe c375 103e
000002d0: aa7a cdbc b55d 5dbe 7b06 a63d fbfa b63e
000002e0: d435 383e de97 b13e 2deb 5ebe df08 fa3e
000002f0: 405c b0bc d54e fbbe 22a7 f93e b676 e3bd
00000300: fafa 513e e7ca 973e ee75 a63d 58b7 9c3d
00000310: 2605 043f 7967 e1bd 7301 1cbe 881a aa3d
00000320: 235b 3fbe 83f9 4d3e cfc1 aabd 8fc0 363f
00000330: 6db3 2d3f fedb 953e cfec 9d3e 94f1 2abe
00000340: 8c92 71be c959 563e 6d97 eb3d 1f2f 25bf
00000350: 7362 db3e abaa 463d ebb0 593c d8e2 823e
00000360: 4404 30be 48a8 523e af65 91bd 4412 93bd
00000370: e1bb 0bbf d135 88be 071b 033d fed5 78be
00000380: d4d7 ac3e 9135 293e 887c b63e de25 8cbd
00000390: 2fe3 8a3e 9d4e 5fbe 2d4b ae3e d774 533d
000003a0: 4be5 68bf 77e5 94be 080b fdbe d109 aa3e
000003b0: 09a1 2d3f bd71 49be c6f0 edbc 1601 a23e
000003c0: a49b fe3d 31db 233e ed3b a93c 6db9 bf3d
000003d0: ae86 f13c 2e79 7a3e 525f 8cbd 297d 50be
000003e0: 6019 fdbc 81a1 b9bd 24b2 193f 47cd 053e
000003f0: 2b99 32be 3114 423d a7d9 a2bd 35f4 9e3e

bias_ih_l0 f4 [128]
-0.020684628 -0.096688114 0.13186626 0.061921105 -0.01016178 0.085851476 0.16973379 -0.1259792
0.027977725 0.071012855 -0.06222995 -0.16082421 0.03586093 0.12823656 -0.22885796 0.032383237
0.018912634 0.25468147 0.26517352 -0.0042028083 0.1561352 -0.06448889 -0.10813606 -0.12980257
-0.033953585 -0.036502544 0.045644205 0.015107317 0.11170174 0.026005082 0.21517244 0.012746404
0.18757236 -0.14785999 -0.09988432 -0.04010423 0.018367138 0.12006233 -0.022919541 0.20902619
0.15668815 0.35377902 0.112219855 0.19060175 -0.03169559 0.13976164 -0.0072731962 -0.07507882
-0.030908959 0.25773028 0.34072 0.22501132 0.20976683 0.1514641 -0.018010648 0.050497126
-0.0025935525 0.1179933 0.0833999 0.22913589 -0.15263419 0.14815344 0.035743084 -0.015367259
-0.16921614 0.13693017 0.12750727 -0.22175713 0.23501724 -0.11447093 -0.37920046 0.23610033
0.103083394 -0.14933024 0.10294393 0.10268423 0.11586076 0.32056156 0.14058822 -0.58081025
-0.35033232 -0.07343895 0.32333925 -0.29622683 0.11469882 -0.45771417 -0.15048723 0.25832197
-0.21847697 0.057928443 0.056503925 0.16678753 -0.4406453 -0.11733488 -0.15346694 -0.7080169
0.033444345 0.16784377 0.24402401 0.14256169 0.11197267 0.24806233 0.20056157 0.10223536
0.07991943 0.35217795 0.09833153 -0.11137027 -0.013029919 0.21466339 0.05045837 0.0885291
0.11397182 0.035278592 0.28176013 0.2042746 0.0697175 0.15642549 0.13423082 -0.079650275
0.23489645 0.078727975 0.2995719 0.06622379 -0.055476926 0.05944665 0.2087067 -0.030403491
00000000: cf72 a9bc 6b04 c6bd f307 073e fca0 7d3d
00000010: 987d 26bc e6d2 af3d b2ce 2d3e b100 01be
00000020: 8b31 e53c 306f 913d d5e4 7ebd 1aaf 24be
00000030: e9e2 123d 7250 033e be59 6abe 49a4 043d
00000040: abee 9a3c 9c65 823e d3c4 873e b6b7 89bb
00000050: e8e1 1f3e c012 84bd 7076 ddbd f7ea 04be
00000060: ea12 0bbd b183 15bd 6bf5 3a3d ae84 773c
00000070: e2c3 e43d 9c08 d53c 2a56 5c3e 4bd6 503c
00000080: f812 403e 9c68 17be 2690 ccbd 5544 24bd
00000090: ae76 963c 3de3 f53d c3c1 bbbc f60a 563e
000000a0: dc72 203e 8622 b53e 86d3 e53d 1b2d 433e
000000b0: 3cd3 01bd ad1d 0f3e fe53 eebb edc2 99bd
000000c0: c934 fdbc 39f5 833e da72 ae3e 5e69 663e
000000d0: 1ecd 563e 6819 1b3e 118b 93bc 13d6 4e3d
000000e0: 97f8 29bb 79a6 f13d 91cd aa3d 99a2 6a3e
000000f0: 234c 1cbe 89b5 173e 5767 123d f5c6 7bbc
00000100: ff46 2dbe 6c37 0c3e 4491 023e 4d14 63be
00000110: 5ca8 703e bc6f eabd 9026 c2be 49c4 713e
00000120: 631d d33d 07ea 18be 44d4 d23d 1c4c d23d
00000130: 6848 ed3d a520 a43e 5cf6 0f3e fbaf 14bf
00000140: c25e b3be 2967 96bd b98c a53e 0bab 97be
00000150: 37e7 ea3d 8359 eabe 5319 1abe c742 843e
00000160: 6db8 5fbe 6046 6d3d a970 673d 5aca 2a3e
00000170: 439c e1be 454d f0bd 7026 1dbe 9840 35bf
00000180: f0fc 083d 3ddf 2b3e 6ee1 793e b1fb 113e
00000190: ed51 e53d 0d04 7e3e 0360 4d3e c660 d13d
000001a0: ccac a33d ab50 b43e 0b62 c93d 1916 e4bd
000001b0: 717b 55bc b8d0 5b3e 70ad 4e3d bf4e b53d
000001c0: 0f6a e93d 4980 103d dd42 903e 5c2d 513e
000001d0: 0cc8 8e3d 012e 203e ce73 093e af1f a3bd
000001e0: b288 703e 223c a13d 7d61 993e 57a0 873d
000001f0: c63b 63bd 557e 733d 36b7 553e be10 f9bc

bias_hh_l0 f4 [128]
0.20835459 0.16280094 0.06205407 -0.107010126 0.083873175 0.17353171 -0.076884925 -0.021894826
0.10665466 0.14314343 0.14282721 0.047929905 0.036402524 0.13752201 0.00042656317 0.0834581
-0.032134354 0.17555918 0.17493123 -0.049164385 0.1611999 0.04494593 0.18624818 -0.20327936
-0.14095122 -0.11966082 0.009885715 -0.08106809 0.13754328 0.050214134 0.07435738 0.041717514
0.0533647 0.0731538 0.024040397 0.06430312 0.02877901 -0.04680422 -0.14602652 -0.08094499
-0.10495518 0.17508404 0.030888017 0.08484809 0.112849444 0.1528541 -0.16371593 -0.14900425
0.0365572 -0.0023649563 0.19571656 0.037827734 0.20217344 0.074585676 0.12682647 -0.097077265
0.021841459 0.16289793 -0.0058737653 0.010180693 0.04581416 -0.044118755 -0.083793156 0.161586
0.010071585 0.1548725 -0.061205268 -0.18857886 0.3085126 -0.31573325 -0.583402 0.23543058
-0.15764572 0.07332935 0.027865162 0.21001215 0.07699215 0.39344355 0.1176889 -0.47403786
-0.2614316 0.09773686 0.040134575 -0.19817844 0.16166346 -0.4160251 -0.018902931 0.19399497
-0.15432364 0.28046614 -0.1476948 0.18292429 -0.58937097 -0.15599163 0.071560204 -0.88758224
0.29782808 0.14381586 0.14342913 -0.123756014 -0.06120694 0.26125807 0.12564902 0.17596056
0.122992754 0.36490333 0.04356189 -0.09059945 -0.0051487978 0.07382152 0.116201155 0.19061066
0.26206508 0.09366384 0.059806995 0.1895648 0.052550077 -0.033706706 0.25509438 0.20712891
0.10983091 0.20456047 0.08790609 0.25162244 0.22003974 0.12663823 0.13352807 0.034306217
00000000: e85a 553e 4ab5 263e 692c 7e3d 2028 dbbd
00000010: b3c5 ab3d 4cb2 313e d875 9dbd c75c b3bc
00000020: c26d da3d 3194 123e 4c41 123e 2652 443d
00000030: d01a 153d 92d2 0c3e 57a4 df39 15ec aa3d
00000040: 509f 03bd c9c5 333e 2c21 333e 9860 49bd
00000050: 9611 253e 3919 383d d8b7 3e3e 7728 50be
00000060: 8455 10be bb10 f5bd b2f7 213c 0707 a6bd
00000070: 25d8 0c3e 56ad 4d3d af48 983d fcdf 2a3d
00000080: f294 5a3d a9d1 953d 5ef0 c43c 5bb1 833d
00000090: f5c1 eb3c c8b5 3fbd fa87 15be 7dc6 a5bd
000000a0: bef2 d6bd 3b49 333e de08 fd3c d6c4 ad3d
000000b0: 9c1d e73d c985 1c3e 26a5 27be 9294 18be
000000c0: 01bd 153d 62fd 1abb ec69 483e 41f1 1a3d
000000d0: 8e06 4f3e 60c0 983d ccde 013e 72d0 c6bd
000000e0: dcec b23c b7ce 263e b778 c0bb eccc 263c
000000f0: a1a7 3b3d deb5 34bd bf9b abbd cd76 253e
00000100: 4a03 253c e696 1e3e 60b2 7abd d11a 41be
00000110: 5df5 9d3e caa7 a1be d559 15bf b714 713e
00000120: e16d 21be b32d 963d 7b45 e43c 6d0d 573e
00000130: 0fae 9d3d 6f71 c93e e106 f13d 17b5 f2be
00000140: 5dda 85be 432a c83d 2764 243d 4aef 4abe
00000150: 1b8b 253e 3e01 d5be 52da 9abc 9ea6 463e
00000160: 0407 1ebe 4299 8f3e 4e3d 17be 8150 3b3e
00000170: 04e1 16bf 45bc 1fbe 288e 923d 9738 63bf
00000180: ec7c 983e 7744 133e 16df 123e cb73 fdbd
00000190: 21b4 7abd 9ec3 853e 23aa 003e 012f 343e
000001a0: a0e3 fb3d 9cd4 ba3e f46d 323d 348c b9bd
000001b0: 3fb7 a8bb bd2f 973d dffa ed3d 712f 433e
000001c0: 652d 863e d4d2 bf3d 2ef8 743d 461d 423e
000001d0: c03e 573d 0b10 0abd bb9b 823e 9a19 543e
000001e0: 07ef e03d 4d78 513e 1c08 b43d a8d4 803e
000001f0: 1952 613e 74ad 013e 95bb 083e ad84 0c3d

weight_ih_l0_reverse f4 [128, 2]
-0.13823296 0.29561558 0.368371 -0.52727276 0.1122262 -0.29981562 0.6993313 0.8396194
-0.40700647 -0.5237547 -0.24477589 -0.041302525 -0.18832421 -0.9186008 0.88331294 -0.7718868
0.2785549 -1.5657499 0.020855416 0.45119348 -0.977631 0.50978756 0.06102217 -0.033561163
-0.060779803 0.2596915 -1.1041836 0.06382512 0.8362982 -0.51399314 0.048583772 0.08315504
0.6993047 -1.2318012 -0.17995642 0.50550574 -0.11992899 -0.04593402 0.23121822 0.12465438
-0.6066581 -0.26629686 0.4526099 0.80952775 -0.13592555 0.14908111 -0.54716337 -0.5982971
-0.9435534 0.28139272 -1.1140295 -0.90790206 -0.8486743 -1.3322754 -0.17706856 0.121839315
0.25103194 0.06803149 -0.37643063 -0.18695274 -0.15298478 0.096765116 -0.026543716 -0.057900265
-0.10883015 0.40826347 0.4965776 -0.48013818 0.07814122 -0.26138097 0.04873629 0.29848003
-0.30348632 -0.38720387 0.062230863 0.1087557 -0.13386329 -0.3033361 0.57282126 -0.22753444
0.15013012 -0.4380864 0.06688278 0.21488854 -0.25388008 0.25219908 0.037496056 0.046920355
0.014063613 0.25013617 -0.52892876 -0.06014743 0.3704146 -0.33516103 0.17469586 0.022861205
0.31274748 -0.49972478 -0.23941514 0.38544983 -0.11075646 0.024174701 0.010183615 0.042281345
-0.3779873 -0.17043582 0.16379301 0.18732579 -0.09111561 0.08764446 -0.49747103 -0.46722996
-0.57211304 0.25414547 -0.30496156 -0.68554187 -0.33844173 -0.4889827 -0.06740703 -0.16968206
-0.036319833 0.2728901 -0.24002604 -0.30360797 0.038416144 -0.02353032 0.30732718 -0.24933262
-0.21718746 -0.5140901 0.12177437 0.44270074 0.21001953 0.27507785 -0.5160072 -0.66714513
0.30433697 0.42618155 0.24662696 -0.075657 -0.1301286 -0.5294685 -0.6519125 0.2956787
0.08309518 -0.7962957 -0.033244286 0.63942075 0.4670606 -0.29073456 0.5603158 -0.095247425
0.3846306 0.0400546 0.8490243 -0.20135562 0.33785066 -0.4473481 0.28584883 0.19539264
-0.45367786 0.74885786 0.2247219 1.1646056 0.10790162 -0.3239859 -0.59722245 0.10975987
-0.4263323 -0.075897574 -0.5077519 -0.30315408 -0.31176046 0.18666013 0.304858 0.3574623
-0.40688616 0.42072392 0.38885066 0.5641638 -0.4163286 -0.63778645 0.00076232315 -0.28026587
-0.470599 0.3255771 0.33576494 -0.04947598 0.29162297 -0.39434448 0.38421765 -0.18233849
0.26115528 -0.07435243 0.3987108 -0.56196266 0.38808948 -0.17991735 -0.009547734 0.23819563
-0.4738774 -0.26836768 -0.5087741 0.23935391 -0.37919766 -0.7947854 0.86826664 -0.6380447
0.05026806 -1.1673936 -0.022554941 -0.11377451 -0.83362377 0.469941 0.17067365 -0.008624957
0.094325274 -0.10423841 -0.8602956 0.41194183 1.0498464 -0.6596889 -0.471695 -0.14912374
0.9202524 -0.937361 -0.15569697 0.26315048 -0.09394183 0.024479207 0.17908928 0.30092737
-0.15652345 -0.39861524 0.22981149 0.91179425 0.022294356 0.015938824 -0.6446912 -0.4453823
-0.4246061 0.24871555 -0.5293111 -0.82469785 -0.81472224 -0.6219817 0.13758132 0.14779565
0.7570366 -0.085195534 -0.2890067 -0.31885785 -0.19474964 0.14595342 -0.24798001 0.2001421
00000000: f18c 0dbe ed5a 973e 209b bc3e 59fb 06bf
00000010: dad6 e53d 6f81 99be 6007 333f 4cf1 563f
00000020: 2763 d0be ca14 06bf 88a6 7abe d62c 29bd
00000030: 10d8 40be 6c29 6bbf cc20 623f 609a 45bf
00000040: bf9e 8e3e 7e6a c8bf fad8 aa3c d502 e73e
00000050: 0646 7abf 7081 023f 62f2 793d 6e77 09bd
00000060: 3ef4 78bd 49f6 843e e355 8dbf bfb6 823d
00000070: a417 563f 0e95 03bf c7ff 463d 314d aa3d
00000080: a205 333f a9ab 9dbf 7f46 38be d368 013f
00000090: 559d f5bd 5025 3cbd 78c4 6c3e cc4a ff3d
000000a0: f24d 1bbf 1058 88be 7cbc e73e 363d 4f3f
000000b0: 1130 0bbe b8a8 183e e612 0cbf 002a 19bf
000000c0: b78c 71bf b512 903e 8598 8ebf 456c 68bf
000000d0: b842 59bf 0088 aabf 7651 35be e486 f93d
000000e0: 4287 803e 1854 8b3d 84bb c0be 8a70 3fbe
000000f0: 0ba8 1cbe ca2c c63d 3572 d9bc d428 6dbd
00000100: 57e2 debd e907 d13e 6b3f fe3e acd4 f5be
00000110: 8108 a03d bad3 85be b49f 473d 60d2 983e
00000120: 8f62 9bbe 963f c6be cae5 7e3d 4fbb de3d
00000130: 7513 09be df4e 9bbe 6aa4 123f cafe 68be
00000140: b6bb 193e dc4c e0be d7f9 883d be0b 5c3e
00000150: 92fc 81be 3d20 813e 7795 193d 8f2f 403d
00000160: 116b 663c d911 803e e067 07bf 275d 76bd
00000170: fca6 bd3e 3a9a abbe 79e3 323e 6c47 bb3c
00000180: 7020 a03e eddb ffbe 3e29 75be ae59 c53e
00000190: 48d4 e2bd 060a c63c 2dd9 263c 342f 2d3d
000001a0: 8d87 c1be ba86 2ebe 5bb9 273e 55d2 3f3e
000001b0: d29a babd f07e b33d 86b4 febe c438 efbe
000001c0: 0076 12bf 5b1f 823e ec23 9cbe ac7f 2fbf
000001d0: 3c48 adbe f15b fabe b20c 8abd 22c1 2dbe
000001e0: 1bc4 14bd 40b8 8b3e 63c9 75be 8172 9bbe
000001f0: 3f5a 1d3d a8c2 c0bc fd59 9d3e 0d51 7fbe
00000200: 6466 5ebe 699b 03bf d764 f93d aca9 e23e
00000210: 5c0f 573e 01d7 8c3e 0c19 04bf 06ca 2abf
00000220: 0ed2 9b3e 7834 da3e c78b 7c3e 0ff2 9abd
00000230: 6f40 05be 3f8b 07bf bde3 26bf 3363 973e
00000240: ce2d aa3d 09da 4bbf 292b 08bd 14b1 233f
00000250: 9122 ef3e 29db 94be db70 0f3f 1511 c3bd
00000260: 4dee c43e 4b10 243d a859 593f 2b30 4ebe
00000270: c3fa ac3e cf0a e5be c75a 923e 0215 483e
00000280: 7748 e8be 26b5 3f3f 7f1d 663e cc11 953f
00000290: 86fb dc3d 7be1 a5be 92e3 18bf c8c9 e03d
000002a0: 3a48 dabe 3070 9bbd 07fc 01bf 0337 9bbe
000002b0: 119f 9fbe d523 3f3e 5916 9c3e 4c05 b73e
000002c0: 6253 d0be 2069 d73e 6f17 c73e 0a6d 103f
000002d0: 0629 d5be f945 23bf a4d6 473a 027f 8fbe
000002e0: 5af2 f0be 0bb2 a63e 62e9 ab3e 53a7 4abd
000002f0: 9b4f 953e 85e7 c9be 2db8 c43e f1b6 3abe
00000300: 25b6 853e 1646 98bd d223 cc3e c9dc 0fbf
00000310: aab3 c63e 413c 38be 196e 1cbc 8ee9 733e
00000320: 0fa0 f2be 7d67 89be 053f 02bf 3119 753e
00000330: 3226 c2be 0e77 4bbf b946 5e3f e656 23bf
00000340: e2e5 4d3d 276d 95bf 24c5 b8bc 9c02 e9bd
00000350: 5e68 55bf 1b9c f03e 13c5 2e3e b14f 0dbc
00000360: 9c2d c13d f37a d5bd 553c 5cbf 0aea d23e
00000370: 5e61 863f 5fe1 28bf 0282 f1be e5b3 18be
00000380: a995 6b3f e4f6 6fbf 076f 1fbe a9bb 863e
00000390: 9364 c0bd 9e88 c83c 2e63 373e 2713 9a3e
000003a0: af47 20be 4c17 ccbe b453 6b3e 596b 693f
000003b0: a7a2 b63c 2392 823c 7c0a 25bf 2609 e4be
000003c0: f965 d9be 4aaf 7e3e ef80 07bf 661f 53bf
000003d0: a391 50bf 313a 1fbf 1ee2 0c3e be57 173e
000003e0: 27cd 413f ff7a aebd b0f8 93be 5641 a3be
000003f0: 736c 47be d074 153e 79ee 7dbe 0df2 4c3e

weight_hh_l0_reverse f4 [128, 32]
-0.35662892 0.50739855 0.15891865 -0.2365777 0.28130755 -0.16563 -0.37625012 0.4927276
-0.27947795 0.39597958 -0.288802 -0.44676885 0.20493959 -0.0110464785 -0.47246245 -0.16572739
0.38541573 0.47717142 -0.42399624 0.30053115 -0.21632892 0.024535308 0.29896283 0.29048
0.11846491 0.25306246 -0.40285128 -0.26753497 0.44094712 0.21566162 -0.45425525 0.028059958
-0.012289771 0.04877318 -0.100697555 0.28365117 -0.12820327 0.00090822123 0.067688644 -0.1048059
-0.089330144 0.060650185 0.046606492 -0.15227446 0.009792763 -0.12287076 0.06034351 -0.036671348
-0.023728492 -0.13704549 0.05939046 -0.048331544 -0.031177394 0.040848438 -0.063448995 -0.196779
-0.03288899 -0.17296045 0.048790306 -0.030393807 0.027766058 -0.1041989 0.11699301 0.28717908
0.17145118 -0.26267743 -0.1953643 0.1560702 0.25189394 0.44396502 0.09454795 -0.20851362
-0.038181152 -0.06848094 0.2695512 0.19260876 0.21382517 0.021807583 0.1775259 0.32065046
-0.09307159 -0.09918718 -0.16164541 0.009920649 -0.023791827 -0.16724108 0.19961996 -0.1587962
-0.17457858 0.30332538 0.019973662 0.038187955 0.10377851 0.0806242 -0.21191768 -0.18401843
-0.53893733 0.20856369 0.05903178 -0.62689894 0.5755068 0.16509451 -0.3492006 0.23662028
-0.6755534 0.5164136 0.29590148 0.6127343 0.5047384 0.513332 0.0679869 0.5821923
0.5323777 0.8229087 -0.2752669 -0.104683384 -0.47717112 -0.14727077 -0.3766153 0.68066186
-0.3477989 0.62753195 -0.5214376 -0.21604496 0.09593269 0.12646917 -0.11084205 0.075325735
0.45248276 -0.16962527 -0.1806811 0.36190513 -0.24117438 -0.039792147 -0.0636417 0.087789595
-0.016057277 -0.36406225 -0.03219726 -0.055858176 -0.33381736 0.2513149 -0.23391964 -0.15487604
-0.011678982 -0.4026823 0.06510629 0.13913968 0.007442468 0.28024474 -0.070289515 0.13523668
-0.23403196 0.1781092 -0.1715963 0.27678543 0.036634557 0.06755858 0.020987725 -0.14996375
-0.07067066 -0.1263141 -0.11861692 0.07825242 0.09721916 0.18499786 -0.112647735 -0.14087114
-0.10238986 -0.19671099 -0.015353947 -0.093917 -0.1101261 0.13087441 0.028245319 0.15038197
0.025849598 -0.086517125 -0.15721804 -0.057098623 0.13474141 0.06220015 -0.044910505 0.11294045
0.20219365 -0.059738483 -0.12330695 -0.06037034 -0.08288997 0.033279408 0.119572625 0.084178135
0.5515001 -0.26364058 -0.14722091 0.36215758 -0.30445793 -0.115193434 0.46592402 -0.14120185
0.20614216 -0.6829433 0.113323614 0.16222535 -0.35624552 0.022914581 0.1003162 -0.07990408
-0.15484431 -0.40415597 0.2191802 0.25602835 0.17609984 0.44187745 0.07895393 -0.30831856
-0.20047523 -0.23711377 0.39129454 0.16622594 -0.19578277 -0.4268536 0.14138249 0.10430462
0.34536645 -0.28822467 0.16847788 -0.19353276 0.04510912 0.4976681 -0.15163015 -0.36666045
-0.0731743 -0.110401325 0.7828442 0.22533642 0.14282906 0.63711274 0.07815521 0.0047065597
0.0592454 -0.3114738 -0.049687702 -0.320107 -0.28144267 -0.122915074 -0.5147198 0.15772593
-0.43212274 0.20663793 0.016228901 -0.021869237 -0.26917407 0.14489019 0.17747127 0.3227676
00000000: 1198 b6be dfe4 013f 92bb 223e 6d41 72be
00000010: 8b07 903e e99a 29be dba3 c0be cb46 fc3e
00000020: bc17 8fbe d6bd ca3e dbdd 93be e3be e4be
00000030: afdb 513e 4afc 34bc 99e6 f1be 71b4 29be
00000040: 3655 c53e d04f f43e 0916 d9be 38df 993e
00000050: 5485 5dbe 45fe c83c a811 993e cbb9 943e
00000060: bb9d f23d 6791 813e 8642 cebe 58fa 88be
00000070: d2c3 e13e 66d6 5c3e 2594 e8be ffdd e53c
00000080: 095b 49bc 63c6 473d 853a cebd ba3a 913e
00000090: b847 03be b215 6e3a 58a0 8a3d 7aa4 d6bd
000000a0: b9f2 b6bd 546c 783d 73e6 3e3d d6ed 1bbe
000000b0: d371 203c aaa3 fbbd c22a 773d b234 16bd
000000c0: 4162 c2bc a755 0cbe 6943 733d 4cf7 45bd
000000d0: bc67 ffbc b150 273d 8cf1 81bd 6f80 49be
000000e0: 9bb6 06bd 8b1c 31be 58d8 473d 6ffc f8bc
000000f0: a575 e33c 3c66 d5bd 089a ef3d 2309 933e
00000100: e690 2f3e a87d 86be 940d 48be ded0 1f3e
00000110: 3ef8 803e 624f e33e 5ba2 c13d 9884 55be
00000120: d763 1cbd bc3f 8cbd 9d02 8a3e 3b3b 453e
00000130: fcf4 5a3e d1a5 b23c 59c9 353e 4c2c a43e
00000140: 519c bebd a622 cbbd 6086 25be 388a 223c
00000150: 14e7 c2bc 3f41 2bbe 2d69 4c3e 799b 22be
00000160: bac4 32be 774d 9b3e ce9f a33c f96a 1c3d
00000170: d489 d43d 4d1e a53d f300 59be 546f 3cbe
00000180: ccf7 09bf b891 553e 4fcb 713d 737c 20bf
00000190: 6a54 133f 890e 293e 6cca b2be 964c 723e
000001a0: 11f1 2cbf af33 043f 6680 973e 28dc 1c3f
000001b0: 8936 013f ba69 033f b73c 8b3d 8e0a 153f
000001c0: e849 083f 25aa 523f c8ef 8cbe 3e64 d6bd
000001d0: c64f f4be 26ce 16be b8d3 c0be db3f 2e3f
000001e0: b312 b2be efa5 203f ef7c 05bf e43a 5dbe
000001f0: 5c78 c43d 2281 013e 2801 e3bd 6144 9a3d
00000200: d2ab e73e 3fb2 2dbe 7704 39be a14b b93e
00000210: 6bf6 76be 17fd 22bd 9456 82bd 08cb b33d
00000220: 8d8a 83bc 5e66 babe 46e1 03bd 8bcb 64bd
00000230: 1cea aabe 59ac 803e a188 6fbe d397 1ebe
00000240: 3359 3fbc 602c cebe 7256 853d a27a 0e3e
00000250: f2df f33b 3d7c 8f3e f3f3 8fbd 7c7b 0a3e
00000260: 13a6 6fbe 4262 363e f1b6 2fbe d2b6 8d3e
00000270: 1e0e 163d 275c 8a3d 73ee ab3c 1990 19be
00000280: c7bb 90bd 7c58 01be 6eed f2bd ce42 a03d
00000290: d71a c73d 1470 3d3e dbb3 e6bd 8640 10be
000002a0: c6b1 d1bd 9b6e 49be 1f8f 7bbc 8e57 c0bd
000002b0: cb89 e1bd f103 063e ba62 e73c bbfd 193e
000002c0: 89c2 d33c e42f b1bd c4fd 20be 3fe0 69bd
000002d0: a7f9 093e 96c5 7e3d 14f4 37bd 534d e73d
000002e0: da0b 4f3e 57b0 74bd 5b88 fcbd e446 77bd
000002f0: 37c2 a9bd fd4f 083d 7ee2 f43d 9665 ac3d
00000300: 1c2f 0d3f e6fb 86be 14c1 16be b86c b93e
00000310: e9e1 9bbe 89ea ebbd 988d ee3e 3897 10be
00000320: ee16 533e 5fd5 2ebf 3616 e83d 671e 263e
00000330: d065 b6be 5cb7 bb3c 9472 cd3d c0a4 a3bd
00000340: 828f 1ebe 88ed cebe c670 603e 2616 833e
00000350: 8453 343e c33d e23e 99b2 a13d eedb 9dbe
00000360: 6149 4dbe f4cd 72be c257 c83e 2237 2a3e
00000370: 477b 48be 8e8c dabe 92c6 103e a99d d53d
00000380: dfd3 b03e 2f92 93be 7785 2c3e 742d 46be
00000390: 57c4 383d 5ace fe3e ef44 1bbe ebba bbbe
000003a0: 68dc 95bd 171a e2bd 7a68 483f 97be 663e
000003b0: c841 123e d219 233f d70f a03d 7c39 9a3b
000003c0: 4eab 723d 7e79 9fbe 5585 4bbd 11e5 a3be
000003d0: 4119 90be e6ba fbbd adc4 03bf e882 213e
000003e0: 313f ddbe e598 533e 79f2 843c 1d27 b3bc
000003f0: 2fd1 89be 185e 143e 07bb 353e cb41 a53e
